models/ShallowFBCSPNet_persons2_lr0.0001_wd0.1_bs64_acc0.6781.pth (torch, 383684 bytes, 9 tensors)

conv_time_spat.conv_time.weight f4 [40, 1, 25, 1]
00000000: f324 883d 1962 7b3d 22b5 5cbd 0625 b23c
00000010: cfc5 6b3d 4b24 57bd be4f 91bd 7f19 a33c
00000020: 0888 483d 5cb6 773d 2a6f 513c a5ff 09bd
00000030: 1614 ab3c b5fe 9ebc 30bf 2fbc b212 6dbb
00000040: 35fb 3ebd 38c5 95bd 8eb3 8c3d 29b6 b8bc
00000050: da97 b6bc 495c 8d3d 6423 57bd f969 983d
00000060: 144c 903d db15 8cbc b043 32bd be52 9dbd
00000070: 9dd7 f03c dbc9 933c d13a cdbc a4b4 633c
00000080: 581a 0c3d 0cab da3c 6ac7 0cbc d5e3 323b
00000090: ea63 2d3d 2f5d 1cbd e1e4 9b3d ff53 b13c
000000a0: 5ce7 0cbd df1a 79bd 6ddf c43c bfd4 373d
000000b0: 02bd 223d 4f86 643d e6ba e33c b486 7ebd
000000c0: c255 37bd 5e0d 87bc 9781 ec3b a496 e3bc
000000d0: 15b4 e5bc ca93 9dbb 854b 593c d86f de3c
000000e0: 692e bf3c 533f a53c d5ea 51bd 9e15 46bd
000000f0: e34b 82bc c6bd ea3b 6444 503d 6c92 72bd
00000100: ce04 24bd a075 2c3c 00ba b7bc dab3 823c
00000110: a754 86bd 4aeb 20bc dc26 2cbd ef5d 933b
00000120: 6cae 91bd 608c 323d f841 8c3d 44dc f7bc
00000130: 6612 dcbc 8a22 753d 76eb 3abd b363 8fbd
00000140: 4bee 81bd ed7d ec3c cec8 f9bb 12b0 d93c
00000150: 75bb f1ba 02cd 78bd ad3b 29bd 56d3 f7bc
00000160: 5da0 68bd 4dcd 69bb 9b12 883c 65a4 44bb
00000170: 5fed 94bd 5c61 aa3c 6d98 3c3d aeef 843d
00000180: 0ae1 7c3d 4eb6 9dba 96e5 863d 5518 7e3c
00000190: 6a2d 643c 3481 4e3d 91f4 083d 20c6 65bb
000001a0: ecf4 9a3d e904 453c fd2a 713d 0328 913c
000001b0: 4915 bdbc 05b9 973d b9f6 28bc 0ef7 82bd
000001c0: 52bc 433d f6b4 0c3d 3eca cb39 d1d4 c0bb
000001d0: 42b7 3e38 657a 15bd 4fcb 8bbd 2744 9f3c
000001e0: cc5e e4bb 1dd5 53bd a8c3 9ebc f8e0 5e3d
000001f0: 1406 a33c aa45 7f3d d133 95bd 0dd4 a23c
00000200: c4a9 a13b 3308 863d 3580 2fbc 313d 5a3d
00000210: 913e e93b 08f5 023d ac18 47bd 2d20 fabc
00000220: 6e40 7bbd d106 453d 22bb 05bd 93ca 5dbd
00000230: db96 893d 656a 103d 575e 00bd b2e7 eabc
00000240: 150e 713c c7c5 403d 9a72 f7bc 255e 813d
00000250: 67e1 8f3d 1586 9a3a 6127 823b 7451 44bc
00000260: 10a1 973c 8d70 46bd 9232 153d bc6a 303c
00000270: b6a8 843d 9603 593d 2163 773d 60d4 123d
00000280: 2bfd c0bc c5ab 78bb 7c84 923d b0a4 05bd
00000290: b03a 943d 9245 04bd ec80 96bd 9433 143d
000002a0: 3323 693d 68be 55bd 8761 88bd 175d 06bd
000002b0: aa5e 82bd facf 073d ca18 7dbd 43f3 573d
000002c0: b15f d13c 5e68 823d 719f cf3c 3873 a3bc
000002d0: 8b17 18bc dd59 713d e6ba 553d 2885 1c3d
000002e0: 5564 1abc aef8 9ebd d353 b23c 6a86 7f3d
000002f0: 7c64 8fbc 042d 4b3d 53c8 88bc 2298 c53b
00000300: 4a6d 8abc cd81 9cbd 2192 94bc aef7 aebc
00000310: 8193 87bd ed65 593d 2d44 1f3c 0a62 57bd
00000320: 402c 2c3d 9378 973d 6835 8e3d c490 28bd
00000330: 815a 2b3d 67f3 4c3d a2c3 9a3d 9d4a 24bc
00000340: 771e 65bd 48bb 02bc a448 4c3d 6093 cb3c
00000350: 6842 fcbc 2a94 92bd 7516 f83c 551c 67bd
00000360: eefe 71bd 73fa ff3c f9b7 4abd 1c8b 8bbd
00000370: 2ae5 0c3c 0838 543d d60f 133d 46d9 4439
00000380: 378e 0bbd b9bd 463d b432 1b3d c671 5ebd
00000390: 3791 d2bc 6738 6b3c 2e31 803d be5a a5bc
000003a0: a79e 903c 31aa fcbc af83 453d 3f30 bd3c
000003b0: 4552 43bd a3c4 ad3b cca6 3039 3ef4 5ebc
000003c0: d7e3 d33c c7bb 523d a4db 88bb 7052 883c
000003d0: 81f9 8c3d ac76 403d 23b2 863d 119f 903b
000003e0: 3af9 383d 8adf 323c 78cc 4f3d c56b 583d
000003f0: 3f00 8c3d 2c38 683c b636 8c3d 4174 07bd
0.066476725 0.06137285 -0.05388368 0.02174617 0.05756169 -0.052524846 -0.07095288 0.019909618
0.048957855 0.060476646 0.012782851 -0.033691067 0.020883601 -0.019408563 -0.010726735 -0.0036174473
-0.04662629 -0.07313007 0.06870185 -0.022547798 -0.022289205 0.069023676 -0.052523986 0.07442088
0.07045761 -0.017100265 -0.043521583 -0.076817974 0.029399687 0.018040588 -0.02505246 0.013898049
0.03420481 0.02669289 -0.008592466 0.0027296443 0.042331614 -0.038174804 0.076120146 0.021646498
-0.03440033 -0.060816642 0.024032319 0.044880625 0.039731033 0.05579215 0.027799081 -0.06214018
-0.04475952 -0.016485866 0.0072175968 -0.027781792 -0.028039971 -0.0048088776 0.013262634 0.02715294
0.02333756 0.020171797 -0.051249344 -0.04836046 -0.015905326 0.007163736 0.050846472 -0.05922167
-0.040043645 0.010526091 -0.022427559 0.0159549 -0.06559115 -0.009821722 -0.042029247 0.0044972817
-0.071133465 0.043590903 0.0684852 -0.030256398 -0.026864242 0.059847392 -0.04563471 -0.07001438
-0.06344279 0.02886864 -0.0076228147 0.026573215 -0.0018442707 -0.060742386 -0.041316677 -0.03025214
-0.05679356 -0.0035675347 0.016610434 -0.0030005213 -0.072718374 0.020798378 0.046043802 0.06491028
0.06173805 -0.001203248 0.06586759 0.015508731 0.013926843 0.050416186 0.03343636 -0.0035060719
0.075662464 0.012025096 0.058878887 0.017719274 -0.023081439 0.074083365 -0.0103127295 -0.06394778
0.047787018 0.034352265 0.0003886986 -0.0058847447 4.5470202e-05 -0.036493678 -0.068258874 0.019441677
-0.0069693085 -0.051716913 -0.019380406 0.054413766 0.01990036 0.062322296 -0.07285274 0.019876504
0.0049335677 0.065445326 -0.010711719 0.053281013 0.007118054 0.03197196 -0.048607513 -0.03053292
-0.06134074 0.048102204 -0.032649167 -0.054148268 0.067182265 0.035257716 -0.03133997 -0.028674934
0.01471283 0.047063615 -0.030206013 0.06316785 0.07025414 0.0011789227 0.0039719795 -0.011982311
0.018509418 -0.04844718 0.03642518 0.010767635 0.064774916 0.052981935 0.06039727 0.035847068
-0.02355822 -0.003794418 0.07154176 -0.03262776 0.07237756 -0.03229291 -0.07348809 0.036182
0.056918334 -0.05218354 -0.06659227 -0.03280362 -0.06365712 0.033157326 -0.06179122 0.052722227
0.025558325 0.06367563 0.025344582 -0.019952402 -0.009282957 0.05892359 0.052180193 0.038212925
-0.009423335 -0.07762276 0.021768486 0.062384047 -0.01750397 0.049603477 -0.016697085 0.0060300985
-0.016897816 -0.07641945 -0.018136086 -0.021358337 -0.06619931 0.05307572 0.009720844 -0.05258373
0.042034388 0.073960446 0.0694378 -0.041153684 0.041834358 0.050036814 0.07556845 -0.010027555
-0.055937257 -0.007979222 0.049873963 0.024850547 -0.030793384 -0.07157166 0.030284146 -0.056423504
-0.05908101 0.031247353 -0.049491856 -0.068136424 0.008599559 0.051811248 0.035903774 0.00018772957
-0.034071174 0.048520777 0.03789015 -0.05430772 -0.02570401 0.014356709 0.0625938 -0.02018487
0.017653776 -0.030842872 0.048221286 0.023094295 -0.04768588 0.005302982 0.00016846805 -0.013608037
0.025865478 0.05144861 -0.004176574 0.016640872 0.068835266 0.046988174 0.06576946 0.0044134934
0.045159556 0.010917554 0.050732106 0.052837152 0.068359844 0.014173549 0.06846373 -0.033069853

conv_time_spat.conv_time.bias f4 [40]
00000000: 0b07 173b 7a12 d8ba 73a9 a93a c1bd 4e3b
00000010: 42fd 853b 025c 143b f356 2abb c84b 593b
00000020: 47b7 fb38 361d c7ba acf0 a039 6bfb dcb9
00000030: fbcd 353a 6cd4 5cba 484b 67ba cf3d 49bb
00000040: 7631 93bb 6479 81ba e110 d5ba 7dda 8b3b
00000050: 1032 ccba 3f0a 14ba 1e05 33bb 2d72 2f39
00000060: 76ab 6ebb 3cbe 8ebb bb02 16bb 1b01 75bb
00000070: 2c64 9b3b cc0b 27bb 50ef 15bb f74d 72bb
00000080: 7d65 79ba 6ca3 0dbb 3b1e 8e3a 5268 833a
00000090: 18a6 ce3a 71d0 60ba 41c3 48bb 6a52 c63a
0.002304497 -0.0016484999 0.0012944177 0.0031546208 0.0040890286 0.0022637849 -0.0025991767 0.0033156741
0.00012002751 -0.0015191201 0.00030696893 -0.0004214899 0.00069352955 -0.00084239873 -0.00088231685 -0.0030707007
-0.00449198 -0.0009878096 -0.0016255641 0.004267989 -0.0015578885 -0.0005647279 -0.0027316283 0.00016731834
-0.0036418117 -0.004356174 -0.002288981 -0.0037384692 0.004742166 -0.002548921 -0.0022878237 -0.003697274
-0.0009513719 -0.00216123 0.001084275 0.0010025597 0.0015766053 -0.0008575982 -0.0030633959 0.0015130762

conv_time_spat.conv_spat.weight f4 [40, 40, 1, 44]
00000000: fdde da3c 606e eb3b c1f6 eb3c 9a0b cabc
00000010: ad32 c03b 50db 68bc a536 b23b 0363 31ba
00000020: 90bb d6bc 8553 9abc a7c5 c43c 3d17 a23a
00000030: 7746 8a3c 3dc4 0abc 0dc9 a33b 7c8d 273d
00000040: 8176 223d 8cfd f93c 4799 eabb 783b 0bbc
00000050: e673 563c 6aab 4ebc 89f8 de3b d67f 23bd
00000060: d4ba d1bc a30d 0c3d f582 6ab8 7b11 76bc
00000070: efb0 11bd 4856 a8bc dd8e cb3b dae2 e83b
00000080: 7a20 a7bc f3dd 5d3c 5f9c a6bc b30b 97bb
00000090: 173f 193b 3a54 15bd ff55 9bbb 11cf 873a
000000a0: 2f7d e7bc 91fe c0bc 84a3 08bc caf7 e63c
000000b0: 9c76 933c 83be 8a3c 6705 633c f582 1fbd
000000c0: b340 e0ba e90a 8e3b e640 003d 1578 bc3c
000000d0: 4661 f93c d7e5 ac3c 4ccb e13b f09e 013d
000000e0: d234 f53b 6118 f43c a16b d1bb 42b7 c83a
000000f0: 7ca5 beb9 6b43 fb3c 2b6a f5ba 9bf7 2c3d
00000100: 119f 253b e7c2 133c d85b cc3c fac7 8b3c
00000110: e370 2c3c d97e 1a3d 9cb0 bc3c 9f3a 8e3c
00000120: 69a5 07bd 67d8 b8bc 48fb 29bd f075 5fbc
00000130: 9e74 43bb bbbd b8bc 1726 ef3b ba27 733c
00000140: 061d c13c a40f 1d3c a9e4 0b3d aca4 8a3c
00000150: 735e 273c 8bc9 00bc 5678 893b ae30 e83c
00000160: 8826 ee3c 5c68 05bd 39df 6abc 4743 413c
00000170: 3355 e9bc cc7f 11bd d46c 183d 14fb 3b39
00000180: b68e 92bb 2d02 0d3d 0f50 89bc a895 b5bc
00000190: c6b1 993c 1882 abba 4552 77bb 7dd8 3abc
000001a0: 330c d03c 6e10 34bb 449e 1fbd b31e 223d
000001b0: 9dc0 a6bb 9c84 8f3c fd1d e5bc ea25 093d
000001c0: 050e 87bb 254e 20bc 1046 23bd 6ac0 83bc
000001d0: e80e ac3c 558f c83c bd86 14bd e830 0e3d
000001e0: 5a68 e1bb 0f30 b03c bb22 61bc 9bfe 89bc
000001f0: fc27 0c3d 6e03 0e3c 70f0 233d 0fc0 233d
00000200: 3859 57bc 2b9e 0c3d bdf4 26bd 09ea df3b
00000210: f650 3ebc 5c9a 0cbd dc1c 1a3d df44 96bb
00000220: 1683 d7bc ba9d 9ebb c387 d33c 9523 05bd
00000230: e96c 1fbd e462 4bbc 7a36 373d 1b5f 02bd
00000240: fb69 92bb 0d53 fbbc dae1 133d 1e54 04bd
00000250: c4f9 be3c d13f 28bc f447 bb3c e529 0cbd
00000260: 6f39 efbc a863 44bc 8afb 05bd 3f4a 203d
00000270: 70cd 363d 3971 abbc 6dbe 013d 1a92 79bb
00000280: 7710 173d a602 ad3c 9465 413c 59ea 9dbc
00000290: dde0 913c 9494 13bd 93d6 013c 3a8f 6fbc
000002a0: 2c85 a7bc ec87 95bb 62ac c1bc feb9 9d3c
000002b0: e201 7c3c 6c73 a33c 817f fd3c f35b b93c
000002c0: fbc3 b93c 1b26 9dbc 6969 9ebc 5661 393b
000002d0: f60c e2b8 fefe 833b 43b7 a8bc 8e26 e83c
000002e0: 0215 01bd b00d 65bc de4f af3c d59b 03bc
000002f0: e08b dcbc e923 15bb 4a1b 96bc f2e8 1bbd
00000300: 51c4 873c c139 1c3d fbca ff3c 6a46 8b3c
00000310: 4c8c 9fbb 7ab3 b93c ec36 c5bc cc30 e5bc
00000320: 9d72 85bc a085 883c c498 89bc 46d6 ddbc
00000330: 9728 463c eca7 4fbc 8a6b 393d 0cdb e13c
00000340: e931 163d 288c 053d 62fe cfb9 107e 053d
00000350: c8bf 98bc 5e69 d13c a0b8 04bd 8ce9 2e3d
00000360: 6753 49bc 76ca 0cbd 2f24 0bbd b514 913c
00000370: 9667 0fbd 0801 0f3d b81f fe3c 9d07 69b9
00000380: a27c 813c e486 493c 2aaa ea3c 2671 4dbc
00000390: 4ea6 2bbc 6104 2ebc 2e1c ddbc 8c78 debc
000003a0: b79b b73c 7512 2c3c cfc2 973c d586 313a
000003b0: c140 f3bc 50cf 2cbc f412 983c 6f40 a53c
000003c0: 135e 273d 9489 8f3b bc1e eebc a75f 993b
000003d0: 1cfe 8bbb 76a7 0f3d ce02 473d 66d5 1f3d
000003e0: 708f e43c 4d75 0cbd 3918 aebc 04ef 8cbc
000003f0: de46 b3bc d9b1 f3bb 8982 05bd 0d02 fe3b
0.026717657 0.0071847886 0.028804185 -0.024663735 0.005865416 -0.014212444 0.005438643 -0.0006766768
-0.026212484 -0.018838653 0.02402003 0.0012366545 0.016879303 -0.008469638 0.0049983324 0.040906414
0.039663795 0.030516408 -0.0071593854 -0.008498065 0.013089156 -0.0126141105 0.00680453 -0.039916836
-0.025601782 0.034192692 -5.591191e-05 -0.015018816 -0.035569128 -0.020548955 0.006212099 0.007107121
-0.020401228 0.013541686 -0.020338235 -0.004609549 0.0023383552 -0.036457278 -0.004740476 0.0010361393
-0.028257934 -0.023558887 -0.008339766 0.028194327 0.018000893 0.016936546 0.0138562685 -0.03894325
-0.0017109126 0.0043347967 0.031311892 0.023006478 0.030441891 0.02110569 0.00689069 0.031645715
0.0074831033 0.029796781 -0.006391004 0.0015313404 -0.0003636292 0.030671796 -0.0018723657 0.042228322
0.0025271813 0.009018636 0.024946138 0.01706313 0.010524961 0.037718628 0.023033433 0.017361937
-0.03311673 -0.022564126 -0.041499406 -0.013638958 -0.0029824148 -0.022551408 0.007298242 0.0148410145
0.02357341 0.009586249 0.034153614 0.016924225 0.01021539 -0.007860552 0.0041952534 0.028343525
0.029071108 -0.032570228 -0.014335447 0.011795825 -0.028483009 -0.035522267 0.03721316 0.00017927244
-0.004472579 0.034425903 -0.016761808 -0.022166088 0.018761527 -0.0013085036 -0.0037738245 -0.011404154
0.025396442 -0.0027475613 -0.038969293 0.03958006 -0.0050888793 0.017519288 -0.027968401 0.033483423
-0.0041215443 -0.009784256 -0.03986174 -0.016082961 0.021003202 0.024482409 -0.03626131 0.03471461
-0.0068788948 0.021507291 -0.013741191 -0.016845038 0.03421782 0.00866781 0.04002422 0.039978083
-0.01314383 0.03433053 -0.040760744 0.006833319 -0.011615982 -0.034326896 0.03762518 -0.004585847
-0.026307624 -0.00484058 0.025821572 -0.032504637 -0.038922224 -0.012413714 0.044729687 -0.03182898
-0.0044682003 -0.03067925 0.03610406 -0.032306783 0.023312457 -0.010269121 0.022861458 -0.03421964
-0.029202191 -0.0119866505 -0.03271059 0.039133307 0.044629514 -0.020928012 0.031675745 -0.0038081468
0.036880936 0.021119427 0.011804003 -0.019276785 0.017807418 -0.036030367 0.007924694 -0.01462155
-0.020449243 -0.0045633223 -0.023641769 0.019253727 0.015381308 0.019952498 0.030944588 0.022626853
0.022676459 -0.01918321 -0.019337373 0.0028286777 -0.00010778934 0.0040282 -0.020595198 0.028338697
-0.031514175 -0.013980314 0.021400388 -0.008032759 -0.026922166 -0.0022757 -0.01832356 -0.03806395
0.016573103 0.038141016 0.031224718 0.01700135 -0.0048690196 0.022668589 -0.02407404 -0.02797737
-0.016290003 0.01666528 -0.016796477 -0.027079713 0.012094638 -0.012674313 0.045268573 0.02757027
0.03666869 0.032604367 -0.00039671647 0.032590926 -0.018646136 0.025562938 -0.032402635 0.042703196
-0.012287951 -0.03437277 -0.033970054 0.01771007 -0.035010897 0.034913093 0.031020984 -0.00022223448
0.0158065 0.012300227 0.028645594 -0.012539184 -0.010476662 -0.010621161 -0.026990976 -0.02715709
0.022413118 0.010502447 0.01852551 0.00067721057 -0.029693963 -0.010547474 0.018563725 0.020172326
0.0408612 0.0043804143 -0.02906739 0.004680592 -0.0042722356 0.035071813 0.04858666 0.039021872
0.027900428 -0.034291554 -0.021251785 -0.017203815 -0.021884378 -0.0074369726 -0.03259519 0.0077517093

bnorm.weight f4 [40]
00000000: 8377 7a3f 6150 813f d7aa 823f 99b6 7e3f
00000010: f61a 7c3f b787 7c3f a6b4 823f 9d3b 833f
00000020: c655 833f d3e4 7a3f 15c6 823f ddbf 7b3f
00000030: 6052 7c3f 33ab 813f d1fc 813f 4e1c 823f
00000040: 3d25 7e3f 3e7c 7b3f 4a4f 803f d9dc 813f
00000050: 6baa 813f 1400 793f b8e3 7a3f a751 823f
00000060: 4bf6 7e3f cb80 823f dc70 803f b513 7d3f
00000070: c1af 7a3f 939d 823f 4a39 823f ae08 823f
00000080: 5aa7 823f a888 813f 37d4 803f 8cf6 823f
00000090: aedb 813f 95ff 823f dca1 823f 83d7 813f
0.9783861 1.0102655 1.0208386 0.9949737 0.9847864 0.98644584 1.021138 1.0252568
1.0260551 0.9800541 1.02167 0.98339635 0.98563194 1.0130371 1.0155278 1.0164888
0.9927557 0.98236454 1.0024197 1.0145522 1.0130132 0.97265744 0.9800372 1.0181168
0.99594563 1.0195554 1.0034442 0.98858196 0.9792443 1.0204338 1.0173733 1.0158899
1.0207322 1.0119829 1.0064763 1.023149 1.0145166 1.0234247 1.0205646 1.0143894

bnorm.bias f4 [40]
00000000: 7c58 333b c409 55bc 4bd0 473c da2e 1cbc
00000010: 5a96 abbc 0e49 e6bc 1e3d 81bc 6a01 00bd
00000020: 2e8d 9e3b c6eb 883a 0dbc dabb 2182 0a3a
00000030: 2b8b cf3b c747 99bc 325f 873c 28dc d4bb
00000040: b66d 623c 60e5 ce3b 1c8e bf3b c889 84ba
00000050: 7d2d 44bc 87de 3ebc 0c3c 133c 3d29 043b
00000060: f32e afbb 7c75 9f3b 7064 1639 f814 133c
00000070: 7f9f 5ebc 3915 4cbc e094 35bc 41e4 6cbb
00000080: 33aa 7638 ce34 f43b 1f4e e03a 945f a03b
00000090: e7a2 86bc 1dba b83c 962c 9c3c a98e 49bb
0.0027365973 -0.013002817 0.012195657 -0.009532655 -0.020945717 -0.028111007 -0.015776213 -0.03125135
0.0048386073 0.0010446243 -0.0066752494 0.0005283673 0.006333729 -0.018710984 0.016524885 -0.006495971
0.013820102 0.0063139647 0.005845798 -0.0010111863 -0.011973736 -0.011649734 0.008986484 0.0020166181
-0.005346173 0.0048663 0.0001434253 0.008977167 -0.0135878315 -0.012456232 -0.011082858 -0.0036146792
5.880948e-05 0.007452584 0.0017113126 0.0048942063 -0.0164351 0.022549683 0.019064229 -0.0030755198

bnorm.running_mean f4 [40]
00000000: c09b f4bb b8de 2a39 b9df cc3b 3948 12bb
00000010: 6602 b73a 1271 ae39 d5c9 10bb 4007 aa3a
00000020: 03fc 8ebb de36 a5ba 385a 033b 1643 acba
00000030: c6a3 c23b 31f4 f33a a4db a53a 45fc 30bb
00000040: 82c6 36bb f7d3 3c3b 9cb2 a2bb f3fb 003b
00000050: 2750 1fbb 87a5 4e3b b857 bd3b 91f7 c43b
00000060: f12e 153b 0a58 a0bb 37b7 02ba 1ea3 8d39
00000070: 2345 dbb9 9af1 f6ba e7cd 243b 36b1 32bc
00000080: 7391 863b c278 483b 1962 a53a de18 a53a
00000090: 27f0 32bb 6362 9aba 05e9 163b af36 6dba
-0.007464856 0.00016295433 0.0062522558 -0.002232088 0.0013962507 0.0003327211 -0.0022092958 0.0012972131
-0.004363538 -0.0012604853 0.0020042788 -0.0013142552 0.0059399335 0.0018612203 0.0012653959 -0.0027005833
-0.0027889316 0.0028812864 -0.0049651396 0.0019681423 -0.002430925 0.0031531767 0.005778279 0.0060109575
0.0022763575 -0.0048933076 -0.00049864076 0.00027015147 -0.00041822446 -0.0018840313 0.0025147141 -0.010906508
0.0041066944 0.0030589555 0.0012617736 0.0012595912 -0.0027303786 -0.0011778589 0.0023027074 -0.0009048981

bnorm.running_var f4 [40]
00000000: 5e9d 4e38 8463 9039 2795 ac38 3b64 8739
00000010: 69be fe38 c335 7a38 e8ad 1d39 023f 1f39
00000020: fff3 0539 2a68 4138 8429 3239 5898 8238
00000030: 67b8 7d38 e238 1d39 6190 f638 5f6f de38
00000040: 7c21 0e39 1f4b 5d38 d401 cd38 ee26 8339
00000050: b6f5 4939 d458 3b38 70e7 8f38 9310 b439
00000060: 3519 0639 27c1 2639 5747 1539 2c58 fa38
00000070: feb2 c838 3564 a339 2756 3939 e592 0939
00000080: 7115 1839 ed00 3b39 d9f5 0639 c1a1 1239
00000090: 775a 2939 a70f 0239 c9a8 3f39 803d e238
4.9260787e-05 0.00027539965 8.229381e-05 0.00025823884 0.000121471305 5.9654714e-05 0.00015037472 0.00015186894
0.00012774764 4.6111796e-05 0.00016990869 6.227259e-05 6.049164e-05 0.00014993877 0.00011757087 0.000106065294
0.00013554649 5.2760468e-05 9.775502e-05 0.00025015272 0.00019260388 4.4667002e-05 6.86188e-05 0.00034344624
0.00012788626 0.00015902949 0.00014236323 0.00011937352 9.570083e-05 0.00031164443 0.00017675069 0.0001312006
0.00014503837 0.00017834055 0.00012870821 0.00013983903 0.00016150797 0.00012403597 0.00018278057 0.00010787975

final_layer.conv_classifier.weight f4 [4, 40, 144, 1]
00000000: 26d3 66bc dcac e03c 36eb 0dbc 77d4 983c
00000010: 2cab 243b 92fa 983c e1eb 7b3c 6f45 c33c
00000020: 3089 973c 894e 6c3c 4359 fc3c 49e0 82bc
00000030: b46b 9cbc fb48 003c bdf7 8cba 7ebc 183c
00000040: 2853 2cbc e722 20bc 4fcf 283c ee68 f53c
00000050: 663c a7bc 3478 ea3c 08a9 7c3c e719 fe3c
00000060: c8cf 8bbc d8ce 01bc 8037 04bb 1ad7 913c
00000070: fa19 b9bc e491 c9bb c2b8 ce3c 55da 2c3c
00000080: 52c4 973c 27ea 5ebc 5c56 913a 7616 17bc
00000090: 6b9b 22bc da13 713c fd18 823c bba4 ab3b
000000a0: 8574 2b3c b124 d8bc 8e35 b53c c130 57bc
000000b0: 7646 dfbc ecf7 b7bc 3cae 1dbc 4f66 9bbc
000000c0: 95d4 e2bc b809 c5bc 1a7c 0dbd 51fe cbbb
000000d0: de87 d6b9 23fc b7bc de4a f8bc 10aa 8f3c
000000e0: 764a a4bc 2987 803c ea9c bbbc 311e 29bd
000000f0: 5e8a 1cbd 04b5 cfbc d5e4 0cbd 548e 47bc
00000100: d526 d8bc f840 ddba e2e2 95bc 120e 283c
00000110: 9456 a7bc 983c 373c afc9 05bd 45c8 8dbc
00000120: 6e58 6dbc 4f81 b4bb 13b3 2ebc 651b d8bc
00000130: cd17 18bc 5120 b13c e89d f7bc 3bc1 debc
00000140: 78e0 c83b 581f 0abd e7c0 82bc a569 093c
00000150: 2b8d 913c 9286 3a3c ff71 51bc 2a25 b43c
00000160: 0895 86bc 3cce aebc 45c0 00bd b202 29bc
00000170: 7e1a 8a3c c277 85bb f350 b9bc c71c 823c
00000180: 586d 92bc a230 97bb 02bb b5bc bc5d a63b
00000190: 6118 e9bc b12b f8bc a7bf 9dbc 3093 d1ba
000001a0: f520 313c 9aa8 d33b 50de 5bbc ad04 dcbb
000001b0: 0368 d1bc c4d6 c9bb 454e cdbc ca7e 2abc
000001c0: c907 013c df47 b6bb 9f52 8abc 1ecb 09bc
000001d0: 1709 55bc f68e 6ab9 eaeb 66bc af77 1abd
000001e0: ee41 783c a4d4 e0bc 068e cebc a676 21bc
000001f0: 8096 d1bc f361 9ebc 25e9 ab3a 880e d2ba
00000200: ec3b 8fbc 2846 f4bc 1893 9ebc 6e97 31bc
00000210: 3718 60bc 453b 563c 60a3 66bb cfcd 96bc
00000220: d16f a8bc 2198 38bb b4cd e6bc a8d9 0c3c
00000230: ba0c f3bc b607 a9bc ba48 b3bb fa98 87bc
00000240: f581 1e3c b4fe fc3b dcaf d3bb b532 833c
00000250: 99c0 9939 f06f 9cbc f17a d4bc 6535 5b3c
00000260: 7bbf 663c 5b2b 8abc 1787 633c 868e c63c
00000270: 85c5 bf3c f167 f73a d5dd a6bc cb83 25bc
00000280: 22ee 43bb 20a2 ab3c c006 313c 9fd3 32bc
00000290: e9e4 8fbc 8ac6 6cbc c03c 4b3c 5b6b b73c
000002a0: a9e2 9d3c bc45 cc3c 98bd b2bc daee fc3b
000002b0: bf83 2dbb 41b7 d83b 43bd ec3c be2d 0d3b
000002c0: 06fe c4bb 2a2b c53c 352c 15bc ec9d 883b
000002d0: 4e2a 7fbb 8dc2 b9bc ba25 cb3c 46d6 db3c
000002e0: 6f41 b1bc fe08 c8ba c5d8 09bc 61ee 33bb
000002f0: 40a1 353c 9af1 bcbb 2a65 f3bc 1494 9fbc
00000300: a731 5c3c 1c60 c5bc 1ce0 abbc 7882 9abc
00000310: 99e3 5e3c 98b0 ea3c 567c f13c 634b e1bb
00000320: a633 64bc d584 383c 0966 b8bc 9d8a be3b
00000330: 1bfe 06bd c5b8 f5bb 90ea d53b 7e81 833c
00000340: 2f52 62bc 556e a73c cacd 62bc 4407 c8bc
00000350: 8e33 dfbc b301 60bb bd46 c4bc 2710 81bc
00000360: 7531 6ebc 1d8d 04bd e1f5 d03c 81dd b23b
00000370: 4b91 f2bb 614b c63c e57c 79bc e979 383c
00000380: cadd 9abc a567 d03c df22 85bc fb30 1c3c
00000390: ce67 a2bc 6b4a ec3c 56d6 053d 01f9 bfbc
000003a0: b35b c3bc 293a 98bc d5d3 81b9 3805 553c
000003b0: 3b62 923c b833 9b3c 6a59 f8bb a865 00bd
000003c0: 95ff 2ebb 3411 dcbc 01ad bcbc ae24 0fbb
000003d0: 221c aabc b64c 2abc c8ef 6f3c a68c eabc
000003e0: 8834 f7bb 1b0f 833b 7aa7 73bc 4833 943b
000003f0: 2a19 c83c 18d3 7abb 45e4 723c 7420 bbbc
-0.014088428 0.027426176 -0.008662036 0.018655999 0.002512644 0.018674169 0.015376062 0.02383682
0.018498033 0.014423021 0.030804282 -0.015976088 -0.019094326 0.0078299 -0.0010754984 0.009322284
-0.010517873 -0.009773946 0.0103033325 0.029957261 -0.020414542 0.02862177 0.01542116 0.03101821
-0.017066851 -0.007922851 -0.0020174682 0.017802764 -0.022595394 -0.0061514247 0.025234584 0.010550101
0.01852623 -0.013605631 0.0011088359 -0.009221664 -0.00992475 0.014714206 0.015881056 0.0052381433
0.010464792 -0.026384683 0.022120263 -0.013134182 -0.027255278 -0.022457086 -0.00962406 -0.018969683
-0.027689258 -0.024052486 -0.03454218 -0.0062253852 -0.0004091849 -0.022459095 -0.030309137 0.017537147
-0.020055037 0.01568945 -0.02290197 -0.04128856 -0.038217895 -0.02535487 -0.03439792 -0.01217993
-0.026385704 -0.0016880324 -0.018296663 0.010257261 -0.020427026 0.01118388 -0.032663044 -0.01730741
-0.014486415 -0.005508579 -0.010662812 -0.02638025 -0.009283018 0.021621855 -0.030226663 -0.027191749
0.0061302744 -0.033721298 -0.015961124 0.008387004 0.01776751 0.011384623 -0.012783526 0.021990377
-0.016428486 -0.021338575 -0.031433363 -0.010315584 0.016858336 -0.004073114 -0.022621607 0.015882863
-0.017874405 -0.004613952 -0.022183899 0.005077092 -0.028454008 -0.030294271 -0.019256426 -0.00159893
0.01081108 0.006459308 -0.013419703 -0.0067144246 -0.025562292 -0.0061596353 -0.025061736 -0.010406205
0.007875391 -0.005562767 -0.0168851 -0.008410243 -0.0130026555 -0.00022369236 -0.014094332 -0.037711795
0.015152438 -0.027445145 -0.025214206 -0.009854948 -0.02558446 -0.019333815 0.0013115747 -0.0016026059
-0.017484628 -0.02981861 -0.01935725 -0.010839326 -0.013677648 0.013075654 -0.0035192594 -0.018408684
-0.02056113 -0.0028166848 -0.028174259 0.008596815 -0.029669154 -0.02063356 -0.005471316 -0.016552437
0.009674539 0.0077207927 -0.006460173 0.01601539 0.0002932593 -0.019096345 -0.02593753 0.0133794295
0.014083738 -0.016866377 0.013887188 0.024237882 0.023409614 0.0018875581 -0.02036945 -0.010102223
-0.0029896577 0.02095133 0.010804832 -0.010914712 -0.017565208 -0.014451632 0.012404621 0.022390058
0.019273119 0.024935596 -0.021818921 0.007718903 -0.0026476232 0.0066136424 0.02889884 0.0021542157
-0.0060117273 0.024068434 -0.009104778 0.0041692164 -0.0038935128 -0.022675777 0.024798263 0.026835572
-0.021637646 -0.0015261469 -0.008413498 -0.0027455317 0.011085808 -0.005766106 -0.029711325 -0.019479789
0.013439572 -0.02409368 -0.020980887 -0.01886104 0.013604068 0.02864866 0.029478233 -0.006875442
-0.01392833 0.011262138 -0.022509592 0.005814864 -0.032957178 -0.007498833 0.006528206 0.016052958
-0.013813539 0.020438353 -0.013843009 -0.024417527 -0.027246263 -0.00341807 -0.023959512 -0.015754772
-0.014538159 -0.03236114 0.02550787 0.005458534 -0.007402574 0.024205865 -0.015227531 0.011259534
-0.018904585 0.025440047 -0.01625198 0.009533162 -0.019824889 0.028844079 0.03267511 -0.023434164
-0.023847437 -0.01858242 -0.00024762625 0.0130017325 0.017869106 0.01894556 -0.0075790184 -0.031346947
-0.0026702632 -0.026863672 -0.023031713 -0.002184193 -0.020765368 -0.010394266 0.014644571 -0.02863152
-0.007544104 0.0039996034 -0.0148714725 0.0045227148 0.024426062 -0.0038272794 0.0148249315 -0.022842623

final_layer.conv_classifier.bias f4 [4]
00000000: e721 2b3c a140 77bc 0c1b 943c fd3e 14bc
0.010445095 -0.015091092 0.018079303 -0.009048221
