models/ShallowFBCSPNet_persons8_lr0.01_wd0.1_bs64_acc0.4313.pth (torch, 383656 bytes, 9 tensors)

conv_time_spat.conv_time.weight f4 [40, 1, 25, 1]
00000000: 9319 87bd b351 93bd 15b5 8bbd cb24 55bd
00000010: 84cd 94bd b17c 81bd 2db9 43bb ccc5 7a3d
00000020: 3cfb 133e 417d 6c3e 8367 823e 4386 963e
00000030: 912f 743e eec1 b93d 150a e9bc 4922 39be
00000040: 256c 78be b68b 97be 1fa6 89be d85b 65be
00000050: 279e 00be ea95 b8bd 4586 d9bc 1fb7 183d
00000060: 4138 733d 7842 1d3e b30e bd3d 4db5 393d
00000070: d9ac a03c 65c7 09bd ebc4 8dbd f3e9 ebbd
00000080: f9fd 71bd 7bc4 12bd 57c0 ae3c e558 a63d
00000090: 8a50 c93d a26c 983d 4940 283d 2bb4 88bc
000000a0: 8bc5 c8bc d2c2 94bd ec5d c7bd 3134 65bd
000000b0: ad74 1cbd 78db 6c3c b010 3b3d 29fc 433d
000000c0: 996a 5e3d b2b4 243b fe83 c5bd 3e3e dfbd
000000d0: 88b2 13be 77f5 ecbd 434b eabd 74e1 a4bd
000000e0: 24a4 c4bc 29d2 4a3d bc61 263e 8505 673e
000000f0: 9bc5 8c3e 6fec 973e 6f95 813e b30c 193e
00000100: 4f8f 0d3c 004e c8bd 928c 0ebe 4842 3bbe
00000110: 7297 38be e463 0fbe 4d5d d6bd 72a6 8abd
00000120: 5983 dfbc 7b30 18ba a7c4 373c fbc0 81bd
00000130: 789e 86bd 4e44 76bd 4b30 12bd 0921 00bb
00000140: 00e1 80bb aab7 babb 4c35 91bc 02c8 80bd
00000150: 9798 ecbd bf50 28be 72d3 1abe c18e e4bd
00000160: 0f2d a5bd ba13 48bd 056c 813c 075f b13c
00000170: 6599 633d 1243 a13d 6c57 b73d 90c0 153d
00000180: 3aa7 0a3d 5b21 023d 5271 08bd 329e d2bc
00000190: 7757 ce3d 4698 c23d 51bd b33d 0107 eb3d
000001a0: a650 a83d 2102 a03c 9d44 d2bc 7871 a7bd
000001b0: 5418 0dbe 77d3 21be 353e 7abe 1a29 5bbe
000001c0: 570e 53be b385 14be 554d 26bc e4dd 7e3d
000001d0: ec88 313e 3561 603e 49dc 553e 11f5 633e
000001e0: b0eb 243e a7bd d43d d3c0 ca3c bc21 cdb8
000001f0: 6c7a 48bd 8604 f0bc 4a56 abbb 275c ccbc
00000200: cc16 083d 1e1b 033d 8798 c93d a9e8 6d3d
00000210: a103 833c 8592 21bd 0107 a4bd 7a30 02be
00000220: 5ba6 02be 7c92 d2bd 6032 18bd 7f98 17bc
00000230: 7e9b 183d 9b00 823d 0d07 1e3d 707a 9b3c
00000240: c39c 2bbc a4e7 08bc 1bc0 76bd f604 36bd
00000250: e873 47bd 4010 a03a e278 3dbd f421 38bc
00000260: a606 a63c f64f f33d 35a2 113e 0ec1 4d3e
00000270: fdaa 173e 6c7f 933d e0ef a3bc 8cb7 09be
00000280: 788b 4bbe ec0c 40be 8a27 29be 573e a8bd
00000290: 2546 ddbc 50f6 403d 6c39 343d 5005 a33d
000002a0: b241 f73c afc2 e4bb 8746 eabc 68e6 b3bd
000002b0: 895c a0bd c1cf e0bc 4d97 08bd 2022 ff3c
000002c0: 6b02 183d 5bc0 7a3d c76e 8e3d b486 273d
000002d0: 0dbe 023d 7b6a b43d 0c08 283d 702d b83d
000002e0: 4bf9 a03d 494c 143d d0aa 083d 11f8 643b
000002f0: 0480 10bd 5856 92bc 7cb9 f1bc 8682 81bd
00000300: c9c9 b5bc b360 11bd 5de8 3cbc 283a 223d
00000310: bd30 b3bc 79f1 b63c 2df3 8d3c 7cfb b7b9
00000320: c121 52be ae5a b4bd 2e80 28bd c4e0 e4bc
00000330: c9f5 c33d 51e4 ee3d 4848 3b3e 8ca5 233e
00000340: db9c 273e a8b1 a13d e056 f93c 2f57 d13c
00000350: f94d 4dbd 12bc 46bb 3b7c aa3c 99c8 9e3c
00000360: b3cd b03d 0dce a23c 9961 a43c 2905 81bd
00000370: fe20 09be 8d26 41be d589 1ebe bfff 0fbe
00000380: 2f2a f9bd 28a0 e1bc 5d7b c4ba 0426 a53b
00000390: 91b6 8fbb 45f0 ae3c e30c 3f3b 4b68 20bd
000003a0: 15ac 66bd 23d8 edbd 21bc 18be 123a 2cbe
000003b0: 818a 26be d51c 0dbe ab6e 91bd 80a3 e7bc
000003c0: b947 f53c d7f5 863d 68be 603d ec55 903d
000003d0: d335 833d db35 423d 08ce c1bc 5d2a 30bd
000003e0: ea3f 54bd a26e 33bd 4a6f 97bd 5db5 b5bd
000003f0: 8b3d eebd be6a 0ebe dcfc 01be aacb c3bd
-0.06596675 -0.07193317 -0.06821648 -0.05203704 -0.072657615 -0.06322611 -0.0029865012 0.06122379
0.14451307 0.23094656 0.25469598 0.2939931 0.2384627 0.09070192 -0.02844719 -0.18079485
-0.24260004 -0.29598778 -0.26884553 -0.22398317 -0.1256033 -0.09012969 -0.026553283 0.037284013
0.05937982 0.15357387 0.09231319 0.045338918 0.01961367 -0.033637423 -0.06922325 -0.11519232
-0.059080098 -0.03583191 0.02133195 0.08122424 0.09829815 0.07442595 0.041076932 -0.016687473
-0.024508258 -0.072637215 -0.09734711 -0.055957977 -0.03819721 0.014456622 0.04567021 0.0478479
0.05430088 0.0025132117 -0.09644316 -0.10900544 -0.14423573 -0.11570256 -0.11440136 -0.08050814
-0.02400405 0.04951683 0.1624822 0.225607 0.2749451 0.29672572 0.2530932 0.1494625
0.008640124 -0.09780502 -0.13920811 -0.18287003 -0.18026522 -0.14002949 -0.104670145 -0.06770028
-0.027284311 -0.0005805564 0.011216319 -0.06335636 -0.06573194 -0.060123734 -0.035690587 -0.001955094
-0.003933072 -0.005698164 -0.01772561 -0.062881485 -0.11552542 -0.16437052 -0.15119722 -0.11160041
-0.08065235 -0.048846938 0.015798578 0.021651758 0.05556621 0.07874121 0.08952221 0.036560595
0.033850886 0.03177009 -0.033311196 -0.025710199 0.10075276 0.095017 0.087763436 0.11475945
0.082185075 0.019532265 -0.025667483 -0.08175939 -0.13778812 -0.15803324 -0.24437793 -0.21402398
-0.20610939 -0.14504127 -0.010150273 0.06222333 0.17337388 0.21912082 0.20884813 0.22261454
0.16105533 0.10387736 0.024750149 -9.781445e-05 -0.048944876 -0.029299032 -0.0052287923 -0.024946285
0.033224866 0.032008283 0.098435454 0.05808321 0.015992941 -0.039446373 -0.080091484 -0.12713805
-0.12758772 -0.10281846 -0.037157416 -0.0092526665 0.037257664 0.06347772 0.038580943 0.018979281
-0.010474387 -0.008356009 -0.0602418 -0.044438325 -0.04869452 0.0012211874 -0.04625786 -0.011238564
0.020266842 0.11880486 0.14222033 0.20093176 0.1481132 0.07202038 -0.020011842 -0.13448924
-0.19877422 -0.1875493 -0.16518989 -0.082150154 -0.027010987 0.047109902 0.044000074 0.07959998
0.030182693 -0.006981216 -0.028598083 -0.08784181 -0.0783015 -0.027442815 -0.033347417 0.031144202
0.03711168 0.0612186 0.06954723 0.040899947 0.031919528 0.08809372 0.0410233 0.089930415
0.07860049 0.036205564 0.033366024 0.0034937898 -0.035278335 -0.017863438 -0.029507391 -0.063237235
-0.022190945 -0.03549261 -0.011530009 0.039606243 -0.021873826 0.02233194 0.01732787 -0.0003509185
-0.20520689 -0.08806358 -0.041137867 -0.027939208 0.09568364 0.11664642 0.18289292 0.1598112
0.1636843 0.07895213 0.030436933 0.025554268 -0.05012319 -0.00303245 0.02081119 0.019382762
0.08632984 0.019873643 0.02006607 -0.06299812 -0.13391492 -0.18862362 -0.15482266 -0.14062403
-0.12166249 -0.027542189 -0.0014990378 0.005039932 -0.0043857773 0.021354804 0.0029151968 -0.03916196
-0.056316454 -0.116134904 -0.14915515 -0.16819027 -0.16263773 -0.1378053 -0.07101186 -0.028276205
0.029941427 0.06589859 0.054869086 0.07047638 0.064067505 0.04741464 -0.023657814 -0.04300915
-0.051818766 -0.04380668 -0.073942736 -0.08872483 -0.11632832 -0.13907906 -0.12694114 -0.0956033

conv_time_spat.conv_time.bias f4 [40]
00000000: c0df 1f3f 9dbc f43e 952d 253f 1a68 c1be
00000010: ae5f 20bf 4008 f9be c8fd 13bf 5685 73be
00000020: 9eba 0ebf 4e5a 00bf 3e7c 163f 2938 f13e
00000030: 840d a9be 19ae b8be 478c 023f 6626 80be
00000040: 2817 543e 709e 7bbe d917 cc3e d642 163f
00000050: 370f 113f 6ea5 013e 64e7 c83c eb5d 0e3f
00000060: 137e 00bf 84b3 c6be de59 213f 21db f93e
00000070: 486c 113f eafc 273f b92d b03d 2615 02bf
00000080: e043 533e 4977 9bbe c2d5 de3e 6791 da3e
00000090: b5f7 073f 5738 1cbf 57f9 27bf 21d1 ff3c
0.6245079 0.4780015 0.6452268 -0.37774736 -0.62645996 -0.48639107 -0.57809114 -0.23781332
-0.55753505 -0.50137794 0.5878333 0.4711316 -0.33018124 -0.36070326 0.50995296 -0.25029296
0.20711958 -0.24572158 0.39861944 0.58695734 0.5666384 0.12660763 0.024524398 0.5561206
-0.50192374 -0.38808835 0.6302775 0.48799995 0.5680585 0.6562029 0.08602471 -0.5081352
0.20631361 -0.30364445 0.4352246 0.42689058 0.53112346 -0.6102347 -0.6561484 0.03122765

conv_time_spat.conv_spat.weight f4 [40, 40, 1, 44]
00000000: d8f8 0b3e 652f c63d 9da7 913d 2718 01bd
00000010: 793f b93b 34fc 1dbd 3e66 90bd 67f9 9abd
00000020: 6973 f4bd 959a 203e c7e5 67bd f4fb 543d
00000030: 6890 e83b 8988 8bba 0602 033c ee8b 80be
00000040: ad3a c83c 8213 d8bd f9db 95bd 74f3 4c3d
00000050: 8f9c c33e 998f 423d 7967 163e a231 20bc
00000060: e09d a33d 680a dabd 2f18 403d bd2d 5c3e
00000070: 738b 883c a729 083e 309b c33d f91f 583e
00000080: b69d 0e3d 788a 6b3d 42e9 683e 15d1 a93e
00000090: 59e7 4c3d d627 033e b1a7 653e 1ab5 213e
000000a0: 5966 053b 38a7 cabd d338 163e d6af 403e
000000b0: f5ab 10bc bacd 0a3d d322 0b3c f8a0 e8bb
000000c0: 8774 61bd 1269 a939 a9b8 78bb be07 35bd
000000d0: ffec 8fbd dd3a aa3d 3c84 babc 7674 163d
000000e0: 7a7d 823d 68b1 fabb d004 1bbd d42a 97bd
000000f0: 56f8 c1ba a2e3 38bc c6cc a6bd ffa0 a53b
00000100: 2dde 323d 546b a93d b112 d43d 27f1 5e3d
00000110: a42c 903c b74b 65bc e62b 083e 484b 113e
00000120: 2a35 44ba 2b1c fabc eb73 1bbc bcdc dc3d
00000130: c209 4a3d e166 a83c 386e 7c3d 2d5b 133e
00000140: 6a3c c33d d1cf be3d f53e f73d b8c1 fa3d
00000150: 51be 9cbc 24a6 5bbd 85c1 203c 1065 cc3c
00000160: 9c7c 8c3c bf03 fd3d 9f3e b93d 3a43 9dbc
00000170: 89db 023d 8e18 c93c de64 d0bd 910f 04bd
00000180: 5996 85bd a090 983d 2b3e d2bc db4a d93d
00000190: 6544 dc3c 4d4b 57bd 1152 783d 568c d4bd
000001a0: 7967 8a3c c2db 63bd 10d3 a3bd 07fb 923d
000001b0: 6083 653e 360e bc3c 3514 8e3d e05e 37bb
000001c0: 4bf4 b6bc df16 13bd 45b7 ce3d 92b9 2f3e
000001d0: 181d 5ebb 1006 093e bb9b 8a3d 75a0 013e
000001e0: 9a82 aebd 216d b0bc dd2d a43d 5ad9 213e
000001f0: ddc5 2d3d 7a28 d53d 4328 573e b27f 0d3e
00000200: fa8d 04bd 1bca 3abd 8945 2b3d 8036 843c
00000210: 2374 83bc 0a8b bdbd 8832 40bd 62d7 84bd
00000220: 5510 173c 1879 5fb7 a3f4 bc3c fc23 353d
00000230: 5c5b a63d 5915 e4bd f245 a8bc e589 c3bd
00000240: 295f 85bd 9838 b33c 197b 43bd d378 b23d
00000250: 9406 98bd 040f adbb d3a9 d63d 0f38 53bd
00000260: 4689 e4bd 7003 6abd 8409 18bd 1805 2ebb
00000270: bc32 ca3c a36c 1a3d 7f31 60bd bae1 23be
00000280: 184f 683b 8e2e 08bd cef3 223d 7f4a d9bd
00000290: 03a8 d63c 0f5c 173d b8f8 0d3d ad1f debd
000002a0: b915 4fbd 4adc 8fbd 4298 2cbe e37a 12be
000002b0: 0e68 fa3d a7da 413e 1653 0f3c 2f74 9d3d
000002c0: a088 e4bd dd89 05be 900b c4bd fe37 adb9
000002d0: d581 07bd 4a6d 213d c997 ac3d 60be 0d3d
000002e0: ce8d ad3d e885 11be 29bf 033d e0fa cfbd
000002f0: b10c 1cbc 3b27 f53c fe77 94bd 271a 583e
00000300: 4726 25bd 1051 453d e018 a23d 88f7 8abd
00000310: b924 bdbe c09d 27bc f330 c4bd a074 e23c
00000320: 3f86 6ebd bf6d b23d eb19 61bd c735 44be
00000330: 446d d7bc 88ad 10be 7374 2dbd fcde 26be
00000340: 31e7 3d3c f8eb 84bd c8b5 41be 7a47 80be
00000350: ee97 d8bc 0487 f6bd 36b8 7ebe 63e8 1cbe
00000360: 0532 93bc b247 e73d 2a54 c3bd 08cd fdbd
00000370: adab 2f3d 3939 ccbd b47a d9bd 580e 09bc
00000380: 7024 32bd c9e7 b9bd d3bc 0c3d 55a2 053c
00000390: 4ce3 00bd 3684 fcbc e4e8 97bd a0de 02be
000003a0: dad1 cfbd b0b7 913c 5865 80bd a103 95bd
000003b0: 690f b9bc af7b a1bb 868d b03c 90bf a5bd
000003c0: 8d44 58bc a8f3 4fbd 9aca 1fbd 62a3 1e3c
000003d0: 8032 623d 5537 1dbc 7a99 e0bd be8f 90bd
000003e0: c281 6a3d 9e92 4c3d 5848 13bd e8b7 cebc
000003f0: 9a48 cb3d 9bf2 763d 3ce9 9d3d 23d8 7b3c
0.13669145 0.096770085 0.07112048 -0.031517174 0.0056533185 -0.038570598 -0.07050751 -0.07567101
-0.11936075 0.15683968 -0.056615617 0.051998094 0.0070972927 -0.0010645549 0.007996088 -0.25106758
0.024442041 -0.10550596 -0.07317347 0.050036862 0.38205382 0.047500227 0.14687909 -0.009777458
0.07989097 -0.10646516 0.046898063 0.21501823 0.016668057 0.13297139 0.09551084 0.21105947
0.034818374 0.0575051 0.22745231 0.3316733 0.050025318 0.12808165 0.2242725 0.15791741
0.0020355193 -0.09895176 0.14670114 0.18817076 -0.00883006 0.033887602 0.008492189 -0.007099267
-0.05504277 0.00032312475 -0.0037951863 -0.044196837 -0.07027625 0.083120085 -0.022768132 0.03673216
0.06371589 -0.007650543 -0.037846386 -0.07381216 -0.0014798741 -0.011284741 -0.08144526 0.0050545926
0.043668915 0.08272424 0.103551276 0.0544292 0.017599411 -0.013995103 0.13297996 0.14188874
-0.00074847287 -0.03053101 -0.009488086 0.10784289 0.049325712 0.020556869 0.06162855 0.1439025
0.095330074 0.093169816 0.12072555 0.1224398 -0.019133719 -0.05362524 0.009811764 0.024950534
0.017149262 0.1235423 0.09045147 -0.019197095 0.031947646 0.024547841 -0.10175489 -0.032241408
-0.06522817 0.0744946 -0.02566441 0.10609981 0.026888082 -0.052562047 0.06062514 -0.103783295
0.016895043 -0.0556295 -0.07999241 0.07176786 0.22413397 0.022955995 0.06937448 -0.0027980134
-0.022333285 -0.035910483 0.1009355 0.17160633 -0.0033891853 0.13381219 0.067679845 0.12658866
-0.08521004 -0.021536412 0.0801656 0.1580557 0.042425025 0.10408111 0.21011452 0.13818243
-0.032361962 -0.0456029 0.04181436 0.016139269 -0.01604659 -0.09255035 -0.04692319 -0.064863935
0.009220202 -1.332003e-05 0.02306587 0.04422377 0.08122894 -0.11136884 -0.020541165 -0.09547786
-0.06512291 0.021877572 -0.047724817 0.08714452 -0.0742313 -0.005281331 0.1048161 -0.051567134
-0.11158995 -0.057132185 -0.03711845 -0.002655333 0.024682395 0.03770126 -0.054734703 -0.16004077
0.0035447534 -0.033247523 0.03978329 -0.10609912 0.026203161 0.03695303 0.034661025 -0.108458854
-0.050557826 -0.07024439 -0.16854957 -0.1430469 0.12226878 0.18931065 0.008747837 0.07688176
-0.11158872 -0.13040872 -0.09572518 -0.0003303885 -0.0330828 0.039410867 0.08427388 0.034605384
0.08474313 -0.14211237 0.032164726 -0.101552725 -0.00952451 0.029925933 -0.07249449 0.21103726
-0.040319707 0.04817301 0.07914901 -0.06785494 -0.3694208 -0.010230482 -0.09579649 0.027643502
-0.058233496 0.08712339 -0.054956358 -0.1916114 -0.02629722 -0.14128697 -0.042347383 -0.16296
0.011590765 -0.0649032 -0.18917 -0.25054532 -0.026439633 -0.12037471 -0.24874958 -0.15323023
-0.017968187 0.11292972 -0.095375374 -0.12392622 0.042888332 -0.09971852 -0.10619107 -0.008365236
-0.04349178 -0.09077413 0.034359764 0.008156379 -0.031466767 -0.030824762 -0.07417467 -0.12780237
-0.10147448 0.017787784 -0.0626933 -0.07276083 -0.022590356 -0.0049280743 0.021551859 -0.08093178
-0.0131999375 -0.050769478 -0.039011575 0.009682508 0.05522394 -0.009595712 -0.10966773 -0.07058667
0.057252653 0.049944513 -0.035957664 -0.025234178 0.09925957 0.06028996 0.077105016 0.015371355

bnorm.weight f4 [40]
00000000: 6967 073f c05c 033f a567 123f f56e f83e
00000010: 6b92 573f b33f 283f a124 303f e139 1e3f
00000020: af82 393f 1196 203f 3287 fc3e f934 133f
00000030: 578d 5e3f ba29 f83e ddd1 1e3f 2601 1b3f
00000040: c3ea f43e 1b99 0d3f 4d9a d33e e3aa 253f
00000050: ec9c 503f 6cbe 113f 9ce7 2a3f 97af 643f
00000060: 4941 023f d570 e53e b746 383f d401 413f
00000070: dac6 0d3f 3fd9 ff3e 8825 1f3f 84ae 2a3f
00000080: 1307 183f 5f08 313f 4b37 173f 7532 123f
00000090: 2b48 123f 50b2 133f f67e 2a3f 5bb1 503f
0.52892166 0.513134 0.571894 0.48522153 0.8420779 0.657222 0.6880589 0.61807066
0.7246503 0.62728983 0.49321896 0.57502705 0.8693442 0.48469335 0.62038976 0.6054863
0.4783536 0.55311745 0.4132866 0.6471388 0.81489444 0.56931186 0.6675966 0.8933043
0.5088087 0.44812647 0.719829 0.75393414 0.5538155 0.49970433 0.62166643 0.6667254
0.59385794 0.691534 0.59068745 0.5710824 0.5714137 0.5769396 0.66599977 0.8152062

bnorm.bias f4 [40]
00000000: 5389 573f 15eb 68bf 626f 5cbf 343b 6b3f
00000010: c747 2abf 985e 42bf 6093 443f 295f 473f
00000020: 014f 44bf 70a5 46bf 17d7 613f 9f75 5b3f
00000030: dea1 2e3f 96e8 663f 2807 57bf 46ec 55bf
00000040: 3e0f 60bf 974f 583f b356 6cbf 4e88 363f
00000050: 29bc 263f 83ca 583f 750a 4fbf 2a46 283f
00000060: 806b 573f 57a9 63bf 6d03 3cbf a0a5 39bf
00000070: f5e8 5bbf e9e6 623f 1ce5 4f3f 23fd 45bf
00000080: 1741 5abf 8bd9 42bf a292 5a3f 6d4f 593f
00000090: f9fa 53bf 7109 57bf a7a9 413f 1f1e 31bf
0.84193915 -0.90983707 -0.86107457 0.9188721 -0.66515774 -0.7592559 0.76787376 0.7787958
-0.7668305 -0.7759619 0.88218826 0.8572635 0.6821574 0.9019865 -0.83995295 -0.8356365
-0.8752326 0.84496444 -0.9231979 0.71301734 0.6513086 0.8468401 -0.8087533 0.6573206
0.84148407 -0.8893027 -0.7344273 -0.7251835 -0.8590234 0.8863359 0.8120897 -0.7733938
-0.8525557 -0.76113194 0.85379994 0.8488682 -0.8280483 -0.8399878 0.75649494 -0.69186586

bnorm.running_mean f4 [40]
00000000: 3cb6 be41 e40d 3cc1 ab10 4041 f273 ea40
00000010: cafe 1a41 0dd7 ea40 5313 9f40 b60f c0c0
00000020: 562f 6f41 0389 e041 64a8 fd41 6856 0a42
00000030: 1d6f 0141 97d7 b341 35e0 ddc0 7a3f c5c0
00000040: 8b10 68c1 82cf b5c1 0f26 3ac1 ace6 a541
00000050: 2b69 e9c0 adee f9c1 fb79 11c0 8975 08be
00000060: 6680 abc1 9339 0dc1 88c7 8dc1 665c 2041
00000070: 889f 963f 5f44 2e41 74d2 9cc0 1c9f 1541
00000080: 5b36 8641 9af1 f540 236e 5f41 8448 dbc1
00000090: 056d acbf e101 5bc2 9654 b9c0 70e5 8642
23.838982 -11.753391 12.004069 7.3266535 9.687204 7.3387513 4.971109 -6.001918
14.949057 28.0669 31.707222 34.58438 8.089627 22.480268 -6.933619 -6.1639986
-14.504039 -22.726322 -11.634292 20.737633 -7.294088 -31.24154 -2.27307 -0.13326086
-21.437695 -8.826556 -17.722427 10.022558 1.1767435 10.891692 -4.90069 9.351345
16.77654 7.6857424 13.964389 -27.410408 -1.347077 -54.751835 -5.7915754 67.44812

bnorm.running_var f4 [40]
00000000: 3243 8e3f 6f61 3b3f b4c8 333f 757d 463f
00000010: 9b64 a83f d2ad 873f 8dd4 a03f 2ff9 4e3f
00000020: 94b6 5a3f bd50 5e3f 7c1e 393f 6c7d 013f
00000030: ff52 f43f 6806 b33f 32ce de3e d92e 2a3f
00000040: 8e88 f63e a0f1 2b3f 8620 f83e d515 9d3f
00000050: fcd9 b33f 7aae 293f 7988 1f3f 4537 8c3f
00000060: ae77 0b3f c86e 103f cbb4 133f aded 5c3f
00000070: c3ce bd3e 4bb4 5c3f 82da 2e3f 6751 a73f
00000080: a5be 863f 710a b53f a9a9 4b3f 4ad3 613f
00000090: 1eb3 fd3e f877 3d3f 8dbb 033f aa76 503f
1.1114256 0.73195547 0.70228124 0.7753518 1.3155702 1.0599921 1.2564865 0.80848974
0.8543484 0.86841947 0.7231214 0.50582004 1.9087828 1.398633 0.4351669 0.66477734
0.48151058 0.67165565 0.48462313 1.2272288 1.4050899 0.66281855 0.62317616 1.0954367
0.5447949 0.5641904 0.57697743 0.86300164 0.3707181 0.86212605 0.68302166 1.3071717
1.052693 1.4143811 0.79555756 0.88213027 0.49550718 0.7401118 0.51458055 0.81431067

final_layer.conv_classifier.weight f4 [4, 40, 144, 1]
00000000: 2f91 633c 6357 883d 8140 063d 921d 253d
00000010: c228 9abd 1db7 8e3d 90d5 2b3d 3faf 95bc
00000020: 916e c13d cdce f2bc 9b3f d9bc de47 723b
00000030: 7e59 eebc d52e a23d d616 293d 6b9b 1e3d
00000040: 8cff 47bc 96ae 26bd a2f5 293d 0651 55bd
00000050: e4c1 02be 1793 663d 946c e53c 8641 4f3d
00000060: 1d2b 0d3c 8afa 813c a4e0 14bd 4db8 d23c
00000070: 7b9a 973c 6b1a 333d e78b 8c3d 9b70 f43c
00000080: 8213 51bd 546e 7fbd 91f5 aabd 4afd e0bd
00000090: 924d 72bd 76e3 a3bd 8e46 9abd cb83 90bd
000000a0: 0ee9 3bbd 4059 22bd c9f4 0bbe 6ed8 bbbd
000000b0: 6f75 2abd cd0f c0bd acd5 b0bd a37b 72bd
000000c0: 263a 9fbd 632e 9abd 8073 edbc 9426 0d3d
000000d0: 3b25 73bd 0e80 89bd 706c 69bd 7aa2 c8bd
000000e0: a083 bfbd b6ff 81bc bc78 c4bd 1f5d 0ebc
000000f0: d276 0c3c 4643 173d 05e0 3e3c 95a7 e6bd
00000100: 047d e8bd fe7f 59bd 595d 83bd 5239 b5bd
00000110: 8a61 5abd 2ea1 033c 5784 a8bd d916 0c3d
00000120: 352d 83bd bc81 d7bd 0c57 febd 551b 57bd
00000130: dd35 613c 09fe 813d d54d 8c3d 65e3 b4bd
00000140: 217d 1f3d 3ddd b3bd ae0e 8ebd e7b9 87bd
00000150: 5027 5cbd a0f3 a63c 1758 62bd 4f50 12bd
00000160: d562 d9bb 1e37 1b3d 0e0c c2bd efcc 323d
00000170: 81f5 19bd fea2 ef3a d6f8 093b a49d 773c
00000180: 7906 5a3b 4ee9 623d c729 4abd 598c 3b3d
00000190: f73e 54bd 8415 81bd 174b bd3c 23b1 0cbd
000001a0: 2934 2e3c 472d 39bd 2764 43bc 92b3 9fbd
000001b0: 2cbb 1dbe 6910 45bd f076 a33c 61f3 d93b
000001c0: d306 bebc 4eae 54bd 7d4e 19bd 2504 0dbe
000001d0: 4478 babd 8e4e 88bc 1a1b ccbd ac28 08bd
000001e0: 4836 e8bc c085 3ebd 33ed e9bc d99a 89bc
000001f0: d35a af3b ef24 82bd 7434 84bc 49a0 47bc
00000200: 214d abbd b729 cebc c85c b2bb dfb3 67bd
00000210: 09d2 33bc c6e1 1fbd ead3 033d 8ac8 27bd
00000220: 5844 20bb 6ddf 11bc 7b3a 16bd a198 6bbd
00000230: 3cf5 633a 15c2 abbd 066e 7bbc 7b5b 1f3e
00000240: e973 8bbd 8749 e63b 26b7 fc3b 170f 1d3c
00000250: 6eff 7d3c ad34 573d a187 f33b cef9 fb3c
00000260: 2637 cabb fb16 603d d897 e33d e54a 0fbd
00000270: 807d de3c ba65 293d fd9b d83c 3492 043d
00000280: 2320 343d b2db 913c c07d b53c 476b 853d
00000290: 901b ca3d 5a4d cf3c ef2c 053d 3d5f e4ba
000002a0: 723e 503d 4252 e93a cd6a cf3d 1907 9c3c
000002b0: 60a5 843d 1bfd 9a3d 7483 ef3c 26f0 4cbd
000002c0: db80 78bd 3f47 9dbd c0b6 c5bc 023f e9bc
000002d0: 2012 65bc 9d6e abbd 1e72 edbc 22b8 f4ba
000002e0: cbc4 36bb c538 95bc 18c1 c8bc b38a 8e3d
000002f0: 03b5 8a3c 5879 273d 5a69 89bd 0349 713d
00000300: adf7 6bbd 2847 f6bc d4f8 7cbd 04a1 6bbd
00000310: dd4c 8dbd 7b32 c2bd 341f b3bc d43e 97bc
00000320: ed2c 2bbd 6f50 b0bc 4ab5 c1bd cb43 663c
00000330: a431 b6bd 858c 05bd 3001 fbbd ccd8 88bd
00000340: 25d2 1abd f237 a3bd 912c f8bc 333e 13bc
00000350: d960 bd3c b030 243c 5763 2ebd db5b d3bc
00000360: 1163 733c 2a9f ad3b ef1c c7bd e69b b63c
00000370: 9b4d a4bd 6ffa 0a3d 1a32 30bd 9f8a 5abd
00000380: 8300 9ebc e9d5 243d 6806 173c 9b4e d8bc
00000390: 306e 2abd 55c1 63bd 48f3 99bc 32be 52bd
000003a0: 90c7 203d bd9d 54bd a267 7ebd 4f73 333d
000003b0: 5688 e2bc 4edf 613d b283 15bd 57f1 0cbd
000003c0: fa47 a63c 47c9 8c3c 52a8 ebbb 75ae cebc
000003d0: 44dd 80bd 7565 0fbd 067a 42bd 6f9a 973a
000003e0: 4b24 c0bc 5af4 c43c 55f4 aabd 37df ee3b
000003f0: ba1b d33c 5b31 1f3c cb1e 633d cb34 4cbd
0.013889595 0.06657293 0.03277636 0.040311404 -0.07527305 0.0696852 0.041951716 -0.01827204
0.09444917 -0.029639626 -0.026519587 0.0036969106 -0.029095408 0.07919089 0.041281544 0.038722437
-0.012206923 -0.040693842 0.04149402 -0.052079223 -0.12769276 0.05629262 0.028005876 0.050599597
0.008616236 0.015866537 -0.036347046 0.025722647 0.01850628 0.043726366 0.06862622 0.02983885
-0.051043995 -0.062361076 -0.08347619 -0.10985811 -0.059156008 -0.08002369 -0.075329885 -0.070563875
-0.045876555 -0.039635897 -0.13667597 -0.0917214 -0.0416159 -0.09378014 -0.08634505 -0.05919994
-0.07774763 -0.07528379 -0.028985739 0.03446062 -0.059361678 -0.067138776 -0.05698818 -0.09796615
-0.09351277 -0.015869003 -0.09593341 -0.008689194 0.008573251 0.03692939 0.01165009 -0.112624325
-0.1135197 -0.05310058 -0.06414289 -0.088488236 -0.053315677 0.008034034 -0.08228367 0.034201477
-0.06405107 -0.10522792 -0.124189466 -0.0525163 0.013745752 0.063472815 0.06850783 -0.088324346
0.03893769 -0.08782432 -0.06936394 -0.06627255 -0.05374843 0.020379841 -0.05525979 -0.03572112
-0.006634096 0.03789436 -0.094749555 0.04365247 -0.037587646 0.0018282828 0.0021052859 0.015113268
0.0033268018 0.055398278 -0.04935625 0.045788143 -0.05181786 -0.06302932 0.023107095 -0.03434862
0.010632553 -0.045209195 -0.011925734 -0.07797922 -0.15403432 -0.048111353 0.019954175 0.0066513275
-0.023196613 -0.051924042 -0.037428368 -0.13771112 -0.0910497 -0.01663902 -0.09966107 -0.033241913
-0.028346196 -0.046514273 -0.028555488 -0.01679747 0.0053514033 -0.06354701 -0.016138293 -0.012184211
-0.083643205 -0.025166376 -0.0054431893 -0.056568023 -0.010975369 -0.039033674 0.03218452 -0.040962733
-0.0024454799 -0.0089033665 -0.036676865 -0.057518605 0.00086959056 -0.083866276 -0.015346056 0.15562241
-0.068092175 0.007027808 0.0077122627 0.009586117 0.015502794 0.05254047 0.0074319397 0.030758765
-0.006171125 0.054709416 0.11112946 -0.034983534 0.027159452 0.04135678 0.026441569 0.032365993
0.04397596 0.017804954 0.022154689 0.06514602 0.098685384 0.025305439 0.032513555 -0.0017423403
0.050840802 0.0017801004 0.101277925 0.019046353 0.06476855 0.07567807 0.029237486 -0.05003371
-0.06066976 -0.07679605 -0.024134994 -0.028472427 -0.013981372 -0.08370707 -0.02898508 -0.0018670599
-0.0027888294 -0.018215546 -0.024506137 0.069600485 0.016932016 0.040887207 -0.06709547 0.05890752
-0.05760925 -0.030063227 -0.06176074 -0.057526603 -0.06899426 -0.09482285 -0.021865465 -0.018462576
-0.04179089 -0.021522729 -0.09458406 0.014054249 -0.08896187 -0.032604713 -0.12256086 -0.06681976
-0.037798066 -0.07969655 -0.030294688 -0.008986997 0.02311747 0.010021374 -0.042575207 -0.025800636
0.014855162 0.005298515 -0.097223155 0.022291135 -0.080226146 0.03393024 -0.04301653 -0.053354856
-0.019287353 0.040243063 0.009217836 -0.02640467 -0.04160899 -0.055604298 -0.018792763 -0.051450916
0.039252818 -0.051908243 -0.06211055 0.04381114 -0.0276529 0.0551446 -0.036502548 -0.034409847
0.020297993 0.01718582 -0.007191696 -0.025229672 -0.06292203 -0.035008866 -0.047479652 0.001156641
-0.023454806 0.024042297 -0.08347384 0.007289793 0.025770057 0.009716357 0.05544929 -0.049855035

final_layer.conv_classifier.bias f4 [4]
00000000: 14a2 16bd a167 74bd a4a2 753e cf77 a2bd
-0.036775663 -0.05966914 0.23987824 -0.07933008
