models/ShallowFBCSPNet_persons2_lr0.01_wd0_bs16_acc0.5938.pth (torch, 383628 bytes, 9 tensors)

conv_time_spat.conv_time.weight f4 [40, 1, 25, 1]
0	0xbe2c049e	-0.16798636
1	0xbde8aad9	-0.113607116
2	0xbd6a6492	-0.057224818
3	0xbd85b8bb	-0.06529375
4	0xbd512cdd	-0.051068176
5	0xbd63c375	-0.055606324
6	0xbcb347f1	-0.02188489
7	0x3d99629b	0.074895106
8	0x3ddf81c4	0.10913423
9	0x3e2e7592	0.17037037
10	0x3e4bb80f	0.19894432
11	0x3e86359c	0.26212776
12	0x3e84a63a	0.2590807
13	0x3eb5adae	0.3548407
14	0x3e89b107	0.26892874
15	0x3e68fff0	0.22753882
16	0x3e66e58f	0.22548507
17	0x3e66273b	0.22475903
18	0x3e2918a0	0.165133
19	0x3dc09e48	0.0940519
20	0x3c95cf46	0.018287312
21	0xbda604d2	-0.08106388
22	0xbe320dcd	-0.17388077
23	0xbe52cde5	-0.20586355
24	0xbe807da2	-0.2509585
25	0x3a28f5a3	0.0006445294
26	0xbd1751f4	-0.03694339
27	0xbdbdd13a	-0.092684224
28	0xbdb95a68	-0.09050447
29	0xbe05ee53	-0.13079195
30	0xbdb97b49	-0.09056718
31	0xbdea8bad	-0.11452422
32	0xbd74282f	-0.059608635
33	0xbcfe363c	-0.03103172
34	0x3df77beb	0.12084182
35	0x3e1af76d	0.15133448
36	0x3e8eff8e	0.27929348
37	0x3eb5c087	0.3549845
38	0x3e9e9284	0.30971158
39	0x3ead35e9	0.33830193
40	0x3ea24368	0.31692052
41	0x3e8f096d	0.2793688
42	0x3de45c7f	0.11150455
43	0x3d68fb26	0.05688014
44	0xbcd1ad8c	-0.025595449
45	0xbcd7426b	-0.026276788
46	0xbdcf2cfc	-0.10116002
47	0xbe691071	-0.22760178
48	0xbe240fd5	-0.16021664
49	0xbe503537	-0.203328
50	0xbea372c7	-0.31923506
51	0xbe615215	-0.22003968
52	0xbeb3af01	-0.35094455
53	0xbec15132	-0.3775726
54	0xbeb2f9fa	-0.34956342
55	0xbe6b805f	-0.22998188
56	0xbe6fcccd	-0.23417969
57	0xbe0e6c80	-0.13908577
58	0xbdcdd62a	-0.10050614
59	0x3e0227a0	0.12710428
60	0x3e386a81	0.18009378
61	0x3eb751ab	0.35804495
62	0x3ed27948	0.41108155
63	0x3ed47562	0.41495806
64	0x3ecb05e3	0.3965293
65	0x3eb3479d	0.35015574
66	0x3ea2b68e	0.31779903
67	0x3e9b021a	0.3027504
68	0x3e6fa787	0.2340375
69	0x3e49d78b	0.1971113
70	0x3e06f462	0.13179162
71	0x3def339d	0.11679766
72	0x3cdbe190	0.026840955
73	0x3da3ff3a	0.08007665
74	0x3acf5029	0.0015816736
75	0xbdb6da91	-0.08928407
76	0xbd67e28b	-0.056612533
77	0xbe1dc4c5	-0.15407093
78	0xbde9e5ac	-0.114207596
79	0x3ca4d222	0.02011973
80	0x3ca99e7c	0.020705454
81	0x3d53e326	0.051730298
82	0x3e81d31d	0.2535638
83	0x3ed0d93a	0.4079073
84	0x3f02bcbb	0.5106923
85	0x3efb8399	0.4912384
86	0x3f1a584e	0.6029099
87	0x3f143347	0.57890743
88	0x3ee8477f	0.45367047
89	0x3e86d033	0.26330718
90	0x3e2e15c2	0.17000487
91	0x3ddb4db4	0.1070818
92	0xbd8ea430	-0.0696491
93	0xbe89247d	-0.2678565
94	0xbeb60eea	-0.35558254
95	0xbeb36f23	-0.35045728
96	0xbecd0b0f	-0.400475
97	0xbf0c094a	-0.54701674
98	0xbed44423	-0.41458234
99	0xbf069330	-0.5256834
100	0xbe120147	-0.142583
101	0xbd8ffe52	-0.070309296
102	0xbdec0674	-0.11524668
103	0xbdd232c1	-0.10263587
104	0x3d8a13d5	0.06742064
105	0x3dccaf08	0.09994322
106	0x3e4b0133	0.19824676
107	0x3e6209ba	0.22074023
108	0x3e3b3165	0.18280561
109	0x3e4ee2dd	0.20203729
110	0x3e850041	0.25976756
111	0x3e8762bc	0.26442516
112	0x3e605238	0.21906364
113	0x3e107485	0.14106949
114	0x3e7d3709	0.24728025
115	0x3df7ac67	0.1209343
116	0x3e075450	0.13215756
117	0x3d5fee2e	0.054670505
118	0x3dee7c9e	0.116448626
119	0x3e1963a0	0.1497941
120	0x3dd3ec7a	0.10347839
121	0x3e394ce3	0.18095736
122	0x3e761265	0.24030454
123	0x3e6186df	0.22024105
124	0x3dacba8c	0.084340185
125	0xbd6e399d	-0.058160413
126	0xbac10330	-0.0014725681
127	0xbd996461	-0.07489849
128	0x3d3bb358	0.045825332
129	0x3ce10645	0.02746881
130	0x3d8885c6	0.0666614
131	0x3d182108	0.037140876
132	0xbc704e7e	-0.0146671515
133	0xbdb519df	-0.08842825
134	0xbe3902ab	-0.18067424
135	0xbe106fe0	-0.14105177
136	0xbe63132e	-0.22175285
137	0xbdc14071	-0.09436119
138	0xbe26c5d7	-0.16286407
139	0xbb87a72a	-0.0041398006
140	0x3ce6368e	0.028102186
141	0x3c608edd	0.013705936
142	0x3e137472	0.14399889
143	0x3dfe825e	0.12427209
144	0x3d95a0b4	0.07306042
145	0x3dd5cd0e	0.10439502
146	0xbd8d406a	-0.06897052
147	0xbde9cc6b	-0.11415943
148	0xbe4e4222	-0.20142415
149	0xbe63961a	-0.22225228
150	0x3e272781	0.16323663
151	0x3e66fc71	0.22557236
152	0x3e470fd8	0.19439638
153	0x3e5e47e8	0.21707118
154	0x3e76c264	0.24097592
155	0x3e52a740	0.20571613
156	0x3dab159e	0.083537325
157	0x3d16af10	0.036788046
158	0x3d3222f7	0.043490376
159	0xbdd249b5	-0.10267965
160	0xbe37990b	-0.17929475
161	0xbe463e56	-0.19359717
162	0xbe7c140a	-0.2461702
163	0xbe9fa329	-0.3117917
164	0xbea2f1e7	-0.31825182
165	0xbe828078	-0.2548864
166	0xbe678105	-0.22607811
167	0xbe50499d	-0.20340581
168	0xbe09ead6	-0.13468489
169	0xbe4884e8	-0.1958195
170	0xbe51bdc8	-0.20482552
171	0xbe84102d	-0.2579359
172	0xbe1bda60	-0.15220022
173	0xbe645cee	-0.22301075
174	0xbdf36a82	-0.11885549
175	0x3ee1769a	0.44035798
176	0x3ee4dd88	0.44700265
177	0x3eab456b	0.334514
178	0x3edcc078	0.43115592
179	0x3eb0934a	0.34487373
180	0x3eaeaf35	0.34118047
181	0x3e6e2815	0.23257478
182	0x3e62a920	0.22134829
183	0xbd42f661	-0.047598246
184	0xbe34312e	-0.17596886
185	0xbeb5059f	-0.3535585
186	0xbed0d7ab	-0.40789542
187	0xbef0959a	-0.46989137
188	0xbf00952b	-0.5022761
189	0xbec479ee	-0.38374275
190	0xbec59e2d	-0.3859724
191	0xbea14e7b	-0.31505188
192	0xbe1a33fb	-0.15058891
193	0xbe0d9109	-0.13824858
194	0x3d06d040	0.032913446
195	0x3e047896	0.12936625
196	0x3de12691	0.10993684
197	0x3e4e7b4f	0.20164226
198	0x3dddfd60	0.10839343
199	0x3dfd2569	0.12360651
200	0x3db82e24	0.089931756
201	0xbcad72e0	-0.02117294
202	0x3c295b42	0.010336699
203	0x3da5d399	0.08097
204	0x3d9491dd	0.07254384
205	0x3d13dabb	0.03609727
206	0x3dd4a1b7	0.10382407
207	0x3e3ec132	0.18628386
208	0x3e5279f8	0.2055434
209	0x3e2496cf	0.16073154
210	0x3de01923	0.109422944
211	0x3b3b57f0	0.002858635
212	0x3d83264c	0.06403789
213	0x3cfa20bb	0.030533185
214	0xba943b79	-0.0011309228
215	0xbc4038b9	-0.011732274
216	0xbd4c9862	-0.04995001
217	0xbd078898	-0.03308925
218	0xbcd4ac44	-0.025961049
219	0xbd766fff	-0.0601654
220	0xbd9f7c6d	-0.07787404
221	0xbdae2a5d	-0.08504174
222	0xbdd9cc0c	-0.10634622
223	0xbd93710e	-0.07199298
224	0xbe66b68b	-0.22530572
225	0xbd7fe038	-0.06246969
226	0xbddf7706	-0.10911374
227	0xbbdf6311	-0.0068172296
228	0xbb2c5f4c	-0.0026301919
229	0xbd86c364	-0.065802366
230	0xbd958fc1	-0.073028095
231	0xbde3222d	-0.11090503
232	0xb9528c41	-0.0002007941
233	0x3d0513eb	0.0324897
234	0x3e238e6a	0.15972295
235	0x3e04cf8a	0.12969795
236	0x3df2ce03	0.118557
237	0x3e942d91	0.28941014
238	0x3ea7f402	0.3280335
239	0x3e9025ed	0.28153935
240	0x3e840a6d	0.25789204
241	0x3e92df3f	0.28685948
242	0x3e1dbfe4	0.15405232
243	0x3e49a77b	0.19692795
244	0x3e1de663	0.15419917
245	0x3e20cbab	0.15702693
246	0x3cec975a	0.028880764
247	0xbcdb1ab4	-0.026746131
248	0x3b6db16e	0.0036269086
249	0xbd99c8eb	-0.07509025
250	0x3dff2be7	0.124595456
251	0x3e120816	0.14260897
252	0x3e0b9086	0.1362935
253	0x3e367864	0.17819363
254	0x3e005470	0.1253221
255	0x3dad7173	0.08468904

conv_time_spat.conv_time.bias f4 [40]
0	0x3e439279	0.19098844
1	0x3e0ecd85	0.13945587
2	0x3c9eb4e0	0.019373357
3	0x3d14a719	0.03629217
4	0xbe0f833c	-0.14014906
5	0xbd471cad	-0.04861133
6	0xbc1619ba	-0.009161407
7	0x3d35581a	0.044273473
8	0xbe1bd83c	-0.15219206
9	0x3d7b6ee3	0.061385047
10	0xbe056f85	-0.13030823
11	0xbd1907dc	-0.03736101
12	0x3ca86412	0.02055553
13	0xbcea1282	-0.028573278
14	0xbd502dfe	-0.05082511
15	0xbdca4838	-0.09877056
16	0xbe21f411	-0.1581576
17	0xbd3feb7a	-0.046855427
18	0x3c46f610	0.012143627
19	0xbba01958	-0.0048858337
20	0x3d0621ff	0.032747265
21	0x3e4063c4	0.18788058
22	0x3df13c42	0.117790714
23	0xbdec9da9	-0.11553509
24	0x3cb63cc3	0.02224577
25	0xbd9e8d0a	-0.07741745
26	0x3d83df8b	0.06439122
27	0x3d4897b0	0.048972785
28	0x3d46169f	0.048361417
29	0xbdcd4940	-0.10023737
30	0xbd9294e7	-0.07157307
31	0xbcfaeb5a	-0.030629802
32	0x3e62dc78	0.22154415
33	0x3d8f6b27	0.070028596
34	0xbde378b0	-0.11107004
35	0xbdfd37f5	-0.123641886
36	0x3e2c0500	0.16798782
37	0x3e4ba881	0.19888498
38	0xbd314ff0	-0.043289125
39	0xbc1a5833	-0.009420442

conv_time_spat.conv_spat.weight f4 [40, 40, 1, 44]
0	0xbd551d19	-0.052029703
1	0x3df83734	0.12119904
2	0x3d80df24	0.06292561
3	0x3c37e37b	0.011223669
4	0x3d9d0433	0.076668166
5	0x3d2b5d80	0.041837215
6	0x3e04e3e5	0.1297756
7	0x3d419279	0.047258828
8	0x3c75e594	0.015008349
9	0xbd65d128	-0.05610767
10	0x3e05c68f	0.13064025
11	0x3d6fe5c9	0.05856875
12	0x3d8354fb	0.06412693
13	0x3d7385cf	0.05945378
14	0x3e12b2c6	0.14326009
15	0x3d14739f	0.036243077
16	0xbd765d19	-0.06014738
17	0x3e2970f9	0.16547002
18	0x3cb1ab51	0.021688135
19	0xbdbe5deb	-0.09295257
20	0x3d80ecb6	0.06295149
21	0x3dfc6d54	0.1232554
22	0xbc29aad0	-0.010355666
23	0x3db1a84f	0.086746804
24	0x3e56f0c9	0.2099029
25	0x3ea762e3	0.32692632
26	0x39c21f81	0.00037026036
27	0xbdded394	-0.10880199
28	0x3e76dbb7	0.24107252
29	0x3dd83109	0.10556228
30	0xbded940f	-0.116005056
31	0xbcceae2a	-0.025229532
32	0x3e56b157	0.20966087
33	0x3df928e5	0.12166003
34	0x3c85d099	0.016334819
35	0x3cdb0316	0.02673487
36	0x3d6fdbb1	0.058559123
37	0x3b3642c4	0.0027810792
38	0x3e17c80e	0.14822409
39	0xbd82737c	-0.06369683
40	0x3d9485b2	0.07252063
41	0xbe05afdf	-0.13055371
42	0x3d90c4d6	0.070687935
43	0xbd13db36	-0.036097728
44	0xbd9961ef	-0.074893825
45	0x3dbcd748	0.09220749
46	0x3dfe1369	0.12406046
47	0x3ce729cd	0.028218174
48	0x3d569f2f	0.052397903
49	0x3d7576e7	0.059927847
50	0x3e156a23	0.14591269
51	0xbca39ab5	-0.019971231
52	0x3cbee1c2	0.02330101
53	0xbc83e8ec	-0.016102277
54	0x3dee521b	0.11636754
55	0x3de73945	0.1129022
56	0x3dcde9d0	0.10054362
57	0x3d686b01	0.056742672
58	0x3daab359	0.08334989
59	0xbc31b8ce	-0.0108472835
60	0xbcdac7ca	-0.026706595
61	0x3dc7a3b5	0.097480215
62	0xbcdc0b63	-0.026860898
63	0xbd7d0389	-0.06177095
64	0x3d9a961a	0.07548161
65	0x3e1a094b	0.15042607
66	0x3d701d62	0.05862177
67	0x3dca55e1	0.09879661
68	0x3e520024	0.20507866
69	0x3e84e1bb	0.2595347
70	0x3c8c8393	0.017152583
71	0x3d207b31	0.039179984
72	0x3e5f02af	0.21778367
73	0x3dd02865	0.10163955
74	0xbd9f7e71	-0.07787789
75	0xbc989d4e	-0.018629696
76	0x3e501c2f	0.20323251
77	0x3dbbb855	0.09166018
78	0x3d139dc6	0.036039136
79	0x3d1e5703	0.0386572
80	0x3dc6a8b0	0.09700143
81	0x3d817a89	0.063222
82	0x3e516b82	0.20451167
83	0xbd46ab22	-0.04850305
84	0xbc876c07	-0.016531004
85	0xbdba1628	-0.09086257
86	0x3c83738d	0.01604631
87	0xbdd74986	-0.1051207
88	0x3c5290c6	0.0128518995
89	0x3e66cade	0.22538325
90	0x3dfe3136	0.1241173
91	0xbe0b4561	-0.13600685
92	0x3e04ec9d	0.12980886
93	0x3dbe4795	0.09290997
94	0x3e80f838	0.25189376
95	0x3d9d7401	0.076881416
96	0x3df58433	0.119881056
97	0xbdb6ccfc	-0.089258164
98	0x3e603eb6	0.21898922
99	0x3e345447	0.17610274
100	0x3d7f910d	0.06239419
101	0x3db78e29	0.08962662
102	0x3e040e4c	0.12896079
103	0xbc7a5804	-0.015279774
104	0xbe2731ee	-0.1632764
105	0x3e24aaab	0.1608073
106	0x3b63d4ad	0.0034764216
107	0xbce20b0c	-0.027593158
108	0x3dccc2b9	0.09998078
109	0x3e7fb9c5	0.24973209
110	0x3dcceed5	0.10006491
111	0xbcad0599	-0.021120833
112	0x3e5c6da8	0.21526206
113	0x3e820dfb	0.2540129
114	0x3e05a9fc	0.13053125
115	0xbde8b9c7	-0.11363559
116	0x3dd731d0	0.10507548
117	0xbca423eb	-0.020036658
118	0x3dac75c5	0.084209
119	0xbd843faf	-0.06457459
120	0x3e87d1f6	0.26527375
121	0x3e2c557e	0.16829488
122	0x3e145487	0.1448537
123	0x3a42afb1	0.0007426693
124	0x3df1b2c9	0.11801679
125	0x3d997f6a	0.074950054
126	0x3d2e1277	0.04249808
127	0xbd844388	-0.06458193
128	0x3c972075	0.018448094
129	0xbdea6cc1	-0.114465244
130	0x3e4e2546	0.20131406
131	0x3cd1ce8b	0.025611183
132	0xbe904fb6	-0.28185815
133	0xbd5c5893	-0.05379541
134	0x3db06249	0.086124964
135	0x3e9fd5b6	0.31217736
136	0x3d826fea	0.06369002
137	0x3d9e8ed5	0.07742087
138	0x3cb6018a	0.02221753
139	0xbe72a8a3	-0.23697142
140	0xbde95593	-0.11393275
141	0x3e79ea53	0.24405794
142	0xbe219e93	-0.15783148
143	0x3ca66e54	0.02031628
144	0x3e267040	0.16253757
145	0x3d08d06a	0.033401884
146	0x3d0a5d4d	0.033780385
147	0xbe404521	-0.1877637
148	0x3e91415c	0.28370178
149	0x3ca00c39	0.019537078
150	0xbe7e28cc	-0.2482025
151	0xbe9e3b69	-0.309047
152	0xbd8263f4	-0.06366721
153	0xbe56d3ad	-0.20979185
154	0x3db9458a	0.09046467
155	0x3e197d1c	0.14989132
156	0xbd3ebc92	-0.046566553
157	0x3dcfd07a	0.101471856
158	0x3d9d0f46	0.07668929
159	0x3e84d5a3	0.25944242
160	0x3d833e1e	0.06408332
161	0x3cf8583c	0.03031551
162	0x3ab6f3b1	0.0013958124
163	0x3e811943	0.25214586
164	0xbe126e12	-0.14299801
165	0xbe0e3b50	-0.13889813
166	0xbd194615	-0.03742035
167	0x3e0efd0e	0.1396372
168	0xbdef4316	-0.116827175
169	0x3db7467a	0.08948989
170	0x3e4ccfe7	0.20001183
171	0xbcce261f	-0.025164662
172	0xbc912423	-0.017717427
173	0xbdf9796d	-0.12181363
174	0xbeaa703e	-0.3328876
175	0xbe7ef3a6	-0.24897632
176	0x3d6d8a84	0.057993427
177	0x3db23a00	0.08702469
178	0xbe905a50	-0.28193903
179	0xbed58198	-0.41700435
180	0x3e381f11	0.17980601
181	0xbe7858a9	-0.24252571
182	0x3e86ce2d	0.26329175
183	0x3c3091ea	0.010776976
184	0x3d8bda2d	0.06828723
185	0xbe3694e9	-0.17830242
186	0x3e21ed58	0.15813196
187	0xbd8bde00	-0.068294525
188	0xbe92480a	-0.28570586
189	0x3e6075ce	0.21919939
190	0x3dc184f2	0.094491854
191	0xbe6741ff	-0.2258377
192	0xbeb11a6f	-0.3459048
193	0x3e32340e	0.1740267
194	0xbcfbd0a0	-0.030739129
195	0xbe623cd2	-0.22093514
196	0x3e04fc0f	0.12986778
197	0x3deef3c6	0.1166759
198	0xbea01851	-0.31268552
199	0xbe80f60d	-0.25187722
200	0x3e6e2164	0.23254925
201	0x3ea006ff	0.31255338
202	0xbec93c60	-0.39303875
203	0xbea01d59	-0.3127239
204	0x3ea59a05	0.3234407
205	0x3e3c5eb0	0.18395495
206	0xbe522680	-0.20522499
207	0xbe0e8752	-0.13918808
208	0x3eb419b1	0.3517585
209	0x3e834b50	0.25643396
210	0x3d215f29	0.039397392
211	0x3d102a3b	0.035196524
212	0xbdabda73	-0.08391275
213	0xbe49a439	-0.19691552
214	0x3e0e6c88	0.13908589
215	0xbea65661	-0.32487777
216	0x3dcaefa0	0.09908986
217	0xbe4622e7	-0.19349252
218	0x3e502e87	0.20330249
219	0x3c130206	0.00897265
220	0xbd37d451	-0.044880215
221	0x3d565457	0.052326526
222	0x3e27286a	0.1632401
223	0x3dd98942	0.10621883
224	0xbd952eb9	-0.07284302
225	0x3d7c0914	0.061532095
226	0xbe0b636d	-0.13612147
227	0x3d874193	0.06604304
228	0x3cd2120e	0.025643375
229	0xbd0faa3b	-0.035074454
230	0xbc87dc0f	-0.016584424
231	0x3d51362d	0.051077057
232	0x3e2ecfd9	0.17071475
233	0xbdfe4a5a	-0.12416525
234	0xbbfb6c72	-0.00767284
235	0x3e25740c	0.1615755
236	0x3d01b739	0.031668875
237	0xbe0fbf65	-0.14037855
238	0x3d4da238	0.050203532
239	0x3ddc7613	0.10764708
240	0xbe40d1c0	-0.18830013
241	0xbda7abff	-0.081871025
242	0x3e48b78e	0.1960127
243	0x3dc0a68e	0.09406768
244	0xbe54edc5	-0.20793827
245	0xbe86bf29	-0.2631772
246	0x3e47fc40	0.1952982
247	0x3be75208	0.0070593394
248	0xbe9e813c	-0.30957973
249	0xbe74d981	-0.23911096
250	0x3dd0c045	0.101929225
251	0xbd23056e	-0.0398001
252	0xbea301a9	-0.31837204
253	0xbe87f402	-0.2655335
254	0xbd0ed14b	-0.034867566
255	0xbe0fa050	-0.14025998

bnorm.weight f4 [40]
0	0x3f6ba028	0.92041254
1	0x3f8e4dba	1.111747
2	0x3f4cf142	0.8005563
3	0x3f58b745	0.8465465
4	0x3f703885	0.9383624
5	0x3f6f5e69	0.93503433
6	0x3f65e455	0.8980153
7	0x3f45afce	0.7722138
8	0x3f4d9b75	0.80315334
9	0x3f8c902d	1.0981499
10	0x3f60adee	0.87765396
11	0x3f765a59	0.9623161
12	0x3f213291	0.62967783
13	0x3f81a83d	1.0129467
14	0x3f5402e5	0.82816917
15	0x3f451f97	0.7700133
16	0x3f72b6b2	0.9481002
17	0x3f96aff7	1.177245
18	0x3f882f1e	1.0639379
19	0x3f851ef7	1.0400075
20	0x3f871666	1.055371
21	0x3f7cc37e	0.987358
22	0x3f76fa66	0.9647583
23	0x3f63b7d6	0.88952386
24	0x3f8cccd5	1.100001
25	0x3f709eac	0.93992114
26	0x3f9a35fb	1.2047724
27	0x3f63b1af	0.88943
28	0x3f3f2497	0.74665207
29	0x3f631dff	0.88717645
30	0x3fa30833	1.2736877
31	0x3f87004c	1.0546966
32	0x3f5ec9c3	0.87026614
33	0x3f884dc1	1.0648729
34	0x3f3981a0	0.7246342
35	0x3f857580	1.0426483
36	0x3f94eee7	1.1635407
37	0x3f623b48	0.88371706
38	0x3fa234c0	1.2672348
39	0x3f6f1248	0.9338727

bnorm.bias f4 [40]
0	0x3f27ed6e	0.65596664
1	0xbec99f15	-0.39379182
2	0x3f2d69c4	0.6773951
3	0x3f314718	0.69249105
4	0x3f09d7c9	0.53844887
5	0xbefc243e	-0.492464
6	0x3f1ba254	0.6079457
7	0xbf343f0f	-0.7040872
8	0x3f263b16	0.6493391
9	0x3f185948	0.5951123
10	0xbf07efab	-0.5310008
11	0x3ead626e	0.33864158
12	0x3f3f2ec8	0.7468076
13	0xbefa5141	-0.48890117
14	0xbf453872	-0.77039254
15	0xbf3dc6ad	-0.7413128
16	0x3f20fa4e	0.62881935
17	0xbee10ebd	-0.43956557
18	0xbef30605	-0.4746553
19	0x3ee091bd	0.4386119
20	0x3eda13b5	0.4259316
21	0xbf198ce4	-0.5998061
22	0x3f062745	0.5240367
23	0xbf1723ad	-0.5903881
24	0x3f0d3649	0.5516096
25	0xbf3d98d7	-0.7406134
26	0xbe866081	-0.26245502
27	0x3f15be64	0.5849364
28	0x3f3b9e2e	0.7328824
29	0xbf139521	-0.5764943
30	0xbee3241c	-0.44363487
31	0xbec0bb12	-0.37642723
32	0x3f2664fa	0.6499783
33	0xbf2ae4c7	-0.66755337
34	0x3f5790dd	0.8420542
35	0x3f050401	0.51959234
36	0x3eca3a6d	0.394977
37	0x3f321c7c	0.69574714
38	0xbecabbca	-0.39596397
39	0xbf1ef143	-0.62086886

bnorm.running_mean f4 [40]
0	0x40249d45	2.572099
1	0xc093c3ab	-4.6176353
2	0x40339ce4	2.8064508
3	0x403d78cc	2.9604979
4	0x4017e230	2.3731804
5	0xc088f144	-4.2794514
6	0xbfd697c5	-1.6765066
7	0xbf1cbcd2	-0.61225617
8	0xc017089b	-2.3599002
9	0xbf943e15	-1.1581446
10	0xbffde60a	-1.9835827
11	0x40268d3f	2.602371
12	0xc03d63eb	-2.9592235
13	0xbe7c699a	-0.24649659
14	0x405b75e1	3.4290698
15	0xc09fbacd	-4.991553
16	0x40035a82	2.0523992
17	0xbfb4acbb	-1.4115213
18	0xc0a43dcc	-5.1325436
19	0x3f10e922	0.5660573
20	0xbeab3d0c	-0.33445013
21	0xc00f5a9f	-2.239906
22	0x3dec72a1	0.11545301
23	0xbfc61316	-1.5474575
24	0x3fa72746	1.305886
25	0x3fc4866c	1.5353522
26	0x410282f6	8.156973
27	0x403252a5	2.7862942
28	0xc043210c	-3.048892
29	0x3fe4cb6a	1.7874577
30	0xc0890160	-4.281418
31	0xbf102c04	-0.5631716
32	0xc09822ec	-4.754263
33	0x409679bb	4.7023597
34	0x401bc050	2.4336128
35	0xbff618cf	-1.9226321
36	0xbfbb2294	-1.4619927
37	0xc051b9b8	-3.2769604
38	0x4008f0ee	2.1397052
39	0x40b012f6	5.5023146

bnorm.running_var f4 [40]
0	0x42010d7b	32.263165
1	0x422ff2ed	43.987232
2	0x42436dda	48.857277
3	0x41eca0bc	29.578484
4	0x4226a096	41.656822
5	0x42469578	49.645966
6	0x42472788	49.788605
7	0x42410e5a	48.264015
8	0x4230852a	44.130043
9	0x4219cb61	38.448612
10	0x4201a5bb	32.411846
11	0x424af45f	50.738644
12	0x41eb1dbc	29.389519
13	0x4258e40e	54.22271
14	0x4218f8f6	38.243126
15	0x41f29cb9	30.326525
16	0x420df4bc	35.489
17	0x42430819	48.757908
18	0x4299bda0	76.87036
19	0x424f0577	51.755337
20	0x41ff195e	31.887386
21	0x4236ea81	45.729008
22	0x420b584e	34.836235
23	0x41e74186	28.906994
24	0x4226770f	41.61627
25	0x425119d6	52.27523
26	0x4250964f	52.146786
27	0x425284bc	52.629623
28	0x420addba	34.71653
29	0x4219576a	38.335365
30	0x420d1eb8	35.28
31	0x423da6b4	47.412796
32	0x421ffeb0	39.99872
33	0x4226510b	41.579144
34	0x4207285d	33.789417
35	0x422cbfa0	43.187134
36	0x41ff7dfa	31.936512
37	0x4215bf0a	37.43656
38	0x418ebcfa	17.842274
39	0x41b38807	22.44142

final_layer.conv_classifier.weight f4 [4, 40, 144, 1]
0	0x3d914d87	0.07094865
1	0xbdef6d47	-0.11690765
2	0x3db9c5b6	0.090709135
3	0x3e172d22	0.1476331
4	0x3e3f7fa0	0.18701029
5	0xbd3e300b	-0.046432536
6	0xbd3f55a2	-0.046712525
7	0x3e085048	0.13311875
8	0xbc98ae9e	-0.018637951
9	0xbd772a85	-0.060343284
10	0x3a0ad409	0.0005295878
11	0x3dcab7b9	0.098983236
12	0x3db103b7	0.08643287
13	0x3dc1c128	0.0946067
14	0x3e134b4e	0.14384195
15	0x3d80f793	0.06297221
16	0xbd8414be	-0.06449269
17	0x3eab3965	0.33442226
18	0xbdb89f4c	-0.090147585
19	0x3e5f6460	0.21815634
20	0x3d383760	0.044974685
21	0xbdfd112f	-0.12356793
22	0x3b96b15b	0.004598779
23	0xbd354ce9	-0.0442628
24	0xbd61d3a3	-0.055133473
25	0x3dbd3338	0.09238285
26	0x3e57d20a	0.21076217
27	0x3d946e8e	0.07247649
28	0x3d37492a	0.04474751
29	0xbbbeb8be	-0.005820363
30	0xbd929805	-0.07157902
31	0xbda4cfb1	-0.080474265
32	0x3e078830	0.13235545
33	0x3e6f8cd1	0.23393561
34	0x3d9c53d1	0.07633174
35	0xbd87a9b5	-0.06624166
36	0xbe876026	-0.26440543
37	0xbe498d47	-0.196828
38	0xbe837835	-0.25677648
39	0xbe2e96c7	-0.17049704
40	0xbb849b1f	-0.004046812
41	0xbcaf7922	-0.021420065
42	0x3d657190	0.056016505
43	0xbe2b7840	-0.1674509
44	0xbc89aa70	-0.016804904
45	0xbe27b863	-0.16378932
46	0xbd6c6cef	-0.057721075
47	0xbe851bc4	-0.25997746
48	0xbeb7d534	-0.3590485
49	0xbe90bfc3	-0.28271303
50	0x3c80db21	0.015729489
51	0x3ccd1631	0.025034996
52	0xbd912e8f	-0.070889585
53	0x3c2d7217	0.010586283
54	0xbe2e49ac	-0.17020291
55	0xbe065146	-0.13116941
56	0xbe2bfce1	-0.16795684
57	0xbeb4edc1	-0.35337642
58	0x3d8ddddb	0.06927081
59	0xbd862d0a	-0.06551559
60	0xbdab127a	-0.083531335
61	0xbc346d99	-0.011012458
62	0xbdd29bac	-0.10283598
63	0xbdd9f423	-0.106422685
64	0xbe00f453	-0.12593202
65	0xbd51cb03	-0.051218998
66	0x3d6233a5	0.055225033
67	0xbdc2918d	-0.09500418
68	0xbe3e75fe	-0.18599698
69	0xbe35a913	-0.17740278
70	0xbe2246ae	-0.15847275
71	0xbeac7de3	-0.33689794
72	0x3dc5da0e	0.09660731
73	0xbe80d378	-0.25161338
74	0xbe5430fe	-0.20721814
75	0x3e6f39d5	0.23361905
76	0xbca6dbc7	-0.02036847
77	0x3e522c67	0.2052475
78	0xbd5a3db7	-0.053281512
79	0xbe85270b	-0.2600635
80	0xbdfb929e	-0.122838244
81	0xbdbaa676	-0.09113781
82	0xbe0c40bd	-0.1369657
83	0xbcc15b4a	-0.0236031
84	0xbe021b16	-0.12705645
85	0xbd179e25	-0.037016053
86	0x3e362be4	0.1779018
87	0xbe1c522f	-0.15265726
88	0xbd049bc4	-0.032375112
89	0xbe8c37a6	-0.27386206
90	0x3de3f7d0	0.11131251
91	0xbe2c855a	-0.16847745
92	0x3e05932f	0.13044427
93	0x3e0abc03	0.13548283
94	0xbe734e3a	-0.2376031
95	0xbdb7fa9e	-0.08983348
96	0xbdda3a0c	-0.10655603
97	0xbe8feeed	-0.28111973
98	0xbd9a5f5b	-0.07537719
99	0x3d7509ae	0.059823684
100	0xbe48b6b7	-0.1960095
101	0xbd712ca9	-0.058880482
102	0xbe57910f	-0.21051429
103	0xbdb1bfb0	-0.086791396
104	0xbe806fc6	-0.25085276
105	0xbe330417	-0.17482029
106	0xbe1eb16c	-0.15497369
107	0xbe56aec1	-0.20965101
108	0xbcb04785	-0.021518478
109	0xbe192016	-0.14953646
110	0xbdd8ab13	-0.10579505
111	0x3a482fb1	0.0007636501
112	0xbd6ef512	-0.058339186
113	0xbe37a3b7	-0.17933546
114	0x3e051263	0.12995295
115	0x3cd4dfed	0.025985682
116	0x3db3e9f6	0.08784859
117	0xbbcc0734	-0.0062264446
118	0xbdd51b86	-0.1040564
119	0xbdad455c	-0.08460495
120	0x3db73c50	0.089470506
121	0x3d0b5314	0.034014776
122	0x3e1be0da	0.15222493
123	0x3e3fbd51	0.18724562
124	0x3e5da72d	0.21645804
125	0x3d74741c	0.059681043
126	0xbda20685	-0.079114
127	0x3e88be84	0.26707852
128	0x3e3c2f38	0.18377388
129	0x3ea76574	0.3269459
130	0x3e01091a	0.12601128
131	0x3d2d1340	0.042254686
132	0x3e246705	0.16054924
133	0x3d52c5ae	0.051458053
134	0x3dbbd92f	0.09172284
135	0x3e890de5	0.26768413
136	0xbd998740	-0.074965
137	0xbe251372	-0.16120699
138	0x3dde4fe3	0.10855081
139	0xbbbd2dac	-0.005773267
140	0xbe25885a	-0.16165295
141	0x3e07085a	0.1318678
142	0x3dd39629	0.10331375
143	0x3e031120	0.12799501
144	0xba710912	-0.0009194772
145	0xbd878880	-0.06617832
146	0xbceaa696	-0.028643887
147	0xbbd996f6	-0.0066403104
148	0xbd4a301a	-0.04936228
149	0xbccee9a7	-0.025257898
150	0xbd344d8e	-0.044019274
151	0x3dff69d2	0.124713555
152	0x3e41fffb	0.18945305
153	0x3deddae1	0.116140135
154	0x3d5f57dd	0.054527152
155	0xbe258dd0	-0.16167378
156	0x3dfb6a02	0.12276079
157	0x3d8c2c13	0.06844344
158	0x3e8f0cf1	0.2793956
159	0xbca15f7a	-0.019698847
160	0x3e1cb4eb	0.1530339
161	0x3e91d421	0.28482154
162	0xbc792176	-0.015205732
163	0x3e4e0283	0.20118146
164	0x3e1becdc	0.15227073
165	0x3d10f43b	0.035389166
166	0x3e67c52c	0.22633809
167	0x3a6bd100	0.0008995682
168	0x3e21e85b	0.15811293
169	0x3cfac1ce	0.030609991
170	0x3dd0cc41	0.10195208
171	0xbe2b46f2	-0.16726282
172	0xbd6f318e	-0.05839687
173	0x3e496e5f	0.1967101
174	0x3e1b8a07	0.15189372
175	0xbd8b3e42	-0.06798984
176	0x3e604c2b	0.21904056
177	0x3e5a9918	0.21347463
178	0xbca6720f	-0.02031806
179	0xbbbe5285	-0.005808177
180	0xbe479018	-0.19488561
181	0xbd997287	-0.074925475
182	0xbded33c5	-0.1158214
183	0x3dccd4cc	0.10001525
184	0xbe2df1f9	-0.16986836
185	0xbe1d6415	-0.1537021
186	0xbe4bbd2d	-0.19896384
187	0xbea80c49	-0.32821873
188	0xbea08279	-0.31349543
189	0xbd3838e2	-0.044976123
190	0xbec24776	-0.37945145
191	0xbef52eb1	-0.47887185
192	0xbe8e4f7b	-0.27795014
193	0xbe86581f	-0.26239106
194	0xbf22de74	-0.63620687
195	0xbe419ba5	-0.1890703
196	0xbe870359	-0.26369742
197	0xbeb97f62	-0.36229998
198	0xbee98eba	-0.45616704
199	0xbe9de9ba	-0.30842382
200	0xbe888287	-0.26662084
201	0xbe58369a	-0.21114579
202	0xbdfb2644	-0.12263158
203	0xbe1545f6	-0.14577469
204	0xbe66b90b	-0.22531526
205	0xbecec902	-0.40387732
206	0xbebf0740	-0.3731022
207	0xbee945a1	-0.45560935
208	0x3db52c37	0.08846324
209	0x3da0d77d	0.07853601
210	0xbd9ea285	-0.07745842
211	0xbdf6d1fb	-0.12051769
212	0xbe6b6e79	-0.2299136
213	0xbe5b3256	-0.2140592
214	0xbe9266b9	-0.28593996
215	0xbe90cce3	-0.28281316
216	0xbd1bd99e	-0.038049333
217	0xbd855afa	-0.06511493
218	0x3d9514b6	0.07279341
219	0xbe082c74	-0.13298208
220	0xbd607a91	-0.05480439
221	0x3e98333f	0.29726598
222	0xbe024105	-0.12720115
223	0xbe211eb6	-0.15734372
224	0xbdc4c7c3	-0.09608414
225	0x3b7c1004	0.0038461694
226	0xbe80cd87	-0.25156805
227	0xbdc06229	-0.093937226
228	0x3df6cc60	0.120507
229	0xbdeedd58	-0.11663312
230	0xbdac81a1	-0.08423162
231	0xbdfc834e	-0.12329732
232	0x3d2b3f46	0.04180839
233	0xbe0e42aa	-0.13892618
234	0xbd0067f5	-0.03134914
235	0x3e0b7add	0.13621087
236	0x3c475552	0.012166338
237	0x3e5a7bd6	0.21336302
238	0x3d57cc54	0.052685097
239	0x3dae02b0	0.08496606
240	0x3d9a04c1	0.07520438
241	0xbdc9a07d	-0.09845064
242	0xbd6f4d7b	-0.0584235
243	0xbd317a0a	-0.043329276
244	0x3da507d9	0.080581374
245	0xbe75315d	-0.23944612
246	0xbe7b0d83	-0.24516873
247	0x3a711a81	0.000919737
248	0xbcc96230	-0.024582952
249	0xbd2a5eee	-0.04159444
250	0xbeae9b0a	-0.3410266
251	0x3b31b41c	0.002711541
252	0xbe5b204b	-0.21399038
253	0x3caec299	0.021333026
254	0xbe0b664c	-0.13613242
255	0xbeb87d58	-0.3603313

final_layer.conv_classifier.bias f4 [4]
0	0x3e1a8a6f	0.1509187
1	0xbd504343	-0.050845396
2	0x3e1fbb31	0.15598752
3	0xbe7c81dd	-0.24658914
