models/ShallowFBCSPNet_persons14_lr0.001_wd0.1_bs64_acc0.4290.pth (torch, 383684 bytes, 9 tensors)

conv_time_spat.conv_time.weight f4 [40, 1, 25, 1]
000000 51 30 21 bd ea 69 8c 3c 3b bb 11 bd 4c 49 ac b9
       -0.03935272 0.017140348 -0.035578948 -0.00032861007
000010 0c b7 01 bd d7 f1 96 3c 97 14 83 3c b0 66 35 3c
       -0.031668708 0.018425865 0.016001029 0.011071846
000020 99 4d 80 3d b5 b9 a0 3d b3 5f db bc f9 16 aa bc
       0.062648006 0.07847921 -0.026779031 -0.020762907
000030 a5 4f c0 bc cd f4 48 bd 67 dc 25 bd bc b9 97 3c
       -0.023475477 -0.049061585 -0.040493395 0.018521182
000040 e6 76 78 3c 33 4b cb bb a4 74 46 3c ba 50 67 3d
       0.015165066 -0.006204033 0.01211277 0.05647347
000050 12 6d 2c bc a6 e3 a2 3b 6d 56 8c 3b 2b fd 04 3c
       -0.010524051 0.0049709855 0.0042827637 0.008117001
000060 ae 0a 6e 3c 14 82 c3 3b 82 06 62 bd a7 dd 94 bd
       0.014528913 0.0059664343 -0.055181988 -0.07268839
000070 af 50 94 bc 63 c6 ad bd e3 ce 80 3c 20 df 02 3d
       -0.01810488 -0.08485105 0.015723651 0.03195107
000080 fc 79 59 b9 1f d5 0b 3d 04 11 fb bc 6d 79 8c 3d
       -0.00020740175 0.034138795 -0.030647762 0.06859098
000090 5d 67 ce 3d d8 98 a0 3d 9f 0e d0 3d 8d 44 d4 3b
       0.10078309 0.07841653 0.10159039 0.0064778985
0000a0 8e ee 8f bd c2 f5 2d bd 50 4f 8e bd aa a0 bb 3c
       -0.070279226 -0.0424707 -0.069487214 0.022903759
0000b0 a7 0e e9 bc 28 d4 aa bb 47 b5 bf ba f4 1c 25 bd
       -0.02844937 -0.0052132793 -0.0014626168 -0.040310815
0000c0 ac 49 b5 bc 62 a4 8c 3d eb 47 a8 3d 2f b0 71 3d
       -0.022129856 0.06867291 0.08216842 0.059005912
0000d0 49 a7 97 3d 6d 06 66 39 5d fe 73 bd 1b 4b c4 bd
       0.07404954 0.00021936903 -0.05956875 -0.09584638
0000e0 1c cc 0d be 05 2e 8e 3b 10 9f 38 3d 83 07 9f 3d
       -0.13847393 0.004338982 0.04507357 0.077651046
0000f0 66 e7 b3 3d 39 b8 81 3d df 82 28 bd e9 33 97 bc
       0.0878437 0.06333966 -0.041140433 -0.01845737
000100 c4 94 3f 3c 4b 45 98 bb bb 5c ee 3b 1b e8 db bb
       0.011693183 -0.0046469322 0.007274238 -0.0067110187
000110 b7 92 da bc 53 88 55 bd 6b de aa bd a1 a6 0e bd
       -0.026681287 -0.052131962 -0.08343204 -0.03482688
000120 ac 04 90 3d 26 5d 00 3d 66 72 7e 3d 12 e6 84 3c
       0.07032141 0.031338833 0.062120818 0.016222987
000130 d9 a9 0e bc da f8 80 3c a9 52 6f bc 99 b4 2e bd
       -0.008707487 0.015743662 -0.01460711 -0.0426527
000140 e2 0d dc bc 4f 3f 58 bd c7 84 ca 3c 33 d9 77 bc
       -0.026862089 -0.05279475 0.024721516 -0.015127468
000150 16 f5 f5 3c 68 39 91 bc 4c ef 6c bd 41 48 8e bd
       0.030024093 -0.017727569 -0.0578454 -0.06947375
000160 fd 23 96 bc 23 35 1d bd 4a 6f 1a 3d 82 86 bc 3d
       -0.018327707 -0.038380753 0.03770379 0.09205343
000170 7f 14 e5 3c 5a 5a 60 bd e7 a6 30 bd b3 8f 65 bd
       0.027963875 -0.054773666 -0.04312792 -0.056045245
000180 58 a0 7c 3d 9e 44 44 3c ae 7e 8a 3d 04 f5 6f bc
       0.061676353 0.01197925 0.067624435 -0.014645819
000190 9e db d9 bc 92 d1 af bd 69 b1 c7 bb 0d ed 6d bd
       -0.02659398 -0.08584894 -0.006094147 -0.058087397
0001a0 64 83 42 3c 63 96 91 3d 1b eb 61 3d c7 9b 2e bc
       0.011872146 0.07108762 0.055155855 -0.010657257
0001b0 8c 34 98 bd ba 87 03 be 07 82 c0 bd 37 8e 07 3d
       -0.074318975 -0.12844744 -0.09399801 0.03309461
0001c0 6f 2f 8c 3d 91 ff b1 3d cd 64 af 3c 0c 51 02 3d
       0.06844985 0.086913235 0.02141037 0.031815574
0001d0 81 1c 0e 3b 96 e2 63 bd 5a 38 ac 3d d6 7d 89 3d
       0.002168447 -0.05563601 0.08409186 0.067134544
0001e0 c4 91 7e 3d 3c ef 04 3d cf bd 29 bd cb 1d 58 bd
       0.06215073 0.032454714 -0.04144078 -0.052762788
0001f0 d4 53 86 bd ae 29 07 be ae 68 cd 3c 7c b7 27 3c
       -0.06558958 -0.13199493 0.02507433 0.010236617
000200 d3 e0 23 3d c1 7d 71 bc f0 04 a5 bd c7 60 12 be
       0.04000933 -0.014739455 -0.080575824 -0.1429473
000210 a0 7b 9c bc 66 fe 76 3d cb 35 0b 3e 4c 2a 0b 3e
       -0.019101918 0.060301207 0.13594739 0.13590354
000220 de 24 0c 3c 40 dc ce bb e9 b0 9c 3c 99 8a cb bc
       0.008553712 -0.006312877 0.019127326 -0.024846362
000230 c7 04 cd 3d 45 da 62 3d 20 c2 05 bd d1 5d aa bd
       0.10010677 0.05538394 -0.032655835 -0.08318675
000240 93 93 80 bd 65 ab 85 bd 93 be 74 bd e4 6a e1 3c
       -0.062781475 -0.065268315 -0.05975206 0.02751679
000250 e1 6e 06 3d 24 05 8f bd 42 e1 0c 3d ea 8c e7 3c
       0.032820586 -0.06983402 0.03439451 0.028265435
000260 65 1c d9 bc f4 92 19 bd ee ec a4 bd fa bf 9d bd
       -0.026502797 -0.03749366 -0.08053003 -0.07702632
000270 c6 25 b3 bd b3 c4 b4 bb 7a 44 9f 3d c1 73 f9 3d
       -0.08747439 -0.0055166124 0.07776733 0.121802814
000280 86 36 af 3d d5 85 f5 3d 3a 65 af 3d d8 7e 87 3c
       0.085553214 0.11988417 0.08564229 0.016539976
000290 23 13 0e 3c a7 dc 00 bd 85 c4 15 bd 79 8b 8b bd
       0.008671555 -0.03146043 -0.03656437 -0.06813712
0002a0 39 8b 5e bb 99 f2 20 3d d0 50 40 bc b9 3f 3e bd
       -0.0033957495 0.03929386 -0.011738017 -0.04644749
0002b0 be 86 22 bd 24 cb 19 bd 28 40 96 3c ac 89 c7 3c
       -0.03967928 -0.037547246 0.018341139 0.02435764
0002c0 f5 f5 c0 3c 35 b6 24 bc dc 5b 41 bd ba fb 0a bd
       0.023554781 -0.010053207 -0.047206745 -0.03393147
0002d0 8f b9 20 bd 5a 0e 97 bc dc 49 6c 3d d1 e5 7a 3d
       -0.039239462 -0.01843946 0.057687625 0.061254326
0002e0 48 38 b7 3c 5f 73 69 bd b3 e1 58 bc d8 ea 31 bd
       0.022365704 -0.056994792 -0.013237405 -0.043436855
0002f0 97 2d 94 bc 5f 0c 0c 3d 4d 41 ea bc a7 a0 a3 bc
       -0.018088145 0.034191485 -0.028595591 -0.019974066
000300 bb a9 53 bc a1 76 af 3c e1 bf 17 3d a4 26 4a 3d
       -0.012918885 0.021418871 0.037048224 0.049353257
000310 bb 3c 82 bb e7 c1 16 bd ca b1 22 3d 89 a3 3c bd
       -0.003974525 -0.036806013 0.039720334 -0.046054397
000320 9b 9e fb bd f3 66 87 3d a8 85 27 b9 72 17 36 3d
       -0.12286111 0.06611433 -0.00015976152 0.044455953
000330 09 ce 2f bd 63 76 fc bd 16 e7 57 bd e1 b8 8d 3a
       -0.0429211 -0.12327268 -0.052710615 0.0010812544
000340 6c 7d 8b 3d 79 0a 36 3e f9 60 2e 3e 41 c6 ff b9
       0.06811032 0.17777433 0.1702918 -0.000487851
000350 cc 95 f9 bc 09 ae a3 bd bd ac 31 bc 44 0c 2d 3c
       -0.030466937 -0.07992179 -0.010844407 0.010562006
000360 b8 26 c1 3d e6 d7 cd 3c 8f d8 5d bc 4d 7c b7 bd
       0.09431213 0.025127362 -0.013540401 -0.08959255
000370 ef 50 64 bd 7b 71 7b 3d e6 a9 82 3d 3c cb 18 3d
       -0.055741247 0.06138752 0.06380062 0.037303194
000380 ed df f4 bd e6 e0 2c 3a 1e a1 34 3d 4e b0 77 3d
       -0.11956773 0.0006594792 0.044098966 0.06047087
000390 b3 bf d8 3d 30 bd 0b bc ea 09 a4 bd 61 10 cd bd
       0.10583439 -0.0085289925 -0.080097035 -0.1001289
0003a0 1d 46 0f 3d 71 16 b2 3c 61 68 f0 3d 0a 6e 63 3d
       0.034978975 0.021739217 0.11738659 0.055524863
0003b0 c4 13 47 bc 75 a4 f8 bd 89 bd d0 bd a1 3c ca bd
       -0.012150709 -0.12140743 -0.10192401 -0.09874845
0003c0 a9 d8 eb 3c 01 62 43 bc b8 dc 9a bd 68 44 8c bd
       0.028789835 -0.011925221 -0.0756163 -0.06848985
0003d0 6b 8b 91 bc c0 8d e4 bc 23 ff b6 3d 02 f7 a6 3d
       -0.017766675 -0.027899623 0.08935382 0.08152582
0003e0 30 31 f2 3d a9 53 1b 3d 94 87 66 3c 88 93 8c bc
       0.11825788 0.03792158 0.01407041 -0.017160192
0003f0 16 52 db bc 7e 41 51 3b 96 ec 1d 3d f4 8b af 3d
       -0.02677254 0.0031929906 0.038555704 0.08571616

conv_time_spat.conv_time.bias f4 [40]
000000 9e 63 97 3c cd 58 45 be 6c ea bd bd 3c fd 27 3e
       0.018480118 -0.19272156 -0.09273228 0.16405195
000010 6d bb 06 3d 47 c3 2b be a8 43 42 be e3 46 d3 3b
       0.032893587 -0.16773711 -0.18971121 0.0064476593
000020 8f 52 1c be 17 ee b4 3c f4 9b ca 3d cb 97 c7 3d
       -0.15265869 0.022086186 0.09893027 0.09745749
000030 e0 c3 2d bd 2a 6c 10 be d8 e0 b4 3d a7 0e 8f 3d
       -0.04242313 -0.14103761 0.08831948 0.069852166
000040 85 1d f4 bd 12 84 d1 3d f5 f1 e7 3d 4c d4 90 3d
       -0.11919693 0.102302685 0.113254465 0.070717424
000050 73 ea 3f 3d 74 60 d0 3d 13 c7 34 3e 52 8e 60 3e
       0.046854448 0.10174647 0.17654066 0.21929291
000060 da e5 fa bd 4f 92 fb bd 36 12 0a 3d 75 ee be 3d
       -0.12250872 -0.122837655 0.033708774 0.09322826
000070 f0 9e 8a bd f1 da 8b bd 4e c7 f8 3d a1 cd 0a be
       -0.06768596 -0.06828869 0.12147389 -0.13555004
000080 a0 22 40 3d a1 9d 2d 3e 5d 73 20 be e5 f5 17 be
       0.04690802 0.16954662 -0.15669008 -0.14839895
000090 d4 60 4b bc 39 e4 b4 bd d8 ea da 3d 69 3a 3b bd
       -0.012413222 -0.088325925 0.10689324 -0.04571

conv_time_spat.conv_spat.weight f4 [40, 40, 1, 44]
000000 d2 6f a4 3c 6a 13 65 ba b5 ce 16 bb c2 7e 26 3d
       0.020072851 -0.00087385497 -0.002301139 0.04064823
000010 9a aa 81 bc 69 3e 9d bc d4 42 72 3c b5 a4 c4 3c
       -0.01582842 -0.019194799 0.014786441 0.02400432
000020 d6 44 f3 bb 26 90 bc 3c c3 1b 21 bd 8a bd 36 3b
       -0.0074239774 0.023017954 -0.039333116 0.002788397
000030 d8 cc 03 3d c1 26 61 3c c4 91 32 3d a7 db 0c 3d
       0.032177776 0.01374215 0.043596044 0.034389164
000040 4c 72 ae 3c 45 91 8f b9 96 91 b7 ba 1e 0d 5a 3d
       0.021294735 -0.0002738332 -0.001400518 0.053235166
000050 0f fc 5f bc 0a b7 74 bd fb 49 e0 bb 28 0e 91 bc
       -0.013670935 -0.059744872 -0.0068447567 -0.017706946
000060 f7 35 83 3b 8c 10 a4 bc 00 13 1f bd 70 e1 cf bc
       0.004004236 -0.020027421 -0.03883648 -0.025376052
000070 ab 42 88 39 df 93 00 3d 96 a6 2b bd 5a 03 10 bd
       0.00025989613 0.03139102 -0.041906916 -0.035159446
000080 a9 56 bf 3c c5 b3 dd ba 98 48 dd 3c 6a 9d 2b bc
       0.023356752 -0.0016914537 0.027012154 -0.010474542
000090 3e b7 47 bd 45 46 5a bd 90 6d 36 ba 67 68 ec bc
       -0.048758738 -0.05328967 -0.0006959075 -0.028858377
0000a0 95 d0 a6 bc 43 c7 b1 bc 62 45 1e 3c f0 1c 00 3d
       -0.020363132 -0.02170146 0.009660097 0.031277597
0000b0 4b 2d 57 3d 81 ab cd bc e2 35 a9 3a 4f 7e 04 bd
       0.05253343 -0.025106193 0.0012909735 -0.03234702
0000c0 10 08 7d bb 53 2d e9 bc 78 0f c1 3d dc 2b bb bc
       -0.0038609542 -0.028463995 0.094267786 -0.022848062
0000d0 2f 45 a8 3b 19 07 55 bc ca a3 09 bd 8c 2b cb 3c
       0.0051352005 -0.0130021805 -0.033603467 0.024801038
0000e0 fc 11 08 3d 38 b3 3b 3d b4 2d a2 bc a0 a2 ef 3b
       0.033220276 0.045825213 -0.019797184 0.0073130876
0000f0 11 2c f2 bc 65 c2 2a bd 6f 3b 7d bc 33 25 0f 3e
       -0.029562028 -0.041689295 -0.015456065 0.13979034
000100 4b 10 dd 39 fe 50 13 bd 2f 8c 2a bd b4 c0 94 3c
       0.00042164544 -0.035965912 -0.041637596 0.018158294
000110 0e 96 ad 3d 82 53 9a bc 37 90 f5 bc 96 59 da 3b
       0.08475886 -0.018838648 -0.029975994 0.0066635115
000120 26 b2 b8 bc 16 5d ce bc d3 71 2b 3d 02 56 16 bc
       -0.022545885 -0.025190871 0.041856598 -0.009175779
000130 b1 b9 9b 3d 53 c8 4e bc bc 41 3b 3c ee 7b a2 3c
       0.07603777 -0.012621003 0.0114292465 0.019834485
000140 05 50 c4 bc 91 af 0a bd 91 0a c5 bc b0 e2 b9 bd
       -0.023963938 -0.03385884 -0.02405289 -0.0907644
000150 59 0b a4 3c a0 6d 8d 3c a0 ab fe ba f2 de 05 3d
       0.020024942 0.017264187 -0.001942981 0.03268332
000160 97 bc 76 3d 88 f0 4f bd e7 b3 5f bd cf a7 d1 bc
       0.060238447 -0.050766498 -0.054614928 -0.025592713
000170 ed 52 38 3d cb 2d 30 3c 3f 28 a5 3b 3b 54 01 3e
       0.04500096 0.010753105 0.005040198 0.12629788
000180 ef 46 c5 bc a1 c8 00 bd 06 f8 5c bc bd 7b 96 bd
       -0.024081675 -0.031441335 -0.013486868 -0.0734782
000190 2f 6e 3c bb 82 de 8e 3a 55 1c cc 3d 6b 6b 86 3d
       -0.0028752198 0.0010900053 0.099663414 0.06563457
0001a0 8d e9 63 bc 3b 4d 22 3e 3d 23 ab 3c 47 3b 4d bd
       -0.013910663 0.15849774 0.020890826 -0.05010536
0001b0 48 ad 19 3d ea 0b 3a bd 22 8a 03 bd db c6 12 3c
       0.03751877 -0.04542152 -0.032114156 0.008958544
0001c0 3d 1d 96 ba a4 f9 e9 bc e5 11 c0 3c 51 36 25 3d
       -0.0011452805 -0.02856142 0.023446033 0.040335003
0001d0 79 62 f3 3c d7 db 00 3e ab 68 0b bd e8 39 a4 bb
       0.029710041 0.12583862 -0.034035366 -0.005011786
0001e0 f7 f7 4b 3b ae ef e7 3d 4a 36 60 bd b1 43 68 bd
       0.003112314 0.11325012 -0.054739274 -0.05670518
0001f0 1b 2a 61 bd b5 86 07 bd 27 93 15 be 51 d5 e0 bd
       -0.054971796 -0.03308745 -0.14606915 -0.10978187
000200 2f ed 2a 3d c2 29 87 bd 00 3a d2 3c 52 6c 49 bd
       0.041730102 -0.065997615 0.025662422 -0.049175568
000210 7f 35 60 3d 14 b2 c9 3c 39 51 3e 3d ca 37 0e 3d
       0.054738518 0.024621047 0.04646418 0.034721173
000220 58 e8 7e 3c 40 fd 56 3d 4e 46 cf 3c a0 5c 1a 3d
       0.015558325 0.05248761 0.025302079 0.03768599
000230 21 b1 0b 3d 1e 28 17 3c 20 2c 98 39 23 1e 6c bc
       0.03410447 0.009225873 0.00029024575 -0.014411482
000240 62 dc 82 3c 85 d0 35 3c 5f 79 c7 3d 37 8e 6f 3b
       0.015974227 0.011097078 0.097399466 0.0036553273
000250 13 40 24 3d 16 8d 3a 3d f4 c8 3e 3c 84 fb 89 3c
       0.04010017 0.045544706 0.011644591 0.016843565
000260 d0 08 91 3c 0b 1a f0 bb e7 38 1b bc 9a 61 c1 3c
       0.017704397 -0.0073273233 -0.009474016 0.02360611
000270 ae 95 d1 bc eb 84 10 bd d4 6d 94 bc b2 d7 0d bb
       -0.025584068 -0.03528301 -0.018118776 -0.0021643457
000280 15 55 5c 3c 58 da 39 3d c2 3c 8f bd 85 d5 b5 bc
       0.0134480195 0.045374244 -0.069940105 -0.02219654
000290 72 4f 61 bc d0 72 e6 3c cd 0c 92 3b 63 62 48 bd
       -0.013751851 0.028130919 0.0044570924 -0.048921954
0002a0 4b 7d a3 bc fd c6 29 bd fc 6e 1c bb 89 25 93 bc
       -0.019957205 -0.041449536 -0.0023869863 -0.017962234
0002b0 5b 13 91 bd 12 02 99 bd b5 46 b5 3c 73 70 60 bd
       -0.0708377 -0.07471098 0.022128442 -0.05479474
0002c0 31 b5 c1 bc af 38 44 3d 0b 52 3f 3c f6 7c 8d 3d
       -0.02364597 0.04790562 0.011677275 0.069086
0002d0 79 cf df bc 57 3e ef 3b 89 55 09 3c d6 9c 5f bd
       -0.02732061 0.0073011327 0.00838221 -0.05459293
0002e0 30 ce a9 bc 14 78 f6 3c 77 e6 c4 bc 41 ba 3b 3d
       -0.0207282 0.030086555 -0.024035675 0.045831922
0002f0 f7 9b 58 3c d4 cc ea bc 99 90 b0 bd 46 ca 2e bd
       0.013220779 -0.028662123 -0.0862133 -0.04267337
000300 07 a3 2d 3d 1d 0e cf bd 36 bf 8a bc 1e 5d cf 3d
       0.042391803 -0.10110114 -0.01693688 0.101251826
000310 2f a1 c7 3c 9d 81 d2 3b 22 c9 8b 3c f1 3d e0 bc
       0.02436885 0.0064241425 0.017063681 -0.027373286
000320 39 90 f1 3c d5 86 49 bd 6c 3e d8 ba 05 2d d1 3c
       0.029487716 -0.04920085 -0.0016498095 0.025534162
000330 f3 20 12 3b 80 82 b9 bd 81 b2 01 3d eb 8d d6 bc
       0.0022297471 -0.09058094 0.031664375 -0.026190719
000340 58 00 c3 3c fc 65 10 bd 79 8d 35 3c 1e 18 fb 3b
       0.023803875 -0.03525351 0.011081093 0.007662787
000350 93 aa 95 bb e1 f6 ba 3c b2 51 a3 bb cf 89 09 3d
       -0.004567453 0.0228228 -0.004984104 0.03357869
000360 ff a9 d4 bc 03 56 5b 3d de 86 5d bd 64 0f 93 3b
       -0.025959967 0.053548824 -0.054083697 0.0044879187
000370 d4 46 63 3d 53 7f 76 bc 7d 8b cb bc 3e 09 97 bc
       0.05548747 -0.015045005 -0.024846787 -0.018437024
000380 c5 dc 19 bd 2b 12 27 3d a0 ef ac 3d fa ba e1 3d
       -0.037564058 0.04078881 0.08444142 0.11021991
000390 e9 f9 b9 3c 59 f1 f2 3b 71 e5 7f 3c f5 c8 f0 3c
       0.022702174 0.007414025 0.015618668 0.029392699
0003a0 63 ab 3c bc 60 29 3d bc e4 07 97 3d 4e c8 e1 3b
       -0.011515471 -0.011545509 0.07374552 0.0068903333
0003b0 fd cb 59 bc 15 e8 1a 3d 12 39 17 bc dd 59 56 3d
       -0.0132932635 0.037818987 -0.009229915 0.052331794
0003c0 6d 26 d9 3c d7 27 8d bd 5b f1 fc bc f5 6d 49 bd
       0.02650758 -0.068923645 -0.030876806 -0.04917713
0003d0 f5 36 a1 3d 72 e0 28 3d 18 86 af 3c 8c d9 00 3d
       0.0787181 0.041229673 0.021426246 0.03145747
0003e0 44 96 a0 3c b3 6c 30 3d 0e 3e 69 3d bc 92 31 bc
       0.019602902 0.043072414 0.056943946 -0.010838207
0003f0 b4 27 79 3d 59 8f 64 3d 8b c1 af bc 0c e8 1d bd
       0.06082888 0.05580077 -0.021454593 -0.038551375

bnorm.weight f4 [40]
000000 f0 4a 7c 3f 6f 90 78 3f f4 78 7a 3f 71 21 7d 3f
       0.98551846 0.9709539 0.9784081 0.9887915
000010 7b a8 7f 3f 6b 0f 67 3f 00 05 76 3f ee d0 81 3f
       0.99866456 0.902579 0.9610138 1.0141885
000020 5b 8c 5b 3f 87 f1 7b 3f f6 9a 80 3f c8 c3 81 3f
       0.8576104 0.98415416 1.004729 1.0137873
000030 9a 96 80 3f 78 e7 71 3f 5f 4b 6f 3f 19 53 80 3f
       1.004596 0.9449382 0.9347438 1.0025359
000040 ea d3 83 3f cd 11 5a 3f 65 db 66 3f ac f5 7c 3f
       1.0299046 0.8518341 0.9017852 0.98812366
000050 cb 5e 84 3f c8 68 77 3f 6c 75 84 3f c6 3a 6a 3f
       1.0341429 0.9664426 1.0348334 0.9149593
000060 05 3b 7d 3f 6b 8a 80 3f f2 ff 62 3f 72 35 75 3f
       0.9891818 1.0042242 0.8867179 0.95784676
000070 31 c8 7b 3f f4 85 72 3f 45 95 6f 3f c7 e7 7b 3f
       0.9835234 0.94735646 0.9358714 0.9840054
000080 09 9e 6a 3f fc db 7b 3f ba 2b 82 3f 0e ce 64 3f
       0.9164739 0.98382545 1.0169594 0.89376915
000090 8a 1d 73 3f 28 0b 6f 3f ca d2 6d 3f 82 b3 83 3f
       0.9496695 0.933764 0.92899764 1.0289156

bnorm.bias f4 [40]
000000 02 ff c5 be b9 2c 57 be 54 56 7b 3e 3d ce 99 3d
       -0.38671118 -0.21013154 0.2454465 0.0751004
000010 bc d9 b6 be 95 b8 72 3e a1 d4 0f 3e 67 eb 13 3e
       -0.35712993 0.23703225 0.14045955 0.14445268
000020 d4 8c 27 3e e5 51 a3 be 37 56 16 3e 51 50 17 be
       0.16362315 -0.31898418 0.14681326 -0.14776732
000030 cd 9d a7 3e 5c 89 2f 3e d0 5e 0a 3e 6a 86 be be
       0.3273758 0.17142242 0.1351273 -0.37211925
000040 39 f4 71 be 23 da 3a 3e 11 13 27 be 2d 82 bc 3d
       -0.2362832 0.18247275 -0.16315867 0.092045166
000050 bb ba 48 3e 75 72 b0 3d 2d 94 37 be f9 d8 8f 3d
       0.19602482 0.08615581 -0.17927618 0.07023806
000060 96 d9 4b 3e c5 4d 6e 3e 88 18 68 be 86 02 dc bd
       0.19907221 0.23271854 -0.22665608 -0.10742669
000070 80 ed 8f 3e 19 32 65 be 15 35 4a 3e 55 46 37 be
       0.28110886 -0.22382392 0.19746812 -0.17897923
000080 a4 34 06 3e 86 1e 9a be d2 80 8d 3e da 28 7c 3d
       0.13106018 -0.30101413 0.27637345 0.061562397
000090 9d 8a 74 3e b6 1d 25 3e b0 49 22 be 98 58 c5 3d
       0.23881002 0.16124615 -0.15848422 0.096360385

bnorm.running_mean f4 [40]
000000 a7 2d 7d be f7 2b 8d 3e 5f 3a 64 3f e3 63 06 3f
       -0.24724446 0.27572605 0.8915157 0.52496165
000010 e5 70 a9 be 36 05 23 bf 61 10 4a 3b c3 7d 6b 3f
       -0.33093944 -0.63679826 0.0030832516 0.9198877
000020 a8 c4 dc bf 86 e7 45 be db 41 67 bf 9a 23 cd bf
       -1.7247515 -0.193266 -0.9033486 -1.602649
000030 65 8a 32 bf d6 22 6b be ed b9 a9 bf f2 f1 59 bf
       -0.69742423 -0.22962508 -1.3259865 -0.85134804
000040 d8 ef 9b bf 71 d2 ad 3f 9c 07 2c 40 1c 67 1e bf
       -1.218257 1.3579847 2.6879644 -0.6187608
000050 f7 0d a6 3f 3c c5 97 bc d9 5d ff be c6 d8 ed 3e
       1.2973012 -0.018526666 -0.49876288 0.46454448
000060 aa 1e 00 3f 3c 29 70 3e 50 43 c4 3f 03 a3 63 bf
       0.5004679 0.2345323 1.5333042 -0.8892061
000070 8f 42 81 3f 74 38 99 3f 3b a3 27 40 a9 7f 86 3f
       1.0098437 1.1970353 2.6193378 1.0507709
000080 e1 ec 4b 3e 9e 7c e0 3f f9 39 ae bf 23 e9 c7 bd
       0.19914581 1.753803 -1.3611442 -0.09761264
000090 36 78 23 be 40 12 b5 3e 44 06 24 3e e4 35 7f 40
       -0.15963826 0.35365486 0.16018015 3.9876642

bnorm.running_var f4 [40]
000000 65 e3 81 3b 98 c7 1c 3b 2d 0a a3 3b 86 ac 01 3b
       0.003963875 0.0023922678 0.0049755783 0.001978667
000010 26 d4 51 3b 30 bc 2e 3b b9 15 21 3b 9e 6e 47 3b
       0.003201732 0.0026662461 0.0024579598 0.0030430923
000020 b3 a2 70 3b 58 90 3a 3b 8e 85 a8 3b be 9c 95 3b
       0.003671807 0.0028467383 0.005142874 0.0045658043
000030 29 58 4c 3b 2b 56 ff 3a 0b 38 76 3b 46 c7 a8 3b
       0.0031180477 0.0019480636 0.0037570025 0.0051507084
000040 26 39 52 3b 2e ad 8c 3b 54 88 4d 3b c4 5e d4 3a
       0.003207752 0.0042931056 0.0031361775 0.0016202559
000050 e3 bc 7c 3b af 9d 17 3b ff b0 9a 3b 05 40 02 3b
       0.0038564734 0.0023134758 0.0047208066 0.0019874584
000060 e2 d6 7a 3b d1 2b 5a 3b 99 03 88 3b 80 59 51 3b
       0.0038275053 0.0033290277 0.0041508195 0.0031944215
000070 65 7d 0b 3b 1c da 62 3b 99 dc 8a 3b dc dc 16 3b
       0.0021284458 0.0034614867 0.004237723 0.0023019826
000080 12 49 0f 3b c8 2f b4 3b 8c 03 9a 3b 9a 46 8b 3a
       0.0021863622 0.00549886 0.00470013 0.0010625899
000090 c4 81 06 3b 0d 30 0b 3b d5 ee 13 3b eb 4d c7 3b
       0.0020524124 0.0021238357 0.0022572775 0.0060822866

final_layer.conv_classifier.weight f4 [4, 40, 144, 1]
000000 75 46 80 ba bd df 7b 3c da bf 89 bc cf 1d 75 3c
       -0.0009786623 0.015373168 -0.016815115 0.01496072
000010 c0 6c b3 3c 81 b1 a9 3c a8 ac aa bc 9c 19 f3 3b
       0.021902442 0.020714523 -0.020834282 0.0074188244
000020 e0 52 33 3d 47 58 b8 3b 73 d0 ad 3c 72 87 5c 3c
       0.043780208 0.005625758 0.02121756 0.013460027
000030 3d a0 83 3c dd c7 65 3c 60 e7 13 3c ff 64 2f bd
       0.016067619 0.014024702 0.009027332 -0.042820927
000040 cb 25 c2 bc 36 fd 9f 3c b0 22 ac 3c 3e cd 8d 3b
       -0.023699662 0.01952992 0.021012634 0.0043274453
000050 ec bc 0d 3d 36 58 89 3c 33 a1 59 3c 27 0a 0e 3d
       0.034603998 0.016765695 0.013283062 0.03467765
000060 f5 21 9e 3c 98 1a 3d 3d 46 93 ee 3c 6a a5 c7 3c
       0.019303301 0.04616794 0.02912296 0.024370868
000070 42 d0 66 bb 81 5d b9 3b f2 5f fa bb 32 ca 05 bc
       -0.0035219346 0.0056568985 -0.007640832 -0.008165883
000080 f1 b0 03 bc f1 08 76 3b dd f3 b5 bc 94 2e e7 b9
       -0.008037792 0.003754195 -0.02221101 -0.00044094457
000090 1c 20 4a 3d 68 49 d4 3c 2d 75 c8 3c c3 b5 ce 3c
       0.049347028 0.02591391 0.024469936 0.025233155
0000a0 2f 06 88 3c 07 92 4f bc 61 52 b9 3a c7 74 28 bc
       0.016604511 -0.012669093 0.0014138931 -0.010281748
0000b0 ab a3 2f 3c 78 db 9e 3c f8 25 6b bc 2a 34 58 ba
       0.010720174 0.01939176 -0.014352314 -0.0008247519
0000c0 b9 fb 00 bb 6f 29 8b 3c 58 58 ec 3c d9 c6 24 3c
       -0.0019681288 0.01698753 0.02885072 0.010057175
0000d0 99 e1 17 3d a5 35 75 3c c1 12 be 3b 66 e1 85 3c
       0.03708038 0.014966403 0.0058005755 0.01634283
0000e0 3c a3 4a bb 30 a8 bd 3c a1 56 9c 3c 57 7e 25 ba
       -0.003092005 0.023151487 0.019084277 -0.00063130766
0000f0 65 e1 70 bc f2 21 78 3c 14 14 e9 bc 52 1f e8 bc
       -0.014702176 0.015144812 -0.028451957 -0.028335247
000100 e2 29 aa 3b 6d b2 2e bc 71 b5 de bc 7d 67 84 ba
       0.005192981 -0.010662657 -0.027186127 -0.0010101643
000110 ed 8a 20 3c 25 76 71 bd ab 86 44 3c 08 5e d3 bc
       0.0097987475 -0.058950562 0.011994998 -0.025801674
000120 66 7d 61 bc 82 08 40 bd 07 4e 13 bd 6d a3 94 bc
       -0.0137628075 -0.046883114 -0.035963085 -0.018144334
000130 6b 12 2a bb d8 d8 03 bd f7 f3 c1 3b f0 b6 c7 3b
       -0.002595092 -0.03218922 0.0059189755 0.006094806
000140 27 0b 38 3c 79 a4 55 bc 56 fd 50 bc 73 8c 36 bb
       0.011233128 -0.013039702 -0.0127557125 -0.002785471
000150 04 ff 60 bc d4 9d 42 bc 0e 10 08 bd fa d5 40 3b
       -0.013732675 -0.0118784495 -0.033218436 0.0029424415
000160 22 32 c4 3b c8 a1 00 bd 8a 68 fb bc 50 aa 84 bc
       0.0059874216 -0.031404287 -0.030689497 -0.016194493
000170 96 3e 73 bc f3 35 c8 bc 10 f1 91 bc 2c b8 90 bc
       -0.014846465 -0.024439787 -0.017815143 -0.017665945
000180 b8 35 32 bc 57 2f 76 bc 8e 81 50 3c 58 67 f3 3c
       -0.010877065 -0.015025935 0.012726201 0.029712364
000190 d5 6b 96 bc da 34 8a 3c ee 94 b8 3b fb d7 be 3c
       -0.018361965 0.016870905 0.005632988 0.023296347
0001a0 88 91 3d 3b 29 3f 27 bc ba 33 28 3c 7b d3 ba 3b
       0.0028925855 -0.01020793 0.010266239 0.00570148
0001b0 15 27 bc bc 2f f3 3d bc 49 16 84 bc 04 46 bf bc
       -0.022967855 -0.011593624 -0.016123908 -0.023348816
0001c0 7d 4e ac bb 46 ef af bb 49 ee fd 3b 59 5f 01 bd
       -0.00525838 -0.0053691 0.007749353 -0.03158507
0001d0 8a d5 26 bd 2a 90 c3 bc b7 a6 07 bd a1 6a a7 bc
       -0.04073099 -0.023872454 -0.033117976 -0.020436587
0001e0 35 0f e2 bb 0c c9 cb bc b3 1d 23 bd 62 c4 d5 bc
       -0.0068987855 -0.02487614 -0.039823245 -0.02609462
0001f0 6e 35 9b bc cb 90 aa bc 3b 9b 7f bc d6 09 9f bb
       -0.018946376 -0.020820996 -0.015600975 -0.0048534675
000200 2e 8e c7 bc 9b eb de bc f7 2e e1 bc de 18 1f bd
       -0.024359789 -0.027211955 -0.027488215 -0.038842075
000210 d5 12 06 ba 20 eb 56 bd c6 30 59 bd 2e c0 b8 bc
       -0.00051145005 -0.052470326 -0.05302503 -0.022552576
000220 e8 4a 60 bd 7e 57 87 bd 89 62 8d bd 9c 4a 2e bd
       -0.054758936 -0.06608485 -0.0690356 -0.04255162
000230 88 1a 19 bc 06 34 58 bd 7f 5f d7 bc a1 96 c4 bc
       -0.009344704 -0.05278399 -0.026290653 -0.023997607
000240 a9 23 36 3c 7a 4e a4 3c 31 bb b6 bc 41 bb c7 3c
       0.0111169005 0.020056952 -0.022306057 0.024381282
000250 9f 15 3d bb 74 fe ed bb bb de ae bb 62 1d db 3b
       -0.0028851999 -0.007262999 -0.00533661 0.0066868523
000260 a9 bd 97 bc e7 56 0b 3b e3 11 e3 3c 15 a1 68 3c
       -0.018523054 0.0021261515 0.02771849 0.014198561
000270 4f ba 33 bd ec f2 f3 bc 0d 6a 66 bc a4 ad ff bc
       -0.04387885 -0.02977892 -0.01406337 -0.031210728
000280 90 34 64 bc f3 04 86 3b 7a d0 fc 3a aa fb e5 bc
       -0.0139285475 0.0040899455 0.0019288205 -0.028074104
000290 8e 90 1c 3d fe 15 a3 3c 15 4d 40 bc a6 61 ab bb
       0.038223796 0.019907948 -0.011737128 -0.0052301465
0002a0 a0 20 30 3b 2e c4 e0 bb 93 c4 5f 3c a8 aa 9f bc
       0.0026874915 -0.006859324 0.013657707 -0.019490555
0002b0 a1 33 fe 3c 3d 1f a2 3b fe 77 28 3c 3b 55 e6 3c
       0.031030478 0.0049475715 0.010282515 0.028116813
0002c0 5c 7e 4a 3c 12 9f 87 3c 19 53 e9 bb 84 de 9a bc
       0.012359228 0.016555343 -0.0071205017 -0.018904932
0002d0 24 68 8c 3c 45 18 ab bb 02 b1 8c bc 63 e6 a3 bc
       0.017139502 -0.005221399 -0.017174248 -0.020007318
0002e0 43 32 31 ba 66 a4 28 bc 81 3d 2e bd 18 cc ba bb
       -0.0006759504 -0.010293102 -0.042539123 -0.0057005994
0002f0 93 3c 12 bb ab f7 f7 bb 48 6c 85 bc 13 a2 04 bd
       -0.0022313937 -0.007567366 -0.016286984 -0.03238113
000300 23 c5 d8 bc 5c af 91 3b 2f 14 af bc 2c fe 35 3c
       -0.02646119 0.0044459533 -0.021371929 0.011107963
000310 98 a8 86 3c 45 ff 22 3c 02 d5 29 bd e0 da 10 bd
       0.016437814 0.009948556 -0.041462906 -0.035364985
000320 f5 0d 4c bc 85 38 c2 bc 67 45 a8 ba b7 ee 97 3c
       -0.0124544995 -0.023708591 -0.0012838066 0.018546445
000330 5d a1 be bc b3 42 04 bd 15 ef 29 bc b8 8a ff 3b
       -0.023270303 -0.03229017 -0.010371943 0.007798519
000340 81 b3 b5 bc 72 91 a3 3b 02 8b 53 3c 48 2e 10 3c
       -0.02218032 0.0049917037 0.01291156 0.008800097
000350 d6 ab 83 bc 1f 47 04 bd 74 ec ee bc a1 79 21 bd
       -0.016073149 -0.03229439 -0.029165484 -0.039422635
000360 30 88 c8 bc d1 20 8e bc b0 ab e1 bc 50 78 db bc
       -0.024479002 -0.017349632 -0.027547687 -0.026790768
000370 5c 61 0e bd db 3d 18 3b a3 8b f4 bb 58 53 06 3c
       -0.034760818 0.0023230228 -0.007462935 0.008198582
000380 be 8b 2a bc 32 83 c4 3c 56 c6 f3 bc 24 27 09 bd
       -0.010409294 0.02398834 -0.02975766 -0.033484593
000390 fd 67 d3 bc 04 86 2f 3c 95 37 ae bc a2 e0 d0 bb
       -0.025806421 0.010713104 -0.021266738 -0.0063744346
0003a0 74 f6 d2 39 36 a3 17 bd b9 f3 6a 3b c4 b3 24 bc
       0.00040237943 -0.037020884 0.0035850836 -0.010052625
0003b0 75 fb df bc 45 a3 aa 3b fc 55 81 3c 22 23 01 bc
       -0.027341584 0.0052074515 0.01578807 -0.0078819115
0003c0 9b ac d9 bc 33 fd f2 3c 44 2e b0 bc d3 3d 3c 39
       -0.026571563 0.02966175 -0.021506436 0.00017952108
0003d0 9b 10 2a bc 72 21 3c 3b 81 48 d2 bc fd bd 25 3b
       -0.010379936 0.0028706458 -0.025669338 0.0025290244
0003e0 59 14 b9 bc 8e 39 9a 3b ff 41 3a 3c 04 19 e7 3c
       -0.02259271 0.004706568 0.011368274 0.02821017
0003f0 2c 07 d6 3c ec 62 21 bc f4 5b a1 3c 7c ce ef bc
       0.026126467 -0.009850245 0.019697167 -0.029273264

final_layer.conv_classifier.bias f4 [4]
000000 89 cd b9 3c a3 d7 ef bc 1c 8e 90 3d e7 f9 32 bd
       0.022681015 -0.029277628 0.07058355 -0.043695357
