models/ShallowFBCSPNet_persons2_lr0.0001_wd0.01_bs16_acc0.7000.pth (torch, 383698 bytes, 9 tensors)

conv_time_spat.conv_time.weight f4 [40, 1, 25, 1]
0	0x3d1426e7	0.036169913
1	0x3d9cf501	0.07663918
2	0x3d3691c5	0.04457261
3	0xbc937657	-0.018000765
4	0x3d007ddb	0.031370025
5	0xbd1e501c	-0.038650617
6	0x3d8c6c86	0.06856637
7	0xbce8a183	-0.028397327
8	0x3bad0f38	0.005281355
9	0xbd236c58	-0.039898247
10	0xbd94c9a4	-0.072650224
11	0xbd3248c8	-0.04352644
12	0xbd1d56da	-0.038412906
13	0xbbcb4280	-0.006202996
14	0xbc7f98c2	-0.015600385
15	0xbc5e7ac5	-0.013579075
16	0xbcc49f3b	-0.024001708
17	0xbbf5a98b	-0.0074970177
18	0xbd42a603	-0.047521602
19	0x3c0ddbec	0.0086583905
20	0xbd5f6240	-0.054537058
21	0x3d8e8a9f	0.069600336
22	0xbc4f4711	-0.012651221
23	0x3d1293a7	0.035785343
24	0xbd2c169d	-0.042013753
25	0x3d382bad	0.044963527
26	0x3d2923bc	0.041293845
27	0xbbc6d46c	-0.006067803
28	0x3d5602ef	0.05224889
29	0xbd83b810	-0.064315915
30	0x3d612752	0.05496914
31	0xbb88a68e	-0.0041702455
32	0xbd8e631c	-0.06952497
33	0x3d10b4fd	0.035328854
34	0xbd6eb6b0	-0.058279693
35	0xbd3be6c1	-0.04587436
36	0x3d732f03	0.059371006
37	0x3c558ab3	0.013033557
38	0xbd52ae5c	-0.051435813
39	0xbd6d8c1d	-0.05799495
40	0x3d103de1	0.035215262
41	0x3d794ffa	0.060867287
42	0x3d897132	0.067110434
43	0xbca1d10d	-0.019753003
44	0x3c724d7d	0.014788982
45	0xbcf69937	-0.030102355
46	0x3d932297	0.07184332
47	0xbd4063a1	-0.046970014
48	0xbcfa0339	-0.030519115
49	0xbd6bc094	-0.057556704
50	0xbd2ae7a9	-0.041724835
51	0x3d364cd6	0.04450687
52	0x3d807664	0.06272581
53	0x3c067194	0.00820579
54	0xbd253e48	-0.0403426
55	0xba5a2a41	-0.00083223364
56	0x3c0ff6dd	0.008786884
57	0xbcbe80c8	-0.023254767
58	0x3bc6044c	0.0060429927
59	0xbd2b0ac8	-0.04175833
60	0x3da1cfd0	0.07900965
61	0x3d803aaf	0.06261193
62	0x3d8fdcb9	0.070245214
63	0xbc95a2ee	-0.018266167
64	0x3d4f55cc	0.05061893
65	0x3c473f7d	0.012161133
66	0xbca98831	-0.020694824
67	0xbd36a1ab	-0.044587772
68	0xbc029310	-0.007969633
69	0x3d57a41b	0.052646738
70	0xbd86845b	-0.065682136
71	0xbc8a456f	-0.016878812
72	0x3d054537	0.03253671
73	0xbcc05c55	-0.023481527
74	0xbd710bc0	-0.058849096
75	0x3c6bc8c8	0.014391132
76	0xbd6ae175	-0.05734392
77	0x3d8e4e6e	0.06948553
78	0xbd961da1	-0.0732987
79	0xbc9ef540	-0.019404054
80	0x3bf08029	0.0073394966
81	0xbd280a5a	-0.041025497
82	0xbd09c11c	-0.03363143
83	0xbcfba1b7	-0.03071676
84	0x3c7c115d	0.015384999
85	0xbd5a8cae	-0.05335682
86	0xbd8252dc	-0.063634604
87	0xbd8a9cc9	-0.06768186
88	0x3cb0ebe9	0.021596866
89	0xbbcb6d6b	-0.006208112
90	0x3d13fa6d	0.036127497
91	0xbc92412c	-0.017853342
92	0x3cdc230e	0.026872184
93	0x3d5bae60	0.053633094
94	0x3c971c52	0.018446121
95	0xbd3b944a	-0.045795716
96	0xbcfe7c0a	-0.031065006
97	0xbb6b5f59	-0.0035914986
98	0xbcb0d0bc	-0.021583907
99	0xbcb4c3df	-0.022066055
100	0x3d98d004	0.07461551
101	0x3da32094	0.07965198
102	0xbc8f5735	-0.017497638
103	0x3d3b2f92	0.045699663
104	0x3c97420d	0.018464113
105	0x3d848caf	0.06472146
106	0x3d81b4a1	0.0633328
107	0xbd6b553f	-0.057454344
108	0xbd6957e2	-0.056968577
109	0xb9dc2489	-0.0004198889
110	0x3be2421a	0.0069048526
111	0xbd80af29	-0.06283409
112	0xbd16e917	-0.036843386
113	0x3aa0fc76	0.001228227
114	0xbc4b2e5f	-0.012401192
115	0x3b9cf649	0.0047901017
116	0x3d2cc762	0.042182334
117	0x3d05b08d	0.032639075
118	0xbc2a12df	-0.010380476
119	0x3d344c75	0.044018228
120	0xbd4907b1	-0.0490796
121	0xbd4825c4	-0.04886414
122	0xbd0a7df6	-0.033811532
123	0x3d389925	0.045067925
124	0xbc454e60	-0.012042612
125	0x3d8aeda6	0.06783609
126	0x3d30fd11	0.043210093
127	0x3d423bcd	0.04742031
128	0x3d9e2355	0.07721583
129	0x3d17b27f	0.03703546
130	0x3d808ca7	0.06276827
131	0xbd5ffcc3	-0.05468441
132	0xbd27c547	-0.040959623
133	0xbd2c02f6	-0.04199501
134	0x3d43ae95	0.047773916
135	0xbd1d3fdf	-0.03839099
136	0x3d022e55	0.031782467
137	0x3d2707f7	0.04077908
138	0x3d73564d	0.059408475
139	0xbc985c18	-0.018598601
140	0x3d1a6b94	0.03770025
141	0x3c4b1c6f	0.012396916
142	0xbd8976ad	-0.06712089
143	0x3d261d2b	0.04055516
144	0x3d8d4a06	0.068988845
145	0x3d8c6efe	0.068571076
146	0xbcc71446	-0.02430166
147	0x3cc8ed36	0.024527173
148	0xbd2f51b7	-0.04280254
149	0x3d035130	0.03205985
150	0xbd8fb9c5	-0.070178546
151	0x3d16f21d	0.03685199
152	0x3d175fa2	0.036956437
153	0xbd15b512	-0.036549635
154	0x3ccab385	0.024743805
155	0x3d215091	0.039383475
156	0x3d679726	0.05654063
157	0x3d8364b5	0.06415693
158	0x3c84212b	0.016129097
159	0xbb25a2b3	-0.0025273978
160	0xbcc50cc1	-0.024053933
161	0xbcd0b73b	-0.025477996
162	0x3d84e0dd	0.06488202
163	0x3d35c1b6	0.04437419
164	0xbd039460	-0.032123923
165	0xbd9a53c5	-0.07535509
166	0x3b640b6f	0.0034796854
167	0x3d711f93	0.058868002
168	0xbd46cace	-0.048533253
169	0xbd7a1fff	-0.06106567
170	0xbd0338b7	-0.03203651
171	0xbd6615be	-0.05617308
172	0x3ce3343e	0.027734872
173	0xbd662b4d	-0.05619364
174	0x3b8ba78d	0.004261917
175	0xbd5d5c0d	-0.054042865
176	0x3bf4e6fc	0.0074738245
177	0x3d269773	0.040671777
178	0x3d34b9a3	0.04412235
179	0xbca7b05f	-0.020469842
180	0x3d0819fe	0.033227913
181	0x3d3a9fd1	0.04556257
182	0x3b6133c6	0.0034363135
183	0xbd89423a	-0.06702085
184	0xbce07c8f	-0.027403144
185	0xbd6096fe	-0.054831497
186	0x3d42a1ee	0.04751771
187	0xbd84b463	-0.064797185
188	0x3d0859d6	0.0332888
189	0xb72d48ac	-1.0328524e-05
190	0xbd367601	-0.04454613
191	0x3cbfee91	0.023429187
192	0xbc05f8bc	-0.008176979
193	0x3da61c9c	0.081109256
194	0x3d8999e8	0.067188084
195	0x3c18c0dd	0.009323326
196	0x3cededbd	0.029044027
197	0xba232445	-0.0006223361
198	0x3c2427e4	0.010019276
199	0xbc9d45f0	-0.019198388
200	0x3d51945a	0.05116687
201	0x3c7bff9b	0.015380765
202	0xbbcd3176	-0.0062619997
203	0x3d862cd5	0.0655152
204	0x3d35ff90	0.044433177
205	0xbd82a150	-0.06378424
206	0xbbe62d35	-0.007024432
207	0x3d3ecab0	0.046580017
208	0x3d6b6a18	0.057474226
209	0x3d9722ae	0.073796615
210	0x3d7e8842	0.062141664
211	0x3d348bd6	0.04407867
212	0xbd0c64ae	-0.034275703
213	0xbd6b6dcd	-0.05747776
214	0x3caea0c7	0.021316899
215	0x3c9607f5	0.018314341
216	0xbcf3059a	-0.029665757
217	0xbd2c6acc	-0.042094037
218	0xbd9074bd	-0.07053516
219	0x39a6572e	0.0003172694
220	0xbd88f620	-0.066875696
221	0xbd3057ab	-0.043052357
222	0xbc8f43d3	-0.017488396
223	0xbd842d28	-0.06453925
224	0xbcba637d	-0.022752518
225	0x3d2b31ff	0.041795727
226	0xbd0aadda	-0.033857204
227	0x3d5d885e	0.054085128
228	0x3d9574ec	0.07297692
229	0x3d2925a4	0.041295663
230	0xbcecbc04	-0.028898247
231	0xbd48a7d4	-0.04898818
232	0xbcd7491b	-0.026279977
233	0xbbc0df5f	-0.005886003
234	0xbd82d182	-0.06387617
235	0xbd6ea326	-0.05826106
236	0xbcf77c11	-0.030210527
237	0xbd890c75	-0.06691829
238	0x3d1d6dc6	0.038434766
239	0x3d8800ae	0.06640755
240	0xbd40e6ef	-0.047095235
241	0xbd0f5b1e	-0.034999005
242	0xbcf18bc8	-0.029485598
243	0xbba8ff33	-0.0051573752
244	0xbd923025	-0.07138089
245	0x3caae5d8	0.020861551
246	0x3d8cc905	0.06874279
247	0x3a7efcd7	0.0009727007
248	0x3d862ea9	0.065518685
249	0x3c893ea0	0.016753495
250	0x3d370708	0.04468444
251	0x3c64db22	0.013968261
252	0xbd901185	-0.070345916
253	0xbd3d1b9f	-0.04616892
254	0xbd38a26f	-0.045076784
255	0xbdad4386	-0.08460145

conv_time_spat.conv_time.bias f4 [40]
0	0x3a9182a3	0.0011101555
1	0x3907f976	0.00012967535
2	0x3c1c1654	0.009526808
3	0x3b83fef6	0.0040281964
4	0x3be2b3c7	0.006918404
5	0xba23a7ca	-0.0006242959
6	0xbb381a41	-0.002809182
7	0x3be7ddc6	0.007075998
8	0xb99f993e	-0.00030441018
9	0x3b0a47c2	0.00210999
10	0x3b325e53	0.0027216866
11	0xbb8f5f8e	-0.0043754047
12	0xbb6e52e1	-0.0036365318
13	0x39ca5458	0.00038591283
14	0xbbce66d2	-0.006298878
15	0x39df7105	0.0004261808
16	0xbb5f0256	-0.0034028492
17	0xb9a4e4ab	-0.00031450888
18	0xbb1e5acd	-0.0024163008
19	0x3ae6bd6b	0.0017604058
20	0x395bfc48	0.0002097945
21	0x3b93bae9	0.0045083654
22	0x3a53429a	0.00080589356
23	0x3b92094e	0.0044566756
24	0xbb858c07	-0.0040755305
25	0x3bea00e3	0.007141219
26	0xbc056020	-0.008140594
27	0x3afed0cb	0.0019440887
28	0xbb871b2a	-0.0041231113
29	0x3b46cf2a	0.0030335882
30	0x3bd397ba	0.006457296
31	0x3a5500b6	0.0008125411
32	0x3c24c534	0.0100567825
33	0xbbae461f	-0.0053184177
34	0x3c0d15c6	0.008611148
35	0xb9268f72	-0.00015884431
36	0x3b9f7ad7	0.0048669386
37	0x3b957f3f	0.004562288
38	0x3bb7adc6	0.005605432
39	0x3b367ecb	0.002784657

conv_time_spat.conv_spat.weight f4 [40, 40, 1, 44]
0	0x3a226f1a	0.0006196365
1	0xbd3086e3	-0.043097388
2	0xbc9b92cf	-0.018990902
3	0x3c598767	0.013276911
4	0xbcc1253c	-0.023577325
5	0xbcd9ed44	-0.026602395
6	0x3d2f07f2	0.042732187
7	0x388bb38c	6.66148e-05
8	0xbd1a4876	-0.03766676
9	0xbb7f672c	-0.0038971407
10	0x3d027da4	0.0318581
11	0x3d224f15	0.0396262
12	0xbc11e3dd	-0.0089044245
13	0xbcaa0bb2	-0.02075753
14	0xbd41b615	-0.047292788
15	0xbd016933	-0.031594466
16	0xbd0dfccb	-0.03466491
17	0x3c2f774c	0.010709595
18	0x3c5efe44	0.013610426
19	0x3bc55712	0.0060223425
20	0x3ca45734	0.020061113
21	0xbc9f2b83	-0.019429928
22	0xbb535dc5	-0.0032251936
23	0x3cc6ee6b	0.024283608
24	0xbcc9a208	-0.024613395
25	0x3af278cd	0.0018499136
26	0x3ca06504	0.019579418
27	0x3c85d5f1	0.016337367
28	0x3bbded28	0.0057960935
29	0xbd08248e	-0.033237986
30	0xbc3eeda1	-0.011653335
31	0xbc5f32ea	-0.013622979
32	0x3cec08f4	0.028812863
33	0xbc9d49a4	-0.019200154
34	0x3ccb8e9d	0.024848277
35	0x3c228451	0.009919242
36	0xbd078910	-0.033089697
37	0xbd1fdf33	-0.03903122
38	0x3c9564f8	0.018236622
39	0xbc9edbab	-0.019391855
40	0x3c07a599	0.008279228
41	0x3cad4eb5	0.021155694
42	0xbd411f57	-0.04714903
43	0xbd43d413	-0.04780967
44	0x3ab807c1	0.0014040397
45	0xbd287d37	-0.04113504
46	0xbb7063c6	-0.0036680563
47	0xbc10e4fd	-0.008843658
48	0xbd1cbcfe	-0.038266174
49	0x3c9f3468	0.019434169
50	0x3d0441f7	0.03228947
51	0xbd1e9ce3	-0.038723838
52	0xbc8485ee	-0.016177144
53	0x3c07bcbd	0.008284745
54	0x3c029b35	0.007971575
55	0x3d265f95	0.040618498
56	0xbcd609ce	-0.026127722
57	0xbce1198b	-0.027478
58	0x3cb85d3e	0.022505399
59	0xbc86ce6f	-0.016455857
60	0xbcd16f97	-0.025565905
61	0x3c649414	0.01395132
62	0xbd40057d	-0.046880234
63	0x3d53913e	0.051652186
64	0xbcf25596	-0.029581826
65	0xbbd1612e	-0.0063897585
66	0xbc8c227f	-0.017106293
67	0xbbcef0a5	-0.006315308
68	0x3cf936a7	0.030421568
69	0xbcc46b22	-0.023976866
70	0xbd24880e	-0.040168814
71	0xbc7b0eaf	-0.015323325
72	0xbd0a20f4	-0.033722833
73	0xbcfc4b24	-0.030797549
74	0x3bcac502	0.006188036
75	0x3b72c8a2	0.0037045856
76	0xbd5d52df	-0.05403411
77	0xbc717ed0	-0.014739707
78	0x3c9fe213	0.01951698
79	0xbd1f174d	-0.03884058
80	0xbc689260	-0.014195055
81	0xbd2ec229	-0.042665634
82	0xbbdda9ab	-0.0067646108
83	0x3d3ce8a7	0.046120312
84	0xbd2e0893	-0.042488646
85	0xbceaffa7	-0.028686358
86	0x39d7eacc	0.00041182933
87	0x3b404266	0.0029336452
88	0xbc667f5f	-0.014068454
89	0xbcb3758d	-0.021906639
90	0x3c78f988	0.015196212
91	0x3d20a024	0.039215222
92	0xbd127114	-0.03575237
93	0x3a60c99f	0.0008574966
94	0xbc89f42e	-0.016840067
95	0x3c51edc9	0.01281304
96	0x3cd5154b	0.02601113
97	0x3c9d7496	0.019220632
98	0x3b0c9739	0.002145244
99	0xbbcba4bf	-0.0062147076
100	0xbc407369	-0.011746266
101	0xbbe2d917	-0.006922852
102	0xbb969d6c	-0.004596403
103	0x3cf0c6cd	0.02939167
104	0x3ce2f03e	0.027702447
105	0xbb2950ac	-0.0025835438
106	0x3d2ad577	0.041707482
107	0x3d12f015	0.03587349
108	0x3d2d9c55	0.042385418
109	0xbbe3cf31	-0.0069521894
110	0xbd147366	-0.036242865
111	0xbd04f06b	-0.032455843
112	0xbbd79c18	-0.006579887
113	0xbd10ab2e	-0.0353195
114	0xbc5e05d3	-0.013551193
115	0x3cdabce4	0.026701398
116	0xbce22add	-0.02760833
117	0xbc9c9735	-0.01911507
118	0x3cd85586	0.026407968
119	0x3d04c0bd	0.032410372
120	0x3d03b976	0.03215929
121	0x3c1a0018	0.009399436
122	0x3c91709b	0.01775389
123	0x3ce5edb5	0.02806745
124	0x3ce84fa5	0.02835829
125	0x3d036b86	0.032084964
126	0x3b672c90	0.0035274364
127	0x3c58def8	0.013236754
128	0xbd10059b	-0.035161596
129	0x3cedafe2	0.029014532
130	0x3cdbd5e2	0.026835386
131	0x37e14654	2.685484e-05
132	0x3c22e295	0.009941717
133	0xbcfaf086	-0.030632269
134	0x3cbd2d52	0.0230929
135	0x3d088740	0.03333211
136	0xbc87ff16	-0.016601127
137	0xbc376e58	-0.011195742
138	0x3ca89fb3	0.020583963
139	0xbd2b35d4	-0.04179938
140	0x3d2f7b3c	0.042842135
141	0x3c23989a	0.0099851135
142	0xbc0392f8	-0.008030646
143	0xbd153467	-0.036426928
144	0xbca86b0b	-0.020558855
145	0xbcf0e9c7	-0.029408349
146	0xbce8073d	-0.028323764
147	0x3ce0dff9	0.027450548
148	0xbd2b8ed4	-0.04188426
149	0xbb009ab3	-0.0019623458
150	0xbcf81f51	-0.03028837
151	0xba9b8cf1	-0.0011867565
152	0x3d10a8b0	0.035317123
153	0x3c258adf	0.01010391
154	0xbc354d44	-0.011065785
155	0xbcf7cde0	-0.030249536
156	0x3cdf6517	0.027269883
157	0xbc6f5d5e	-0.014609663
158	0xbccd6b58	-0.0250756
159	0xbcdbd2d5	-0.026833931
160	0x3bc1e838	0.005917575
161	0xbc56cd62	-0.0131104905
162	0xbcfe1ba0	-0.031019032
163	0x3c270965	0.010195111
164	0x3c5c7eab	0.013457934
165	0xbbc516dd	-0.0060146884
166	0xbcb09661	-0.021556081
167	0x3aa8fa89	0.0012892048
168	0xba7461fd	-0.0009322463
169	0xbca9696b	-0.02068015
170	0xbc50c53d	-0.012742338
171	0xbc91c181	-0.017792465
172	0xbcdfb476	-0.02730773
173	0xbcf94853	-0.030429995
174	0xbce16626	-0.027514528
175	0xbcfdae04	-0.030966766
176	0x3ca7e85d	0.020496542
177	0xbcb6d329	-0.022317486
178	0xbcd6d99e	-0.026226815
179	0xbd0d2692	-0.03446061
180	0xbcab2beb	-0.020894965
181	0xbd264b7c	-0.04059933
182	0x39cfbc21	0.00039622284
183	0xbc95e6ee	-0.018298592
184	0xbd34782b	-0.044059914
185	0x3cc6d5cb	0.024271866
186	0x3ca23273	0.019799447
187	0x3ca4d09f	0.02011901
188	0x3d0c6b11	0.034281794
189	0x3b33036b	0.002731527
190	0x3cfe0cf5	0.031012038
191	0x3c170793	0.009218114
192	0x3cb6d0c9	0.022316353
193	0x3cecb4dd	0.028894836
194	0xbcd00b25	-0.02539594
195	0xbcf60de2	-0.030035917
196	0x3c805a61	0.015668096
197	0x3b6e3c4b	0.0036351855
198	0xb9d3ecac	-0.0004042139
199	0xbcdaa480	-0.026689768
200	0x3caf4518	0.021395251
201	0x3c7ccee7	0.015430189
202	0xbb32e9f1	-0.0027300084
203	0x3cc4dd24	0.02403123
204	0x3c248f7a	0.010043973
205	0xbce9cd7d	-0.028540367
206	0x3c8d82bc	0.017274253
207	0xbd248df2	-0.040174432
208	0xbcb64498	-0.022249505
209	0xbcffe849	-0.031238692
210	0x3b1ada00	0.0023628473
211	0xbd2a3729	-0.04155651
212	0xbcef48ee	-0.02920958
213	0xbd0c0ba4	-0.03419079
214	0xbc5715ba	-0.013127739
215	0x3d2370e0	0.039902568
216	0xbc8015a1	-0.015635313
217	0x3c9dafba	0.019248832
218	0xbc805910	-0.015667468
219	0xbcd720b3	-0.02626071
220	0xbc935473	-0.017984604
221	0xbb8568b3	-0.004071319
222	0x37607a88	1.33799695e-05
223	0x3d23683f	0.03989434
224	0xbd229f1a	-0.039702512
225	0xba179fe4	-0.00057840184
226	0xbc82d18d	-0.015969062
227	0x3c93e653	0.018054163
228	0x3cf2440c	0.029573463
229	0xbc38e10e	-0.011284126
230	0xbc89191a	-0.016735602
231	0x3bb7bc5c	0.005607171
232	0x3c5ba31a	0.013405586
233	0xbc8e9ccc	-0.017408751
234	0xbd02d1b5	-0.031938273
235	0xbd17557b	-0.036946755
236	0x3d0ccad7	0.03437313
237	0xbc2710a6	-0.01019684
238	0x3d2b811b	0.04187117
239	0xbbf97d75	-0.0076138326
240	0xbcff45af	-0.031161157
241	0xbcc7a3fc	-0.024370186
242	0x3c71450e	0.014725937
243	0x3d082849	0.033241544
244	0xbca1cc11	-0.019750627
245	0xbce1debc	-0.027572028
246	0xbc93530c	-0.017983936
247	0x3b88fe1d	0.0041806833
248	0xbd0de8c7	-0.034645822
249	0xbce13d92	-0.02749518
250	0xbd29b10f	-0.04142862
251	0x3cf437e9	0.029811816
252	0xbcb05515	-0.021524945
253	0x3b161d1a	0.002290553
254	0xbc49bddc	-0.012313332
255	0x3bb8584b	0.0056257597

bnorm.weight f4 [40]
0	0x3f8218e8	1.0163851
1	0x3f806a68	1.0032473
2	0x3f845cd9	1.0340835
3	0x3f865727	1.0495347
4	0x3f839032	1.027838
5	0x3f858c37	1.0433415
6	0x3f828c44	1.0199056
7	0x3f82360b	1.0172743
8	0x3f7b7fa3	0.98241633
9	0x3f841573	1.0319046
10	0x3f820fcb	1.016107
11	0x3f83b57b	1.0289758
12	0x3f8390d5	1.0278574
13	0x3f81c4bc	1.0138164
14	0x3f8592cc	1.0435424
15	0x3f7e439e	0.99321926
16	0x3f7cb108	0.9870763
17	0x3f81f9a1	1.0154306
18	0x3f84b2ea	1.03671
19	0x3f819888	1.0124674
20	0x3f84bbab	1.0369772
21	0x3f848966	1.0354431
22	0x3f813afc	1.0096126
23	0x3f8611b3	1.0474151
24	0x3f84e8ef	1.0383586
25	0x3f8295af	1.020193
26	0x3f7948b8	0.97376585
27	0x3f7ceeb1	0.98801714
28	0x3f82133e	1.0162122
29	0x3f809c26	1.0047653
30	0x3f85a21a	1.0440094
31	0x3f857f15	1.0429407
32	0x3f7e17fa	0.99255335
33	0x3f861781	1.0475923
34	0x3f831c78	1.0243063
35	0x3f7c72dc	0.9861276
36	0x3f83a511	1.0284749
37	0x3f784556	0.969808
38	0x3f82fbcf	1.0233096
39	0x3f83a6c3	1.0285267

bnorm.bias f4 [40]
0	0xbc41f0b3	-0.011837172
1	0x3c000f31	0.007816122
2	0xbc8e8bd5	-0.017400661
3	0xb9ebc996	-0.00044972886
4	0xbb25316a	-0.0025206455
5	0xbc6379c2	-0.01388401
6	0x3c9a6477	0.018846733
7	0x3be76e2b	0.0070626936
8	0xbc8bd43a	-0.017068971
9	0x3cc45e36	0.023970705
10	0x3cbf4c46	0.0233518
11	0x3ca2ab98	0.019857213
12	0x3c87e6b2	0.016589496
13	0x3a2b08b7	0.0006524431
14	0x3b646c6d	0.0034854666
15	0xbcd25a0f	-0.025677709
16	0xbc1ded9f	-0.009639173
17	0x3c6d9e0a	0.0145030115
18	0xbb9a9e83	-0.004718603
19	0xbcbf6465	-0.023363302
20	0xbc2cacb5	-0.010539223
21	0x3c2513c1	0.0100755105
22	0xb9e2321d	-0.00043143416
23	0xbc95ec04	-0.018301018
24	0x3b923eb5	0.0044630417
25	0xbbf964e3	-0.0076109036
26	0xbc090bbe	-0.008364616
27	0xba37868e	-0.0007000946
28	0x3c42ada7	0.011882222
29	0x3c68e15d	0.014213887
30	0x3c64fd18	0.013976358
31	0xbb5e7480	-0.003394395
32	0xbc98a69e	-0.018634137
33	0x3cae1995	0.021252433
34	0x3b95b0a3	0.004568176
35	0x3a0eedf0	0.00054523256
36	0x3cf09bf2	0.029371236
37	0x3c25dfc5	0.010124152
38	0xb8d2c31a	-0.00010049921
39	0x3c4c185e	0.012456981

bnorm.running_mean f4 [40]
0	0xbaa58b7f	-0.0012630074
1	0xbb9acef4	-0.0047243778
2	0x3c0d0052	0.008606033
3	0x3ca1d77b	0.01975607
4	0xba373293	-0.0006988432
5	0x3b652c5e	0.0034969072
6	0x3c15a2a2	0.009133013
7	0xbc4a5551	-0.012349443
8	0xbb97938a	-0.0046257423
9	0xb7da4ce7	-2.6023436e-05
10	0x3c011778	0.007879131
11	0x3c720bfa	0.014773363
12	0xbb88f5fb	-0.004179714
13	0xb9b25572	-0.00034014467
14	0x3b597ad7	0.003318479
15	0xbb274df4	-0.0025528641
16	0x39930980	0.00028045103
17	0x3afaf333	0.0019145965
18	0xbc0b08eb	-0.008486013
19	0xbbae038d	-0.005310482
20	0x3a075c84	0.0005163627
21	0xba4f6271	-0.0007911092
22	0x3b78dabb	0.003797217
23	0x3b05fb8f	0.002044413
24	0xbc5d0e29	-0.013492146
25	0xbbb81320	-0.0056175143
26	0xbbd31ed2	-0.006442883
27	0x3b0dc229	0.002163062
28	0xbb94596d	-0.004527262
29	0x3a8b43df	0.0010625086
30	0x3cc2dbc3	0.023786431
31	0x3b8d6286	0.0043147234
32	0x3bf55ba8	0.007487733
33	0xbc35d9ec	-0.01109932
34	0x3c6b19ce	0.014349414
35	0x3c60240e	0.013680471
36	0x3b7b428d	0.0038339228
37	0xba8788fd	-0.0010340508
38	0x3b78081e	0.0037846635
39	0x3a8bf3a2	0.0010677467

bnorm.running_var f4 [40]
0	0x398e2e52	0.00027118862
1	0x394ebe3b	0.00019716557
2	0x3907e1f8	0.00012958783
3	0x39b29f05	0.00034069284
4	0x391195b7	0.0001388405
5	0x3964105a	0.00021749866
6	0x398a7573	0.00026408918
7	0x391a9cfa	0.00014745063
8	0x38c4cbc0	9.38396e-05
9	0x39b70720	0.00034909789
10	0x396f26b5	0.00022807236
11	0x39a0b8ac	0.0003065517
12	0x39be03fa	0.00036242587
13	0x396d0f74	0.00022607838
14	0x396894b5	0.00022180642
15	0x3954a4af	0.00020279245
16	0x39ad6242	0.0003307034
17	0x39863f9a	0.00025605859
18	0x39780291	0.00023652079
19	0x3969b63a	0.00022288496
20	0x39a14ad1	0.00030764056
21	0x394cb5a6	0.00019522625
22	0x39287c7b	0.00016068101
23	0x390df8b4	0.00013539457
24	0x39859ecb	0.00025486047
25	0x39584cc5	0.00020627964
26	0x38bd8edb	9.038831e-05
27	0x39275d6b	0.00015961162
28	0x393b3760	0.00017854339
29	0x39852d5d	0.00025401535
30	0x39bddad0	0.00036211917
31	0x399a9985	0.0002948755
32	0x3908e003	0.00013053422
33	0x39ab0b2c	0.00032623985
34	0x3995613d	0.00028491943
35	0x39367ff5	0.0001740454
36	0x39960b59	0.00028618684
37	0x380aa275	3.3053064e-05
38	0x39a74c7f	0.00031909716
39	0x39ab11f9	0.00032629052

final_layer.conv_classifier.weight f4 [4, 40, 144, 1]
0	0xbc8b3831	-0.016994568
1	0x3c76d175	0.015064587
2	0x3d12587b	0.035728913
3	0x3c9146cd	0.017733956
4	0x3bacc2c4	0.0052722413
5	0xbbf73aa2	-0.0075448314
6	0xbc691f98	-0.014228724
7	0xbc14c018	-0.009079002
8	0x3cabda3f	0.020978091
9	0x3d308d13	0.04310329
10	0x3d156c02	0.036479957
11	0xbcae7e51	-0.021300467
12	0x3d00fa6a	0.031488813
13	0xbbd898e8	-0.0066100247
14	0x3d0a4ac5	0.033762712
15	0xbc316920	-0.010828286
16	0xbc9db2ea	-0.019250352
17	0xbc46687e	-0.012109874
18	0xbca35245	-0.01993669
19	0xbae452db	-0.0017419712
20	0x3b84481e	0.0040369174
21	0x3b86c3cb	0.004112696
22	0x3c9c0aa1	0.019048037
23	0xbc3cf757	-0.01153358
24	0x3cbbde59	0.022933172
25	0x3c94c910	0.01816228
26	0x3c147f65	0.009063576
27	0xbcb4b9da	-0.022061277
28	0xbb47a28a	-0.003046187
29	0xbcf72b3e	-0.030171987
30	0x3be0387f	0.0068426724
31	0xbcddd39b	-0.02707844
32	0xbcca4533	-0.0246912
33	0x3b9d5db1	0.0048024287
34	0xbbdc9dd3	-0.0067326813
35	0xbbcb6cdd	-0.006208046
36	0x391ea75d	0.00015130402
37	0xbb5d06a0	-0.0033725873
38	0x3ae66e4e	0.0017580481
39	0x3c3d05e5	0.01153705
40	0xbce24eb1	-0.027625414
41	0x3c5e1a73	0.013556111
42	0x3c0c858c	0.008576762
43	0x3c81f3a3	0.015863245
44	0xbbf4e274	-0.0074732844
45	0xbc9a5bbd	-0.018842572
46	0xbcac2578	-0.02101396
47	0xbc3054b6	-0.010762384
48	0xba5ac901	-0.0008345992
49	0xbd00e9fc	-0.031473145
50	0xbcdeb0e2	-0.027183954
51	0xbcdc4f4f	-0.026893286
52	0xbcdd70cc	-0.027031325
53	0x3c162587	0.009164221
54	0xbbf842b2	-0.00757631
55	0xbad0428f	-0.0015888977
56	0x3c937615	0.018000642
57	0x3a837ad7	0.0010031116
58	0xb812e9ff	-3.502704e-05
59	0xbd3e67b7	-0.04648563
60	0xbd0255b1	-0.031820003
61	0xba859505	-0.0010191506
62	0x3c523186	0.01282919
63	0xbc7a7c05	-0.015288358
64	0x3c318992	0.010836022
65	0xbc96e9cb	-0.018422028
66	0x3c0c3364	0.008557174
67	0x3813bc38	3.5222823e-05
68	0x3c1bd6fa	0.009511704
69	0xbb81f5f9	-0.00396609
70	0x3b93d846	0.004511866
71	0x3cd464c4	0.025926955
72	0xbc6e578a	-0.014547238
73	0x3cb731df	0.022362648
74	0xbcc2a884	-0.023761995
75	0xbb063291	-0.0020476917
76	0xbc8c3700	-0.01711607
77	0x3d0e76a4	0.034781113
78	0x3b9438a6	0.0045233546
79	0xba985fe4	-0.0011625257
80	0xbcabed4c	-0.020987175
81	0x3b35d369	0.0027744418
82	0xbc9e0dc8	-0.01929368
83	0xbbb3300f	-0.0054683755
84	0xbb2f3be6	-0.0026738583
85	0x3cce9740	0.025218606
86	0x3c62587c	0.013815042
87	0x3c278f18	0.010226987
88	0x3cab07e0	0.020877779
89	0x3baaa047	0.005207095
90	0xbc890bc2	-0.01672924
91	0xbc7d9884	-0.015478257
92	0xbca445d7	-0.020052833
93	0xbc95df3d	-0.018294925
94	0xbc90869a	-0.017642308
95	0xbcaf70c5	-0.021416077
96	0xbb499f28	-0.003076503
97	0xbc96c02a	-0.018402178
98	0xbc108652	-0.008821087
99	0xbc72847d	-0.0148020955
100	0xbba927c8	-0.005162213
101	0xbd055c7b	-0.0325589
102	0xbc36cb4d	-0.011156869
103	0x3b35a2d0	0.0027715452
104	0x3cb36351	0.021897944
105	0xbcf12531	-0.02943668
106	0xbb3955c8	-0.002827989
107	0xbbe09b0c	-0.0068544205
108	0xbcdef045	-0.027214179
109	0xbd0c88bb	-0.034310084
110	0x3c403e64	0.011733625
111	0xbb3a6bd9	-0.002844563
112	0xbc86767d	-0.016413921
113	0xbcb9e5c5	-0.02269257
114	0xbabe3b0d	-0.0014513448
115	0xbc8b9b10	-0.017041713
116	0xbc9451af	-0.018105356
117	0xbd043610	-0.03227812
118	0xbcbae0c9	-0.022812264
119	0x3cdef115	0.027214566
120	0xbc7386d7	-0.014863691
121	0xbcbeb469	-0.023279386
122	0x3cb66361	0.022264184
123	0xbc23cb19	-0.009997153
124	0xbca90aad	-0.020634973
125	0x3b513fd0	0.0031928904
126	0x3b471276	0.0030375994
127	0x3c1378a7	0.009000934
128	0xbcaf3b31	-0.02139053
129	0xbd051e08	-0.032499343
130	0xbbf53c48	-0.0074839927
131	0xbb5adbb8	-0.0033395123
132	0xbd047f73	-0.032348108
133	0x3be47ee4	0.0069731344
134	0xbc24a590	-0.010049239
135	0x3c9392f2	0.018014405
136	0xbaeb8493	-0.0017968587
137	0x3cd6f148	0.026238099
138	0xbcc199e4	-0.023632951
139	0xbb3d6a91	-0.002890263
140	0x3cd0d720	0.025493205
141	0x3cd327d8	0.025775835
142	0x3b8ace1f	0.0042359973
143	0x3c095729	0.008382597
144	0x3c8684a9	0.01642068
145	0x3bab7430	0.0052323565
146	0x3ccaff62	0.02477998
147	0xbbe2cf1e	-0.006921663
148	0xbc5c3bdc	-0.013442006
149	0xbc019f62	-0.007911535
150	0xbc557cd9	-0.013030254
151	0x3c58799b	0.013212587
152	0x3cb9a56b	0.022661885
153	0x3ca92e8c	0.020652078
154	0x3c98334a	0.018579144
155	0xbcd5b952	-0.026089344
156	0x3bd4d411	0.006495007
157	0x3c4a6391	0.01235284
158	0xbc337c7b	-0.010954971
159	0xbb64f00f	-0.0034933125
160	0xbbc59d8e	-0.006030745
161	0xbc1366af	-0.00899665
162	0xbc8ed0c9	-0.01743354
163	0x3c6ae3bc	0.014336523
164	0xbcdaf9fa	-0.026730526
165	0xbd0a91e3	-0.033830535
166	0xbbcd7846	-0.006270441
167	0xbc40ee72	-0.0117756
168	0xbc0cc664	-0.008592222
169	0xbc72323a	-0.014782483
170	0xb99b68e9	-0.00029642068
171	0x3bc37c03	0.005965711
172	0x3c432583	0.011910799
173	0x3c214adf	0.009844511
174	0x3c7cfc0d	0.015440953
175	0x3bafae4e	0.005361355
176	0x3b80ccc4	0.00393066
177	0x3cefee74	0.029288508
178	0x3c3d9de5	0.0115732895
179	0x3c3ea73e	0.011636553
180	0xbc6f2f81	-0.014598728
181	0x3c466c6f	0.0121108135
182	0x3c1e77dd	0.009672132
183	0xbb21f1b8	-0.0024710726
184	0xbcd383fd	-0.025819773
185	0xbc914612	-0.017733607
186	0xbc74773e	-0.014921008
187	0x3c59e576	0.013299337
188	0xbd0d4135	-0.034486014
189	0xbcfa9249	-0.030587332
190	0xbc97afa2	-0.018516365
191	0xbd04a24a	-0.032381333
192	0x3b8038c7	0.0039130184
193	0x3b5370ab	0.00322632
194	0xbc420135	-0.011841108
195	0x3c886825	0.016651222
196	0x3cd85307	0.026406778
197	0x3d0dcdad	0.034619976
198	0x3bd41434	0.006472135
199	0xbaddeb1b	-0.0016931029
200	0xbcb2dac7	-0.021832837
201	0xbca356a3	-0.019938773
202	0xbd1295ec	-0.035787508
203	0xbc06acbc	-0.008219894
204	0x3c25a95a	0.010111177
205	0xbcbd5112	-0.023109946
206	0xbc14581f	-0.009054213
207	0xbc962cf9	-0.018331992
208	0xbcea4b72	-0.028600428
209	0x3c8c299b	0.017109683
210	0x3bec4d8e	0.0072113937
211	0x3cd7f02c	0.02635964
212	0x3c74674d	0.014917207
213	0x3c1b1565	0.00946555
214	0x3c1a6c7d	0.00942528
215	0x3ba95ef2	0.005168789
216	0xbcbf49d4	-0.023350634
217	0xbc813883	-0.015774017
218	0x3c943b83	0.018094784
219	0xbc03cb3d	-0.008044061
220	0x3c83fa80	0.016110659
221	0xbc86048e	-0.016359594
222	0x3bdb93d2	0.006700971
223	0x3aee400d	0.0018177048
224	0x3c0b6950	0.008508995
225	0x3ca0e781	0.01964164
226	0x3cab90bd	0.02094304
227	0x3d20a5ed	0.03922074
228	0x3d225ec5	0.03964116
229	0x3a33e94a	0.0006863071
230	0x3caf1a84	0.021374948
231	0xbc7815b2	-0.015141891
232	0x3c68ed7c	0.014216777
233	0xbb03e159	-0.0020123331
234	0x3c439e8e	0.011939658
235	0x3c25dfab	0.010124127
236	0x3cfaa6db	0.030597141
237	0xbbf29fea	-0.007404317
238	0x3bcc7b5a	0.0062402906
239	0x3bf64ff7	0.007516857
240	0x3c99b759	0.018764185
241	0x3b826ff2	0.00398063
242	0x3ceeb2ff	0.029138086
243	0xbc7bfaf0	-0.015379652
244	0xbbcd97e8	-0.006274212
245	0xbb85081c	-0.0040598046
246	0xbd021aa1	-0.031763677
247	0xbcf4cf82	-0.029884104
248	0xbcb9a3a0	-0.02266103
249	0xbd2a3526	-0.041554593
250	0xbc001b19	-0.007818961
251	0x3c25d9ff	0.010122775
252	0x3c1ba2cd	0.009499264
253	0xbc87aa33	-0.01656065
254	0xbc67c570	-0.014146194
255	0x3c4257e5	0.011861776

final_layer.conv_classifier.bias f4 [4]
0	0x3ca32032	0.019912813
1	0xbc95797e	-0.018246409
2	0x3cbbea2b	0.022938808
3	0xbc9e7929	-0.019344883
