models/ShallowFBCSPNet_persons8_lr0.0001_wd0_bs64_acc0.8313.pth (torch, 383656 bytes, 9 tensors)

conv_time_spat.conv_time.weight f4 [40, 1, 25, 1]
000000 a7 f0 95 bd 3e 34 50 3d 6f db fb bc 7a d4 15 3d
       -0.073212914 0.050831072 -0.030744283 0.036579587
000010 fb c4 4a bd f2 8a a1 bc 1f 86 23 bd 02 51 a1 bd
       -0.04950426 -0.019719575 -0.03992283 -0.07876779
000020 27 2b 07 bd 9b 68 3f bc dc 00 9b 3d 3e 4f 61 3d
       -0.033000138 -0.011682655 0.07568523 0.055007212
000030 34 b2 b6 bc f0 82 5d 3d 80 5b 0b 3d b7 2b 37 3d
       -0.02230177 0.05407995 0.034022808 0.044719424
000040 94 ca e4 3c 5e a6 3e bd 16 7c 88 ba ae f4 be 3c
       0.027928628 -0.04654538 -0.0010412957 0.023310032
000050 0a 50 af bd 16 a0 a5 bd d0 d9 b2 bc 80 45 f9 bc
       -0.08560188 -0.080871746 -0.021832377 -0.030428648
000060 28 ad 7a 3d 4b 79 9d 3b 3b ff b5 bb 44 30 87 bd
       0.06120029 0.004805719 -0.0055541075 -0.06601003
000070 cc 7c e0 bc 98 1f 45 3d 88 ec 80 bd 29 22 17 bd
       -0.027403258 0.048125833 -0.06295115 -0.036897812
000080 d7 6a 4b 3d bd 0e 8f 3d 60 70 71 3d 08 f1 84 3d
       0.049662437 0.06985233 0.05894506 0.064912856
000090 a0 d2 a1 bc fe 66 45 bd e9 d6 80 3d 30 8a 66 bc
       -0.019753754 -0.048193924 0.06290991 -0.014071032
0000a0 7b 5c 6a 3d b0 a7 c3 3c 54 09 1d bd 8b 7f 89 bd
       0.057217102 0.02388367 -0.038338974 -0.0671378
0000b0 6b bf 48 bd e3 a8 8a bd de 85 21 3c dd d9 30 3b
       -0.049010675 -0.06770494 0.009858577 0.0026985325
0000c0 4b f9 03 3c d4 38 0a 3d ce 8c 32 3d f5 55 ca bc
       0.008055042 0.0337456 0.043591313 -0.02469919
0000d0 b4 bc a5 bd a2 36 3c bd 64 6d 72 3d 7b 3d 87 bd
       -0.08092633 -0.04595054 0.059186354 -0.06603523
0000e0 16 7a 84 3d 74 1a 15 3c 1b 1a 7d 3d 00 69 30 bd
       0.064685985 0.009100545 0.061792474 -0.043068886
0000f0 82 4c 8e 3d 5e dd 15 3b 10 98 ce bc 03 7d fd bb
       0.069481865 0.002286754 -0.025218993 -0.00773585
000100 5c 18 14 bd 41 a6 1b bd 17 5c 71 bd 08 1d 94 3d
       -0.036156043 -0.03800035 -0.058925714 0.072321
000110 36 ab b3 ba 76 69 83 3d e3 bc 3f 3d 4b b3 ec 3c
       -0.0013707641 0.064165995 0.046810996 0.028894087
000120 f0 0f f3 bb 18 ee 52 bd ae 92 58 3d 2a 17 83 bd
       -0.0074176714 -0.051496595 0.05287426 -0.064009026
000130 71 86 47 bc 50 d1 21 3d b3 e2 69 3d 5b 14 71 bd
       -0.012178049 0.039506257 0.057100963 -0.058857303
000140 37 59 f1 3b 7c 2c 10 bd 2d cb 0a bd d7 5e ab bc
       0.0073653716 -0.035198674 -0.03388517 -0.020919247
000150 ab c9 97 3d 51 38 83 3b 1b 19 f4 3c 5d 66 56 3c
       0.07411512 0.004004516 0.029797127 0.013085929
000160 79 2e 75 3d 52 4f a6 bb 70 d7 ee 3c 35 77 a1 3d
       0.059858773 -0.0050753737 0.029155463 0.07884065
000170 16 ff 03 bd 81 91 99 bc a1 8e 93 3d d1 57 4a 3c
       -0.03222569 -0.01874614 0.07204939 0.012350039
000180 96 88 22 3d 75 72 3d bd 52 c8 c7 bc 52 80 ab bd
       0.03968104 -0.046251733 -0.024387512 -0.083740845
000190 76 67 3e 3d 05 45 4c bd ca 80 88 bd 59 fa 67 3d
       0.046485387 -0.04987051 -0.066651896 0.056635235
0001a0 f3 94 7c bd 52 fe fb bc 24 a9 4d 3d a5 28 c0 bb
       -0.061665487 -0.030760918 0.050210133 -0.00586422
0001b0 a4 fb 56 bd e3 a0 73 3d a9 53 fa bc 72 7e 55 3d
       -0.052486077 0.059479605 -0.03055747 0.05212254
0001c0 4a da 92 3d e4 4e 72 bd b7 d8 32 bc 08 3c aa bd
       0.071705416 -0.059157267 -0.010915927 -0.08312231
0001d0 cc 2b c6 3c 0a 6a 89 bd 93 e7 9f 3c d3 67 1a bd
       0.024190806 -0.067096785 0.019519603 -0.03769667
0001e0 79 25 61 3d 34 d3 8e bd db 2e 65 bd 7d 73 a2 bd
       0.054967377 -0.069738775 -0.055952888 -0.07932184
0001f0 7a 97 9e bd 08 89 8d bd 22 7d d4 bc 66 45 af bd
       -0.077437356 -0.06910902 -0.025938574 -0.085581586
000200 85 82 a2 bb 90 7a 1e bd dc 28 8a 3c 01 4c 11 bd
       -0.004959407 -0.038691103 0.016865186 -0.035472874
000210 58 0b 17 3d 44 9d 0a 3d 77 cf ea bc 65 b5 16 bd
       0.036876053 0.033841386 -0.02866338 -0.036794085
000220 c7 37 52 3d 96 06 5c 3b 65 b4 d7 3c bf 43 6a 3d
       0.051322725 0.0033573261 0.026331136 0.057193514
000230 14 c6 c3 3a dd 55 c6 bc ad 29 9b 3d c2 2f 0a bd
       0.0014936351 -0.024210865 0.075763084 -0.03373695
000240 76 b8 42 3d 34 bc 8b bc 6b 07 02 bd 40 a7 9e 3d
       0.047539197 -0.017057516 -0.031745356 0.07746744
000250 b6 b7 80 3d d1 fa e7 3c f3 5c b4 3d c6 29 80 bc
       0.0628504 0.02831784 0.08806791 -0.01564492
000260 b9 d7 cb 3c ad b8 be 3c 03 cd 26 bd 0d 19 82 bd
       0.024883138 0.02328142 -0.04072286 -0.06352434
000270 0b c1 73 bd ea 7f fb bc 02 d3 74 3d 28 fa 59 bd
       -0.059510272 -0.030700643 0.059771545 -0.053217083
000280 b9 92 40 bd a7 af 71 bd 49 6a 5c 3d 4c 83 9c 3d
       -0.047014926 -0.059005406 0.0538123 0.076422304
000290 fe a4 32 3d ae 95 cd bc 43 ad 0b 3d 3d 4f ad bc
       0.04361438 -0.025095787 0.034100782 -0.021155948
0002a0 66 51 85 bd 96 e1 32 bd 61 0b b9 bc ab dd 91 3d
       -0.06509666 -0.043672167 -0.022588434 0.07122358
0002b0 56 da 02 bd 1c 2a 3e bd e6 1e 36 bc 44 9c 81 bd
       -0.031946503 -0.046426877 -0.011115765 -0.063286334
0002c0 1b 93 56 3d af 3f b4 bc 97 5b 17 bd 23 0d a3 3d
       0.052386384 -0.022003023 -0.03695258 0.0796149
0002d0 d9 e6 e5 3c 6a 3f 76 3d 7b 14 70 3d f7 dd 08 3d
       0.028064178 0.06011907 0.05861328 0.033414807
0002e0 41 d5 7e bd 7f a9 86 3d cb d3 ca bc 22 e6 8e bd
       -0.062215094 0.065752976 -0.024759194 -0.06977488
0002f0 27 4f 5c 3d df 12 a5 bd c7 8b 5e bc 30 be 03 3d
       0.053786423 -0.0806024 -0.01358313 0.0321638
000300 72 53 0f 3d d2 ee 9f bd ad 79 93 bc e5 13 33 bd
       0.03499169 -0.07809223 -0.018002355 -0.043720145
000310 e5 27 19 3d 7a 06 32 bc 3c ac b2 bb 46 ce 86 3d
       0.037391562 -0.010865802 -0.005452661 0.06582312
000320 92 b0 02 3d ff 85 81 3c cb 3c fe 3c 45 d7 66 3b
       0.03190667 0.015810965 0.031034848 0.0035223525
000330 de cb 4c 3d 0e 7d 5a 3d 53 32 5e 3d 8c eb ac 3d
       0.04999911 0.053341918 0.05424721 0.084433645
000340 3e 02 63 3d d3 8c 88 bb 7c 77 74 bd ae 46 82 bd
       0.05542206 -0.004167178 -0.05968426 -0.06361137
000350 bf d2 a8 bd ca 6d d9 3c f8 a0 7c bd 94 13 9f bd
       -0.082433216 0.02654161 -0.06167695 -0.07767406
000360 d8 a4 18 bd b8 a1 e8 bc aa 04 81 3c 74 37 7c bd
       -0.037266582 -0.028397426 0.015749294 -0.06157632
000370 af 7e ba 3c 7f f9 78 3c 41 a8 4d bd 69 02 f6 bc
       0.022765486 0.015196203 -0.050209288 -0.030030446
000380 4d d9 15 3d f9 ff 29 bc ee 49 6b bc 28 e8 7d 3d
       0.036584187 -0.01037597 -0.014360888 0.06198898
000390 6f 3a 05 3d e1 55 a7 bd 58 1a 0d bd b6 73 81 bd
       0.03252643 -0.08170677 -0.03444895 -0.06320898
0003a0 9c d1 33 bc 1a b6 96 bb a6 53 96 bc a8 82 3f 3d
       -0.010975268 -0.004599345 -0.018350434 0.046755463
0003b0 01 9f 74 bd 1f 2d 3a 3d 42 8a 68 bd 10 5e 27 bd
       -0.05972195 0.045453187 -0.056772478 -0.04086119
0003c0 08 c4 31 bd a7 21 97 bc d8 82 4a 3c 79 4f 49 3d
       -0.04339984 -0.018448664 0.012360297 0.049148057
0003d0 1b 9e a5 3d 48 1d bb 3d 28 ec 31 3c 76 56 79 bc
       0.08086797 0.09136444 0.010859527 -0.015218368
0003e0 d2 cf 8d 3d 35 d5 79 3d 6b bd cb bc 21 97 d0 b9
       0.06924404 0.060994346 -0.024870595 -0.0003978545
0003f0 2d 91 dc 3c 7d 08 fc 3c 12 b0 b0 bc 69 42 52 bd
       0.026924694 0.030765766 -0.021568332 -0.051332865

conv_time_spat.conv_time.bias f4 [40]
000000 b3 c6 12 bc 8e 98 bf 3b 79 45 41 3c 25 6f 29 bb
       -0.008958506 0.0058470434 0.011796349 -0.00258536
000010 db 7b 02 bb 8d ea ca ba 5b 9f 4f bc 59 19 f0 3b
       -0.001991025 -0.0015481279 -0.012672271 0.0073272404
000020 12 78 e2 3b 54 27 4b 3c c8 e7 5d bb 97 7d 10 3c
       0.006911286 0.012399513 -0.0033860076 0.008819005
000030 f5 72 12 3c 89 67 ea ba cd b5 a2 ba 44 14 bd ba
       0.008938541 -0.0017883639 -0.00124138 -0.0014425595
000040 57 ac 3c 39 14 90 ad 3a 27 98 8b bb c3 cf f0 bb
       0.00017993279 0.0013241791 -0.0042600813 -0.007348986
000050 d9 4f 79 bb d6 07 43 3c 3b 42 9b 3b 37 17 9e bb
       -0.0038041978 0.011903724 0.00473812 -0.004824545
000060 cc 57 33 bc 79 1b 29 bc 73 7e 91 3a d5 a1 19 3c
       -0.010946225 -0.010321491 0.0011100307 0.009376963
000070 bf a3 d4 bb 59 a0 f3 39 6b 13 32 3c 9b bd 55 b9
       -0.0064892466 0.0004646804 0.010868887 -0.00020383896
000080 71 bc 12 3c 3f fc 4a 3c 47 bd 80 ba be b1 53 b9
       0.008956061 0.012389242 -0.0009822034 -0.00020188742
000090 d2 93 3c bb 87 b1 e6 bb 02 5d a7 bb ce 21 fc ba
       -0.0028774631 -0.007040206 -0.005107523 -0.0019236149

conv_time_spat.conv_spat.weight f4 [40, 40, 1, 44]
000000 f1 ec ac ba b5 7e 0a bc 11 8a d9 bc 7e 68 6b 3c
       -0.0013193173 -0.008453061 -0.026555093 0.014368175
000010 91 cb 06 3d 95 6b 14 3c 52 34 3e bc 4a 9d c7 bc
       0.03290898 0.009058853 -0.011609154 -0.024366993
000020 92 72 43 bc 77 71 8c 3c 3a 17 56 3c 55 41 82 bc
       -0.011929171 0.017143948 0.013067061 -0.015900293
000030 ee 39 c6 ba 7a 8a 20 3d 9d 21 0d bd 82 db 8e bc
       -0.0015123466 0.03919456 -0.034455884 -0.017438654
000040 02 38 ab bb 6b ee 14 3d c6 5d e4 bc b6 85 79 3c
       -0.0052251825 0.036360186 -0.027876746 0.015229633
000050 81 49 6a bc 5c 55 35 3d ff 8e f4 3c 16 d8 e9 3c
       -0.014299751 0.04427086 0.029853342 0.02854542
000060 7a 1e 55 3c ae 7b b1 bb c7 d2 3b bd 3d f3 83 bc
       0.013007754 -0.005416355 -0.04585531 -0.016107196
000070 90 47 1b 3d 1e 46 90 3c e4 82 aa bb 35 e2 4d bb
       0.037910044 0.01761156 -0.0052035917 -0.0031415347
000080 d9 d9 38 3c cd 57 08 bd 9c db f5 3c f3 9a f1 3c
       0.011282408 -0.03328686 0.030011944 0.02949283
000090 6b 35 9e bc 3e c3 e7 bc 33 25 3c 3d a1 f3 cd bc
       -0.019312581 -0.02829134 0.045933913 -0.025140585
0000a0 89 0e ce bb 45 fa bb bc 12 77 9a 3c b7 bf b0 3c
       -0.006288354 -0.022946486 0.018855605 0.021575792
0000b0 0e 0c 90 3c a0 e4 f5 bc 57 12 7a 3c 24 7a e0 3c
       0.017583873 -0.030016243 0.015263162 0.027401991
0000c0 84 82 91 bc 22 bb 14 bb 28 2b 1a bb ae 61 9b bc
       -0.01776243 -0.0022694548 -0.0023524258 -0.018967476
0000d0 96 f0 9f 3c 8c d8 c3 bc bc bc 92 3c 9a a2 92 3c
       0.0195239 -0.023906969 0.017912261 0.0178998
0000e0 f0 94 c5 3c 58 d4 d8 bc 91 00 b1 3d 44 f8 01 bd
       0.02411887 -0.02646844 0.08642686 -0.031730905
0000f0 9b 66 2b bd 81 be 41 bc 93 55 28 bd 9e 89 41 bd
       -0.0418459 -0.011825205 -0.041097235 -0.047250383
000100 ce 8a 85 bc a4 31 a8 bc bb 56 32 bd 50 c5 d0 3c
       -0.016301539 -0.020531483 -0.043539744 0.025484711
000110 33 fd 3c 3a 5c 01 44 bc 92 40 86 bc da b6 f8 3c
       0.00072093605 -0.011963215 -0.016388211 0.030360628
000120 6f c2 11 bc 5f a9 3c 3c 5e b8 4f bd 8a 20 8c bd
       -0.008896454 0.011514991 -0.050712936 -0.06842144
000130 fb 4d 13 bd 07 b1 28 3c 98 cc 14 bd 4c cc 9c bc
       -0.03596304 0.010296113 -0.03632793 -0.019140385
000140 c8 f6 88 bb fd 14 d7 bc 4b 4d ad bb 2d d1 ab 3c
       -0.0041798092 -0.026255125 -0.005288755 0.020973766
000150 52 19 f4 3c 96 30 d0 bb 6b 40 08 bd 08 25 bc 3c
       0.02979723 -0.006353448 -0.03326456 0.022966877
000160 69 51 c4 b9 6a 56 43 bc f1 16 53 bc 3c bc e2 3a
       -0.00037444688 -0.011922458 -0.012883888 0.001729853
000170 43 5f 2c 3d 17 e1 16 3c b8 c8 20 3d c5 e0 5c bb
       0.042083036 0.009208939 0.03925392 -0.003370331
000180 01 47 80 3c 13 ce f1 3b 03 20 66 bc 63 f6 fb 3c
       0.015658857 0.0073793023 -0.014045718 0.030757135
000190 b6 85 1e bc c2 4c 8c bc 6a 81 fd 3c c1 3e 0f 3d
       -0.009675434 -0.017126445 0.030945498 0.034971956
0001a0 49 1f 91 3b 29 6b f2 bc 6f 30 26 3d cd f7 e2 3c
       0.0044287783 -0.029592114 0.040573534 0.027706051
0001b0 10 71 b2 3c 7b 15 3d bd 8b b8 8d 3c c7 b3 e7 3c
       0.021782428 -0.046163063 0.017299911 0.028283967
0001c0 f2 24 de bc 11 66 d1 3c ed 9c f3 bc fc 5c ba bc
       -0.027117226 0.025561364 -0.029737914 -0.022749417
0001d0 f5 14 4c 3c 0a 7a 7e 3c 91 81 78 bd a1 34 a5 bc
       0.012456168 0.015532026 -0.06067044 -0.020166697
0001e0 7e 1b fa bc 40 a0 45 bc d9 06 32 bd 94 2f 08 bc
       -0.030530687 -0.012062132 -0.04346356 -0.008312125
0001f0 01 d6 91 bc 97 61 83 bc c6 1f a9 ba d8 27 c8 bc
       -0.01780224 -0.016037745 -0.0012903146 -0.024433061
000200 d1 83 51 bc ee 97 06 bd 38 67 a3 3c ab 78 15 bd
       -0.012787775 -0.032859735 0.01994668 -0.03649203
000210 ac 22 b1 3b 0e 6f e2 3c 44 57 22 bc 96 20 3c bc
       0.0054057445 0.027640846 -0.009908501 -0.0114823785
000220 4d 4d bf 3b c3 d2 4b 3c 42 d8 43 3c fb c0 b1 3c
       0.0058380724 0.012440386 0.011953415 0.021698466
000230 45 5a 08 3d d5 34 a5 3c cf ab ec 3b b1 e0 bd bc
       0.033289213 0.020166794 0.0072226296 -0.02317843
000240 50 73 79 bc 10 e8 d1 3c 43 19 ad bb 52 36 2d bc
       -0.015225247 0.025623351 -0.0052825524 -0.010572033
000250 28 14 9e bc ce bd bc bc 7f de e3 3c 98 45 15 bd
       -0.01929672 -0.023039725 0.027816055 -0.036443323
000260 2a 8e d7 3c 9d 6c b1 bb 3d f8 84 3c 98 f5 10 bb
       0.026312906 -0.005414559 0.01623165 -0.0022119042
000270 d7 6f 35 bd 98 af 48 bc 51 fc c2 bc a5 b2 5f 3c
       -0.044296112 -0.012248896 -0.023801954 0.013653432
000280 a6 1b 36 bc 1b 1c a1 3c d5 90 7a 3c 75 62 22 bd
       -0.01111499 0.019666722 0.01529332 -0.039644677
000290 2f 02 bf 3c de ce 4c bc 37 75 01 3d 1e fe b9 bb
       0.02331647 -0.012500493 0.031605925 -0.005676045
0002a0 8a a7 bf bb 0b c5 ec bc fc 8b d5 3b 04 71 32 bc
       -0.0058488296 -0.028902551 0.0065169316 -0.010891203
0002b0 2a f8 54 bd f5 1c 7d 3c 4b 9c 02 3d 27 bc 3d 3d
       -0.05199448 0.015448798 0.031887334 0.046322014
0002c0 81 13 b2 bc 9e 90 2a 3c e0 97 b3 bc fc f4 4c bc
       -0.021737816 0.010410456 -0.021923006 -0.012509581
0002d0 4f 08 a1 3c f1 31 54 bc 00 a3 cc 3c fb 19 11 3b
       0.019657282 -0.01295136 0.024980068 0.002214073
0002e0 e6 3c cb bc ee d0 bb bc 44 78 c6 b9 13 e0 04 3d
       -0.024809312 -0.022926774 -0.00037855108 0.032440256
0002f0 ee 78 d9 3c df 87 ed bc 0b 01 5d 3c 0a 47 79 bc
       0.026546922 -0.028995452 0.013489018 -0.015214691
000300 a7 6a f2 3c e7 07 49 bd 4d 59 dc bc fc 59 fe 3c
       0.029591871 -0.049079802 -0.02689805 0.031048767
000310 c5 ae 19 bc 22 c4 98 3c 8d de 0a bd 95 e8 11 3d
       -0.009380047 0.01864821 -0.033903647 0.035622198
000320 5b b1 1d 3c f9 46 f0 3c 4a 58 0e 3d 84 58 df 3b
       0.009624804 0.029330717 0.034752168 0.006815972
000330 0b f4 cf bb 87 b0 f7 bb af 1c de 39 1d f0 b5 bb
       -0.006346231 -0.0075588855 0.0004236451 -0.0055523054
000340 d4 a6 94 3c 49 c9 27 bd 3a 1c 29 3d c8 da cc bc
       0.018145956 -0.040963445 0.041286685 -0.025006667
000350 cd 5f be bc 92 5d 0f bc 7a fe 2d bc dd e3 45 bc
       -0.02323904 -0.008750336 -0.010619754 -0.012078253
000360 cf 59 b4 bb 66 a3 50 3c 05 ae 99 39 11 73 40 bc
       -0.00550387 0.01273427 0.0002931209 -0.011746184
000370 47 68 ec 3c 4f 52 46 3d 6e d3 4c bd 9c 5d 60 bc
       0.028858317 0.04841834 -0.050006323 -0.013694193
000380 42 86 21 38 dd fa ff bc aa ae 59 bc ed 0e 11 bc
       3.851043e-05 -0.03124755 -0.013286272 -0.008853656
000390 bb 35 5f bc 1a d1 16 3c 2d 84 39 3c 28 44 7e bc
       -0.01362365 0.009205127 0.011323017 -0.015519179
0003a0 6a 5d 1d 3d b4 54 ef bc ae 70 32 3d d4 be 0f 3c
       0.038419165 -0.029215194 0.04356449 0.008773524
0003b0 7f 0b 8d bc 50 d6 ac bc 87 bc d4 bc e8 b5 70 bb
       -0.017217396 -0.021098286 -0.025968803 -0.0036729518
0003c0 81 2a 73 3c f4 64 4c bc cc 13 34 bd 39 42 90 3c
       0.014841677 -0.012475241 -0.043964192 0.017609702
0003d0 64 c0 91 bc 09 9c 8f bb 3d 43 63 3b 8d e7 6f bb
       -0.017791934 -0.0043826145 0.0034677528 -0.003660652
0003e0 87 02 ae bc 2d 5f 84 3c 30 8d 5a bd 50 99 01 3c
       -0.02124144 0.016158665 -0.053357303 0.007910088
0003f0 5d 03 66 bc a7 c4 2e 3c c8 64 24 bd c5 8d bc 3b
       -0.014038888 0.010667003 -0.040135175 0.005754205

bnorm.weight f4 [40]
000000 15 b6 88 3f 27 1c 7f 3f 64 72 88 3f be d1 80 3f
       1.0680567 0.9965233 1.0659909 1.0064008
000010 c9 06 89 3f 77 f5 84 3f 30 3c 87 3f 70 ea 7c 3f
       1.0705196 1.038741 1.0565243 0.98795223
000020 b8 35 89 3f 50 96 83 3f e6 e7 83 3f c3 f4 84 3f
       1.0719519 1.0280247 1.0305145 1.0387195
000030 67 fd 81 3f 0d 03 84 3f f6 e4 84 3f 08 d8 7e 3f
       1.0155457 1.0313431 1.0382373 0.9954839
000040 11 d5 7d 3f 3d f3 7f 3f c2 33 83 3f 64 b6 80 3f
       0.9915324 0.9998053 1.025017 1.0055661
000050 f2 5f 88 3f 30 a0 86 3f 61 49 88 3f 84 88 81 3f
       1.065428 1.0517635 1.0647393 1.0119786
000060 ea ea 7d 3f e0 b6 84 3f c3 c1 83 3f 13 b0 87 3f
       0.99186575 1.0368309 1.0293506 1.0600609
000070 f2 b8 88 3f 4c a5 85 3f 8c e0 80 3f c3 fc 85 3f
       1.0681441 1.044107 1.0068526 1.0467762
000080 e5 4a 88 3f ec 6b 89 3f 5b 2c 84 3f 21 0b 87 3f
       1.0647856 1.073606 1.0326036 1.0550271
000090 54 12 81 3f 2b 16 85 3f b5 44 86 3f ec b9 88 3f
       1.0083718 1.039739 1.0489718 1.0681739

bnorm.bias f4 [40]
000000 f8 19 65 3d 36 01 78 3c 94 b9 85 3c c4 61 f5 b9
       0.05593297 0.015137007 0.016323842 -0.00046802883
000010 42 19 cb bb c2 97 c9 bc 23 64 27 bc ef 10 b2 ba
       -0.0061980793 -0.024608497 -0.010216746 -0.0013585369
000020 60 dd 30 bc 2c e3 37 b9 5e 78 34 3c 55 de 51 3c
       -0.010794967 -0.00017536868 0.011015026 0.012809356
000030 d3 a5 69 3c f0 07 f4 bb 8d 7d 99 3c 80 36 54 3b
       0.014260727 -0.0074472353 0.018736625 0.0032381117
000040 f9 2b 8f 3c 4a 1c a9 bc c7 fb c5 3c 67 93 35 bc
       0.017477022 -0.020643372 0.024167908 -0.011082507
000050 7f 3d 69 ba 7a f6 c3 bc 73 cc 10 3d b5 a7 c8 3c
       -0.0008897408 -0.02392124 0.035351228 0.024494031
000060 3f a0 c1 3c a2 df 03 bd 84 1a 8c bc 06 11 0c 3c
       0.023635982 -0.032195695 -0.017102487 0.008548981
000070 e3 c7 b4 3c 9a fe 3a bc ed 84 36 bb 2b 66 01 bd
       0.02206797 -0.011413241 -0.0027850226 -0.031591576
000080 dd 45 d0 3b e9 2d 7c bd 01 11 0f bc 55 fa 1a ba
       0.0063559846 -0.06156722 -0.008732081 -0.0005911936
000090 25 10 b1 3b 74 ea 99 bb 4c 5a d5 3c 2a 51 b0 bc
       0.005403536 -0.0046971384 0.026044033 -0.021523077

bnorm.running_mean f4 [40]
000000 e7 ce 17 bc 5c 8a 5d bc 9e 61 9b bc 59 e9 da 3b
       -0.009265638 -0.013521757 -0.018967446 0.0066806492
000010 05 a2 6d 3c 61 6d 9d 3c 8d 21 9e 3b 3a fc 92 ba
       0.0145039605 0.019217195 0.004825777 -0.0011214085
000020 be f2 6f bb 53 8a 29 3d 8c 76 6c bb db 4f 89 bb
       -0.0036613191 0.041391682 -0.0036081402 -0.0041904277
000030 83 f2 27 3d 80 b7 37 3d 97 d5 c0 3a f9 c5 83 bc
       0.04100276 0.044852734 0.0014712092 -0.016085612
000040 17 8b 3a 3c d9 72 df 3b ad 98 ac b9 a1 92 03 bb
       0.011385701 0.006819111 -0.0003292015 -0.0020076411
000050 d6 38 53 bb 1b 15 e2 b9 bf ee 14 bb 14 25 45 bd
       -0.0032229922 -0.00043121804 -0.0022725312 -0.048131064
000060 7b 5a 20 3b 62 1b 34 bc 7d f8 c0 bb 85 69 3a bb
       0.0024467993 -0.010992857 -0.005888997 -0.0028444242
000070 ca 98 45 3a 48 49 d2 3a 0e 8c 88 3b 9a ab 4e bb
       0.0007537721 0.0016043568 0.0041670864 -0.0031535388
000080 e6 1c 1c 3b f2 47 d7 bc f2 db 0b 3c 84 ba b4 bb
       0.0023820936 -0.026279423 0.008536326 -0.0055153985
000090 6c e6 a6 3c a5 30 98 ba e1 e5 3b 3c e6 25 02 3d
       0.020373546 -0.0011611177 0.011468382 0.031774424

bnorm.running_var f4 [40]
000000 71 30 c7 39 cb dc 20 39 6a 66 94 39 7c bb f7 38
       0.0003799233 0.00015341041 0.00028305064 0.000118127995
000010 74 11 7f 39 d9 6f 35 39 47 49 b2 39 77 71 01 39
       0.00024325197 0.00017303172 0.00034005402 0.00012344668
000020 64 e0 57 39 68 e6 fb 38 c4 b9 3a 39 e7 fe 54 39
       0.0002058759 0.00012011529 0.00017807545 0.00020312854
000030 ad 79 79 39 64 1b 46 39 db e7 90 39 7a d4 a7 38
       0.00023791818 0.00018892955 0.00027638566 8.0027574e-05
000040 c6 e2 fd 38 a1 98 33 39 12 19 64 39 1e 58 0e 39
       0.0001210622 0.00017127629 0.00021753114 0.00013575002
000050 43 3a 8b 39 d3 c2 6e 39 36 02 62 39 5c 5b 10 39
       0.00026555554 0.00022770026 0.00021553863 0.00013766944
000060 75 99 ad 39 49 11 a4 39 e7 66 82 39 ca 09 90 39
       0.00033111466 0.00031293396 0.000248722 0.00027473114
000070 64 81 7b 39 fc 24 8a 39 99 e0 42 39 72 53 b8 39
       0.00023985427 0.00026348967 0.00018584951 0.00035157386
000080 98 6c 80 39 3b ea 9d 39 45 e6 99 39 ca 46 5a 39
       0.0002449497 0.0003011989 0.00029353998 0.00020816471
000090 72 24 46 39 97 d5 0c 39 95 d5 30 3a 78 51 94 39
       0.00018896328 0.00013431009 0.00067456934 0.0002828946

final_layer.conv_classifier.weight f4 [4, 40, 144, 1]
000000 19 49 a5 3c 56 e5 91 bb 34 44 af bc 5e 70 25 bc
       0.020176457 -0.004452388 -0.021394826 -0.010097591
000010 cd 18 f1 bb 87 00 b1 3b 31 7d 8e 3c 0b 80 9a bc
       -0.007357693 0.005401674 0.01739368 -0.018859884
000020 8d 59 d5 bb fd 98 3c bb 9e dd 80 bc 74 0e 16 3c
       -0.0065109194 -0.0028777712 -0.015730675 0.009158719
000030 48 16 53 bc a3 36 e3 bc cc a3 0b bc 22 41 5d bc
       -0.01288373 -0.027736014 -0.008522939 -0.013504298
000040 3f b6 e9 bb ca 23 37 bc 22 9f ec bc 6c 05 09 bb
       -0.007132321 -0.011177966 -0.028884474 -0.0020907773
000050 29 3d bb bc 87 ce 36 bb 7e a4 ca bc a3 24 43 3c
       -0.022856312 -0.0027894096 -0.02473664 0.01191059
000060 8e 19 a2 3b 63 b9 2e bb 8e a8 e5 3a bf 64 9b 3c
       0.004946894 -0.0026660792 0.0017521547 0.018968938
000070 92 a0 f3 3c 52 db 0e 3d e5 63 fe 3c 4d e8 b1 bb
       0.029739652 0.03487713 0.031053493 -0.0054293037
000080 14 80 0f 3c 22 5a b4 3c 1a 6f 0a 3d 51 99 49 3c
       0.008758564 0.022015635 0.03379736 0.01230462
000090 13 4f 09 3d a0 2c dd bb 19 d9 03 3d db 5a 68 3b
       0.033522677 -0.0067497045 0.032189462 0.0035454545
0000a0 46 c0 4a 3c 1e 94 cf 3c 94 ab 17 bc fb 78 5a 3c
       0.012374943 0.025339182 -0.009257216 0.013334508
0000b0 47 a3 e6 3c 00 e6 83 3c f9 b9 d9 3c 96 0d 48 bb
       0.028154029 0.016100883 0.026577936 -0.0030525676
0000c0 d8 e2 93 3c fe e4 f8 3c c3 72 0b bc 60 79 29 bb
       0.018052503 0.03038263 -0.008511248 -0.0025859699
0000d0 76 cc 84 3c 49 d4 37 3b 0f 05 12 3c 2d 68 0d bc
       0.016210776 0.0028050116 0.008912339 -0.0086307945
0000e0 09 37 ff 3a 5a 37 24 3c 28 0a 72 3b 7c d0 c7 3b
       0.0019471358 0.0100229625 0.0036932323 0.0060978513
0000f0 50 1e a2 bc 80 4b d2 3c 4e 54 9e 3c fa 89 93 3c
       -0.019789845 0.025670767 0.019327309 0.018010128
000100 b5 b3 f6 ba b6 31 81 3c b1 59 27 3c 1c 8e 85 3c
       -0.0018821867 0.015770774 0.010214255 0.016303115
000110 66 83 49 bc f9 e2 74 3c 71 fc ad bc 78 b3 e8 3c
       -0.012299394 0.014946693 -0.021238538 0.02840589
000120 c1 3d c2 3b bc 30 27 3c 29 71 16 3c 7c 4e f9 3b
       0.005927772 0.01020449 0.009182253 0.007608233
000130 98 1c bf 3c bd 13 4d 3c 3d a6 b3 3c a0 e5 86 3c
       0.023329064 0.012516913 0.021929855 0.016466916
000140 3c bc 72 bb ad 89 59 bb 29 53 02 bc a3 67 18 3c
       -0.0037038466 -0.0033193633 -0.007954397 0.009302053
000150 a5 d2 11 3c 89 0d 3d bc 5b 8d 37 bc 9c e1 84 bc
       0.008900319 -0.011538872 -0.011203135 -0.01622086
000160 9a 42 75 bc 6c 23 2b 3c ea 85 3a 3c ed 59 09 bc
       -0.014969492 0.010445457 0.011384467 -0.008383256
000170 6c 63 a2 3b 91 bf 91 bc 8c 14 95 3b d4 17 3a 3c
       0.0049556997 -0.017791541 0.0045495685 0.01135822
000180 51 8f 76 3a 6a 7d 42 bb 7a f6 2b bc 14 bd 81 3c
       0.0009405511 -0.0029676803 -0.010495776 0.01583723
000190 ad fc 52 bc 39 c7 a0 3c 08 32 1e bc dd cf 77 bc
       -0.012877625 0.019626247 -0.009655483 -0.015125242
0001a0 14 aa 5b 3b 37 08 b2 3c 14 fb 1a bc 33 20 99 bb
       0.0033518123 0.021732433 -0.009459276 -0.004673028
0001b0 60 5a 31 3a dd 15 30 3c 9f 4c 52 bc dc be a1 ba
       0.0006765481 0.0107474 -0.012835651 -0.0012340206
0001c0 4a a8 ec bb 54 d8 64 3c cf 65 32 3c f9 c7 9e 3a
       -0.00722221 0.013967592 0.010888531 0.001211404
0001d0 65 d5 37 bb 60 37 4e bc 57 de 0b 3c c3 29 a2 3c
       -0.0028050777 -0.012586445 0.008536897 0.019795304
0001e0 d6 7d b8 3b a0 04 74 bc 7b 83 89 bc ef f4 b5 bb
       0.005630235 -0.014893681 -0.016786328 -0.00555288
0001f0 9a 67 1d bc bc 0c a8 bc 6e 10 23 bb 9f 0a 7f 3c
       -0.00960722 -0.020513885 -0.002488162 0.015566497
000200 74 43 c1 bc 32 3a 32 bb 6f ea d1 3b aa 70 9d bc
       -0.023591734 -0.0027195332 0.0064061205 -0.019218761
000210 9f a1 15 bc 6d 39 96 3c a5 d5 42 3c 37 f4 09 bc
       -0.009132772 0.01833793 0.011891757 -0.008420042
000220 9f 49 bb bc f8 09 76 bc 6e f3 3f 3c 55 ad 27 3b
       -0.022862254 -0.015017025 0.011715753 0.0025585492
000230 f6 6b 9e 3b 88 cb b0 bc 29 5f 9e bb 9c e7 c7 bc
       0.0048346473 -0.021581426 -0.0048331213 -0.024402432
000240 d7 db ed 3b c8 62 71 3b 1e 32 b3 3c de 5e 11 bc
       0.007258873 0.003683256 0.021874484 -0.008872716
000250 42 98 58 3b ed 09 ab bc d7 61 aa 3c ba 56 ae 3b
       0.0033049737 -0.020878756 0.020798607 0.005320397
000260 32 a6 03 3d 6c db d2 3b 98 96 a1 3c b9 31 14 bc
       0.032140918 0.0064348485 0.019725129 -0.009045058
000270 63 85 9c 3c dc 18 d7 3c ca 9a e4 3c d0 6f 7f bb
       0.019106572 0.026256971 0.02790584 -0.0038976558
000280 9b 2a 11 3d a7 7e 1e 3d 50 53 b4 b9 1c 12 b4 bb
       0.035441022 0.038695004 -0.00034394348 -0.005495323
000290 b7 4e 35 bc 63 9c 05 3d 82 5d 1e ba 9b ba 20 ba
       -0.01106613 0.032619845 -0.00060411554 -0.0006131322
0002a0 14 c1 70 bc 1a 79 ae 3a 60 49 9f bc c3 9b 1d bc
       -0.014694471 0.0013311238 -0.019444168 -0.009619656
0002b0 c7 c3 e8 3b ee ec 6d 3c 7e d1 5c 3c 0b ed f3 bc
       0.0071034166 0.0145218205 0.013477681 -0.029776117
0002c0 7e c3 d2 bb 7e 23 ad bc e1 a1 94 bc 84 1b e6 bc
       -0.006431996 -0.021135088 -0.018143596 -0.028089292
0002d0 15 9a c7 ba d4 1e 95 bc a2 91 08 bd 3b 7f 10 3b
       -0.0015228415 -0.018203177 -0.03334201 0.0022048492
0002e0 9a 95 c6 bc dc b5 ee bc 98 1d 45 3c fc ce f4 bb
       -0.024241257 -0.029139452 0.0120309815 -0.0074709635
0002f0 08 f5 99 3b d1 fb 24 bd 4d d1 c0 bc 68 3b 0b bd
       0.0046983995 -0.040279213 -0.023537302 -0.0339922
000300 80 37 17 bd f7 62 fe bc 57 ba 25 bd 18 9f ed bc
       -0.036918163 -0.03105305 -0.04046091 -0.029006526
000310 d6 f9 03 bd 62 45 0c bb 57 64 a2 bc 40 98 f2 bc
       -0.032220684 -0.002140366 -0.019823236 -0.029613614
000320 33 7a c0 bb d7 11 bb bc e7 2e cb bc 8a 8a 03 bb
       -0.0058739423 -0.022835655 -0.024802638 -0.002007159
000330 1d 9f 04 bd b4 b8 47 bc 60 d8 e6 bc 5f 3e d6 bb
       -0.032378305 -0.012190033 -0.028179348 -0.006538197
000340 35 9d 1e bd dd 67 59 bc 1e 97 26 bd 1c cc 26 bd
       -0.038724143 -0.013269392 -0.04067146 -0.040721998
000350 b9 3c 2f bd 6f 32 1f bd 3e ba 3e bd 04 ad 23 bd
       -0.04278252 -0.038866457 -0.046564333 -0.039959922
000360 9c 98 cf bc c3 36 0b bc 61 fe 61 3c cb 34 f3 bb
       -0.025341325 -0.008496943 0.013793559 -0.007422065
000370 da 15 94 3a f0 e8 95 bb 30 30 85 bc 81 2d dc bc
       0.0011298016 -0.0045748875 -0.01625833 -0.026877167
000380 78 d2 5d bc 99 b7 34 bc b4 0e 97 bc 81 d6 88 3b
       -0.013538949 -0.011030101 -0.018439628 0.0041759615
000390 3b f9 c1 bc 4a 1a d2 3b 10 4c 07 bd f0 0d 82 bc
       -0.023678413 0.0064118253 -0.033031523 -0.015875787
0003a0 e8 6a ff bc 91 29 86 3b 2f 08 f1 bc a6 90 95 bc
       -0.031178907 0.0040943106 -0.029422848 -0.01825745
0003b0 48 cc 11 bd 8f 58 97 bc 81 99 f8 bc 2a cb 80 3b
       -0.03559521 -0.018474845 -0.030346634 0.003930469
0003c0 e9 06 fd bc cb 07 91 bc f0 c1 4c bb 4d 09 ba bc
       -0.030887084 -0.017703911 -0.0031243525 -0.022709513
0003d0 8a 96 71 bb 4c f9 26 bc f4 fe 98 bc 88 58 50 3a
       -0.003686341 -0.010191273 -0.018676259 0.00079477625
0003e0 db 16 b0 bc 54 fe 9b bb b3 7d c4 bc b9 29 85 bc
       -0.021495273 -0.004760543 -0.02398572 -0.016255246
0003f0 de a2 1a bc b6 72 82 bc 37 5e bc ba 0b 0b de bc
       -0.009438245 -0.015923839 -0.001437134 -0.027104875

final_layer.conv_classifier.bias f4 [4]
000000 bf ed 54 3b a9 1a 7e bc 07 b5 13 3d 8e 5c b9 bc
       0.003249034 -0.015509286 0.036061313 -0.022627141
