models/ShallowFBCSPNet_persons14_lr0.01_wd0_bs64_acc0.2679.pth (torch, 383642 bytes, 9 tensors)

conv_time_spat.conv_time.weight f4 [40, 1, 25, 1]
-0.007936828 -0.08111797 -0.19241625 -0.031828884 0.24776646 0.3819579 0.27521902 -0.044724498
-0.315808 -0.53049856 -0.4704256 -0.20120634 0.09548608 0.28781843 0.27119443 0.26729482
0.093792364 -0.053362273 -0.05304623 -0.052468464 -0.14260678 -0.04922876 -0.03669427 0.08546503
0.336774 0.37375954 0.18806784 0.13708088 0.046947267 -0.070077926 -0.0762985 -0.07416374
-0.13894483 -0.1460423 -0.049472656 -0.05781345 -0.045778826 -0.116760805 -0.07633784 -0.029092638
-0.032446016 0.041920222 0.24102077 0.2971151 0.29164925 0.26732436 -0.035505056 -0.14467235
-0.32281572 -0.2635881 -0.12498332 0.018270424 -0.04399692 0.051996768 -0.028383968 -0.008696446
-0.05376822 0.15011334 0.2113919 0.3544089 0.36673006 0.1095052 -0.048048887 -0.17839882
-0.18365587 -0.16658248 -0.01872347 0.027575484 0.067951396 0.13623795 0.22324362 0.15661475
0.21673071 0.12870924 -0.15953548 0.005280682 -0.044503026 0.13175547 0.11213483 -0.0105732335
-0.06275295 -0.14097069 -0.17973225 -0.15805444 0.033492915 -0.0018668702 0.0033438029 0.10090286
0.060460977 -0.005601349 0.0050036195 -0.07669211 -0.06664485 -0.14314534 -0.06942498 -0.055779412
0.10035873 0.1290975 0.08297676 0.1265774 0.23822217 -0.1076739 -0.118044525 -0.19864602
-0.08539595 0.03714018 0.08441535 0.09717625 -0.13001445 -0.13558744 -0.07137293 0.06447109
0.12491386 0.106739275 -0.020494258 -0.38032824 -0.4485285 -0.22305697 0.1912805 0.5170872
0.40387216 0.24401692 0.013832709 -0.10891342 -0.18200816 -0.19080232 -0.10536614 -0.0019422633
-0.025626622 0.1234899 0.03457131 0.016788553 -0.085076556 -0.13093261 -0.1920479 -0.14330219
-0.18174785 0.02677735 0.19629392 0.363459 0.3315567 0.2716489 0.08051247 -0.118525565
-0.16482602 -0.19458629 -0.22052352 -0.11344545 0.022733934 -0.06584571 0.3193863 -0.009774578
-0.10123874 -0.16200525 -0.05621033 0.026370747 0.072606005 -0.107259244 -0.27322388 -0.4854238
-0.27845126 0.07952858 0.4513278 0.49547413 0.41441396 0.168382 -0.0058136857 0.05239134
0.14470515 0.22363755 0.14828996 -0.16729768 -0.4169111 -0.28953066 -0.12629262 -0.11223889
0.068663575 0.15693057 0.14918777 0.026086574 0.04008662 -0.08653617 0.041968938 0.110925436
0.08509222 -0.036408976 -0.13271035 -0.18918416 -0.07324449 0.08678507 0.18571338 0.16667996
0.033161487 -0.08214085 -0.13883674 -0.21277292 0.00036538538 0.095992446 0.004799292 0.055195846
-0.0695191 -0.017901383 0.1012685 0.14372976 0.09115192 0.067894354 0.06828073 0.1182044
0.0720673 -0.0018361495 -0.01666833 -0.25239843 -0.18330945 -0.28843582 -0.021659512 0.0593782
0.22895917 0.11331756 0.0077773104 -0.18086888 -0.17514093 -0.01007916 0.07585073 0.17186102
0.20272714 0.123568304 0.05797457 -0.0484325 -0.0474789 0.0189063 0.08510444 0.07890773
0.060164467 0.050986744 -0.0009247686 0.03297113 0.09684315 0.025075855 0.02771748 -0.14142163
-0.36636806 -0.43857056 -0.38886982 -0.18836963 -0.03722276 0.084362924 0.17546445 0.12005357
0.0971236 0.24824892 0.30976364 0.010940259 -0.15136977 -0.019592302 0.09772874 0.31470224
00000000: 7809 02bc 2e21 a6bd c408 45be 015f 02bd
00000010: 7eb6 7d3e fc8f c33e 82e9 8c3e 0931 37bd
00000020: 96b1 a1be c1ce 07bf a0db f0be 0909 4ebe
00000030: 358e c33d f05c 933e ffd9 8a3e deda 883e
00000040: 3616 c03d 6692 5abd 0147 59bd 2ce9 56bd
00000050: 8307 12be 19a4 49bd bb4c 16bd 4a08 af3d
00000060: a46d ac3e 695d bf3e db94 403e ee5e 0c3e
00000070: c74b 403d 0485 8fbd 6342 9cbd 29e3 97bd
00000080: 8e47 0ebe 1d8c 15be d7a3 4abd cccd 6cbd
00000090: 9482 3bbd 4a20 efbd 0357 9cbd af53 eebc
000000a0: 1de6 04bd 8ab4 2b3d 26ce 763e 781f 983e
000000b0: 0d53 953e bdde 883e c06d 11bd fd24 14be
000000c0: 1a48 a5be 05f5 86be 41f7 ffbd dbab 953c
000000d0: 1d36 34bd 90fa 543d 7f85 e8bc 8a7b 0ebc
000000e0: 113c 5cbd 50b7 193e 1e77 583e 1575 b53e
000000f0: 0bc4 bb3e 4344 e03d e9ce 44bd 2eae 36be
00000100: 4910 3cbe 9994 2abe f661 99bc fbe5 e13c
00000110: 1a2a 8b3d f681 0b3e fa99 643e 9e5f 203e
00000120: a8ee 5d3e 5bcc 033e 455d 23be 9209 ad3b
00000130: ce48 36bd e8ea 063e f2a6 e53d 5b3b 2dbc
00000140: 9e84 80bd 9f5a 10be bb0b 38be 06d9 21be
00000150: de2f 093d c5b1 f4ba b423 5b3b 29a6 ce3d
00000160: eea5 773d 858b b7bb 67f5 a33b c110 9dbd
00000170: 187d 88bd b194 12be af2e 8ebd f478 64bd
00000180: e188 cd3d 2332 043e b8ef a93d 829d 013e
00000190: 83f0 733e 2284 dcbd 54c1 f1bd dd69 4bbe
000001a0: 12e4 aebd 4d20 183d f4e1 ac3d 5704 c73d
000001b0: 8222 05be 6fd7 0abe f92b 92bd 6b09 843d
000001c0: d6d2 ff3d 1f9a da3d 93e3 a7bc 62ba c2be
000001d0: 87a5 e5be 0c69 64be 09df 433e d45f 043f
000001e0: 55c8 ce3e 92df 793e 96a2 623c 000e dfbd
000001f0: 5960 3abe af61 43be 34ca d7bd 8b93 feba
00000200: ecee d1bc 46e8 fc3d a59a 0d3d 2688 893c
00000210: 9e3c aebd 3313 06be 34a8 44be cfbd 12be
00000220: 1c1c 3abe 2c5c db3c 4601 493e 4c17 ba3e
00000230: cdc1 a93e 9115 8b3e b9e3 a43d 88bd f2bd
00000240: 27c8 28be a141 47be ebd0 61be 1756 e8bd
00000250: 843c ba3c 1eda 86bd 9a86 a33e 8d25 20bc
00000260: 4256 cfbd b4e4 25be ce3c 66bd 7707 d83c
00000270: 75b2 943d bcaa dbbd 00e4 8bbe 7889 f8be
00000280: 2a91 8ebe e1df a23d 7014 e73e c9ae fd3e
00000290: 112e d43e 556c 2c3e bb80 bebb 4d98 563d
000002a0: 962d 143e 3e01 653e 53d9 173e 1550 2bbe
000002b0: 5f75 d5be 5d3d 94be da52 01be 81dd e5bd
000002c0: 7d9f 8c3d 68b2 203e aec4 183e 83b3 d53c
000002d0: de31 243d e039 b1bd 9fe7 2b3d e02c e33d
000002e0: d444 ae3d 9421 15bd 39e5 07be 7eb9 41be
000002f0: 3501 96bd 5fbc b13d a62b 3e3e 27ae 2a3e
00000300: 57d4 073d 7639 a8bd 382b 0ebe 25e1 59be
00000310: 3291 bf39 b097 c43d 6143 9d3b 0a15 623d
00000320: 0860 8ebd eca5 92bc dc65 cf3d e52d 133e
00000330: dcad ba3d 320c 8b3d c4d6 8b3d 2615 f23d
00000340: 0598 933d f4aa f0ba 068c 88bc 5e3a 81be
00000350: 79b5 3bbe dcad 93be 4a6f b1bc 8e36 733d
00000360: 4674 6a3e 0913 e83d cfd8 fe3b b135 39be
00000370: 2558 33be 1023 25bc a157 9b3d 56fc 2f3e
00000380: b497 4f3e 6111 fd3d be76 6d3d 2861 46bd
00000390: 3c79 42bd 63e1 9a3c 3d4b ae3d 609a a13d
000003a0: 046f 763d 7ad7 503d 2c6c 72ba bc0c 073d
000003b0: b455 c63d e16b cd3c c50f e33c d5d0 10be
000003c0: 9894 bbbe 528c e0be f219 c7be f8e3 40be
000003d0: e576 18bd 78c6 ac3d f4ac 333e a5de f53d
000003e0: bde8 c63d f734 7e3e 5799 9e3e c63e 333c
000003f0: ad00 1bbe 0980 a0bc 0126 c83d a720 a13e

conv_time_spat.conv_time.bias f4 [40]
0.2716979 0.17446806 -0.07832944 -0.038149267 -0.036840416 0.2082045 0.089610256 0.19728981
0.16860577 -0.059761234 0.097018294 -0.034228746 0.038963694 0.13990352 -0.23561656 0.19499348
0.043743014 0.19539744 0.04890065 -0.024000352 0.16486247 -0.1053125 -0.104515515 -0.19942091
0.08697249 0.073710434 -0.20198095 -0.0395632 -0.20940267 0.11480189 -0.252399 0.10125163
-0.22091785 -0.121253796 -0.2080479 0.1594036 0.14745617 0.029886685 -0.19400169 -0.0031114053
00000000: fd1b 8b3e c1a7 323e 2f6b a0bd 6842 1cbd
00000010: fae5 16bd 8f33 553e 9585 b73d 5706 4a3e
00000020: fea6 2c3e 32c8 74bd 87b1 c63d 7133 0cbd
00000030: 6598 1f3d de42 0f3e 7845 71be 5fac 473e
00000040: e02b 333d 4416 483e 0c4c 483d 639c c4bc
00000050: b5d1 283e 14ae d7bd 3b0c d6bd ff34 4cbe
00000060: a21e b23d 7ff5 963d 18d4 4ebe 060d 22bd
00000070: a76d 56be 411d eb3d 713a 81be 045d cf3d
00000080: 4a38 62be e953 f8bd 820a 55be b33a 233e
00000090: c0fe 163e ecd4 f43c 61a8 46be b8e8 4bbb

conv_time_spat.conv_spat.weight f4 [40, 40, 1, 44]
0.026903652 0.04123516 -0.06551115 0.16074029 0.011510307 0.1256998 0.082853384 0.23321289
0.35576054 0.053177893 0.0017727779 0.028455615 0.05378369 -0.07780828 0.26756555 0.21633454
0.018066028 0.20224252 0.3083416 0.32576445 -0.14686546 -0.011405835 0.104165204 0.04644422
0.07068225 0.13192843 -0.00417239 -0.02704618 0.04559361 0.30899733 0.14027917 0.17087659
0.31571475 0.24127711 0.2966292 0.25090283 -0.063683026 0.013196505 -0.045332786 -0.22568895
0.4206943 0.43625236 0.3496826 0.38871726 0.091129 0.22704628 -0.07808129 -0.23446254
-0.028302673 0.024533004 -0.0023187862 -0.1209001 -0.111770794 -0.08046521 0.09715333 0.121183924
-0.10302589 0.18526952 -0.06677353 -0.12188267 -0.06959867 -0.0657166 -0.08977614 -0.004579762
0.32034287 0.06741489 -0.16451177 -0.37296626 0.2170764 0.03119128 -0.006963163 0.04908837
0.024669044 -0.05061605 0.06868491 -0.010133619 -0.10084395 -0.11620038 -0.032974627 -0.12894273
0.12641877 -0.077921994 -0.0276667 0.012708649 -0.032042902 -0.1069023 -0.10209696 -0.101435006
-0.06547255 0.02030702 0.09249073 -0.075638786 -0.07377695 -0.20913558 -0.05135112 -0.19851638
-0.20759 -0.12595643 0.047215074 0.11611004 -0.04563453 -0.009908018 -0.20930208 -0.42320025
-0.1383132 -0.16105193 -0.32057253 -0.3771173 0.19561881 0.12822933 0.13359158 0.09333753
0.014446657 0.01620542 -0.08199386 0.012826144 -0.11378711 -0.20810254 -0.103295445 -0.1770779
-0.11188152 -0.13147703 -0.20632944 -0.14468004 0.17900233 0.20898125 0.23077005 0.15930736
-0.33720574 -0.32452938 -0.24338382 -0.21305813 -0.25086468 -0.12462537 -0.10645263 0.15506211
0.0073648123 0.043033578 -0.12911493 0.0043845014 0.12899087 0.08931761 -0.051380374 -0.17615668
-0.017217394 -0.2186853 0.017333984 0.06939146 0.041815747 -0.008576611 0.11733106 -0.0054233028
-0.0059977416 -0.22233891 -0.1263251 0.031993203 -0.3342189 -0.048884626 -0.036598127 0.008520656
-0.15450661 0.007433818 -0.055919584 0.028165707 -0.10883742 -0.037423458 0.122008726 0.046362467
-0.24472925 -0.22900048 0.009267236 -0.061037276 -0.043774385 0.15301831 0.044143755 0.09429049
-0.28945768 -0.113219015 -0.010268309 -0.026753008 -0.051237058 0.090724275 -0.12037309 -0.18835843
-0.048552673 0.10822772 0.00276992 -0.048114832 -0.11490419 -0.08881053 -0.24466328 -0.02556025
-0.0046681133 -0.1688727 -0.18819442 -0.30747637 -0.014128561 -0.06908767 -0.11944816 -0.13955234
-0.17767456 -0.16989566 -0.01357352 0.0941553 -0.11043167 -0.23755276 -0.010719133 0.110833764
-0.15887153 -0.19441022 -0.11349827 0.010031443 -0.10603061 -0.14322753 0.07046023 0.10036324
-0.27529097 -0.07074391 -0.19253175 -0.08023123 0.24112774 0.23467016 -0.0076804534 0.033998176
-0.114840634 -0.074198976 0.17784514 0.28266782 0.06462027 -0.121952906 0.039996073 0.108119726
-0.073398955 0.10894532 0.07497618 0.15244326 -0.077835575 0.16732246 0.30284196 0.19583808
-0.066787034 0.08593885 0.049439725 -0.084260985 0.17683674 0.07241127 -0.041876245 -0.12742788
0.11020011 0.22860007 0.13950662 -0.049223255 0.31692004 0.40658596 0.18670242 -0.026119238
00000000: 0c65 dc3c 33e6 283d b62a 86bd 1a99 243e
00000010: ba95 3c3c 73b7 003e 09af a93d 5ccf 6e3e
00000020: 3f26 b63e 10d1 593d 8e5c e83a c01b e93c
00000030: 494c 5c3d f359 9fbd 5afe 883e cd86 5d3e
00000040: 35ff 933c aa18 4f3e f3de 9d3e 99ca a63e
00000050: e663 16be 8adf 3abc 9154 d53d 4b3c 3e3d
00000060: dbc1 903d 3f18 073e 8bb8 88bb f38f ddbc
00000070: 5dc0 3a3d e634 9e3e 58a5 0f3e 46fa 2e3e
00000080: 5da5 a13e 5911 773e c8df 973e 5676 803e
00000090: 3f6c 82bd 2736 583c dfae 39bd 011b 67be
000000a0: 3e65 d73e 785c df3e 9909 b33e f305 c73e
000000b0: d7a1 ba3d d27e 683e 15e9 9fbd f316 70be
000000c0: 02db e7bc 70f9 c83c c7f6 17bb 799a f7bd
000000d0: 16e8 e4bd f2ca a4bd 53f8 c63d 472f f83d
000000e0: 3dff d2bd 4bb7 3d3e 8fc0 88bd 9f9d f9bd
000000f0: bf89 8ebd 6d96 86bd 8edc b7bd d411 96bb
00000100: fb03 a43e d110 8a3d c675 28be 6ff5 bebe
00000110: 4749 5e3e db84 ff3c 3f2b e4bb e310 493d
00000120: bc16 ca3c c652 4fbd adaa 8c3d 7b07 26bc
00000130: 4687 cebd 77fa edbd 6710 07bd 9009 04be
00000140: ec73 013e 9195 9fbd 46a5 e2bc f037 503c
00000150: 6b3f 03bd 98ef dabd 3618 d1bd 28bd cfbd
00000160: 7916 86bd e85a a63c c86b bd3d 82e8 9abd
00000170: 5f18 97bd a327 56be 8d55 52bd e147 4bbe
00000180: 7992 54be b9fa 00be 9864 413d 1acb ed3d
00000190: 46eb 3abd 3d55 22bc 4953 56be b4ad d8be
000001a0: faa1 0dbe ccea 24be 1522 a4be 8515 c1be
000001b0: 4c50 483e 8d4e 033e 3bcc 083e bf27 bf3d
000001c0: acb1 6c3c 3bc1 843c 66ec a7bd bf24 523c
000001d0: 3709 e9bd d518 55be 908c d3bd e953 35be
000001e0: 2322 e5bd eaa1 06be 0648 53be 0127 14be
000001f0: 634c 373e 2eff 553e fc4e 6c3e 7821 233e
00000200: 3ba6 acbe b728 a6be 9c39 79be e92b 5abe
00000210: 5671 80be 963b ffbd d603 dabd 9ac8 1e3e
00000220: 8654 f13b fa43 303d b436 04be ddab 8f3b
00000230: 2f16 043e 27ec b63d 3a74 52bd 6b62 34be
00000240: 7e0b 8dbc 0aef 5fbe 0000 8e3c 1c1d 8e3d
00000250: fd46 2b3d ea84 0cbc 444b f03d f6b5 b1bb
00000260: b488 c4bb d0ac 63be 5e5b 01be 4e0b 033d
00000270: bd1e abbe 3f3b 48bd ebe7 15bd 399a 0b3c
00000280: fb36 1ebe 6397 f33b ef0b 65bd c5bb e63c
00000290: 27e6 debd 5749 19bd b6df f93d 92e6 3d3d
000002a0: 4e9a 7abe 1a7f 6abe 9bd5 173c 3902 7abd
000002b0: c54c 33bd d5b0 1c3e 15d0 343d 5f1b c13d
000002c0: cc33 94be 5fdf e7bd 693c 28bc 2029 dbbc
000002d0: f3dd 51bd a6cd b93d 2b86 f6bd 08e1 40be
000002e0: 2bdf 46bd 7fa6 dd3d 8c87 353b 0f14 45bd
000002f0: e352 ebbd 4ce2 b5bd 0389 7abe bb63 d1bc
00000300: f9f6 98bb f7ec 2cbe 0ab6 40be 8b6d 9dbe
00000310: 7b7b 67bc d67d 8dbd 3da1 f4bd cfe6 0ebe
00000320: 52f0 35be 21f9 2dbe 7863 5ebc 7ed4 c03d
00000330: 002a e2bd 0841 73be 4d9f 2fbc d0fc e23d
00000340: 38af 22be 7913 47be c871 e8bd ec5a 243c
00000350: 9426 d9bd 3daa 12be 744d 903d 3e8b cd3d
00000360: f0f2 8cbe 2fe2 90bd 0b27 45be 4550 a4bd
00000370: 31ea 763e 604d 703e 50ac fbbb ac41 0b3d
00000380: 9131 ebbd a2f5 97bd 091d 363e d6b9 903e
00000390: a257 843d 72c2 f9bd ecd2 233d e06d dd3d
000003a0: 3152 96bd b91e df3d 1d8d 993d 161a 1c3e
000003b0: 4268 9fbd 9456 2b3e 1a0e 9b3e c789 483e
000003c0: a4c7 88bd b500 b03d 4f81 4a3d 0691 acbd
000003d0: b114 353e 5c4c 943d 6d86 2bbd 747c 02be
000003e0: 98b0 e13d 2316 6a3e d3da 0e3e 539e 49bd
000003f0: 5843 a23e 092c d03e eb2e 3f3e 03f8 d5bc

bnorm.weight f4 [40]
0.32273358 0.7093751 0.30418423 0.36950362 0.86563665 0.25904328 0.30762598 0.5637141
0.35236332 0.62044334 0.43335328 0.32818007 0.25716314 0.48669654 0.2931339 0.732359
0.33092085 0.39671898 0.29885748 0.6748354 0.39962688 0.4865645 0.44236568 0.3931378
0.24939504 0.4567975 0.37012094 0.63249904 0.31755978 0.27385014 0.50046885 0.30614403
0.43828028 0.50824124 0.39450264 0.42260486 0.31831092 0.32329094 0.5688107 0.71699584
00000000: 563d a53e 9b99 353f 09be 9b3e 942f bd3e
00000010: 5d9a 5d3f 52a1 843e 2781 9d3e 914f 103f
00000020: f768 b43e 60d5 1e3f 7be0 dd3e 3807 a83e
00000030: e3aa 833e 4a30 f93e a615 963e e17b 3b3f
00000040: 756e a93e c01e cb3e d903 993e 03c2 2c3f
00000050: e59b cc3e fb1e f93e c17d e23e 5c49 c93e
00000060: 6a61 7f3e 5de1 e93e 7e80 bd3e 75eb 213f
00000070: 3297 a23e 1636 8c3e ba1e 003f e9be 9c3e
00000080: 4666 e03e 191c 023f 40fc c93e aa5f d83e
00000090: a6f9 a23e 6486 a53e 949d 113f 0a8d 373f

bnorm.bias f4 [40]
0.960089 0.78507113 0.95154524 -0.95054656 -0.78659827 -1.0044947 -0.96743447 -0.88500667
0.94352424 -0.87648195 0.95057213 -0.9456771 0.9949593 -0.9224266 0.99256825 -0.79812896
0.9671854 -0.91347796 -0.98623866 0.80292046 0.94009745 0.8802599 0.9273799 -0.9402797
0.97917086 0.9367653 -0.95886 0.8642534 0.94109327 1.0139301 0.921641 0.96479356
-0.9333613 -0.88731635 -0.94162714 -0.9627688 -0.96843684 -0.97221786 -0.82734746 0.818183
00000000: 65c8 753f 6cfa 483f 7898 733f 0557 73bf
00000010: 815e 49bf 4893 80bf c9a9 77bf cc8f 62bf
00000020: ce8a 713f 1f61 60bf b258 733f e517 72bf
00000030: a7b5 7e3f 2624 6cbf f418 7e3f 2e52 4cbf
00000040: 7699 773f b1d9 69bf 237a 7cbf 328c 4d3f
00000050: 3aaa 703f b658 613f c568 6d3f 2cb6 70bf
00000060: f1aa 7a3f dacf 6f3f d977 75bf b63f 5d3f
00000070: 7deb 703f 76c8 813f aaf0 6b3f b6fc 763f
00000080: c4f0 6ebf 2a27 63bf 7a0e 71bf 0478 76bf
00000090: 7aeb 77bf 45e3 78bf 0bcd 53bf 7174 513f

bnorm.running_mean f4 [40]
12.53274 -2.984202 15.814934 6.3330493 0.40085036 -0.07220716 -2.667579 -0.8643357
-10.893661 -22.670324 -15.267752 -6.8818045 -2.5729432 -10.897612 0.29886824 -7.781019
-3.5348995 -12.201545 0.9428521 -4.85152 0.6995651 0.3714221 2.8718455 8.439023
-0.024374744 6.997392 -6.3368864 -3.8247893 9.48617 5.8890467 3.2749956 5.0220404
-17.45292 -5.283897 -8.13405 -15.344717 7.65316 -14.813173 -6.9391656 -1.9225235
00000000: 1a86 4841 2afd 3ec0 f809 7d41 57a8 ca40
00000010: 423c cd3e 59e1 93bd 9db9 2ac0 1b45 5dbf
00000020: 6f4c 2ec1 d35c b5c1 b648 74c1 be37 dcc0
00000030: 1aab 24c0 9e5c 2ec1 4205 993e 1cfe f8c0
00000040: cb3b 62c0 8739 43c1 c15e 713f a73f 9bc0
00000050: b316 333f 0a2b be3e 51cc 3740 3d06 0741
00000060: 8bad c7bc a3ea df40 c6c7 cac0 59c9 74c0
00000070: 5ac7 1741 1273 bc40 8799 5140 8eb4 a040
00000080: 959f 8bc1 af15 a9c0 1225 02c1 f683 75c1
00000090: b0e6 f440 c202 6dc1 a50d dec0 4015 f6bf

bnorm.running_var f4 [40]
2.8337948 2.4773598 1.9741929 2.1958272 2.3231082 1.33329 1.653081 1.6403106
1.8042561 2.062153 2.038393 1.8904985 2.5796044 1.5887871 2.2600229 2.5933099
1.7145268 2.3724692 1.8455448 1.2535294 2.3326879 1.7239937 2.3252943 1.3926797
1.752778 1.5855498 2.0361855 2.311893 2.2145991 1.3410594 2.260052 2.2720351
1.8227787 1.2015567 1.2438024 1.981749 1.3446819 1.8605332 1.7383906 1.7170839
00000000: e55c 3540 108d 1e40 5ab2 fc3f 6f88 0c40
00000010: cead 1440 3fa9 aa3f 2998 d33f b3f5 d13f
00000020: ddf1 e63f 51fa 0340 0875 0240 dbfb f13f
00000030: 3d18 2540 605d cb3f 37a4 1040 caf8 2540
00000040: 9d75 db3f 89d6 1740 d03a ec3f a773 a03f
00000050: c24a 1540 d3ab dc3f 9fd1 1440 5443 b23f
00000060: 085b e03f 4cf3 ca3f dd50 0240 0ef6 1340
00000070: febb 0d40 d6a7 ab3f b1a4 1040 0669 1140
00000080: d050 e93f 9ccc 993f eb34 9f3f f4a9 fd3f
00000090: 891e ac3f f425 ee3f 9583 de3f 68c9 db3f

final_layer.conv_classifier.weight f4 [4, 40, 144, 1]
0.13447943 0.05049088 -0.011141957 -0.18982118 0.0053002783 -0.06601735 0.096083775 0.07507744
0.044886094 0.06719145 0.06289821 -0.07988116 0.10784985 0.06013427 0.12405775 -0.043687504
-0.126377 0.03834687 0.008505991 0.07513749 0.061088257 -0.07395423 -0.10393976 0.041922595
-0.04480694 0.031202247 -0.07129104 -0.09915382 -0.15412337 -0.076839104 -0.034565497 -0.009857888
-0.06946837 0.04442313 -0.11660519 -0.23888527 0.066234834 0.029403497 -0.06703313 -0.10667453
0.016013347 0.043941353 0.023085909 -0.112007774 -0.023296954 -0.052886497 -0.11038374 -0.15914683
-0.091633484 -0.115908735 -0.0047202464 0.029225426 -0.042397935 -0.016231453 -0.04899506 -0.097600386
0.04266259 0.042118933 0.05625227 0.03719659 0.005935211 -0.029249512 0.0668974 0.080110736
-0.04229467 -0.02908181 -0.013472246 0.061997756 -0.08128185 -0.10112059 0.012393562 0.00027778538
0.027650686 0.10278194 0.049045738 -0.11365506 -0.05569211 -0.05519567 0.13326067 -0.0473257
-0.03758299 -0.03862042 -0.043143872 -0.07024237 0.0048090043 0.075969964 -0.059595793 0.030559136
0.0014786473 -0.0071933973 -0.041070286 0.016733306 -0.06302941 0.016083093 -0.08194701 0.082557395
0.084822 0.018390546 -0.023500638 -0.0115769 -0.004846584 0.06322483 -0.07918107 -0.0140158115
-0.06388893 -0.14769939 -0.067330584 0.10365627 0.035173874 0.102879636 0.006108489 0.13153
0.062326882 0.086784296 0.060629714 0.017993316 0.029173553 0.06878822 -0.102874815 0.012609552
0.006176615 0.103536986 -0.0027947044 0.06758038 0.06813766 -0.12918513 0.097529784 0.062555216
-0.097246855 -0.043207124 0.09888924 0.027289508 0.08637933 -0.016927317 0.065496035 -0.035467807
-0.07487117 -0.06158849 -0.11970895 0.07955307 0.035099875 -0.039912798 -0.032974225 0.122484654
0.033406362 0.00921038 0.030952523 0.061581574 -0.06584289 -0.06509249 -0.002621681 -0.021446763
-0.022654355 0.0035497865 -0.11567283 0.006143378 0.016183676 0.04129473 0.06276064 0.10687532
-0.0012699034 0.12385622 0.062235292 -0.0060649663 0.017451469 -0.03611739 -0.034825575 -0.09478832
-0.05886526 0.031684592 -0.048278335 -0.08022761 0.017471204 -0.11120085 -0.07470825 -0.16210069
-0.06377261 -0.050237328 -0.06124107 -0.12110465 -0.07779226 -0.13775983 -0.027590241 0.01827308
0.07623963 0.032256838 -0.068918295 -0.11205307 -0.041272778 0.05106631 -0.040955443 0.036469396
-0.038581483 0.12924382 0.047082935 0.04078479 0.0810232 -0.05748724 -0.0803531 -0.023208607
-0.03683017 -0.05648465 -0.071812905 0.00088062475 -0.02136153 -0.046768658 0.02025801 -0.000924951
0.11349992 0.023260519 0.008422242 -0.06099611 0.023107072 -0.06502993 -0.057554316 0.03171293
-0.053413704 -0.03140828 -0.059068557 -0.12077735 -0.07474624 -0.07172898 -0.051995505 0.0054009184
0.08295709 0.036862265 -0.15975298 -0.034253683 -0.05644377 -0.046083305 0.11976587 0.07159645
0.054052364 -0.06725991 -0.062258255 -0.0378121 -0.045957185 0.017206345 0.0038600767 -0.020935632
0.041355144 -0.032935884 0.01759489 0.0077399067 -0.038332667 -0.021097306 -0.0903251 -0.019584097
0.1238668 -0.07971813 -0.033611692 0.031587195 -0.0040837144 0.03206483 -0.08382133 -0.03369895
00000000: fab4 093e 86cf 4e3d c18c 36bc 7c60 42be
00000010: f5ad ad3b 1b34 87bd 92c7 c43d 33c2 993d
00000020: 7bda 373d ac9b 893d c7d0 803d bc98 a3bd
00000030: 62e0 dc3d 5a4f 763d fd11 fe3d abf1 32bd
00000040: f968 01be 9c11 1d3d b65c 0b3c afe1 993d
00000050: ae37 7a3d 5175 97bd 5ede d4bd 07b7 2b3d
00000060: 7b87 37bd db9b ff3c 0901 92bd 2811 cbbd
00000070: 84d2 1dbe d25d 9dbd 8d94 0dbd fb82 21bc
00000080: 6f45 8ebd 07f5 353d b4ce eebd 579e 74be
00000090: 21a6 873d 9adf f03c aa48 89bd 2d78 dabd
000000a0: 6c2e 833c d9fb 333d a91e bd3c 5564 e5bd
000000b0: 41d9 bebc 839f 58bd df10 e2bd 63f7 22be
000000c0: 56aa bbbd 8f61 edbd 4cac 9abb 296a ef3c
000000d0: 75a9 2dbd d3f7 84bc 0baf 48bd b6e2 c7bd
000000e0: f8be 2e3d e784 2c3d c868 663d 745b 183d
000000f0: 297c c23b ac9c efbc 8101 893d 1911 a43d
00000100: 2d3d 2dbd fa3c eebc b2ba 5cbc 5cf1 7d3d
00000110: 1977 a6bd 5018 cfbd 5e0e 4b3c b9a3 9139
00000120: b183 e23c 567f d23d 2fe4 483d fcc3 e8bd
00000130: 691d 64bd db14 62bd 7c75 083e 98d8 41bd
00000140: 9ff0 19bd 7230 1ebd a1b7 30bd 3bdb 8fbd
00000150: da94 9d3b 2496 9b3d b81a 74bd 2757 fa3c
00000160: 2ccf c13a 97b6 ebbb 5139 28bd 4914 893c
00000170: 9015 81bd b1c0 833c d5d3 a7bd da13 a93d
00000180: 28b7 ad3d c5a7 963c 6984 c0bc 0aad 3dbc
00000190: 18d0 9ebb 057c 813d af29 a2bd 93a2 65bc
000001a0: 33d8 82bd 823e 17be 9ee4 89bd bd49 d43d
000001b0: 7b12 103d 8fb2 d23d b829 c83b cdaf 063e
000001c0: 794a 7f3d f7bb b13d dd56 783d b866 933c
000001d0: 60fd ee3c d7e0 8c3d 08b0 d2bd 4b98 4e3c
000001e0: 3465 ca3b 330b d43d 5c27 37bb 9567 8a3d
000001f0: c28b 8b3d 1b49 04be b2bd c73d f31c 803d
00000200: 5c29 c7bd f4f9 30bd 7186 ca3d 3f8e df3c
00000210: a5e7 b03d 28ab 8abc c922 863d b146 11bd
00000220: 0e56 99bd 3644 7cbd f729 f5bd b8ec a23d
00000230: e3c4 0f3d 9a7b 23bd fb0f 07bd 3cd9 fa3d
00000240: 1cd5 083d 22e7 163c 2590 fd3c f63c 7c3d
00000250: a3d8 86bd 364f 85bd 82d0 2bbb 1fb1 afbc
00000260: a095 b9bc 89a3 683b e0e5 ecbd 644e c93b
00000270: a193 843c aa24 293d a788 803d 73e1 da3d
00000280: e372 a6ba 54a8 fd3d 6fea 7e3d a0bc c6bb
00000290: 62f6 8e3c d4ef 13bd 43a5 0ebd 6120 c2bd
000002a0: b31c 71bd b4c7 013d 81bf 45bd 604e a4bd
000002b0: c51f 8f3c 45bd e3bd a400 99bd b9fd 25be
000002c0: 379b 82bd a8c5 4dbd ebd7 7abd b705 f8bd
000002d0: 8c51 9fbd ea10 0dbe ee04 e2bc 6db1 953c
000002e0: 8623 9c3d bf1f 043d 0925 8dbd 147c e5bd
000002f0: a50d 29bd e82a 513d e5c0 27bd ef60 153d
00000300: 9e07 1ebd 7e58 043e 09da 403d f40d 273d
00000310: 7eef a53d bd77 6bbd 2b90 a4bd fa1f bebc
00000320: 3bdb 16bd 735c 67bd a512 93bd bad9 663a
00000330: 60fe aebc 7e90 3fbd 20f4 a53c 6978 72ba
00000340: a572 e83d d88c be3c 71fd 093c 0fd7 79bd
00000350: 0b4b bd3c 692e 85bd 13be 6bbd 6be5 013d
00000360: 54c8 5abd f8a5 00bd dff1 71bd 1e5a f7bd
00000370: 8f14 99bd a5e6 92bd 3df9 54bd 30fa b03b
00000380: 68e5 a93d e3fc 163d 4996 23be 974d 0cbd
00000390: 9531 67bd d9c1 3cbd cf47 f53d 29a1 923d
000003a0: 0366 5d3d 90bf 89bd 8302 7fbd dce0 1abd
000003b0: 9a3d 3cbd 52f4 8c3c 57f9 7c3b 3481 abbc
000003c0: 0364 293d c7e7 06bd 2923 903c 0b9f fd3b
000003d0: b702 1dbd 42d4 acbc 5efc b8bd d46e a0bc
000003e0: e0ad fd3d 4243 a3bd 6aac 09bd 9361 013d
000003f0: aed0 85bb 6956 033d 84aa abbd e907 0abd

final_layer.conv_classifier.bias f4 [4]
0.061104737 -0.10452708 0.14807223 -0.06176252
00000000: f648 7a3d 4b12 d6bd 3fa0 173e b2fa 7cbd
