models/ShallowFBCSPNet_persons8_lr0.0001_wd0.1_bs128_acc0.8492.pth (torch, 383698 bytes, 9 tensors)

conv_time_spat.conv_time.weight f4 [40, 1, 25, 1]
00000000: 33dc 0bbd 10e7 5c3d e956 48bd 4719 f53c
00000010: 6d18 903d b024 8a3d c2ed 323d 3394 9e3d
00000020: 2069 bc3c 944e 95bc cbfa 853d 7dd7 bbbc
00000030: 59a3 45bd 08c1 ba3c 7cba 13bd bff4 163d
00000040: 2d4a 02bd 26f1 edbb b910 0dbd d8cf 4bbd
00000050: 0233 e23c 0269 153d b9e9 24bd 41cc 363d
00000060: 665f 213b 8393 263d 9950 303c f4ec 07bd
00000070: 15bd fabc 2584 d63c b112 95bd f3b2 45bd
00000080: cd39 8e3b 8620 7c3d 8dc1 883d 3dab 7339
00000090: 5980 b13c 7617 01bc 6e0a 0b3d f70a 6abc
000000a0: 947a 983d 1e0f 683d ad1e b1bc 0299 323c
000000b0: 6882 a239 7c83 43bd 155d e73c b87b 823d
000000c0: b6d7 fb3b 54f5 53bc 7871 b8bc 7596 f33b
000000d0: f717 7c3d 8c18 16bd 086b 1a3c 99a8 9abd
000000e0: 005b 8cbd f2c8 b93c d677 c53c a9ea fd3b
000000f0: adbb 93bd 49df 93bc 07e6 cc3c 6ae1 93bd
00000100: 0538 91bc 75b8 683d 0b95 e73c 201b f63b
00000110: 9954 553c f9ea 903d 8373 543d a51b 293d
00000120: b4e5 c13c 7142 833d bdc7 a83c 968a bcbd
00000130: f8f1 21bd 997b d53c b607 123b f6eb c93c
00000140: e546 063d b63d ddbc ad75 37bd 4337 aa3d
00000150: 2c0f 06ba 1771 4fbb 25ab 60bc 37e7 433d
00000160: e02d 333d f436 513d 0842 4dbc 12d7 0dbb
00000170: 03ee 7abd 8bbf 3dbd 4214 47bd becc 48bd
00000180: 6e4e 39bd 7f47 1a3d c5fa a3bd 819f 2a3c
00000190: 987d 71bd 5ecd 173c 1e50 1b3d 81e4 f4bb
000001a0: c32e 04bc 5539 1c3d cbb1 bfbc dfd9 f4bc
000001b0: d5f8 d23b 0192 3bbc 800b d3ba fbda 39bd
000001c0: f1b0 483c bfbd e23c d66c 0d3d eb22 52bd
000001d0: 1fd7 c13c e6d6 693d 503f a0bc 17ce 18bd
000001e0: 5df2 b0bc 480d 7ebd 4245 343d eb57 31bd
000001f0: 388f 9cbd 4e95 813d 35c9 273d 2eb5 95bd
00000200: 1b80 2d3d ed05 edba 3e94 9f3d c50d 9f3d
00000210: 87c2 26bb e46c 8dbd ce6d 95bc d24a 92bc
00000220: 68fc ae3a 0dea fe3c c838 b93b 3247 2abc
00000230: cc83 9bbd 3b79 403d 4232 8abd 8fe2 e53c
00000240: 0252 8bbd ede8 d13c dba4 10bd 020d 923d
00000250: ce11 963c 3a97 a03d 8f1a 95bd 03ef c23c
00000260: b373 5e3d 31d6 34bd 2c82 2a3d d4c6 6d3d
00000270: 7e2f 46bd ac2f e03b 9b4f 843d aa60 b03c
00000280: 1c52 c2bb f541 87bc 0e2a abbc f927 26bc
00000290: 95a0 4cbd 58e8 9bbd 2b90 7ebc b433 87bd
000002a0: d66b 94bd 19eb 3fbc 50f6 a9bc fbb5 ec3c
000002b0: 1d22 32bc 174b a3b9 22ca 40bd 5e2c a9bd
000002c0: cf29 8bbb 1260 8abd c058 29bc 5bdc 6b3d
000002d0: 896f 843d a395 ca3a 1783 bc3d f539 163d
000002e0: 7660 233d ace5 843d 8c0a d73c 2917 dabc
000002f0: 06ed 82bd 9b31 1bbd 8dee 5dbb 15f4 21bc
00000300: 9f98 683d aef4 fdbc 81a1 873c f99d 9cbd
00000310: 6e0a 113b 3453 093d 55d7 1dbd cba7 89bd
00000320: 1b03 4dbb d845 4e3d 0ea6 c13b 7965 8f3d
00000330: f21e 07bd de9f 1abc e0b5 dcbc 3098 643d
00000340: 9b64 b73c c91c 573d 803b 9a3c 243d 1b3d
00000350: be6a 30bc 2428 8f3d 9d09 813c dcf6 353d
00000360: 6e52 623a d723 3bb8 0512 b43b bd39 81bd
00000370: a08d 01bc c784 65bd 3395 063d b7f1 8ebd
00000380: 2e18 4c3c bf52 733d 61d0 7cbd d63b eb3c
00000390: 2ae6 58bd 963d 203d 59cc 95bd e500 503d
000003a0: 5730 a8bd e009 38bb d820 ddbc 635d 42bd
000003b0: 11f6 08bc 485e 80bc 0299 bb3b 30d4 933d
000003c0: 6c3e 80bb d392 a73d 95c9 503d 2461 4ebd
000003d0: 5dd6 6d3b 37d6 3cbc 06c3 883d 0b8e 223d
000003e0: 441f 97bc ca35 3bbb a05c 09bd bc32 1f3c
000003f0: 8b5e adbc cea7 76bb 41f7 87bd 0eb2 2abd
-0.034145545 0.053931296 -0.04891101 0.02991928 0.07035909 0.06745279 0.043683775 0.077431105
0.022999346 -0.018225946 0.065419756 -0.022929901 -0.048251484 0.022797123 -0.036066517 0.0368545
-0.03180902 -0.007261413 -0.034439776 -0.049758762 0.027612213 0.036477096 -0.040261958 0.044628385
0.0024623512 0.040668022 0.0107614035 -0.03318496 -0.03060774 0.026186058 -0.07278956 -0.048266362
0.0043403865 0.061554454 0.06677542 0.00023238077 0.021667646 -0.007879129 0.033945493 -0.014284841
0.07445255 0.056655042 -0.021621073 0.010900738 0.00030996208 -0.047732815 0.028242627 0.06371254
0.007685627 -0.012936909 -0.022515044 0.0074337074 0.061546292 -0.036644503 0.009424932 -0.07551689
-0.068532944 0.022678826 0.024104994 0.007748921 -0.07213531 -0.018050807 0.02501203 -0.07220729
-0.017726908 0.056816537 0.028269311 0.007510558 0.013020658 0.070760675 0.051867973 0.04128613
0.023669101 0.06409157 0.020603055 -0.09206121 -0.0395374 0.026059913 0.0022282428 0.024648648
0.032782454 -0.027006965 -0.04478996 0.083113216 -0.0005113955 -0.00316531 -0.013712679 0.047827926
0.04374492 0.051077798 -0.01252795 -0.0021643084 -0.061262142 -0.046325248 -0.048603304 -0.049023382
-0.045240812 0.03766584 -0.08006815 0.010414005 -0.058957666 0.009265272 0.037918203 -0.007473529
-0.0080677895 0.038140614 -0.023400208 -0.029889045 0.0064383545 -0.011448384 -0.001610145 -0.04537485
0.012249217 0.027678369 0.034527622 -0.05130283 0.023662148 0.05708971 -0.01956144 -0.037305918
-0.021599943 -0.062024385 0.044011362 -0.043296736 -0.07644504 0.06327306 0.04096337 -0.07309948
0.0423585 -0.0018083431 0.07791947 0.07766298 -0.0025445537 -0.06905535 -0.018240836 -0.017857943
0.0013350369 0.031117463 0.005652521 -0.010392951 -0.07593498 0.046990614 -0.06747867 0.028062133
-0.06802751 0.025623763 -0.03531347 0.07131387 0.018319037 0.07841344 -0.07280456 0.02379561
0.054309558 -0.04414958 0.041628048 0.058050945 -0.048385136 0.0068416204 0.06460496 0.021530468
-0.0059301984 -0.016510943 -0.020894077 -0.010141366 -0.04995783 -0.076126754 -0.015537302 -0.066016585
-0.072471306 -0.0117137665 -0.020747334 0.028895369 -0.010872391 -0.0003114573 -0.04706777 -0.082604155
-0.0042469273 -0.06756605 -0.010336101 0.057583194 0.06466586 0.0015455972 0.09204691 0.036676366
0.039886914 0.06489119 0.026250146 -0.026622372 -0.06392865 -0.037889104 -0.0033864111 -0.009884854
0.056786176 -0.031000461 0.016556503 -0.076473184 0.002213146 0.033526614 -0.038535435 -0.06721457
-0.0031282369 0.050359577 0.005909688 0.07001776 -0.032988496 -0.009437529 -0.026942194 0.0558092
0.02238684 0.052517686 0.0188272 0.037900105 -0.010767637 0.06990078 0.015751654 0.044424877
0.0008633499 -4.4617653e-05 0.005495312 -0.06309841 -0.007907301 -0.05603483 0.03285713 -0.06979697
0.012456937 0.059405085 -0.061722163 0.028715055 -0.052953877 0.039121233 -0.07314367 0.050782103
-0.08212345 -0.0028082058 -0.0269932 -0.04745234 -0.008359448 -0.015669957 0.005725027 0.07218206
-0.0039136913 0.08182301 0.050973494 -0.05038561 0.00362911 -0.011525682 0.06677823 0.039686244
-0.018447526 -0.0028565996 -0.0335356 0.009716686 -0.021163246 -0.003763664 -0.06638957 -0.041673712

conv_time_spat.conv_time.bias f4 [40]
00000000: 4c24 e83b 2244 98bb 0878 71bb a71a 98bb
00000010: 3070 aabb 8ce9 1f3c 5ee1 29b8 7378 873a
00000020: e720 33bc 85ac 1b3b fbce cabb dd71 1cbc
00000030: 2a69 26b9 b658 353c 9107 4a3a d735 5bbb
00000040: 800d 61bb 9b6a cc3b cd65 c23a 6e4b b2ba
00000050: 7c13 7d3c 8a37 2d3a 7ccb cc3b c6f3 c33b
00000060: c3e1 cc3b d960 f43a 63f7 703b 863f dabb
00000070: 04ef fbbb 7dca 37bc a5ac b73b 259e bdbb
00000080: 4e47 3c3c cd74 a63a 0fc9 0cbb 1fcd 253b
00000090: 7375 193c 3691 293c 92ef fcbb 25b9 703a
0.007084405 -0.004646794 -0.0036845226 -0.004641849 -0.005201362 0.009760272 -4.050263e-05 0.0010335579
-0.0109331375 0.0023753953 -0.006189225 -0.0095486315 -0.0001587017 0.011068514 0.0007706816 -0.003344884
-0.0034340322 0.0062382943 0.0014831364 -0.0013602802 0.01544654 0.0006607702 0.006249843 0.005979988
0.006252499 0.0018644586 0.0036768548 -0.0066604046 -0.007688405 -0.011217711 0.0056052976 -0.0057866746
0.01149161 0.0012699604 -0.0021482145 0.0025299264 0.009366381 0.010349562 -0.0077189887 0.0009182862

conv_time_spat.conv_spat.weight f4 [40, 40, 1, 44]
00000000: 1d07 0abd a9f7 95bc c4c9 e53c a6f3 9dbc
00000010: db17 cc3c 484a 00bc 6443 30bc d517 933c
00000020: 8107 18bc 6cde 1ebc fb78 acbc 6ce9 1b3c
00000030: 3200 fe3c f891 d53b 8e4c 1e3b 6d2f fabc
00000040: 6b0b bb3c bd80 bc3a bcdb c43c 2ba3 1b3c
00000050: f699 bb3b 682c c6bc edc3 dd3c ccb5 47bb
00000060: 8fe5 8dbc eeb8 7d3c 61bc 9fbc fa40 a13b
00000070: 253f 7abb 4155 4bbd 9d1e 023d 9402 ba3c
00000080: a6ec c7bc f2e0 c73c dc49 ca3c 3494 10bc
00000090: ade5 dd3a cdeb d43c c47f a43b 2685 583b
000000a0: 8499 9abc dd4d 493c 6005 f1bc 19db 6cbb
000000b0: 693a b93c 5571 12bc e75b 88bc 3241 cc3c
000000c0: ea6e db3c 22bf 99bc 6db5 f33c 8fd2 123c
000000d0: 0a1e 273c e99e 32bc 9b58 5dbc b6f0 2fba
000000e0: 92b7 5b3b 2bd5 cdbb 6afe 61bc 06ef 90bc
000000f0: 6aae db3c 17eb c4bc c3b6 3c3c bed4 dc3c
00000100: 0a8c 8a3c 1bf4 0bbd 2e6c f6bc dcad 143c
00000110: 40c7 9c3c bc63 1cbd afd9 1f3d 6a47 123c
00000120: dbde 6ebc 656c ef3b 086a b53b a6a5 24bd
00000130: b2d4 1d3d 78d7 0b3d 3e87 7fbc 9a75 333c
00000140: 010b 1f3c e197 5a3b 44ed 68bc f7f5 f7bc
00000150: 3747 dbbc 4262 00bd 0ccb b03c 7bcd 09bd
00000160: 1c61 183d f04c db3c f6bb 3b3d ba21 76bc
00000170: 80d4 ac3c ccec bebc 08ce 11bd 5ad4 13bb
00000180: f17e 4fbd a92d e8bc 5c86 42bd f985 21bc
00000190: 6e31 353c b856 c1bc d0bb d6bb c4cb f63c
000001a0: df1b f8bb ece5 373c 0874 7a3b 0c23 9d3b
000001b0: f369 edbc a27e 2fbd 06af 1e3c 4b1b 72bc
000001c0: 3c0a e83c 1d84 a6bc bae6 953c ae58 ee3c
000001d0: d1c8 27bd 5add c539 a709 19bd f23d 85bc
000001e0: ac73 f5bb deed a43a d177 ebbc 8d19 b53c
000001f0: d035 003d ba0d 033d d790 77bc 50a8 7b3d
00000200: 3f70 053c 2f9f 403d 6d47 423c adcb 613b
00000210: bbf5 4fbd 9c1c 5d3c 909a ad3c 37d5 93bc
00000220: 7363 c1b9 d6d6 81ba f04f c13a ad78 25bd
00000230: d329 e6ba 475c 8bbc 16ba 7cbc 8e0b 2f3c
00000240: be37 93bc 6b3e 113d 855c 65bb 6e6a 00bd
00000250: e3cc 433c 3379 d2bb 7600 533c aefc 043d
00000260: f15f 543c 6cce 6e3a d1ec 0c3c 2a08 a53c
00000270: c373 b3bc b07b ac3b b2d2 f03c a100 08bc
00000280: a3fa c0bc 0236 f5bc 4ceb e33c f717 56bc
00000290: f0d8 b03b 0a32 073d 0b5f a83c 4fca f93c
000002a0: 3fd8 2ebd f73b 833c 3dfb b5ba 51fb 1cbd
000002b0: e317 87bc bc28 e53c 2861 c1bb ae32 bdbb
000002c0: feec a53c 7020 12bc 15ea b03c 5a50 bb3c
000002d0: 3c50 1f3d 20aa 1d3d f4e3 03bd ee51 c63c
000002e0: 38cb 8c3b 5de5 e2bc 5a54 1e3d 5af7 f93c
000002f0: 5467 183c f31d e0bc 2f13 b03c 5c8a 0f3d
00000300: 0739 a13c e702 28bd 261b 0fbd 465a a8bc
00000310: 4ec4 acbb 4fc9 9c3b f7a9 fabc e8ce d83c
00000320: 4fc5 b8bb cbef f0bc 1f5f a93c 6979 093d
00000330: 4828 da3b 3ff1 a6bc cc3a 7a3c 41fe bf3b
00000340: 4061 ff3c 5c0e 1ebd 9db4 403d d802 f6bc
00000350: 33a3 103b 13f5 74bc 3634 a0bc d81b c3bb
00000360: f695 a3bc 591b b63b 33fd 9d3c 034d 7a3c
00000370: 978e 41bc 12dc 873c a631 943c 1281 ed3c
00000380: 3e37 29bc 38e6 243c ba64 a43c 6952 dabc
00000390: 6ca7 863c 9704 a8bc e8c0 b8bc 80d6 173d
000003a0: f8f3 06bd b0f4 ed3c 6022 15bc 24a5 89bc
000003b0: 793f 01bd 4faf 6b3c fc51 b2bc 3e6d 04bd
000003c0: e506 633b 011a 28ba 853b cd3c eb64 27bc
000003d0: 2a9b e23c 7d6a 19bc 62c3 2fbc de21 ed38
000003e0: fa62 0d3d 50f5 ecbc 3754 e0bb 4665 15bc
000003f0: 785b 203d 45e1 fc3a f801 163d abe7 21bc
-0.03369819 -0.01830657 0.02805031 -0.01928122 0.024913719 -0.00783021 -0.010758255 0.0179557
-0.009279133 -0.009696584 -0.021053782 0.009516101 0.031005953 0.006517645 0.0024154517 -0.030540192
0.022832593 0.0014381629 0.024030559 0.0094993515 0.0057251407 -0.024191096 0.027070964 -0.003047335
-0.017321376 0.015485985 -0.019499006 0.004921076 -0.003818461 -0.04964185 0.031767476 0.022706307
-0.024404835 0.024399254 0.024693422 -0.008824397 0.0016929411 0.025991345 0.0050201137 0.0033038347
-0.01887203 0.01228663 -0.029421508 -0.0036141335 0.02261086 -0.008938153 -0.016645385 0.024933431
0.026786286 -0.018767897 0.029749596 0.008961334 0.010200033 -0.010902145 -0.013509895 -0.0006711589
0.0033526164 -0.006281515 -0.013793567 -0.0176921 0.026816566 -0.02403788 0.011518183 0.026956912
0.016912479 -0.034168344 -0.030080881 0.009074654 0.019137979 -0.03818105 0.03902596 0.008928159
-0.0145795 0.007306623 0.0055363216 -0.040197037 0.03853292 0.034141034 -0.015596209 0.010953331
0.009707213 0.0033354687 -0.014216725 -0.030268652 -0.026767356 -0.031343706 0.021581195 -0.033643227
0.037201986 0.026770085 0.04583355 -0.0150226895 0.021097422 -0.023306273 -0.035596877 -0.0022556991
-0.05065817 -0.028342085 -0.047491416 -0.009858602 0.011059148 -0.023600921 -0.0065531507 0.03012646
-0.007571682 0.011224251 0.0038216133 0.0047954377 -0.028981185 -0.042845376 0.0096852835 -0.014777015
0.028325193 -0.020326668 0.018298496 0.02909502 -0.040962998 0.00037739688 -0.03736272 -0.01626489
-0.007490596 0.0012583097 -0.028743656 0.02210691 0.03130132 0.031995513 -0.015110216 0.061439812
0.008144437 0.04702681 0.01185785 0.0034453676 -0.050771456 0.013495591 0.021191865 -0.018046005
-0.00036885924 -0.0009905945 0.0014748555 -0.04039829 -0.0017560072 -0.017011775 -0.015425226 0.010683907
-0.017970916 0.035459917 -0.0034997773 -0.0313515 0.011950704 -0.0064231395 0.012878528 0.032467537
0.012962327 0.0009109739 0.008601383 0.020145494 -0.021905785 0.005263768 0.029397342 -0.008300931
-0.023557013 -0.02993298 0.02782216 -0.013067237 0.0053969547 0.033006705 0.020553133 0.030491976
-0.042686697 0.016019804 -0.0013884079 -0.03832561 -0.016490882 0.027973525 -0.0059014745 -0.0057738638
0.020254608 -0.0089188665 0.021595994 0.022865463 0.038894877 0.038492322 -0.032199815 0.024208989
0.0042966865 -0.02769726 0.038654663 0.030513454 0.009301979 -0.02735803 0.021493522 0.03504406
0.019680513 -0.041018393 -0.034938 -0.020550858 -0.005272425 0.00478474 -0.030598624 0.026465848
-0.0056387554 -0.029411217 0.02067524 0.03356305 0.006657634 -0.020378707 0.015272807 0.005859167
0.031174302 -0.038587913 0.047047246 -0.030030653 0.002206993 -0.014951008 -0.019556146 -0.005954247
-0.019968968 0.0055574593 0.019285774 0.01527715 -0.011813781 0.01658443 0.01809008 0.02899221
-0.010328112 0.010064654 0.020067561 -0.026650624 0.016437255 -0.020510001 -0.022552922 0.037069798
-0.03294751 0.02904734 -0.009102434 -0.016802378 -0.031554673 0.014385059 -0.021767609 -0.032330744
0.003464156 -0.0006412566 0.025052795 -0.010216932 0.027661879 -0.009363768 -0.010727735 0.00011307349
0.03451822 -0.028925568 -0.0068459767 -0.009118384 0.03914973 0.001929321 0.03662297 -0.009881894

bnorm.weight f4 [40]
00000000: cc16 833f 5fb0 833f 65da 733f fd3b 7e3f
00000010: b6f0 843f 734b 853f ee4f 833f 9726 7b3f
00000020: a5d2 7e3f 08aa 7e3f cb5b 733f faee 833f
00000030: f66b 803f 7487 783f 29ef 7d3f 2b3a 813f
00000040: c036 7c3f d32e 7d3f b901 833f 368d 773f
00000050: f087 843f 4ba3 723f a62f 843f 156a 7a3f
00000060: e604 833f a3ea 833f d6bb 823f 4512 843f
00000070: 5556 853f c40f 763f d3a1 833f b503 7a3f
00000080: 0220 843f 420a 823f 5ff2 7b3f 8a99 843f
00000090: 7ee0 843f f68f 763f 60f1 763f b968 7e3f
1.0241332 1.0288199 0.9525512 0.99310285 1.0385959 1.041365 1.0258768 0.9810576
0.9954017 0.994782 0.9506194 1.0307305 1.0032947 0.97081685 0.99193054 1.0095876
0.9852104 0.98899573 1.0234901 0.96699846 1.0353985 0.94780415 1.0327041 0.9781812
1.023587 1.030598 1.0213573 1.0318075 1.0416971 0.96117806 1.028376 0.97661906
1.0322268 1.015938 0.98416704 1.0359356 1.038101 0.96313417 0.9646206 0.99378544

bnorm.bias f4 [40]
00000000: 8c2d 653c e872 fbbc 4f04 33bc 3aa0 a13c
00000010: 5b72 a43c 0262 9bbc 2202 56ba 975b 0ebd
00000020: 2cb6 41bb 0e1e 4bbc 66aa 8e3c e7f0 b33c
00000030: fd49 63bb 9b3f 843c 5fa3 9abb fe21 cabc
00000040: 25e0 9b3c 000c a8bc 205b 2abc b295 983c
00000050: 9be6 843b 3a28 da3c cbbd 0ebb 6486 47bc
00000060: 256c f7bc 73c7 173d e05d 5b3b 4eef 20bd
00000070: 0a43 003c b7ef 58bc d182 9a3c 2e17 713c
00000080: 323f 0fbd 16be 22bc 949f a4ba e287 9ebb
00000090: d564 78bc 2638 b53c 725d 66bc cda9 9dba
0.01398791 -0.03069444 -0.01092632 0.019729722 0.02007406 -0.018967632 -0.000816377 -0.034755316
-0.0029558046 -0.012397302 0.017415237 0.021965457 -0.0034681552 0.01614361 -0.0047191824 -0.024674412
0.019027779 -0.020513535 -0.010397702 0.018626068 0.0040558106 0.02663051 -0.0021780606 -0.012178037
-0.030202935 0.037055444 0.0033472702 -0.03929072 0.007828483 -0.013240746 0.018861206 0.014714999
-0.034972377 -0.009933015 -0.0012559765 -0.004837976 -0.015160759 0.0221215 -0.014060365 -0.0012028754

bnorm.running_mean f4 [40]
00000000: 3bcf d83b 0f60 003c 34cb 29bc 6c69 433b
00000010: bb6c b7bb 9b84 9dbb 69e5 da3b 8848 7c3c
00000020: cac2 d73c a665 293c 5ea5 02bb a7e7 513b
00000030: 427a 00bc 5ab2 24bc 111b d33c 15bf 0d3c
00000040: e8a1 b03a d04e 2cbb b3d2 13bc 6c5e 02bc
00000050: 7c11 413c bc0d 1d3a 6836 bc39 2988 9ebb
00000060: 1e1c 4f3b ae9b 3839 7977 e03c e48c 68bb
00000070: 83ef 8b3c 4725 bb3a c883 243b 590b 89bb
00000080: d3d4 ab3b 3bd3 70bc 6d1a 2abc 2686 48bc
00000090: 30d5 10bb 536e 4ebd 8462 d6bb 11ac 24bd
0.0066165007 0.007835402 -0.010363389 0.0029817475 -0.0055976785 -0.0048070676 0.00668018 0.015398152
0.026338 0.010339176 -0.0019934992 0.0032028945 -0.0078416485 -0.010052288 0.025769742 0.008651515
0.0013475986 -0.0026292093 -0.009022403 -0.007957082 0.011783954 0.0005991121 0.0003589869 -0.004838009
0.0031602453 0.00017605603 0.027400719 -0.0035484368 0.017081982 0.0014278077 0.0025102962 -0.004182261
0.0052438765 -0.014698799 -0.010382277 -0.012239015 -0.0022099726 -0.050398182 -0.0065425057 -0.040203158

bnorm.running_var f4 [40]
00000000: eb86 a239 fd7a 2439 dcd4 a538 bd8b 0039
00000010: aed9 1839 b295 5339 d592 6739 8fc6 0139
00000020: cb3b 3539 beaf f638 cc2e ae38 8262 2039
00000030: d4f5 5d39 4f7a e838 43a6 1639 ac31 3d39
00000040: 33ce 3539 4643 6039 bae4 5b39 9cb4 0c39
00000050: 50a6 5339 8d86 de38 69a0 8e39 cbda e838
00000060: 9fe9 9639 6030 9b39 377e 1d39 0112 4b39
00000070: 150b a939 9dfd e138 087d 5039 a471 fc38
00000080: accc 7739 a9bf 7439 38b6 1639 b755 1639
00000090: 20f1 a939 535f 7238 f7af eb38 44b5 fc38
0.0003099957 0.00015686075 7.907461e-05 0.00012259088 0.00014576942 0.00020178294 0.00022084576 0.00012376368
0.0001728378 0.000117629286 8.305683e-05 0.00015295486 0.0002116778 0.00011085404 0.00014367052 0.00018042949
0.0001733832 0.00021387366 0.00020970675 0.00013418723 0.00020184484 0.00010610847 0.00027203865 0.000111033754
0.0002878429 0.00029599946 0.00015019705 0.00019366296 0.0003224245 0.00010776075 0.00019883004 0.000120374636
0.00023632002 0.00023341052 0.00014372997 0.00014337046 0.00032413844 5.7786074e-05 0.00011238449 0.0001205006

final_layer.conv_classifier.weight f4 [4, 40, 144, 1]
00000000: 0bf2 f4bc ba1f fb3b 647c 23bc 3bf9 91bb
00000010: 6f0a d1bc 2aad eabb a1b6 ca3c 0219 c83c
00000020: 4c23 973b d0e3 ed3a f5b6 63bc 53b8 eb3b
00000030: 70f7 51bb 9d4f a03b 4f9b 0e3c 6173 fbbc
00000040: b0e1 14bc 30d0 2fbc dd08 9cbc 9cef b2bb
00000050: 47f4 263c cdd7 023c b790 a53b 86a1 3cbc
00000060: 8a9e 9cbb 3b75 26bc bcd4 70bc 97a5 88bb
00000070: a851 5abb 905a d13c ddfa 153d ff74 7f3c
00000080: af9a c73c 1150 20bc 9ad2 bd3b bae8 e43b
00000090: 7c63 d73c 3293 913b 296c 623c 4a60 c33c
000000a0: c1dc eb3b cdad 4dbb 4d96 803c 3477 b53c
000000b0: d228 623c fcba 20bb 3169 4b3b d6a3 cf3c
000000c0: ced2 9539 d8f9 97ba 5ab2 893b 5dcb f3bb
000000d0: c809 18bc 041d 883c 66d0 cb3c 8752 673c
000000e0: 784f 3ab9 797a ba3c 39a6 7b3c 6e69 edbb
000000f0: 3611 c4ba 8223 0c3c 8c0b b639 3589 ae3c
00000100: 4d60 fb3b 9137 063d 52f8 f33c 7a56 983c
00000110: c1c8 90bb 6952 abbb d586 a33c 232a 51bb
00000120: 679e 79bc 4220 a03c 8a99 d43b 95d6 85bc
00000130: 7631 283c 48cf d23b 793f cabc d167 963c
00000140: 3703 d23b 1c5a 3a3c 6d84 b83a ae02 863c
00000150: 3bc8 2fbc f9eb dc3a cc37 bcbb 2289 ffbb
00000160: 8fdb a83b cb14 03bc de31 013c bcdd 86bb
00000170: aca8 083d f72a 5fbc 18f1 98ba b410 283c
00000180: a5b8 92bb 897d 033b c367 1c3d da8b 1d3d
00000190: 2cf9 123d 31ef 713c f857 8b3c f9ff a73c
000001a0: 3eb4 4b3b 1750 4a3c 5170 a7bc 69d2 9c3b
000001b0: edcc b63c a8d9 c63c 9fc3 a13c 46c4 43bc
000001c0: e7b9 a53c c57a f03b c803 10bc a321 f9bb
000001d0: bb6c 58bc 8c2d b6bb 6d72 e6bb eeb3 a73b
000001e0: 32ec eb3c 4615 0cbb da84 a63c f790 29bc
000001f0: d133 313c dae5 dc3b bf63 493b de0a 51bc
00000200: 582a a9bb 1b31 dfbb 122d 9e3b 0462 933c
00000210: c759 9fba dde6 ba3c aa44 a4bb ec91 7d3c
00000220: 8b33 01bc f0ad c33c dd59 8fbc 20fb 7e3b
00000230: a368 9d3a 84cf 363c 63f0 36ba 7448 bc3c
00000240: 9312 de3b 0e1d 04bc 151c 1ebc 2e26 aeba
00000250: e236 c1bc 3ad8 af3c 4b24 443c 4ddd a13b
00000260: d45e 2bbc afe6 393c f969 b53a e9fa 41bc
00000270: 87e2 063a c679 333c fd32 2c3c dca7 f3bb
00000280: 43fe 043c 32e6 52bc 510d 023c 4dcd c2bc
00000290: 1c26 0f3c 4db9 39bb 71f9 753b fe1f d5bb
000002a0: e357 c0bb 02a1 533b 7a97 1bbb 6824 bd3b
000002b0: c64f fd3c fce1 0e3c cce0 9e3b 6719 32bc
000002c0: 509b 923c b561 a7bb e912 57bb fbf6 2f3d
000002d0: ac38 be3c ab9c ba3c b75d 42bc 10a2 a839
000002e0: 9178 86ba ded1 a53b a3c7 583c 573b a33c
000002f0: 234c 073c 8bbb c63c 6e23 093c a132 3f3c
00000300: 2b2a d53c bd04 0f3d 4f01 7f3c c3c2 3b3c
00000310: c926 703c 794d a5bc 2b60 d13c 1ea9 603b
00000320: a0c5 cf3c 7dc9 c3bb c133 863b 3156 66bc
00000330: e732 aabb eb8f 93bc 8857 d73c e6c3 b53c
00000340: b712 0a3c d218 2fbc 2604 8abb aabd 043c
00000350: 1827 803b 3116 d13c 6d79 e8bb 6945 2abc
00000360: 1bd6 a5b9 66ff be3c 77da 683c 58af ae3a
00000370: fe55 d03c 1842 d5bb 1ac6 ea3c 266a 943c
00000380: 8bb2 023d 9e50 20bc 472f 8d3c 4994 1bbc
00000390: 7c6f 8a3b 7a1c edbb 7d78 0c3a a187 033c
000003a0: 95bd 8a3b 256e c63b 5ec2 1e39 40cc 5dbc
000003b0: a7ee 313c ee68 753c 3c45 4c3c a5ad 033c
000003c0: 4bf2 b63c e65b 8f3b a788 063d 6733 2ebc
000003d0: 262a cd3b 1a8e 9bbc 7890 793c cd32 883c
000003e0: a7ab 06bc b2c7 743b ac64 44bb b911 c13b
000003f0: 4359 833b d79c 253c 74e7 473c b723 573c
-0.029900571 0.007663694 -0.0099783875 -0.0044547594 -0.02551767 -0.007161756 0.024745287 0.024425987
0.004612362 0.0018149558 -0.013898601 0.007193604 -0.0032038353 0.004892303 0.008704021 -0.030694665
-0.009087011 -0.010730788 -0.019047195 -0.0054606926 0.010190076 0.007986021 0.0050526517 -0.01151312
-0.0047796415 -0.010159786 -0.014699157 -0.0041701305 -0.003331283 0.025555879 0.036616195 0.015591859
0.024365751 -0.009784714 0.005792928 0.006985751 0.026292555 0.004442596 0.013819733 0.023849625
0.007197947 -0.003138411 0.015696669 0.022151567 0.013803678 -0.0024525514 0.003103804 0.025346678
0.00028576556 -0.0011594845 0.0042021694 -0.0074400143 -0.009279676 0.016615398 0.024879646 0.014118797
-0.00017767947 0.022763478 0.015359455 -0.007245234 -0.0014958743 0.008553388 0.00034722348 0.02130566
0.007671392 0.032767836 0.029781494 0.018595923 -0.004418463 -0.00522833 0.019961754 -0.0031915985
-0.01523552 0.019546632 0.00648803 -0.016337672 0.010265699 0.0064334013 -0.02468847 0.01836005
0.0064090746 0.011374023 0.0014077552 0.0163587 -0.010728891 0.0016854993 -0.005743956 -0.00779833
0.0051531265 -0.008000563 0.007885424 -0.0041157883 0.033363983 -0.013621083 -0.0011668531 0.010257889
-0.0044775777 0.0020063838 0.038184892 0.03846345 0.03588216 0.0147665 0.01700972 0.0205078
0.0031082775 0.0123481965 -0.020439299 0.004785825 0.022314513 0.024273708 0.0197466 -0.011948651
0.020230247 0.007338854 -0.008789964 -0.0076028868 -0.013209517 -0.005559629 -0.0070326836 0.005117885
0.02879915 -0.0021374985 0.02032702 -0.010349504 0.010815577 0.0067412676 0.003072962 -0.012758939
-0.0051625185 -0.0068112737 0.00482715 0.017991073 -0.0012157493 0.022815162 -0.005013068 0.015476685
-0.007885824 0.02388665 -0.017498905 0.0038907006 0.0012009334 0.011157874 -0.00069785694 0.022983767
0.0067771166 -0.008063568 -0.00965025 -0.0013286525 -0.02358574 0.02146541 0.011971544 0.004939711
-0.0104596205 0.011346503 0.0013840786 -0.011839607 0.00051454495 0.010954326 0.010510203 -0.007435782
0.008117261 -0.012872266 0.007937745 -0.023779536 0.008737113 -0.0028339208 0.0037532712 -0.006504058
-0.005869852 0.0032292013 -0.002374141 0.005772162 0.030921828 0.008720871 0.004848575 -0.010870314
0.017896324 -0.005108083 -0.0032817668 0.04296015 0.023220383 0.022779783 -0.011863164 0.00032164203
-0.001025932 0.0050604185 0.013231191 0.019925756 0.0082578985 0.02425935 0.0083702635 0.011669786
0.026021084 0.03491663 0.015564277 0.011460009 0.014657685 -0.020178543 0.025558552 0.003428049
0.02536279 -0.005974947 0.004095525 -0.014058636 -0.0051940563 -0.018012961 0.026286855 0.022188138
0.0084273135 -0.01068707 -0.0042119203 0.00810186 0.0039109103 0.025523277 -0.007094553 -0.010392525
-0.00031630773 0.023315143 0.014212242 0.0013327403 0.02543163 -0.006508123 0.028658915 0.018117022
0.031908553 -0.009784846 0.017234458 -0.009495803 0.0042247158 -0.0072360607 0.00053585303 0.008027942
0.0042340257 0.0060556107 0.00015140462 -0.0135374665 0.010860122 0.0149786305 0.012467679 0.008037006
0.022332331 0.004374969 0.032845166 -0.010632372 0.006261128 -0.018988658 0.015232198 0.016625786
-0.008219636 0.0037350473 -0.0029967232 0.0058920053 0.0040084436 0.010108194 0.012201179 0.013131074

final_layer.conv_classifier.bias f4 [4]
00000000: c512 773b 27b8 9abc 02bb 173d 218c aabc
0.0037700396 -0.018886639 0.03704358 -0.020818772
