models/ShallowFBCSPNet_persons2_lr0.01_wd0.1_bs64_acc0.5469.pth (torch, 383656 bytes, 9 tensors)

conv_time_spat.conv_time.weight f4 [40, 1, 25, 1]
0	0xbd7ec6c8	-0.06220129
1	0xbd4d1252	-0.0500663
2	0xbd1a0b49	-0.03760842
3	0x3cdf45e0	0.027254999
4	0x3c9098ec	0.017651044
5	0x3d579bef	0.052638944
6	0x3da81492	0.082070485
7	0x3de30427	0.11084776
8	0x3df9cb54	0.12196985
9	0x3df00dda	0.11721392
10	0x3daa40cd	0.08313141
11	0x3d23b72b	0.039969604
12	0x3d2a424f	0.041567143
13	0xbcbbfa93	-0.022946632
14	0xbd55a8d5	-0.052162964
15	0xbd73452c	-0.05939214
16	0xbc6ef53e	-0.0145848375
17	0xbd8ef819	-0.069809146
18	0xbdc05f80	-0.09393215
19	0xbdb6e3f6	-0.08930199
20	0x3a6cca68	0.00090328464
21	0xbcdfe29c	-0.027329735
22	0x3cad7115	0.021172086
23	0xbbfae793	-0.0076570003
24	0x3b9666fb	0.004589913
25	0xbc0590a7	-0.008152164
26	0xbcc72dcf	-0.024313835
27	0xbd8399ad	-0.06425796
28	0xbc88aa76	-0.016682845
29	0xbdc6c762	-0.09705998
30	0xbdbc75bc	-0.092021435
31	0xbd9267bc	-0.07148692
32	0xbd8f1dbd	-0.06988094
33	0xbc9c35ac	-0.019068561
34	0xbc1fcc7b	-0.009753342
35	0xbd499048	-0.049209863
36	0xbdbf15f8	-0.09330362
37	0xbdbe3c92	-0.092888966
38	0xbdfe1580	-0.124064445
39	0xbe0865b7	-0.13320051
40	0xbe125d38	-0.14293373
41	0xbe6d35a0	-0.23164988
42	0xbe6ac10f	-0.22925209
43	0xbe5784d2	-0.2104676
44	0xbe1d1cb0	-0.15342975
45	0xbd48741a	-0.048938848
46	0x3d1700db	0.03686605
47	0x3d933863	0.07188489
48	0x3c4586ed	0.012056095
49	0x3d99a007	0.07501226
50	0x3d5cbc4a	0.053890504
51	0xbc60fce7	-0.013732172
52	0x3c602d38	0.013682656
53	0x3d354c5d	0.04426228
54	0xbc732a05	-0.014841561
55	0x3cdd9695	0.027049342
56	0xbbe338ed	-0.0069342763
57	0xbb701188	-0.0036631543
58	0xbd912f16	-0.07089059
59	0xbdb51b73	-0.08843126
60	0xbd79d1d3	-0.06099112
61	0xbd44f70f	-0.048087176
62	0x3cdf84cc	0.027285002
63	0xbbbf0f73	-0.005830699
64	0x3dd009d9	0.10158128
65	0x3dd75671	0.10514534
66	0x3dec5bcd	0.11540947
67	0x3d89c43f	0.06726884
68	0x3d59d2cf	0.05317956
69	0x3d4ed3dc	0.050495014
70	0x3d1908d7	0.037361946
71	0xbc8e3a1d	-0.017361695
72	0xbd7861d8	-0.060640186
73	0xbe038a2a	-0.12845674
74	0xbe2395cf	-0.15975116
75	0xbc8343db	-0.016023567
76	0x3c7b0fb3	0.015323567
77	0x3d36f5a1	0.044667844
78	0xbb942d7f	-0.004522025
79	0x3d9ebb12	0.077505246
80	0x3d64c9f9	0.05585668
81	0x3d71b6c6	0.059012197
82	0x3da3c095	0.079957165
83	0x3e0b9053	0.13629274
84	0x3e001cfd	0.12511058
85	0x3e29d75b	0.16586058
86	0x3e139588	0.1441251
87	0x3dded2d8	0.10880059
88	0x3e2be8a6	0.16787967
89	0x3e1a8060	0.15088034
90	0x3e1586a0	0.14602137
91	0x3e2a537a	0.16633406
92	0x3e09a091	0.13440157
93	0x3d0d3776	0.03447672
94	0x3c83bb28	0.016080454
95	0x3b82b34b	0.0039886585
96	0xbb91d9cb	-0.004451012
97	0xbc2dabc2	-0.010600032
98	0xbd5576a6	-0.052115105
99	0xbdc4b66d	-0.096051075
100	0x3d9f8601	0.07789231
101	0x3de8dd8b	0.11370381
102	0x3db646a8	0.08900195
103	0x3dede66b	0.11616214
104	0x3d8ba198	0.06817931
105	0x3da50f58	0.08059567
106	0xbcb6aa1a	-0.022297908
107	0xbd6df60b	-0.058095973
108	0xbd97a146	-0.07403807
109	0xbd39e94b	-0.0453885
110	0xbd249f59	-0.04019103
111	0xbda39d92	-0.079890385
112	0xbdc48c2b	-0.095970474
113	0xbcbd490a	-0.023106117
114	0xbc5ed10c	-0.013599645
115	0x3d6e59b5	0.05819102
116	0x3db5238c	0.08844671
117	0x3dce57d0	0.10075343
118	0x3dcd5320	0.100256205
119	0x3da117f3	0.07865896
120	0x3d0f6994	0.035012797
121	0xbb2725f6	-0.0025504804
122	0x3c95ebc8	0.018300906
123	0xbbcd2a56	-0.0062611504
124	0x3cdb773a	0.02679025
125	0xbd427c2f	-0.047481712
126	0xbd724d5d	-0.05915581
127	0xbd35047f	-0.04419374
128	0xbb03cc20	-0.0020110682
129	0xbd25bbae	-0.04046219
130	0xbdca3547	-0.09873443
131	0xbdab7bd8	-0.08373231
132	0xbdf85163	-0.12124898
133	0xbe04dd26	-0.12974986
134	0xbdb1ba73	-0.086781405
135	0xbd198450	-0.0374797
136	0xbd8bf11c	-0.06833097
137	0xbc86a4e8	-0.016436055
138	0x3dc488db	0.095964156
139	0x3dcc900b	0.099884115
140	0x3db666cf	0.08906328
141	0x3e1710bc	0.14752477
142	0x3e298894	0.16556007
143	0x3e13decc	0.14440459
144	0x3e1304b2	0.1435726
145	0x3d58d73a	0.05293963
146	0x3cfc82d5	0.030824104
147	0xbd53e88d	-0.05173545
148	0xbcacf096	-0.021110814
149	0xbda32754	-0.079664856
150	0x3deffcef	0.11718165
151	0x3dac1313	0.084020756
152	0x3d8d4d5c	0.06899521
153	0x3dc28039	0.09497113
154	0x3d0f7afd	0.0350294
155	0x3d42565d	0.047445644
156	0x3d44d3a2	0.04805339
157	0x3b1ac1af	0.002361398
158	0xbd947a9a	-0.07249947
159	0xbcae11c7	-0.021248711
160	0xbd9adaa6	-0.07561235
161	0xbdd48c33	-0.103783034
162	0xbd3cb14e	-0.04606753
163	0xbdc26aeb	-0.09493049
164	0x3b8bd057	0.0042667794
165	0x3c98a27f	0.018632172
166	0x3d39140e	0.04518514
167	0x3d920aa3	0.07130935
168	0x3dfc07ea	0.12306197
169	0x3d0558b5	0.0325553
170	0x3d8f7b06	0.07005887
171	0x3d453912	0.04815013
172	0xbbaa2422	-0.0051922956
173	0xbc8a922f	-0.016915409
174	0x3d4d95f3	0.05019183
175	0x3d4aa577	0.049474206
176	0x3d33029c	0.04370366
177	0x3d8d3380	0.068945885
178	0x3d7ddf1e	0.06198036
179	0x3da9d97b	0.08293434
180	0x3d48cbcc	0.04902248
181	0x3d8e8b8e	0.06960212
182	0x3be8c469	0.007103492
183	0x3d244d09	0.04011253
184	0x3c9655d4	0.018351473
185	0xbc2422cd	-0.010018063
186	0xbd276bc6	-0.040874265
187	0xbd246ce9	-0.040142927
188	0xbdd7c575	-0.10535709
189	0xbd17a1c0	-0.03701949
190	0xbdc06018	-0.093933284
191	0xbcce348a	-0.025171537
192	0xbc50043a	-0.01269632
193	0xbc2d4539	-0.010575586
194	0xbc8a518f	-0.016884593
195	0x3bbd9006	0.005784991
196	0xbb02e8f5	-0.001997528
197	0x3be4c824	0.0069818664
198	0xbbfd364f	-0.0077274214
199	0xba484879	-0.0007640194
200	0xbd92abf2	-0.07161702
201	0xbd8e7c38	-0.069572866
202	0xbc309737	-0.01077824
203	0xbcb36874	-0.021900393
204	0xbd4883a3	-0.048953664
205	0xbd526446	-0.05136516
206	0xbcfd386e	-0.030910697
207	0x3c9670f2	0.018364403
208	0xbcad7714	-0.021174945
209	0x3d17bba8	0.037044197
210	0x3d895c82	0.067070976
211	0x3dadc6e3	0.084852
212	0x3d7a45a5	0.061101574
213	0x3dbff4cb	0.093728624
214	0x3d60dd6c	0.054898664
215	0x3cbe9dde	0.023268636
216	0x3d634f46	0.055495523
217	0xbc017555	-0.007901509
218	0xbcb86f93	-0.02251414
219	0xbdde8167	-0.10864525
220	0xbe022652	-0.1270993
221	0xbe232958	-0.1593374
222	0xbe4fbd2f	-0.20287012
223	0xbe320c29	-0.17387451
224	0xbe3d21b4	-0.18469888
225	0xbb81aafb	-0.00395715
226	0x3d281737	0.041037764
227	0x3d6357f1	0.05550379
228	0x3d925161	0.07144428
229	0x3d6e1d57	0.05813345
230	0x3d879925	0.06621007
231	0x3ce171ab	0.027520021
232	0x3dfb6c25	0.12276486
233	0x3d5e8eb2	0.054335304
234	0x3db65606	0.089031264
235	0x3d7710dd	0.060318816
236	0x3d1e4523	0.038640153
237	0x3cffb04e	0.031211998
238	0xbd8f5227	-0.06998091
239	0xbe148fe0	-0.14508009
240	0xbe352f26	-0.17693767
241	0xbe3ddff8	-0.18542469
242	0xbe1ac65f	-0.15114735
243	0xbe322860	-0.17398214
244	0xbd7182e7	-0.05896273
245	0x3ca3c55a	0.019991565
246	0x3d073a7c	0.03301476
247	0x3cf1e482	0.029527906
248	0x3da8834b	0.08228167
249	0x3de6bf81	0.11266995
250	0x3dc2159f	0.0947678
251	0x3df38330	0.118902564
252	0x3e0b2788	0.13589299
253	0x3dc7e552	0.09760536
254	0x3dc74ac6	0.09731059
255	0x3cafec40	0.021474957

conv_time_spat.conv_time.bias f4 [40]
0	0x3e2c4841	0.16824438
1	0xbed12200	-0.40846252
2	0x3dd727da	0.10505648
3	0x3ea312a3	0.31850156
4	0x3d4f26e3	0.050574195
5	0xbdc6e6f3	-0.09712019
6	0x3e505105	0.20343406
7	0x3e52d439	0.20588769
8	0x3e78cb13	0.24296217
9	0x3d9dec30	0.07711065
10	0x3d76aa2b	0.06022088
11	0x3a133b4d	0.00056164415
12	0x3e068430	0.13136363
13	0x3df17666	0.11790161
14	0x3df8c244	0.12146428
15	0xbde68f53	-0.11257806
16	0xbde29539	-0.11063618
17	0x3e3f1de8	0.18663752
18	0xbe63a6b2	-0.22231558
19	0x3dfd611a	0.12372036
20	0xbd625d53	-0.055264782
21	0x3e9168e2	0.28400332
22	0x3bea538a	0.007151072
23	0x3d913ff7	0.070922785
24	0x3e553d31	0.20824124
25	0x3d3fdf9c	0.04684411
26	0x3e4a003f	0.19726656
27	0x3e39e145	0.1815234
28	0x3e6a70c7	0.22894584
29	0xbe16f7ef	-0.14743017
30	0xbebb73a4	-0.36611664
31	0x3e195fc3	0.14977936
32	0x3d5c55bf	0.05379271
33	0x3c867cdc	0.01641696
34	0xbe30bbf9	-0.17259206
35	0xbe51a2c8	-0.20472252
36	0x3eaff6e0	0.34368038
37	0x3e590efe	0.21197125
38	0xbdb0a893	-0.08625903
39	0xbd9ecc0e	-0.07753764

conv_time_spat.conv_spat.weight f4 [40, 40, 1, 44]
0	0x3d8e945c	0.06961891
1	0x3d953393	0.072852276
2	0xbd4098ad	-0.047020603
3	0xbe4df1cf	-0.20111774
4	0x3d536384	0.051608577
5	0xbe546270	-0.20740676
6	0xbc7e58c2	-0.015524091
7	0xbcc8726e	-0.024468627
8	0xbe312442	-0.17298988
9	0xbe6fafb9	-0.23406877
10	0x3d80107d	0.06253145
11	0x3d658a10	0.05603987
12	0xbe235d7a	-0.15953627
13	0x3dc31e19	0.09527225
14	0x3dac9a24	0.084278375
15	0xbd92f688	-0.07175928
16	0xbe6c8877	-0.23098932
17	0xbb8b7a8b	-0.0042565516
18	0xbdad8edb	-0.08474513
19	0xbd0c7e49	-0.034300122
20	0x3e2e7c0b	0.17039506
21	0x3e0fad01	0.1403084
22	0xbd345d83	-0.044034492
23	0xbe372b98	-0.17887723
24	0x3ddf8025	0.109131135
25	0x3e09879c	0.13430637
26	0xbe3219ac	-0.17392606
27	0xbe7d9fa9	-0.24767937
28	0x3d991725	0.074751176
29	0x3de1f734	0.110334784
30	0xbe69b064	-0.22821194
31	0xbe72355c	-0.23653167
32	0x3cd46b7b	0.025930157
33	0x3d026c8f	0.03184181
34	0xbe44a65c	-0.19204086
35	0xbe55a790	-0.20864701
36	0x3e18943a	0.14900294
37	0x3e0b8072	0.13623217
38	0x3df97d63	0.12182119
39	0xbcb04d63	-0.021521276
40	0x3cfef225	0.031121323
41	0xbe78a9e3	-0.24283557
42	0x3c87ba50	0.016568333
43	0xbe331cd9	-0.17491473
44	0xbda94fa1	-0.08267141
45	0x3c501dd8	0.012702428
46	0x3d656aec	0.05601017
47	0x3d056ae3	0.03257264
48	0xbc79701a	-0.015224481
49	0x39e53706	0.0004371928
50	0xbda370ec	-0.079805225
51	0xbd5d9ee9	-0.054106627
52	0xbcd1382a	-0.025539476
53	0xbd8b6f43	-0.06808331
54	0xbcd10f22	-0.025519911
55	0x3d227994	0.039666727
56	0x3d12edb8	0.035871238
57	0xbd816756	-0.06318538
58	0xbcb8b489	-0.022547023
59	0xbd116d46	-0.035504602
60	0xbcacd4e0	-0.0210976
61	0xbd288e1f	-0.041151162
62	0xbce65dec	-0.028120957
63	0x3d2b78dd	0.04186331
64	0xbe121ede	-0.14269587
65	0xbe724818	-0.23660314
66	0xbb364a1a	-0.0027815164
67	0xbdb30482	-0.08741094
68	0xbe560f55	-0.20904286
69	0xbe85eb95	-0.26156297
70	0x3d728b49	0.059214864
71	0xbdc4c80f	-0.09608471
72	0xbe1d2ab3	-0.1534832
73	0xbe1fb3f2	-0.15595987
74	0xbe469b9b	-0.19395296
75	0xbe857f1a	-0.26073533
76	0xbe35aad5	-0.17740948
77	0xbe55f08f	-0.20892547
78	0xbe69fef5	-0.22851165
79	0xbe82e8cb	-0.25568232
80	0xbc270b64	-0.010195587
81	0x3cca70b2	0.02471194
82	0x3d016e5d	0.03159939
83	0x3e41c440	0.1892252
84	0xbe7b6bd7	-0.24552856
85	0x3bd34061	0.0064468835
86	0xbe51dd5b	-0.20494597
87	0xbe6c7a95	-0.23093636
88	0x3d3ff54c	0.046864793
89	0xbbf2964d	-0.007403171
90	0x3d6d3dd2	0.057920285
91	0x3dd880f3	0.1057147
92	0x3d2aba31	0.041681472
93	0x3dfad081	0.122468
94	0x3d7e7922	0.06212724
95	0x3d99280f	0.07478344
96	0x3d8c20dd	0.06842206
97	0x3e119694	0.14217597
98	0x3cd86293	0.026414191
99	0xbcb7290d	-0.022358442
100	0x3d8253a9	0.06363613
101	0x3d3950a5	0.045242924
102	0x3cc8541a	0.024454165
103	0x3d13268b	0.03592543
104	0x3dc04e25	0.09389905
105	0x3da35203	0.07974627
106	0x3d79d6f6	0.06099602
107	0xbd3b2228	-0.04568687
108	0x3ce27f11	0.02764848
109	0x3d6de1b9	0.058076594
110	0x3d2c4828	0.042061
111	0x3e216679	0.15761746
112	0x3d4107d1	0.047126595
113	0x3d933b31	0.07189024
114	0x3dfd10f6	0.12356751
115	0x3e70b09a	0.23504868
116	0x3d9cc053	0.076538704
117	0x3de3361d	0.11094306
118	0x3e37fdfb	0.1796798
119	0x3e82ffd6	0.25585812
120	0x3dd6bf76	0.10485737
121	0x3e08c830	0.13357615
122	0x3e41a95f	0.18912266
123	0x3e54c577	0.20778452
124	0x3d2421ab	0.04007117
125	0xbc377572	-0.011197435
126	0xbc33d23f	-0.01097542
127	0xbd996ec4	-0.0749183
128	0x3e1d5b5c	0.15366882
129	0x3dec85f9	0.11548991
130	0x3dd02b6f	0.10164534
131	0x3e2924b4	0.16517907
132	0x3d706ea0	0.05869925
133	0x3c92baeb	0.017911395
134	0xbd53b217	-0.05168351
135	0xbd774216	-0.06036576
136	0x3c5e5d98	0.013572119
137	0xbcbd3e9e	-0.023101147
138	0x3d9396ef	0.07206523
139	0x3c89c3c9	0.01681699
140	0x3cb04808	0.021518722
141	0x3b1e4fe2	0.00241565
142	0x3d8180ee	0.063234195
143	0xbd1c569c	-0.038168535
144	0xbd441624	-0.047872677
145	0x3db7ac94	0.089684635
146	0x3b38af40	0.002818063
147	0xbc95fa5c	-0.018307857
148	0xbc93ccc7	-0.018041981
149	0x3bc61b91	0.0060457666
150	0x3d0072bd	0.031359423
151	0xbd2a00d3	-0.041504692
152	0x3e3669e7	0.17813836
153	0x3e4ef071	0.20208909
154	0xbd04eb77	-0.03245112
155	0x3cb92c93	0.022604262
156	0x3e329c15	0.17442353
157	0x3e49db1e	0.19712493
158	0xbdf231ff	-0.11825942
159	0xb9d3de24	-0.00040410564
160	0x3e33bb63	0.17551951
161	0x3e1a96df	0.15096615
162	0x3d204d8e	0.039136462
163	0x3dd74aa7	0.10512286
164	0x3e24b648	0.1608516
165	0x3e2af558	0.16695154
166	0x3e236bad	0.15959044
167	0x3e097650	0.13424039
168	0x3d360ced	0.04444592
169	0x3ba3e10f	0.0050011943
170	0xbbf4f263	-0.007475184
171	0xbe416f5b	-0.18890135
172	0x3e5ecc8d	0.21757717
173	0xbdc46bfe	-0.095909104
174	0x3e4344cd	0.19069214
175	0x3e11b8a2	0.14230588
176	0xbc279dbe	-0.01023048
177	0xbda41c13	-0.08013167
178	0xbc51c944	-0.012804333
179	0x3d6e63b2	0.058200546
180	0x3cbe2b51	0.023214014
181	0x3d095688	0.03352979
182	0x3ced61ef	0.028977362
183	0x3d8ad2cd	0.06778488
184	0x3ca1b9da	0.019741941
185	0x3da64674	0.081189066
186	0xbd855f92	-0.06512369
187	0xbda06223	-0.07831218
188	0x3d1b72a7	0.037951138
189	0x3c8324d1	0.016008766
190	0xbd2a5fe1	-0.041595344
191	0xbbf6e57b	-0.0075346804
192	0x3d60bb11	0.0548659
193	0x3d9f4f2f	0.07778775
194	0x3d04c24e	0.032411866
195	0xbd771521	-0.060322884
196	0x3d0c4bb4	0.034251884
197	0x3c9234ff	0.017847536
198	0x3d784fdd	0.06062304
199	0x3e71e92f	0.23624109
200	0x3db8e8fb	0.090288125
201	0x3db36802	0.08760072
202	0x3e21e12b	0.15808551
203	0x3e523e0f	0.20531486
204	0x3df3596b	0.118822895
205	0x3e490766	0.19631729
206	0x3e438475	0.19093497
207	0x3e30032e	0.17188713
208	0x3e1a12b8	0.15046203
209	0x3e3811e6	0.17975578
210	0x3e2b89a8	0.1675173
211	0x3e25eea9	0.16204323
212	0xbd9a14ed	-0.075235225
213	0xbdbfe252	-0.09369339
214	0xbdd1a7c5	-0.102370776
215	0xbe01d577	-0.12679087
216	0x3e4765f4	0.19472486
217	0x3e121e8e	0.14269468
218	0x3e0f775d	0.14010377
219	0x3e3be853	0.18350343
220	0xbd40b583	-0.047048103
221	0xbd672d43	-0.05643965
222	0x3bcfa55f	0.0063368524
223	0x3daf7a97	0.08568304
224	0xbde994fe	-0.11405371
225	0x3d948be2	0.07253243
226	0xbd60fa04	-0.054925933
227	0xbb29c9f4	-0.0025907727
228	0x3d587081	0.052841667
229	0x3dd040db	0.1016862
230	0xbc3fb253	-0.011700231
231	0xbc88156c	-0.016611777
232	0x3cfd90e3	0.030952876
233	0xbdb82cf7	-0.08992951
234	0xbdb9a2a4	-0.09064224
235	0x3ca43adc	0.020047598
236	0x3dffadd1	0.12484325
237	0xbd2b551d	-0.041829217
238	0x3cf2f5f8	0.029658303
239	0xbda72d61	-0.08162952
240	0xbd2d3425	-0.042286057
241	0x3ae394f7	0.001736312
242	0x3ca9aba8	0.020711735
243	0x3e1bf788	0.15231144
244	0xbd25ffbb	-0.040527087
245	0xbb9b4f3c	-0.00473967
246	0x3e36f217	0.17865787
247	0x3e88abb5	0.26693502
248	0xbcc38832	-0.023868654
249	0xbd21fb57	-0.039546337
250	0x3e860d48	0.26182008
251	0x3e8e3abe	0.27779192
252	0x3cf4bf10	0.029876262
253	0x3bef172e	0.0072964644
254	0x3e73e409	0.23817457
255	0x3e6f7db4	0.23387796

bnorm.weight f4 [40]
0	0x3f6d7ec1	0.92771536
1	0x3f640ecd	0.89085084
2	0x3f57ed01	0.84346014
3	0x3f617d57	0.8808188
4	0x3f5b2261	0.85599333
5	0x3f492b0e	0.7858132
6	0x3f5143ee	0.8174428
7	0x3f5a7c9b	0.8534638
8	0x3f575972	0.8412086
9	0x3f447afa	0.7675015
10	0x3f5a2e5c	0.8522699
11	0x3f621d95	0.8832639
12	0x3f58853c	0.845783
13	0x3f4a1186	0.7893299
14	0x3f671fb7	0.9028277
15	0x3f4a3d2e	0.789996
16	0x3f6ca546	0.9243969
17	0x3f6aa7ec	0.9166248
18	0x3f64a9a8	0.89321375
19	0x3f5a5f19	0.8530136
20	0x3f6a65cc	0.9156158
21	0x3f67a6c9	0.9048887
22	0x3f569cac	0.8383281
23	0x3f682fd4	0.9069798
24	0x3f5171fd	0.8181456
25	0x3f5bbe9f	0.8583774
26	0x3f4efab2	0.8085128
27	0x3f6758e9	0.9037004
28	0x3f687065	0.907965
29	0x3f679815	0.90466434
30	0x3f46d25d	0.7766474
31	0x3f5ad746	0.8548473
32	0x3f510b4c	0.8165786
33	0x3f4a2b05	0.7897189
34	0x3f5e06f3	0.86729354
35	0x3f78e203	0.97219867
36	0x3f4245d6	0.7588781
37	0x3f5dea54	0.8668568
38	0x3f60894f	0.87709516
39	0x3f634bea	0.8878771

bnorm.bias f4 [40]
0	0x3e705360	0.23469305
1	0x3e9e1f2c	0.30883157
2	0xbeaa72ea	-0.33290797
3	0x3ebdc21d	0.3706216
4	0x3ee0721f	0.43837067
5	0x3e852737	0.2600648
6	0xbe960ab8	-0.29305053
7	0x3ea6c2e0	0.32570553
8	0xbeb4f10b	-0.3534015
9	0xbe693f9b	-0.2277817
10	0xbe85043b	-0.2597979
11	0xbe9a609e	-0.30151838
12	0x3f0c9675	0.5491708
13	0x3eced0da	0.40393716
14	0x3ebf1604	0.37321484
15	0x3e5fa368	0.21839678
16	0x3e5cea9f	0.21573876
17	0xbe9924aa	-0.29910785
18	0x3e99a572	0.30009037
19	0x3ee838b1	0.45355752
20	0xbe731d65	-0.23741682
21	0xbe9d2a3d	-0.30696288
22	0xbf05ce22	-0.5226766
23	0x3e9053b5	0.28188863
24	0x3e9737c6	0.2953474
25	0x3e94f731	0.29094842
26	0x3e6ba770	0.23013091
27	0xbec984f1	-0.3935924
28	0x3e76457c	0.24049944
29	0x3ea39601	0.3195038
30	0xbe445474	-0.19172841
31	0xbe8c4f5a	-0.2740429
32	0xbe4e6748	-0.20156586
33	0x3e6c5b75	0.23081763
34	0x3ebf730b	0.37392458
35	0xbec8d94a	-0.39228278
36	0x3e454335	0.19263919
37	0x3ec851f6	0.3912503
38	0xbeb375f9	-0.35050943
39	0xbe546ad9	-0.20743884

bnorm.running_mean f4 [40]
0	0x405416e7	3.3138978
1	0xc09de759	-4.9344907
2	0x405e222e	3.4708362
3	0x40cbdc07	6.370609
4	0xbf7faf66	-0.9987701
5	0x3ffcb7fa	1.9743645
6	0x4018ccd1	2.387501
7	0xbee1439c	-0.43996894
8	0xc06cdddb	-3.701041
9	0x406e7adf	3.7262495
10	0xc03d144a	-2.9543633
11	0x40643a63	3.5660636
12	0xc0b5da1b	-5.682874
13	0x3f7545aa	0.95809424
14	0xc04e479c	-3.2231207
15	0x407aff30	3.9218254
16	0xc088e424	-4.277849
17	0xbfd09658	-1.6295881
18	0x3febe045	1.8427817
19	0x4090d0a7	4.5254703
20	0x4010837c	2.2580252
21	0xc0ed6007	-7.417972
22	0x409b71a0	4.8576202
23	0x3f8b850a	1.0899975
24	0xbf6254ae	-0.8841046
25	0xc07762b4	-3.8653994
26	0xc0517908	-3.2730122
27	0xc01002b4	-2.250165
28	0x40458f31	3.0868647
29	0x3f70dcd1	0.9408694
30	0xc0bcd0b9	-5.900479
31	0xc09608a9	-4.688557
32	0xbfe8f3b5	-1.8199373
33	0xbef57954	-0.4794413
34	0xc0d283b9	-6.5785794
35	0x408e6d8d	4.450873
36	0x40c2aeeb	6.0838523
37	0x402f6b91	2.7409403
38	0xc0a4e6bf	-5.1531672
39	0xc0b2c950	-5.5870743

bnorm.running_var f4 [40]
0	0x400a00da	2.156302
1	0x3edfcb97	0.43710014
2	0x3f1e2285	0.6177142
3	0x3f2fdbda	0.6869484
4	0x3f238a76	0.6388315
5	0x3f015e9a	0.50534976
6	0x3efc2cc3	0.492529
7	0x3f406949	0.7516065
8	0x3f443380	0.7664108
9	0x3ef550ce	0.47913212
10	0x3f50599b	0.8138673
11	0x3f4bcc83	0.79608935
12	0x3eebd5db	0.46061596
13	0x3f61b8a4	0.88172364
14	0x3f194b9a	0.59880984
15	0x3ed97cee	0.42478126
16	0x3ed7d320	0.42153263
17	0x3f336a4c	0.7008407
18	0x3f672f9e	0.90307033
19	0x3f2a198d	0.6644524
20	0x3ef4ecf3	0.47837028
21	0x3f2a7753	0.66588324
22	0x3f5dd6f4	0.8665612
23	0x3f241883	0.640999
24	0x3f393b84	0.7235644
25	0x3efdc5fe	0.4956512
26	0x3f2377ef	0.6385488
27	0x3ecb3cba	0.39694768
28	0x3ef2c386	0.47414798
29	0x3f1a80d1	0.6035281
30	0x3f0b79fc	0.5448301
31	0x3f362a08	0.71157885
32	0x3edae0af	0.42749545
33	0x3f182cf4	0.59443593
34	0x3f2789af	0.65444463
35	0x3eb74dcc	0.35801542
36	0x3f0ec267	0.55765384
37	0x3eb987c9	0.36236408
38	0x3edd9261	0.4327574
39	0x3f3db3cb	0.7410247

final_layer.conv_classifier.weight f4 [4, 40, 144, 1]
0	0xbbe6d659	-0.007044595
1	0xba97e327	-0.0011588082
2	0x3dab42d1	0.083623536
3	0xbcbac053	-0.022796785
4	0xbd7f8b4c	-0.062388703
5	0xbd17ffcc	-0.03710918
6	0xbcc2da7e	-0.023785826
7	0x3af2bd47	0.0018519544
8	0x3d5242fa	0.051333405
9	0x3d8a8a15	0.06764618
10	0x3d7efe61	0.062254313
11	0x3e073789	0.13204779
12	0x3d4231db	0.047410827
13	0x3dcb5a53	0.09929337
14	0xbc39d21d	-0.011341599
15	0x3c660674	0.0140396245
16	0xbd398503	-0.045292865
17	0x3c82f8f3	0.015987849
18	0xbd485165	-0.04890575
19	0xbd906159	-0.070498176
20	0x3c8b6870	0.017017573
21	0x3c7056fb	0.014669175
22	0x3cac7873	0.021053528
23	0x3d591bc6	0.053005002
24	0x3d80605a	0.062683776
25	0x3c8c2018	0.017105147
26	0x3d54059d	0.051763166
27	0xbc9ad40a	-0.018899936
28	0x3d16a4df	0.036778327
29	0x3da76195	0.08172909
30	0x3dcb5c7d	0.0992975
31	0x3c90f1a4	0.017693348
32	0x3dc37cb9	0.09545273
33	0x3d9ad47a	0.07560058
34	0xbc73e353	-0.014885741
35	0xbc462051	-0.012092666
36	0x3d12ed4f	0.035870846
37	0x3d43ff69	0.047851
38	0xbd68c5fd	-0.05682944
39	0x3be75c3f	0.007060557
40	0xbcf60fe6	-0.030036878
41	0xbbe7aa77	-0.0070698815
42	0x3b178cf5	0.0023124788
43	0xbd3a6253	-0.045503926
44	0x3d4bf04e	0.04978972
45	0x3d9b7ea6	0.07592516
46	0x3c30e940	0.010797799
47	0xbcd824c7	-0.026384724
48	0x3d515268	0.05110398
49	0x3dea3e36	0.11437647
50	0xbc2c368e	-0.010511054
51	0xbd20b34a	-0.039233483
52	0x3d017822	0.03160871
53	0xbd303a60	-0.04302442
54	0xbd167a00	-0.036737442
55	0xbd4c2a40	-0.04984498
56	0xbd6994f7	-0.05702683
57	0xbb56be33	-0.0032767176
58	0xbd0ce888	-0.034401447
59	0xbab2187a	-0.0013587617
60	0xbc5f1f8e	-0.013618363
61	0x3de671b5	0.11252157
62	0x3d4943c1	0.04913688
63	0x3d1c55a5	0.038167614
64	0x3d52c513	0.051457476
65	0x3d59f678	0.053213567
66	0x3d0d9cd1	0.03457338
67	0x3d70a40c	0.058750197
68	0x3d88a17e	0.06671427
69	0xbd360443	-0.044437658
70	0x3cd6f67b	0.026240578
71	0x3dc86cb7	0.09786361
72	0xbbaa21d8	-0.005192023
73	0x3c4653d0	0.012104943
74	0xbc6953f7	-0.01424121
75	0xbd448740	-0.047980547
76	0x3bb8ca80	0.0056393743
77	0x3da3083a	0.079605535
78	0x3d9c1c1c	0.07622549
79	0xbc7476f9	-0.014920943
80	0xbd30700c	-0.043075606
81	0x3b9a688b	0.0047121695
82	0xbda61d3d	-0.081110455
83	0xbd6018e7	-0.05471125
84	0xbd26fa7d	-0.040766228
85	0xbda07226	-0.07834272
86	0xbd09e852	-0.033668824
87	0xbdaf448a	-0.08557995
88	0xbdd543f6	-0.10413353
89	0x3c554fb7	0.013019494
90	0xbc0851c6	-0.008320278
91	0xbd0f109a	-0.03492794
92	0xbd088790	-0.033332407
93	0x3d0ed1b4	0.034867957
94	0xbd9d22ec	-0.076726764
95	0xbb391d06	-0.002824606
96	0xbc5e7505	-0.013577704
97	0x3c092e2d	0.008372826
98	0xbd1c77e0	-0.03820026
99	0xbd0aa2ea	-0.033846773
100	0x3d596f1c	0.053084478
101	0x3d591c52	0.053005524
102	0xbb71ea9f	-0.0036913527
103	0x3cd7b3b5	0.026330808
104	0x3d474b1a	0.048655607
105	0xbc59d304	-0.013294939
106	0xbd90aa38	-0.07063717
107	0x3ac4643e	0.0014983488
108	0xbd1dfa7b	-0.038568955
109	0x3d35def7	0.04440209
110	0xbc94679c	-0.018115811
111	0xbc83e69a	-0.01610117
112	0x3d628e26	0.055311345
113	0xbd76fd1b	-0.060299974
114	0xbd37032f	-0.04468077
115	0x3bab3b5e	0.005225583
116	0x3ad6e6ea	0.0016395722
117	0xbb525427	-0.0032093616
118	0xbc845ba9	-0.016156988
119	0xbc3c065f	-0.011476128
120	0xbca1c61a	-0.019747782
121	0xbd2dcfa8	-0.042434365
122	0xbcfa2b54	-0.030538239
123	0xbd278081	-0.040894035
124	0x3d1097c4	0.035300985
125	0x3d13c282	0.03607417
126	0xbc174547	-0.009232826
127	0xbb75e6b5	-0.0037521545
128	0x3d179ee2	0.037016757
129	0xbc609343	-0.013706985
130	0xbd7e4bb9	-0.062083934
131	0xbd42ecfd	-0.04758929
132	0xbd0d7bc7	-0.03454187
133	0xbd102280	-0.03518915
134	0xbdb9d886	-0.09074502
135	0xbd2e5342	-0.04255987
136	0x3d16f885	0.0368581
137	0x3d60a60d	0.05484586
138	0x3c7d28e6	0.0154516455
139	0x3db0d8d6	0.08635108
140	0xbd31fc93	-0.043453764
141	0x3d6b267d	0.057409752
142	0x3c49fc85	0.012328272
143	0xbb61becf	-0.0034446006
144	0x3d2d5f11	0.04232699
145	0x3da37d5c	0.07982895
146	0x3d5015c6	0.050802015
147	0x3df4536d	0.11929975
148	0x3dabd397	0.08389967
149	0x3d4083f8	0.047000855
150	0xbc85c17b	-0.01632761
151	0xbe16fc50	-0.14744687
152	0xbdf30765	-0.11866645
153	0xbd6f3121	-0.058396462
154	0xbbb7ba04	-0.0056068916
155	0x3ccd066c	0.025027476
156	0x3d320918	0.043465704
157	0x3cf21c38	0.029554471
158	0x3d80e43c	0.06293532
159	0x3c3a68b6	0.011377504
160	0x3d750431	0.05981845
161	0x3c81c041	0.015838744
162	0xbde1fd4b	-0.1103464
163	0xbd5f75eb	-0.054555815
164	0xbe0a7d75	-0.1352442
165	0xbdbdcfad	-0.09268127
166	0xbd9458c9	-0.07243497
167	0xbd9c2e58	-0.07626027
168	0xbe098aa4	-0.13431793
169	0xbd89168e	-0.06693755
170	0xbdec8cb3	-0.11550274
171	0xbe95f722	-0.2929011
172	0xbd4ca72f	-0.049964126
173	0x3c888fae	0.016670074
174	0x3d42aee0	0.047530055
175	0xbc812171	-0.015763016
176	0xbd53c6d8	-0.051703304
177	0xbe0a0fcf	-0.13482593
178	0xbcf2b3cb	-0.029626748
179	0xbd6c39ce	-0.057672314
180	0x3c573c57	0.013136945
181	0xbcbcf855	-0.023067633
182	0x3b01444a	0.0019724541
183	0x3d3349cd	0.043771554
184	0x3c11d16d	0.008900029
185	0x3cbc34f7	0.022974474
186	0xbd1aeceb	-0.0378236
187	0xbd448c1b	-0.047985177
188	0xbd8b9ba7	-0.06816798
189	0x3cc83f25	0.024444172
190	0xbd527a52	-0.051386185
191	0xbcba5a80	-0.022748232
192	0x3d917166	0.07101707
193	0x3b27d371	0.0025608207
194	0xbd1a8798	-0.03772697
195	0x3c68016c	0.014160495
196	0xbda3c3ce	-0.07996331
197	0xbcfd77b4	-0.030940868
198	0x3c4d60d9	0.012535297
199	0xbd2a4b38	-0.04157564
200	0xbc3593b5	-0.011082579
201	0x3b581699	0.0032972454
202	0xbca9f052	-0.020744476
203	0x3d3f40ce	0.046692662
204	0xbcb1a301	-0.021684172
205	0xbd2276cb	-0.03966407
206	0xbc9b2074	-0.018936373
207	0xbb3e2000	-0.0029010773
208	0xbbea53b7	-0.007151093
209	0x3b72a603	0.003702522
210	0xbce481a6	-0.027893852
211	0xbd1e32a0	-0.0386225
212	0xbd56defe	-0.052458756
213	0xbdb21c15	-0.086967625
214	0x3c779636	0.015111497
215	0xbd64ab28	-0.05582729
216	0xbd8fdb6a	-0.07024272
217	0xbda84645	-0.08216528
218	0xbda2892c	-0.0793632
219	0xbbe9bcdf	-0.007133111
220	0xbdf83279	-0.12119002
221	0x3d5e277d	0.054236878
222	0x3d8938dc	0.06700298
223	0x3d6f038c	0.058352992
224	0x3cd44f6e	0.025916781
225	0x3dfcdb9d	0.123465754
226	0x3dd6ed3b	0.10494467
227	0x3d56bd7c	0.0524268
228	0xbce7fac0	-0.02831781
229	0xbce5010f	-0.027954606
230	0xbd48a376	-0.048984013
231	0xbdd0c050	-0.10192931
232	0xbdbbdfd9	-0.09173555
233	0xbd5bba2e	-0.05364435
234	0xbd429495	-0.04750498
235	0xbd45c014	-0.048278883
236	0xbe1951ce	-0.14972612
237	0xbd617345	-0.05504157
238	0xbccce8b4	-0.025013305
239	0xbda97dd3	-0.08275952
240	0xbd46f42a	-0.048572697
241	0xbdb7c833	-0.08973732
242	0xbd8daffc	-0.06918332
243	0xbd0b7f44	-0.034056917
244	0x3d313b3c	0.04326938
245	0x3cbc262a	0.022967417
246	0x3d0bdb96	0.03414496
247	0xbcc6f596	-0.024287026
248	0xbcc8c0f3	-0.024506068
249	0x3d474563	0.048650157
250	0x3c0967c3	0.008386555
251	0x3dc0aa6a	0.09407504
252	0x3d46bf1b	0.048522096
253	0xbd8a225c	-0.06744835
254	0xbdb70545	-0.08936552
255	0xbdbd6a4b	-0.092487894

final_layer.conv_classifier.bias f4 [4]
0	0x3da14a87	0.07875543
1	0xbe060e4a	-0.13091388
2	0x3e1de811	0.15420558
3	0xbd33c64d	-0.043890286
