models/ShallowFBCSPNet_persons1_lr0.0001_wd0.01_bs32_acc0.5500.pth (torch, 383698 bytes, 9 tensors)

conv_time_spat.conv_time.weight f4 [40, 1, 25, 1]
00000000: 770d 493d 298e 183d c174 96bd e3fe 563d
00000010: 10d4 253d 1dee 073d 002f 933d 1194 40bd
00000020: 5fe4 75bc d813 80bb 9ac5 073d 82ce 2dbc
00000030: a636 00bc ea85 9e3d 926a 8e3d 3a95 72bb
00000040: d13e 3bbd 40a6 51bd ab7e c4bb 1150 463d
00000050: 652b 943d be56 453d 566c 473c ef8e 7a3d
00000060: 4f77 c63c 7f65 feb9 43a7 383d 1319 70bd
00000070: ec5f 0dbc e578 b8bb 5748 0cbd 72c6 f6bc
00000080: a84a 9fbd 2bd0 ac3c 4fe3 153d 2bfb 853c
00000090: 3632 d23c fde3 053d 4bdc 17bc 59e0 93bb
000000a0: d5a6 8ebd 80df 97bd ccef 2b3c 6505 28bc
000000b0: 6be3 b13c 4929 8ebd 510b 7e3d 58f3 623c
000000c0: e8c8 8cbd 5744 393d 57e2 1c3d 39c0 9d3d
000000d0: 15eb 81bd ebfd 8b3c f66f 3b3c 1428 88bd
000000e0: 4b0d 2ebc 5cfd 073d b1f8 07bc ac70 2a3d
000000f0: dc70 93bc a3fd c839 4266 f5bc 29a4 be3c
00000100: 4277 81bd 7672 24bd ddcc 973d 5cf4 87bc
00000110: 3b66 8b3d ac50 573b 342b 86bd eddb c73c
00000120: 1596 823d 2c46 adbb 7910 813c db72 b4bc
00000130: 2326 653d 1751 44bb fd38 5a3d a4ab 02bc
00000140: f967 78bc 88dc 903d 6a16 713d ba22 1c3b
00000150: a729 19bb 3e91 553d 8cff 563c 82e6 babc
00000160: 677d 973c 5667 64bd 7d61 88bc 1568 9d3c
00000170: f920 343d 1574 88bd 2478 ab3b b241 8cbd
00000180: 5a04 30bd a1d7 c3bc 8605 9ebd 650a f23b
00000190: d6a5 1bbc ee07 6e3d cd78 85bd 07dc 7c3d
000001a0: 4b4e 9b3c 4658 acbb 3e13 efbc 8f13 98bd
000001b0: a140 c93b 74d1 6f3d b120 963d 3d0b a83c
000001c0: 3bc2 733d 0919 03bd 8642 0fbc 72ea 6b3d
000001d0: 0044 2f3d 003f 5b3d 8338 60bc d42e d53b
000001e0: cbb8 873d fa9e 0cbc e32f 2e3d e374 1d3d
000001f0: ef05 4bbc b0cb 723c 762b 0dbd 3e55 723c
00000200: 6200 8bbd bc2b 50bd 136c 7239 67aa 2b3d
00000210: a40c 74bd 86b1 a33c db06 35bd 512a 04bd
00000220: 3e85 023d fbb3 4bbd b7f0 5a3d 8c95 2fbc
00000230: 89ed 4e3d 52a4 5cbd ae53 443d 5b9e 7d3d
00000240: a6d5 7e3d 3241 1f3d 8339 0a3d abeb 633d
00000250: 5614 e0bc 2fa7 83bd b58c a8bc 10aa 49bd
00000260: 7069 f1bc f304 093d 2059 2bbc 46a9 2c3d
00000270: d47d 0c3d 60d1 5f3c 806b 9b3d aa24 613d
00000280: 2d04 bb3b fffc 17bd 6071 86bd 44b4 883d
00000290: c113 933c ad80 023c aa80 d238 6246 00bd
000002a0: 7eaf e3bb 1d4e eb3c dc7c d73c 3742 76bc
000002b0: 0a69 30bd 3e21 c33c 46b2 d63a e3f4 693c
000002c0: d050 13bd 7c20 963d 5c63 723d 63bc 5ebc
000002d0: 666e 38bd 9626 8b3d 48da 77bd e7d5 5dbd
000002e0: ad3d 2cbc 92c5 d3bc 6bb2 e6bc df05 76bd
000002f0: e254 3b3d 8865 3a3d 17b0 5dbc 4b24 833d
00000300: d8e7 973c b80c 373d 959d 683d 97d7 3f3d
00000310: c20b 14bd 3ef9 a0bc d758 813d 88b8 74bd
00000320: ab89 ba3c 8843 853d cf40 10bd 49b1 f03c
00000330: 2f4c 443d fdfb 8e3d 1519 803d d3d6 393d
00000340: 6672 763d 7fec b7bc 1197 8e3d 1520 4b3d
00000350: 4db5 473d 753b 98bc 0b26 193d 776d 2cbc
00000360: a609 83bd d823 093d 2bf5 80bd 5b68 a9bc
00000370: e257 9c3c 50eb db3c 7865 58bd 44f6 1cbc
00000380: 3399 3f3d 691c a43b cd72 353b 7f6c 3d3d
00000390: 0221 67bd c768 853d bdd4 6c3d ffa4 2ebc
000003a0: 747f 38bd e91b e4bc 93e6 6bbd 968a 313c
000003b0: f86d 533c 6341 24bd 74bd 8ebd 148b a93c
000003c0: 5d12 8b3d 4d08 83bd dad0 5f3c 2473 573d
000003d0: 8beb 46bd fd47 c9bc b72d 9a3c 458a 083d
000003e0: b18a b53c 578f 2d3d df5e 85bc 3c13 063d
000003f0: 683a 98bd c17d 99bc 13be 013d 4cbf 813d
0.049085107 0.03724495 -0.07346488 0.052489173 0.04048544 0.033186067 0.07186699 -0.047016207
-0.015008061 -0.0039086156 0.033147432 -0.010608317 -0.007825529 0.07740386 0.069539204 -0.0037015215
-0.045714203 -0.05118394 -0.0059965453 0.0484162 0.07234839 0.048178427 0.012171825 0.06117147
0.024226813 -0.00048522276 0.04508139 -0.058617663 -0.008628827 -0.005629646 -0.034248676 -0.030123923
-0.077779114 0.021095356 0.03659373 0.016355118 0.025658708 0.03268813 -0.0092688305 -0.0045128283
-0.069654144 -0.07415676 0.010494184 -0.010255192 0.021714887 -0.06941468 0.06202251 0.013851963
-0.06874257 0.04523119 0.038301792 0.07702679 -0.063436665 0.017088851 0.011440268 -0.06648269
-0.0106232865 0.033200607 -0.008299039 0.04161136 -0.017998151 0.00038335947 -0.029955987 0.023271637
-0.06321575 -0.04014822 0.074121214 -0.016596012 0.06806608 0.003285448 -0.06551209 0.024396861
0.06376282 -0.005287906 0.015754925 -0.022027424 0.055944573 -0.002995556 0.053277005 -0.007975493
-0.015161508 0.07073313 0.058859266 0.002382441 -0.0023370774 0.052140467 0.013122451 -0.022814993
0.018492414 -0.05576261 -0.016648049 0.01921467 0.043976758 -0.06662766 0.0052328277 -0.06848468
-0.0429729 -0.02390653 -0.07715897 0.007386493 -0.009499988 0.05811303 -0.065171815 0.061733272
0.018958231 -0.0052595465 -0.02918398 -0.074256055 0.0061417376 0.05854936 0.07330454 0.020513171
0.059511404 -0.032006297 -0.008743888 0.05759663 0.04278946 0.05352688 -0.013685348 0.0065058265
0.06627043 -0.008582825 0.042526137 0.03844155 -0.012391551 0.014819071 -0.034465276 0.014790831
-0.067871824 -0.05082296 0.00023119179 0.041910555 -0.059582368 0.01998211 -0.04419599 -0.03226692
0.03186535 -0.04973219 0.05345222 -0.010716807 0.0505195 -0.053867646 0.047931366 0.061918598
0.06221547 0.038880534 0.033746254 0.055644672 -0.027353447 -0.06428372 -0.020574907 -0.04923445
-0.029469222 0.033451986 -0.010458261 0.04215362 0.034299687 0.013660759 0.075888634 0.054966606
0.005707285 -0.03710651 -0.06564593 0.06675008 0.017953755 0.007965249 0.00010037546 -0.031317122
-0.0069484105 0.02872377 0.026304655 -0.015030435 -0.043068923 0.023819562 0.0016380034 0.014279577
-0.03596574 0.07330415 0.059176788 -0.01359472 -0.04502716 0.06794469 -0.060510904 -0.05415907
-0.0105127515 -0.025851045 -0.028161248 -0.060064193 0.045735247 0.045506984 -0.013530753 0.06403407
0.018543169 0.044689864 0.056790907 0.046836462 -0.036144026 -0.019650098 0.06315773 -0.059746295
0.022770723 0.06507021 -0.035218056 0.029381411 0.047924217 0.06981657 0.06254784 0.045370888
0.060167693 -0.022451637 0.069624074 0.049591143 0.048756886 -0.018583039 0.037389796 -0.010524145
-0.06398325 0.03348145 -0.06296762 -0.020679643 0.019084875 0.026845604 -0.052831143 -0.009580199
0.04677696 0.0050082696 0.0027686835 0.046246048 -0.056427963 0.06514125 0.05782007 -0.010659455
-0.045043424 -0.02784534 -0.05759294 0.010836264 0.012904637 -0.04010142 -0.06969729 0.0206962
0.06790612 -0.063980676 0.013660634 0.05260004 -0.048564475 -0.02457046 0.018820627 0.03333499
0.02216086 0.042373028 -0.01628059 0.032733187 -0.07433015 -0.018736722 0.03167541 0.06335315

conv_time_spat.conv_time.bias f4 [40]
00000000: f2a6 d3b9 7c7b 833a 4bad d137 dc5d 3c39
00000010: 2087 8239 a65a 053b c6c8 5b3a 1df4 64b9
00000020: e16c ceb9 fd63 42ba e54f 9f3a e028 80b9
00000030: 09b3 3c3a d917 3d3a 6ceb 653a 05ab ac3a
00000040: 2d5c 523a a1c5 8e3a d43b 0b3b 7ae5 373a
00000050: 8cf7 ba38 f36f a038 72ce 62ba a803 28ba
00000060: c3c8 413a b852 4139 32d7 e43a 608a fbba
00000070: ea3d fc3a 63f2 13bb 3499 2dba 7137 c7ba
00000080: 95f3 8839 6c36 07ba fc92 023a bc48 b439
00000090: 0711 dab9 09b5 30ba 36c0 8db8 cba2 1f3a
-0.0004036944 0.0010031308 2.4995437e-05 0.00017964042 0.00024896208 0.002034822 0.00083841046 -0.00021834714
-0.00039372503 -0.0007415412 0.0012154548 -0.00024444517 0.0007198309 0.00072133314 0.00087707373 0.0013173526
0.00080245995 0.0010892638 0.0021245377 0.00070150907 8.91528e-05 7.650247e-05 -0.00086519786 -0.0006409236
0.00073922815 0.0001843673 0.0017459153 -0.0019191019 0.0019244526 -0.0022574894 -0.00066222553 -0.0015199018
0.00026121424 -0.0005157951 0.0004981009 0.00034386467 -0.00041592887 -0.00067408435 -6.759206e-05 0.00060896267

conv_time_spat.conv_spat.weight f4 [40, 40, 1, 44]
00000000: e94e cbbb 5458 bebc cd21 89bc c21f 833c
00000010: d7f5 23bd 2e9e 37bc 8cab 67bc 8996 973b
00000020: 31b8 143d 1af2 1dbd a61a 03bd 6de3 f1bc
00000030: dcd2 06bd 3a93 27bc e7c1 18bb d622 d73c
00000040: d52e 64bc 8bc6 0e3d 6dab ad3c d7ad bc3c
00000050: 1b7b 55bc 605c 22bd 20cd 15bd c14e 133d
00000060: ac64 083d 6321 833c 1dd3 36bd b967 00bd
00000070: 86d9 e03b 33bb 1bbd e409 c2bc 9e39 073a
00000080: 08ef 12bd 9549 bbbc 84b2 efbc 835d 2b3d
00000090: 5be0 c7bc ee65 3ebc 96d7 ea3a 4812 c5bc
000000a0: d758 bf3c e541 18bd 2a70 fe3c 0a24 fe3c
000000b0: 89ca d63c 5603 0bbd b43b c73c 7200 813c
000000c0: ac55 4eba 938b 1f3d 1b82 fbbc f467 f1bc
000000d0: f524 27bd 06f9 f2bb 9035 113d 5dbb 7abc
000000e0: 4096 803c d27f f8bc 95d1 c63c 8b60 9a3c
000000f0: c361 873c 13a5 7b39 04d8 4fbc 37cb 22bd
00000100: 28c8 1fbc a19b 9c3c 6490 cdbc c57f ee3c
00000110: 0055 fdbc 1af9 cfbc 22ba d3b9 64f0 773c
00000120: d643 6abc 1cc2 9fbc f932 673c c330 a4bc
00000130: 0479 173c 2d11 843c 3200 2b3b 9d92 6abc
00000140: 653b b83c 0d53 bebc b656 0abd 81bc b33c
00000150: 1dd5 05ba cbf7 1bbc f1f5 3dbc b84d febc
00000160: a8ec f43c 1560 10bc b870 e83c c5e4 debc
00000170: 6b34 9e3c 960c 28bd 84a2 babb bcab 023d
00000180: 94a1 fabc bb95 033d a85d 6c3c 517b cdbc
00000190: aeab 4f3c fa44 3dbb 5664 633c ab80 9fbc
000001a0: ce86 063d cb1d 223d ea59 33bc a070 5ebc
000001b0: 57d1 9d3c ef60 f6bc 5ca6 25bd 2b94 983c
000001c0: 9cab c7bc ff55 d2bc 510d aebb 60ad 043d
000001d0: e522 3c38 d87c 0abc 6f52 d43c 8f4b ddbc
000001e0: 1f36 563c 935f 83bb 8cab 0bbd 63a1 cb3c
000001f0: 88d2 d6bc 5324 a03c 2c67 10bb be53 3e3c
00000200: 6a17 6abc e475 54bc bb86 e83c 5bcf c8bc
00000210: 9838 0c3d 4cfc a3bb 9934 0cbd 7bba 38bc
00000220: 8b65 603c 4574 0dbc fea1 acbb 613f c13b
00000230: cf75 f2bc a8cc 96bb fd65 763c c519 1c3c
00000240: f4f8 cf3c c66b 51bc c635 4cbb 4632 7bbc
00000250: e246 283d 53df c4bb 6d23 283d d023 5bbb
00000260: 8c32 973c c327 0ebd d493 bbbc 6823 9abc
00000270: 8261 163d 4be9 41bc 0b4d 22bd 0a81 493c
00000280: 3bb7 98bc 9db0 9f3a fecc 05bd 17ff 78bb
00000290: bc3f 9dbb 3539 80bc 2838 463c 036d b6bb
000002a0: d90a b3bc 6298 10bc 9592 2c3c 9bc6 aabc
000002b0: f542 16bd cdc8 13bd 5b95 7a3c 4d0c 9fbb
000002c0: 4da6 023d 2de4 4b3c 27f8 acbc 6ebe a2bc
000002d0: 4eaa 0d3c 0ff8 bdbb 036a 91bb ab54 f6ba
000002e0: 88fc c7bb 51d1 29bc 5578 1dbd 5568 7abb
000002f0: 1766 08bd 797c 15bd 0617 fd3b 0e0c 9a3c
00000300: 9ca7 c73c 88fc 0d3d 6435 0e3c a0c3 eeb9
00000310: 33b8 5bbc 1d15 e2bc 98f6 af3c c73e e0bc
00000320: 3b71 d13c e245 d73c 8cda 8ebc d3ab 423c
00000330: 043b c5bb a4dc 843c 8205 8bbc 8449 0abd
00000340: a56b 25bd 550a 983c 4e36 a8bc 92b4 25bc
00000350: 1321 b3bc 40c2 debc efb4 84bb e622 cc3a
00000360: 6e9d 473c e851 2c3d 7529 e2bb 06f5 d33c
00000370: c21d c6bc 9f17 2e3c b470 26bc 89c5 1e3d
00000380: c07b 0fbc aabc ae3c c82e 2fbd 27cf 9abc
00000390: ae84 e43c 63e7 84bc 3e06 46ba 4121 20bd
000003a0: 66a5 9cbc 5a01 e63c 8ff5 53bc 8ce9 e03c
000003b0: 6e68 6f3c eeff 2bbc 323c 1bbc 04d1 273d
000003c0: 3ec7 173d f9fa b93b 5c73 ea3b 9011 05bd
000003d0: 0011 cb3b 1641 6d3a 8058 fa3c 96fd 1b3c
000003e0: ce0a e23c 887e 313c ac18 163d e731 603c
000003f0: f552 f03c c745 b7ba 0559 313c b7e6 04bd
-0.006204475 -0.023235478 -0.01673975 0.016006354 -0.040029373 -0.011207147 -0.014140021 0.0046260995
0.03630847 -0.038560964 -0.032007836 -0.02952739 -0.032915935 -0.010227973 -0.0023308934 0.026261728
-0.013927181 0.034857314 0.021199906 0.023032112 -0.013029839 -0.039638877 -0.036572576 0.035963777
0.033299133 0.016007131 -0.044634927 -0.031348918 0.0068618683 -0.038020324 -0.023686357 0.0005158427
-0.03587249 -0.022862235 -0.029259928 0.041837227 -0.024398973 -0.011620982 0.0017917033 -0.024056569
0.023357792 -0.037172217 0.031059343 0.031023044 0.026219623 -0.03393873 0.02432046 0.015747283
-0.00078710425 0.038951468 -0.030701688 -0.029468514 -0.04080673 -0.00741494 0.03545147 -0.01530346
0.015696645 -0.030334387 0.024269858 0.018844863 0.016526109 0.0002399872 -0.0126857795 -0.039744582
-0.009752311 0.019117178 -0.025093265 0.02911366 -0.03092432 -0.025387336 -0.00040383736 0.015132997
-0.0142984 -0.019501738 0.014111274 -0.020042783 0.009245161 0.016121471 0.0026092646 -0.014317182
0.022489259 -0.023232961 -0.0337741 0.021940472 -0.0005105304 -0.009519528 -0.0115942815 -0.031042919
0.029898003 -0.00881197 0.028374061 -0.027208695 0.019312104 -0.041027628 -0.005695643 0.03190206
-0.030594625 0.032125216 0.014426626 -0.025083216 0.012675209 -0.0028880225 0.013878902 -0.019470533
0.032843404 0.039579194 -0.01094673 -0.013576657 0.01926486 -0.030075518 -0.040441856 0.01862534
-0.024373822 -0.025675772 -0.005311646 0.032391906 4.485519e-05 -0.008452617 0.025918214 -0.027013568
0.013074427 -0.004009196 -0.034099147 0.024857229 -0.026223436 0.01954857 -0.0022034151 0.011616645
-0.014287809 -0.01296756 0.028384557 -0.024512937 0.03423366 -0.0050044414 -0.03422985 -0.011274929
0.013696085 -0.008633678 -0.0052683344 0.005897448 -0.029597191 -0.0046020336 0.015038964 0.009527628
0.025387265 -0.012782043 -0.003115998 -0.01533181 0.041083224 -0.0060080676 0.04104941 -0.0033438094
0.01845672 -0.03470589 -0.022897638 -0.018815711 0.036714084 -0.011835407 -0.039624255 0.012298832
-0.018642059 0.0012183372 -0.0326662 -0.0037993842 -0.0047988575 -0.015652278 0.01209835 -0.0055671944
-0.021855759 -0.008825393 0.010532995 -0.020846656 -0.03668495 -0.03608017 0.015294398 -0.0048537613
0.031896878 0.012444538 -0.021114422 -0.019866195 0.008646561 -0.005797393 -0.0044376864 -0.0018793544
-0.006103102 -0.010364846 -0.038444836 -0.003820916 -0.033300485 -0.03649566 0.007723692 0.018804576
0.024371915 0.03466466 0.0086797215 -0.0004554065 -0.013410616 -0.027597958 0.02147989 -0.027373685
0.025566688 0.02627844 -0.017438196 0.011881786 -0.006018998 0.01621849 -0.0169704 -0.033761516
-0.04038586 0.018559614 -0.020533707 -0.010113852 -0.021866357 -0.027192235 -0.0040498893 0.0015574365
0.01218353 0.0420703 -0.0069019147 0.025873672 -0.024184112 0.010625749 -0.010158706 0.038762603
-0.008757532 0.021330196 -0.042769223 -0.018897606 0.027895298 -0.016223615 -0.0007554031 -0.039094213
-0.019121837 0.028076816 -0.012936964 0.027455114 0.0146123 -0.01049803 -0.009474801 0.040970817
0.037055247 0.00567567 0.007154865 -0.032487452 0.006197095 0.0009050531 0.030559778 0.009520909
0.027593043 0.01083339 0.036644623 0.013683773 0.029336432 -0.0013982587 0.010824447 -0.03244659

bnorm.weight f4 [40]
00000000: 3962 7e3f c20d 813f 060a 803f 9d1e 813f
00000010: afc0 803f e3e7 7e3f f664 803f ee7e 803f
00000020: 3d92 803f dc18 803f 3eba 7f3f 13e3 803f
00000030: b5a5 803f 41b6 7f3f f446 813f f225 813f
00000040: 386f 7f3f b373 803f 7a01 803f 4894 803f
00000050: bc25 813f 709c 803f 2d75 803f 6798 7f3f
00000060: 3361 803f e0b9 803f aadb 7e3f 747a 7f3f
00000070: ecda 7f3f 2bab 803f 8b84 803f 5669 803f
00000080: 634c 803f 097a 7f3f 15ea 803f 370a 803f
00000090: 8864 803f 90f2 803f 1ed7 803f 9c7a 803f
0.99368626 1.0082324 1.0003059 1.0087467 1.0058802 0.9957258 1.0030811 1.0038736
1.0044628 1.0007586 0.9989356 1.0069298 1.005057 0.9988747 1.0099778 1.0089705
0.9977908 1.0035309 1.0000451 1.0045252 1.0089641 1.0047741 1.0035759 0.9984192
1.0029663 1.0056725 0.9955393 0.99796224 0.99943423 1.0052236 1.0040449 1.0032146
1.0023311 0.99795586 1.0071436 1.0003117 1.003068 1.0074024 1.0065649 1.0037417

bnorm.bias f4 [40]
00000000: a7b6 45bb ff4c 4dbb ef37 52bb 2097 293b
00000010: d25c b0ba 9340 143a 7083 b13b 20b3 633b
00000020: 4b7f c8b9 997a 99ba fa29 a1bb 7a0c 973b
00000030: 3285 7db9 5a7f 6c3b dfcf 8f3b f7ab cd38
00000040: 6052 a9ba 475d 9b3a 32f3 ebba f379 893b
00000050: e502 85bb 126b 123b e0d4 233b b6cf 323b
00000060: 0486 0dbb 68cb 02ba c847 813b 4198 b33b
00000070: 35d0 ce3a 5d3b 22bb 30f3 683a 10a8 a83b
00000080: 7577 e63a 14e4 98b9 99b8 6a3b b782 f03a
00000090: c100 37bb fc03 143b 6833 a33a bfcf 26ba
-0.0030168684 -0.003132641 -0.0032076796 0.002587743 -0.0013455397 0.0005655374 0.00541728 0.0034744218
-0.00038241813 -0.001170951 -0.004918334 0.0046096416 -0.0002417758 0.003608665 0.004388794 9.807193e-05
-0.0012918226 0.001185336 -0.0018001555 0.0041954457 -0.004059183 0.002234165 0.002499871 0.002728445
-0.0021594772 -0.00049894163 0.0039453246 0.0054807966 0.0015778603 -0.0024754622 0.00088863354 0.0051469877
0.0017583208 -0.0002916163 0.0035815595 0.0018349503 -0.0027924033 0.0022585383 0.0012451233 -0.0006363354

bnorm.running_mean f4 [40]
00000000: 483f 0c3a 2bb1 57bb 91fe 293a 8735 27ba
00000010: cf34 99ba be41 11bb 31ef 6bba 3227 123b
00000020: 0d53 453b d39a 8bba 2180 1abb cb96 0aba
00000030: 2cbb 553a e81f e9ba ffa1 abb9 b0d1 193b
00000040: 2bc2 483a 2977 a8b9 b01b b1b7 0c0a a4b9
00000050: 98b6 86ba 0197 a2ba f1bc d3ba 9c74 c6b8
00000060: e90a 8fb8 c87d 69b9 c0b9 c839 ed7c 8639
00000070: 78d6 07ba 5286 2fbb 6701 59bb fb21 e7ba
00000080: a2d8 df3a 1cff 2339 3f5a ed39 d7ce deba
00000090: af8c be3a 2bd1 84ba cb5e c93a 91db 92ba
0.0005350006 -0.0032911997 0.0006484772 -0.00063785206 -0.0011688712 -0.002216443 -0.0009000181 0.0022301194
0.0030109317 -0.0010651 -0.0023574906 -0.0005286752 0.0008153196 -0.0017785998 -0.00032736358 0.002347093
0.0007658328 -0.00032132238 -2.1112937e-05 -0.00031288003 -0.0010277806 -0.0012404622 -0.0016154331 -9.463096e-05
-6.8208035e-05 -0.00022267469 0.00038285367 0.0002565155 -0.00051817996 -0.0026782942 -0.0033112408 -0.0017634028
0.0017078111 0.00015639927 0.000452714 -0.0016998899 0.0014537777 -0.0010133138 0.0015363334 -0.0011204352

bnorm.running_var f4 [40]
00000000: 8b54 3d39 daea 3b39 f263 1d39 576c 2c39
00000010: fae3 e238 06a8 6f38 20ad 1839 c0c8 1639
00000020: d281 0939 df49 1d39 f6f8 b338 bddf 9e39
00000030: 3957 0f39 ecee b438 9da8 5039 5947 1639
00000040: 1288 a738 346f c538 82ae 8938 fccd 4139
00000050: e06f 8a39 9860 1f39 4415 e438 f288 1439
00000060: e0b1 0d39 a0d1 1439 665b 8338 c322 f138
00000070: 9179 bb38 4a07 2b39 c638 6739 5abb 0f39
00000080: c6bd ec38 df40 a738 82f5 5c39 4146 0c39
00000090: f0f5 2839 a461 4f39 d95c 1c39 e5a2 0d39
0.0001805594 0.00017921199 0.0001500992 0.00016443558 0.00010818984 5.7138524e-05 0.00014560344 0.000143799
0.000131137 0.00015000206 8.581758e-05 0.00030302806 0.00013670036 8.6275715e-05 0.00019899239 0.00014331694
7.9885256e-05 9.414405e-05 6.565174e-05 0.0001848265 0.00026404765 0.00015199406 0.00010875848 0.00014165396
0.00013513071 0.00014192471 6.263591e-05 0.000114982504 8.9394984e-05 0.00016310546 0.00022051026 0.00013707337
0.00011288705 7.975264e-05 0.00021072294 0.00013377612 0.00016113347 0.00019777432 0.00014911908 0.00013507491

final_layer.conv_classifier.weight f4 [4, 40, 144, 1]
00000000: 9e96 cebc e4c5 763c bc14 853c abcc b23c
00000010: a67d 24bc a22a 1d3c 9b30 87bc bd70 d23c
00000020: ddc5 c43c 0c86 063c ac99 c43c d0e3 d2bc
00000030: c478 2d3c 1cf8 12bc 9287 323c 5b92 d13c
00000040: 6d02 bdbc 241b 52bc 8a2d 983c 897e 793c
00000050: 3f34 4abc 3fcb aeb9 dddf f53b 822d 3cbc
00000060: 0069 a03c 3f62 c8bc 582f c33b 4c9b 83bc
00000070: a762 9cbc f097 38bc ac43 653b 9143 393c
00000080: 1e99 9a3c 9edc 5cbc 7fef c33c fffe 6ebb
00000090: 0301 51bc 5b1c 923c 8ac3 e23c e7ad 15bc
000000a0: 7ef3 5cbb 7034 a3bc d244 8b3c 79c8 b43b
000000b0: 12f5 0e3c 2f83 ddba 7276 f3bb ff7d be3c
000000c0: 9884 37bc 5228 53bc c30d 01bd 2557 29bc
000000d0: ed6e c9bc 18f9 86bc adf7 b9bc d337 9abc
000000e0: 07f6 a2bc eb79 efbc 9090 d4bc e6dc d33c
000000f0: 160a c3bc 9827 ebbb f0e8 5d3c 168c 7f3b
00000100: 9419 c73c 63b7 883c 0f4b 423c 0885 abbc
00000110: 0c5e b2bc 56e8 d7bb 9f20 4dbc 3d51 a93b
00000120: 6394 c3bc da1f 31bc 16c8 28bc 58bb 993b
00000130: 33b8 a7bc 20bf ab3c bcb7 c9bc e695 e9bc
00000140: 22da bebc 7449 ac3b 1d31 b63c 2e57 d53c
00000150: cefa 7f3c 67f0 74bc 4967 8ebc 9e94 f63c
00000160: dd5e cdbb 431d 4d39 a027 993c e492 76bb
00000170: 9f81 c73c 9258 ecbb 2519 223c 5489 99bc
00000180: 2239 cc3c 8be4 223c b0a2 0b3c 66be bf3c
00000190: cbde 2a3c 0a94 a7bc c484 d13c b933 a2bc
000001a0: 4a47 a7bc 5e6c 0d3c b4e7 16bc 483c 933c
000001b0: 8938 0cbd 4697 aebc 5819 76bc 4824 d1bc
000001c0: 1b46 c1bb 6753 a8bc 89f7 b43c 04e9 d03c
000001d0: 0699 8dbc dda6 73bc 65b2 803c 247f ad3c
000001e0: 99e5 c53b 3309 833c d87c 71ba a83b a6bc
000001f0: 5581 c23c 4d00 d03c 7cb9 d9bc c3ab 6e3c
00000200: 9c22 45bc 92ef bb3c d8a2 b23c fa3c af3c
00000210: 0696 8a3c 651f 3dbb 37e5 88bc 0f7c 9c3c
00000220: a88c 963b 5158 b8bc 6bc3 ea3c 184b 92bc
00000230: f6df a5bc 4cc7 803c 0fc5 ad3c bce0 79bc
00000240: df3a 193b 3de3 44bb 3638 103c 74fb b8bc
00000250: b1cd cd3c 10af 783c b1bd 853c 0e4c 54bc
00000260: 9f62 9bbb 734e 7e3b b68e bebc a9d2 503c
00000270: 1491 e43c 9109 f2bc dadd 9cbc 0684 8c3c
00000280: 1cce c2bc c238 c5ba 0f7f c0bc e3e3 a2bc
00000290: 413f a23c 1d23 bdbc 8216 e9b9 c9ee f53c
000002a0: a6be 8ebc e7cb 4e3c ec09 0e3c b4b0 ac3c
000002b0: a116 75bc bceb a73c f51a 73bc 566e ac3c
000002c0: deba c43a 97b0 6b3c 6340 e3bb 7c49 9e3a
000002d0: b324 8abc 0fbd 0f3d 549d a9bc f80c 75bc
000002e0: 1fc0 c93a f8c1 623c 8b35 203c cc03 e3bc
000002f0: 3292 c03c 4d82 093b 309c 1a3b 512a 38bb
00000300: 739c dbbc a51c a4bc 258f 8e3a 3d8d 013c
00000310: 48af 52bc 33ea 2d3c 0ed6 da3b f707 cfbc
00000320: af40 ba3c 01f2 babc fea9 d8bc 1100 80b9
00000330: a967 903c 6679 c0bc 81dd b73c 80a8 88b9
00000340: bcab 9b3c 1d7b d63c bf54 b33c 3e5b 4fbc
00000350: ff66 f2bc a006 193b beb4 293c 11cd 49bc
00000360: 60e2 3abc 18a1 943b 10f3 b43c 53c9 ed3b
00000370: 2c2c 803b 863a a9bb dbef 7ebc 0ed3 27bc
00000380: b9b4 973c 8211 9dbc f784 efbc dd2d e33c
00000390: 7c7e d8bb 51f9 b9ba 767f 903c bad8 9c3c
000003a0: 92a1 42bc 5d4d a7bb 2301 3cbc e85e 9bbc
000003b0: 000f 003d 4f9d f53c 37ba 493a 6da0 38bc
000003c0: 426e 873b 7cc7 b5bc 2c7b dfbc b47b 90bc
000003d0: b008 3ebc ba27 ec3c 6d5a f5bb 84ed 8bbc
000003e0: e410 8e3c 08f2 4ebc dff9 503b 75df fc3c
000003f0: 0806 0a3d a0cb d0bc d5e2 bf3b 9d64 f63c
-0.025218304 0.015061829 0.016245238 0.021826109 -0.010039723 0.009592684 -0.01650267 0.025688523
0.02402013 0.00821067 0.023999058 -0.025743395 0.010587875 -0.008970287 0.01089658 0.025582483
-0.023072446 -0.012823854 0.018576402 0.015227922 -0.012341558 -0.00033339296 0.007503493 -0.011485459
0.019581318 -0.02446091 0.0059565715 -0.016065262 -0.01909001 -0.0112666935 0.0034982963 0.011307613
0.01887184 -0.013480334 0.023917912 -0.0036467907 -0.012756589 0.017835787 0.02768113 -0.0091357
-0.0033714469 -0.019922465 0.01700059 0.0055170623 0.0087254215 -0.0016900058 -0.0074298913 0.023253439
-0.011201046 -0.012888031 -0.031507265 -0.010335718 -0.024589026 -0.016476199 -0.022701109 -0.018825447
-0.019892706 -0.02923294 -0.025947839 0.025862169 -0.02380852 -0.007176351 0.013544306 0.003899341
0.024304189 0.016689008 0.011858716 -0.020937458 -0.02177336 -0.006588976 -0.0125199845 0.005167155
-0.023874467 -0.010810817 -0.01030161 0.0046915226 -0.020473575 0.020965159 -0.024623744 -0.02851386
-0.023297373 0.0052577797 0.022240216 0.026042547 0.015623761 -0.0149498945 -0.017383235 0.030100163
-0.006267412 0.00019561224 0.018695652 -0.0037624175 0.0243538 -0.007212707 0.00989369 -0.018742241
0.024929587 0.009942184 0.008522674 0.023406219 0.010429095 -0.020456333 0.025576003 -0.019800054
-0.020419735 0.008631794 -0.009210516 0.01797308 -0.034233604 -0.021312367 -0.015020691 -0.025529996
-0.00589825 -0.020547582 0.02209069 0.025501736 -0.017284881 -0.014871326 0.015710065 0.02117879
0.006039333 0.015995597 -0.00092120236 -0.020292118 0.023743311 0.025390768 -0.026577704 0.014567318
-0.012032177 0.022941384 0.021806166 0.02139138 0.01691724 -0.0028857824 -0.01671086 0.019102124
0.0045944043 -0.02250305 0.028657636 -0.017858073 -0.020248394 0.015720032 0.021212129 -0.015251335
0.0023381037 -0.003004267 0.008802464 -0.02258084 0.025122495 0.015178457 0.016325803 -0.012957586
-0.004741981 0.0038804084 -0.02326141 0.012745538 0.02790121 -0.029545577 -0.019148756 0.017152797
-0.023779921 -0.0015046822 -0.023498086 -0.019884055 0.019805552 -0.023088032 -0.00044457993 0.030021088
-0.017424893 0.012621856 0.008669358 0.021080352 -0.014959008 0.02049815 -0.01483797 0.021048706
0.0015009304 0.014385364 -0.0069351657 0.0012076343 -0.016863203 0.03509241 -0.020704903 -0.014956705
0.001539234 0.013840191 0.009778391 -0.027711771 0.023507211 0.0020982206 0.002359163 -0.0028101394
-0.026808 -0.02003319 0.0010876401 0.007907209 -0.012859173 0.0106149195 0.0066783493 -0.025272353
0.022735922 -0.022820475 -0.026448246 -0.00024414112 0.017627554 -0.023495387 0.022444488 -0.00026065484
0.019002788 0.026181752 0.021890996 -0.012656031 -0.029590128 0.0023349896 0.010358034 -0.012316958
-0.011406511 0.0045358054 0.022088557 0.0072566657 0.0039115157 -0.0051644472 -0.015560116 -0.01024319
0.018518792 -0.019173387 -0.029238207 0.02773183 -0.006606875 -0.0014188682 0.017638903 0.019146312
-0.011879342 -0.005105658 -0.01147488 -0.018966153 0.031264305 0.029982237 0.00076952897 -0.011268717
0.004133017 -0.022189848 -0.027280413 -0.017637111 -0.011598751 0.028827537 -0.0074875862 -0.01708103
0.017342038 -0.012630947 0.0031887216 0.030868271 0.033697158 -0.025487721 0.005855898 0.030077273

final_layer.conv_classifier.bias f4 [4]
00000000: 44bb 90ba 9d25 b8bb 496f 013c a17e 14bb
-0.0011042138 -0.005619718 0.007900068 -0.0022658485
