models/ShallowFBCSPNet_persons1_lr0.001_wd0.1_bs64_acc0.2500.pth (torch, 383670 bytes, 9 tensors)

conv_time_spat.conv_time.weight f4 [40, 1, 25, 1]
00000000: ba1a 0b3c 2dd4 00bc 106b 95bc 0e29 85bd
00000010: fd49 c73c 6af4 e7bc 7f44 323d 6b7d a43b
00000020: 49dc adbc ceb0 9b3b 6ed7 103b 3a72 823d
00000030: d93d 3d3d c8f6 06bc 0abb a63b ec5f 51bd
00000040: 92a8 16bd 969f 15bc 36c8 293d 7c6f 2bbd
00000050: 3c23 c4bc 6738 86bb 0fc6 93bd 499a 923d
00000060: 1b57 8b3d ee25 26bc 74ac 1c3d 1ede 99bd
00000070: c036 f2bc ab87 6fbd 6af6 debb 3af6 353b
00000080: dcd6 52bd c92a 5d3d 7a25 46bd 1cbe 7ebd
00000090: d5ac 1ebd 29de 2c3d 1b5f 23bd 6509 2dbc
000000a0: ead8 b2bc 1136 a5bd 3810 173d 0781 53bd
000000b0: a4a7 3ebc 87d1 c5bc 935e 63bd b006 18bd
000000c0: 0785 10bb 525d 503d b5fb 54bd 359f 92bb
000000d0: c816 cf3b e0c4 203d 9fbf 4ebd e782 7c3d
000000e0: 3d46 29bd c2a5 083d 9cbb c3bc be56 9b3b
000000f0: 5bf6 78bd fa47 84bc 0670 f43b 3c2b 49bc
00000100: 6631 60bd 5be9 003b 6e0c 38bd 29b9 ec3b
00000110: 08e4 17bd 0d1a e9bc 369e 61bd d41d 353d
00000120: 3c24 a03c d88d 0bbd f358 ecba 5bec 51bd
00000130: 4ac3 1bbd 8a94 da3c ade2 04bd f836 39bd
00000140: 40eb 9abd 73a9 1bbc 4885 47bd a905 39bd
00000150: 8215 ec3c bc12 dd3a eb3d 473d 4d40 9a3d
00000160: 516b 2abd 658f 9e3c 2fa6 233d efc7 1f3d
00000170: 53ac 713d 90d4 243d fe9d 2fbd bf9a b03b
00000180: 08ae 593c d1d2 96bd 8399 c2bc b479 1bbd
00000190: 2494 3d3d c213 98bd 1fbb 05ba 6a20 50bc
000001a0: 3497 df3c 8708 7b3d 51e4 a43d 7d16 15bd
000001b0: 9cae 9a3d d28b 893d 28fa 633c 1bb4 bf3c
000001c0: 249c 323d 322e 673d 155b ad3c 320a 333d
000001d0: 180d 9f3d 1d09 5e3d e939 57bd 6978 9ebd
000001e0: e050 343d 8f9c 9cbd f848 043d 7ae5 6b3c
000001f0: ba66 a2bd d125 7abd 1755 86bd 37ea 0c3d
00000200: 9736 b73c e145 5dbd adf7 893d 553c dbbb
00000210: a93f 99bc c06f 5e3c 8b7e 79bd f58d 463b
00000220: d27e d8bc a381 af3d fe1b ed3a aed7 54bd
00000230: 89dd b43d ba49 c6bc 291f 0c3d 14de 9a3d
00000240: 573e 32bd d74b 7b3d 9c22 3cbb 8174 583d
00000250: 7f27 613d 6013 d43b b78e 633c 9918 ef3a
00000260: b0cd d53c 5f2b 983c 4469 7e3d aeef 62bd
00000270: 3c07 5e3d cc58 243d f827 53bd 497c d2bc
00000280: f5ec 4b3d 3cd6 5fbd 0434 313d 0067 88bd
00000290: 6b3f 8e3d 8af0 cabc 0dd0 9a3d c178 76bc
000002a0: 6c91 5dbc e48c f8bc b9c5 7b3d 5a05 533d
000002b0: c191 c43b f9ba 243d 1082 a43d 8c54 673d
000002c0: 9017 883c 7a57 793d 24cd 7cbc cf66 9a3c
000002d0: 92cf 68bd e10e 95bd 1278 17bd ffa5 993d
000002e0: f3c3 03bc 7601 2fbd e804 003d b44e 67bc
000002f0: 897a 7b3d db9a 713d 23b0 3dbd afc9 643d
00000300: 54e4 a83a 98ab b2bd a273 8abd 49ab 27bd
00000310: faa8 cebc bed1 77bd 372b 8cbd 2312 fbbb
00000320: 813b 4c3d 2a0d 36bc 3250 81bd 3e7c 6abd
00000330: e61c 82bc 9d84 fbbc 47e9 063d e742 803d
00000340: 0434 003c 5a78 33bd 3df6 9c3c 780d 9cbc
00000350: b539 c83c 22ee a3bc 75c2 0dbd 9a91 f63b
00000360: 3566 633d a5df f53c c8bc 133d fbba 7b3d
00000370: 93dd 563d 310b 0e3c 3c7a c2bc 92fc 893d
00000380: 4ab6 753c 74f2 5d3d 7f5a 2d3d 0ee3 4f3d
00000390: 25d3 89bd 8315 37bd 9872 29ba 1c02 4b3d
000003a0: 60c8 95bd 0a09 e83c 8b93 a8bd d548 1b3d
000003b0: a4b4 673d 71c2 2e3d 68b7 8abd 502b 913d
000003c0: d424 ea3c 4b44 573c 184c 82bd d1e7 123d
000003d0: b341 b33c efba 6bbd 1d77 2cbd 63b9 09bd
000003e0: 078a ac3c 63ec b73c 5dd6 b23d f1b6 f2bc
000003f0: 9b16 75bd 15c8 773c 36c1 b3bc de87 2cbd
0.008490259 -0.007863087 -0.018239528 -0.06501971 0.024327273 -0.028314788 0.043522354 0.005019834
-0.021223204 0.0047513014 0.0022101062 0.06369443 0.04620156 -0.008237548 0.0050882148 -0.05111687
-0.036781855 -0.0091322865 0.0414507 -0.041854367 -0.023942582 -0.004096079 -0.07215511 0.07158334
0.068037234 -0.010140879 0.0382504 -0.075130686 -0.029567122 -0.058478992 -0.006804277 0.002776517
-0.051474437 0.05399588 -0.048375584 -0.06219302 -0.038739044 0.042204056 -0.03988562 -0.010561322
-0.021831948 -0.08066953 0.0368807 -0.051636722 -0.011636648 -0.024147762 -0.055510115 -0.037115753
-0.0022051947 0.050870247 -0.05199786 -0.0044745454 0.0063198544 0.039250255 -0.050475713 0.061648276
-0.04132675 0.033361204 -0.02389317 0.004740565 -0.060781818 -0.016147602 0.0074596433 -0.012278374
-0.05473461 0.001967034 -0.04493373 0.0072242212 -0.037082702 -0.028454805 -0.055082522 0.0442179
0.019548528 -0.03407082 -0.001803188 -0.051250797 -0.03802804 0.026682157 -0.032442737 -0.045218438
-0.075644016 -0.009500849 -0.04871109 -0.045171414 0.02881885 0.0016866545 0.048643034 0.07531796
-0.04160625 0.019355485 0.039953407 0.03900903 0.05900223 0.040241778 -0.042875282 0.005389541
0.013286121 -0.07364429 -0.02375484 -0.037957862 0.046283856 -0.074256435 -0.00051014306 -0.012703041
0.027293779 0.06128743 0.080513604 -0.0363984 0.07552835 0.06716122 0.013914622 0.02340131
0.04360594 0.05644054 0.021161595 0.043710895 0.07766169 0.05420791 -0.05254546 -0.0773781
0.04402244 -0.07647049 0.03229615 0.014397973 -0.0792975 -0.06107122 -0.06559198 0.034403052
0.022364898 -0.05402172 0.067366935 -0.0066905417 -0.018707113 0.013576448 -0.060911696 0.0030297015
-0.02642766 0.08569648 0.0018090007 -0.0519635 0.08831317 -0.024205077 0.034209404 0.07561889
-0.043516483 0.061351623 -0.0028707152 0.05284548 0.054969307 0.0064720362 0.013889006 0.0018241584
0.026099056 0.018575368 0.062112108 -0.055404358 0.054206118 0.040123746 -0.05155179 -0.02569403
0.049786527 -0.05464767 0.043262497 -0.06660271 0.0694569 -0.024772901 0.07559214 -0.015043438
-0.013523441 -0.03034062 0.06146786 0.051518776 0.0059988205 0.040217374 0.0803262 0.056477115
0.016612798 0.06087444 -0.015429769 0.018847851 -0.05683858 -0.072782286 -0.036979742 0.07502364
-0.008042323 -0.042726003 0.03125468 -0.014117885 0.061396156 0.058985572 -0.046310555 0.055856403
0.001288543 -0.08724135 -0.067603365 -0.040934835 -0.025227059 -0.06050276 -0.0684418 -0.007662074
0.049861435 -0.011111537 -0.06314124 -0.057247393 -0.01588292 -0.030702883 0.032937314 0.062627606
0.0078249015 -0.043815948 0.019160384 -0.019049391 0.02444158 -0.020011012 -0.034609277 0.0075246813
0.055517394 0.030013869 0.036068708 0.061457615 0.052457403 0.00866966 -0.023739927 0.06737627
0.014997074 0.0541863 0.042322632 0.050753646 -0.06729726 -0.04469825 -0.0006463914 0.04956256
-0.07313609 0.028324623 -0.082312666 0.037911255 0.056568757 0.042665903 -0.06773263 0.07088339
0.028582014 0.013138841 -0.0636217 0.03586561 0.021881914 -0.05755132 -0.042105783 -0.033624064
0.02106191 0.022451585 0.08732293 -0.029628249 -0.05983601 0.015123387 -0.021942716 -0.04212176

conv_time_spat.conv_time.bias f4 [40]
00000000: b54c 8cba 56ce cf3b 7cae 06bc 89fd 6abc
00000010: d2ea 193c 38ce 163c 8044 45bb d2e3 c1bb
00000020: c194 58bb e7e1 9a3b e532 233a db7e 2bba
00000030: 41a4 9039 fe35 7a3a d310 073b 4a6d a5bb
00000040: f057 193a 993a fabb 3287 14bc a9a7 b1bb
00000050: b0a1 82bc 03d4 05bc b718 26bb 5fb4 eaba
00000060: 90c1 0e3c 959b 16bc 9b54 b23a f67d 833b
00000070: 7eef 31bc 8691 b5bb 2a98 ffbb 559b c9ba
00000080: 28aa ff3b 524b 32bb 9b12 a33b 09df b33b
00000090: 944f ca3b 3694 8f3b 73a2 233a dd58 22bb
-0.0010704013 0.006341736 -0.008220311 -0.014342674 0.009394364 0.00920444 -0.0030100644 -0.005917051
-0.0033047649 0.0047266367 0.00062255404 -0.0006542035 0.000275882 0.00095447886 0.0020609393 -0.0050484287
0.00058495905 -0.00763638 -0.009065436 -0.005421598 -0.01594624 -0.008168223 -0.002534432 -0.0017906538
0.008713141 -0.009192367 0.0013605537 0.0040128184 -0.010860322 -0.0055410294 -0.007800122 -0.0015381376
0.0078022666 -0.002720554 0.004976583 0.0054892343 0.0061740372 0.004381682 0.00062421634 -0.0024772205

conv_time_spat.conv_spat.weight f4 [40, 40, 1, 44]
00000000: 590d 05bd cc54 05bc 13e4 a5bc 3690 5dbc
00000010: 9ac1 cbbb e52b 41bc 11e4 cc3c 00cc 09bd
00000020: 27be 07bd 02a2 5b3b 6dd2 c4bb 290e a6ba
00000030: 7758 b43c 49d1 9f3c 9f42 6abc 65cc 5dbb
00000040: ef54 0abd 288d 1abd 0be4 1abd deb5 023d
00000050: 4f59 ff3c 2ca1 243d 8f67 093d 66f9 d73c
00000060: 83b5 663c e6c7 1c3d 2a62 29bd e152 aabc
00000070: 0462 263c 6874 7cbc b75c 793c 7986 e3b9
00000080: 56d5 863c aee0 75bc 3329 0e3c bd32 a03c
00000090: dd4a 163c e645 edbb 41de 15bd cfaf a1bc
000000a0: 67a5 8d3b b560 5abb c72d ccbc d380 313d
000000b0: 8ccf 823b a7d5 10bd 961b f33b 6e28 663b
000000c0: 1a57 debc 9f10 ddbc 6e99 923b 7595 d3bb
000000d0: 57da fa3c fff2 b63c 245f 173d 6a97 083b
000000e0: b248 98bc c1d2 d33c 6f26 973c bea2 883c
000000f0: 4b2d 93bc f306 2f3d 71ea db3b 97e1 16bd
00000100: bc2e 02bd 5402 1b3d 509a ed3b 3a0a ec3c
00000110: a6af 853b a8a6 16bd 6df5 ca3b 4eaa 8dbb
00000120: 98bc 093d f635 883a 02be a4bc effc 95bc
00000130: 830d 1c3d 2240 d2bc 6c16 08bc 8ec3 9c3c
00000140: 785a f93c ae31 953b 6e8d 4cbc 3f27 02bd
00000150: 8992 c23c 5642 353c 49a4 943c ae05 d23c
00000160: 28bc 203d 7593 a7bc 49ed e43c a2eb bbbb
00000170: caee 303b f2ae 19bc 3cbd e6bb 6a76 cdbc
00000180: 42d1 fdbc 23eb f23b b6a5 883c 671a 0ebd
00000190: b599 dd3c fc19 eebc 5d5a 003c 496f 11bd
000001a0: 37b2 043d 32f1 9c3c 2c79 0f3d 43ec e13c
000001b0: 1e69 97bb b828 09bd 6d12 9abc 2944 5ebb
000001c0: c0b7 a3bc 025d e03c d678 723b e55b 7b3c
000001d0: e075 083d a113 ecbc d3e1 9d3c c638 80bc
000001e0: c9cd ebbb 683b 3ebc f9fa 193d 2ac1 293c
000001f0: b685 d9bc 7f1a a5bb f70d 3abc baf4 913c
00000200: 49cd 7f3b 4249 1e3b af1a 3a3c b9df 85bb
00000210: 7b9e 063d e4ea 0aba c8ca 27bd dde8 933c
00000220: 49e2 8ebc 155c 403c 9e26 09bd bef7 523d
00000230: 61f2 7fbc 8855 a93b 04aa 04bb 7f6b 57ba
00000240: 9f5c 9e38 e45a c4bc 3bde 313d 7238 be3c
00000250: 431c a9bc 68f6 33bc d998 4e3c 6f40 01bd
00000260: 31bc 15bd ce3b ee3c 94da afbc d6b1 28bd
00000270: 3a6d 483c 4557 f9bc f3bf 08bc cbc2 8c3c
00000280: cc78 163b d576 ca3b f5bc 953b 7052 193b
00000290: 3de3 59bc aa30 e03c 521c 31bc 3b1a c4bc
000002a0: 5605 80bc c35f 3fbd c106 75bc 95b5 1ebd
000002b0: a530 bb3c 9f30 99bb f5bb 583c 6dbb 09bc
000002c0: daa1 0cbd 0af1 853c bcbd 29bd d1ff 84bc
000002d0: 0879 03bd b86d 2c3d 6a79 ad3c 43cb 7ebb
000002e0: 339d b4bb 0d4e 2a3d 0656 523c 8003 13bd
000002f0: 845d 053d ee21 00bd 0d89 103d 3ec1 ea3b
00000300: 02cf 173d aab7 25bc 9047 38bc 998a 3fba
00000310: a35e a13c 1f67 033d cfb0 f13c f2a6 1f3d
00000320: ea18 01bc 1174 93bc 9703 b4bc 9be9 e5ba
00000330: 7aac f53c 413a 053c 0d48 183d 1d9c d23c
00000340: 2c1d 03bd 0548 c5bb 45e2 b3bc 2adc c83c
00000350: d075 e7bb bd3f d13c 25e3 ee3c 7be4 dabc
00000360: 5728 413c dd2d 28bc dbfa 8dbc 559a 303c
00000370: e0ca 9e3c af1f aebc b19c 26bd c714 443c
00000380: 6be1 133c 6a31 02bd bbcc 5c3c 14f9 0e3c
00000390: 9562 f8b8 b115 1dbd b9e8 aebc e8a3 0e3c
000003a0: fab2 f33c e5f0 623c d6d5 1e3d 5c79 a3bc
000003b0: 4d33 fa3c 5765 68bc 0a74 8a3a 2502 b03c
000003c0: 280b 89ba 63df de3c fea1 0bba 3196 e73c
000003d0: 9de4 6abc 8a61 c13c bb42 21bd 5021 943c
000003e0: 0ba9 1abd 19a5 a6bb 7df6 003d d727 023d
000003f0: f1a0 dc3c 85b6 113d 57ae 0a3d bb4b 39bd
-0.032483432 -0.008137893 -0.020250356 -0.013523152 -0.0062181475 -0.01179025 0.025011094 -0.033641815
-0.033140328 0.0033513312 -0.00600653 -0.0012669015 0.02201484 0.019508975 -0.01429811 -0.0033843752
-0.033772405 -0.037732273 -0.037815135 0.031911723 0.031170515 0.040192768 0.033546027 0.02636404
0.014081362 0.038276576 -0.041353382 -0.020791473 0.010155205 -0.015408613 0.015219859 -0.00043397004
0.016459148 -0.015007181 0.008676815 0.019555444 0.009173122 -0.0072409986 -0.03658891 -0.019737152
0.004322696 -0.0033321802 -0.024924172 0.043335747 0.0039920267 -0.035360005 0.00741906 0.0035119313
-0.027141143 -0.026985465 0.0044738567 -0.0064570257 0.03062169 0.022332666 0.036955968 0.0020842203
-0.018589351 0.025857331 0.018450944 0.016679164 -0.017965933 0.042731237 0.006711297 -0.036836233
-0.03178285 0.037844017 0.0072510615 0.02881347 0.004079777 -0.03678003 0.006193808 -0.0043232804
0.033627123 0.0010392058 -0.020110134 -0.018309085 0.038098823 -0.025665347 -0.008306127 0.019136216
0.030438647 0.0045530414 -0.012484891 -0.03177571 0.023751514 0.011063179 0.018144744 0.025637474
0.03924194 -0.020456055 0.027945178 -0.0057348767 0.0026997798 -0.009380089 -0.0070416015 -0.025080878
-0.030983571 0.0074132844 0.01668058 -0.034693148 0.027050832 -0.029065125 0.007834044 -0.03550652
0.03239652 0.01915798 0.035027668 0.027578479 -0.0046206852 -0.033486098 -0.018807614 -0.0033915138
-0.01998508 0.0273881 0.0036998293 0.015341734 0.03331554 -0.028817954 0.01927272 -0.015652072
-0.0071961624 -0.011610843 0.03759286 0.010360995 -0.026553016 -0.005038559 -0.011355869 0.01781689
0.0039032272 0.0024152552 0.011358901 -0.0040855077 0.032865983 -0.00052992837 -0.04096487 0.018055374
-0.017441886 0.011740704 -0.033484094 0.051505797 -0.0156217525 0.005167667 -0.0020242939 -0.0008217617
7.551279e-05 -0.023969121 0.043424826 0.023220275 -0.020643359 -0.010984041 0.012609684 -0.03155559
-0.036556426 0.029081251 -0.02146653 -0.041185223 0.012233073 -0.030437121 -0.0083465455 0.017182728
0.0022960184 0.0061787167 0.0045696446 0.0023395084 -0.013298807 0.027366955 -0.010809975 -0.023938289
-0.015627544 -0.046722185 -0.014955224 -0.03874739 0.022850344 -0.0046749855 0.013228406 -0.008406502
-0.03433404 0.016350288 -0.04144071 -0.016235264 -0.032097846 0.042096823 0.021176059 -0.0038878478
-0.0055119037 0.04157834 0.012837892 -0.03589201 0.032559887 -0.031282358 0.03528695 0.0071641495
0.037062652 -0.01011459 -0.011247531 -0.00073067244 0.019698447 0.032080766 0.029503254 0.03897757
-0.007879475 -0.01799968 -0.021974368 -0.0017540933 0.02998947 0.008131565 0.037178088 0.025709206
-0.032010242 -0.0060205483 -0.02195848 0.024519045 -0.007063605 0.025543088 0.029161045 -0.026720276
0.011789403 -0.010264841 -0.017331531 0.010778983 0.019383848 -0.021255342 -0.040676776 0.011967844
0.009025912 -0.031785406 0.013476546 0.008726377 -0.00011843924 -0.038350765 -0.021351205 0.0087060705
0.029748429 0.013851379 0.03877815 -0.01995533 0.03054204 -0.014184318 0.0010563147 0.021485398
-0.0010455595 0.027206128 -0.0005326568 0.028269859 -0.014336732 0.02360608 -0.03937028 0.01808229
-0.03775887 -0.005085599 0.03148507 0.031776275 0.026932212 0.035574455 0.03385767 -0.045238238

bnorm.weight f4 [40]
00000000: 37bd 803f 0bcf 803f 7588 803f 427f 823f
00000010: 2a78 7f3f 2eb8 813f 44ac 803f 54f8 813f
00000020: a3dc 813f 92a9 803f 3fcc 803f c347 7f3f
00000030: fd3c 823f 071c 813f 7e25 823f c7a3 803f
00000040: 38cf 803f 6a87 813f 6a80 813f b132 823f
00000050: 4269 7f3f 9d45 813f 45ef 803f d56b 813f
00000060: 6367 803f b249 823f 2233 813f e75d 813f
00000070: e2e9 803f 0c2b 803f 4882 823f e386 813f
00000080: eeb4 803f 4777 823f 13b4 803f 9c48 823f
00000090: 0858 803f f826 803f a99c 813f 3ca2 813f
1.0057744 1.0063184 1.0041643 1.0195086 0.9979273 1.0134332 1.0052571 1.0153909
1.0145458 1.0051749 1.0062331 0.99718875 1.0174862 1.0086678 1.0167692 1.0049981
1.0063238 1.011945 1.0117314 1.017172 0.99769986 1.0099369 1.0073019 1.0111033
1.0031551 1.017874 1.009373 1.0106782 1.0071375 1.0013137 1.0196009 1.0119289
1.0055215 1.019265 1.0054954 1.0178409 1.0026865 1.0011892 1.0125934 1.0127635

bnorm.bias f4 [40]
00000000: e2d4 7cbb 774a 0d3c e51e fabb 3d43 cb3b
00000010: 365e afbb 6f9e 573c d62e e2bb 776b b03a
00000020: 9a50 b738 3393 383c 30cc 8fbc 769b 8ebb
00000030: 8d2f 06b6 dae0 cebb b8d2 45bb a31d 30b8
00000040: 4528 923c 332a c6bb edf5 d93a 6085 9dba
00000050: 0e7e bebb 7855 c93a a6b8 a0bb a901 6ebc
00000060: ed8a 26bc 870e 933c 1e3f ab3b 66b4 8a3c
00000070: b6af 593c 811d dabb a5d5 853c 7764 50bc
00000080: 8476 7bbb 17e4 e7bb ef4c ffbb 751a e2bb
00000090: de5d 24b9 87c5 853c 0142 b93c a799 50bc
-0.0038579036 0.008623711 -0.0076330774 0.006203084 -0.005351807 0.013160332 -0.006902556 0.0013459761
8.741133e-05 0.011265564 -0.017553419 -0.0043520285 -1.9995234e-06 -0.0063134255 -0.0030185413 -4.198927e-05
0.017841468 -0.006047511 0.0016629078 -0.0012017898 -0.0058133667 0.0015360555 -0.0049048243 -0.014526763
-0.010164958 0.017951263 0.00522603 0.016931724 0.013286522 -0.006656349 0.016337225 -0.012719265
-0.0038370201 -0.007076751 -0.0077911536 -0.0069001266 -0.00015675227 0.01632954 0.02261448 -0.012731946

bnorm.running_mean f4 [40]
00000000: 0be5 b4ba 236d ab3c d090 333b b386 8cbc
00000010: bbbd 223c 5e85 b8bc 5b9b 3bbc 8af9 acbb
00000020: 60a0 8c3b 06de 3f3b 2618 babb 0034 813a
00000030: ea22 303c 10bf 85ba 7504 2f3c 2465 5fbb
00000040: 729a 5cbc b1a9 4ebc f2e6 013c 5889 2abc
00000050: b017 eeba 30a4 21bc a2be 63bc 027a 083b
00000060: 8030 7d3c a06d ea3b d45e 2d3a 37bc 3c3b
00000070: 1991 f2bb b178 7d39 6573 533c f6e8 20bb
00000080: 3624 95ba a794 853b 9a47 4bbc ba1b fbbb
00000090: c136 b4bb c394 b43b 05df 35bc 19e2 ed3a
-0.001380117 0.020926064 0.0027399547 -0.017154073 0.009932931 -0.022524532 -0.011450614 -0.005278771
0.004291579 0.0029276623 -0.0056791482 0.0009857416 0.010750512 -0.0010204036 0.010682215 -0.0034087384
-0.013464557 -0.0126137 0.007928597 -0.010408722 -0.0018165018 -0.0098658055 -0.013900431 0.0020824675
0.015453458 0.0071541816 0.0006613557 0.0028798708 -0.007402551 0.00024172921 0.01290593 -0.0024552918
-0.001137859 0.0040765586 -0.012407208 -0.0076632174 -0.0054996912 0.005510898 -0.011100535 0.0018149047

bnorm.running_var f4 [40]
00000000: 4b30 be3c 4371 be3c a661 c33c 9570 c03c
00000010: 533c bd3c 6832 bf3c 4496 be3c 5521 c33c
00000020: 9ac7 bd3c 17bf bf3c 7a5b c23c f2c3 bc3c
00000030: 1ea9 be3c a913 bf3c 419c c43c 2e30 bd3c
00000040: 485f be3c e0bd bd3c 81bf c33c d646 be3c
00000050: 834c bc3c 6bc1 c23c 58f4 bc3c 47ea bb3c
00000060: 3751 bf3c 8b0c bf3c 88ae bd3c 428a c03c
00000070: acb2 bd3c 5868 bb3c 2697 bf3c 62dc c13c
00000080: 32c4 c13c 8ce5 c23c 4847 be3c 3a70 c13c
00000090: 82c2 c13c 7622 bc3c 1710 bf3c 03e0 c03c
0.023216387 0.023247367 0.023850273 0.023491183 0.023100054 0.023339465 0.023265012 0.023819605
0.023166467 0.023406548 0.02372526 0.023042653 0.023274 0.023324804 0.024000289 0.023094263
0.023238793 0.023161829 0.023895027 0.023227137 0.022985702 0.02377387 0.02306573 0.02293886
0.023354156 0.02332141 0.023154512 0.023503426 0.023156486 0.022876903 0.023387503 0.023664657
0.023653124 0.023791097 0.023227349 0.023613084 0.023652319 0.022965651 0.023323102 0.023544317

final_layer.conv_classifier.weight f4 [4, 40, 144, 1]
00000000: d9ee e63c 5276 99bc da75 b53c be36 bb3b
00000010: 8ca9 e23c 0e63 c33c 4037 783b 80c8 0e3c
00000020: 2b68 82bb 93c3 8a3b 451e daba 764a 03bb
00000030: cb6b a4bc c221 5c3c fee0 8bbc 9241 873b
00000040: f22c 45bc fbbd 583c 6265 9d39 9583 033b
00000050: fb49 e23a 2cbf b43a b54c 223c 8ff0 fe3c
00000060: 1ed1 9fbc 7929 c53c 9a8d b6bc d1f8 d4bc
00000070: dc2b 41bc cac3 f9bc 4364 d6b9 a3d5 b2bc
00000080: 45e6 10bc a0cb d73c c5c5 2a3b 88c6 e23b
00000090: 6b3b 7cbb a04e 493c ed62 c53c 4f55 3bbb
000000a0: 976d debc 5f19 503c ca98 2cbc cce1 e03c
000000b0: 0267 ddbc 7d9a b8bc 9de7 87bb acd8 2e3b
000000c0: 9ee3 9fbc 88cd aabc aefa 9d3c de5d 9fbc
000000d0: 6914 6b3b 1ee7 5abb f9fa a4bc 035f 713c
000000e0: d0b1 13bc 74f0 66bb b187 e93c e982 b2bc
000000f0: 978b ba3b a878 89bc a838 04bc 0834 62bc
00000100: e226 c8bc 237d 983c a175 483c e5a9 2d3b
00000110: beb5 8abc 2c09 ccbc fb88 14bd 1d57 373c
00000120: a6cd 12bd e9da d7bc cd63 8abc 1eb5 683c
00000130: 40e7 973c c01a 9d3c b974 3d3a b169 f1b8
00000140: 8d42 5ebb 55f8 c33b 6935 a8bb 19d1 02bd
00000150: 3100 07bd 200d f3bc 4c3a 503c 04a3 013a
00000160: a833 993c 0a59 18bc aabb 1abc dfe6 223c
00000170: 67d5 49bc cba4 babc 3f7e e4bc b2aa db3c
00000180: 5123 7e3c 1b8e bcba 66ce 95bc a1e3 36bb
00000190: 3d75 e63c f9d9 a43c df36 45bc 61d2 81bc
000001a0: 6b03 97bc aca3 f63a be7c b33c bf08 453c
000001b0: 2842 7fbc b241 52bc 4e22 86bc 58db e9bb
000001c0: 0ea0 8f3c bf62 743c d914 bbb9 60d9 b63b
000001d0: d136 80bc cfc7 d23c 7363 d6bc 3a64 de3c
000001e0: 0d26 b1bc 5adb c63c 231d 593c 61b7 003d
000001f0: 2c2d bdbc dc4b 70bc 3ae0 df3c d0de b0b9
00000200: edd3 a5bb 0fd7 bdbb d683 d83c 02f2 c63c
00000210: 47d6 f83c 5607 a53c e8a1 c13c 8e6b 733c
00000220: 2eef ea3c edbd a73b 8db0 ecba 0603 6e3c
00000230: 5610 5ebc b4e9 473b 5f1c a2bc ffb9 f53c
00000240: 7823 dbbc b705 413c 468d 703c ae1f bbbb
00000250: a4c7 a03c 4153 aabb 8a23 69bb 1682 cdbc
00000260: bb2d e8bb 533b 303c ab77 143c 0fac 9fbc
00000270: ed48 cb3c 0827 f6ba 3cb5 5ebb 2dd3 c5bb
00000280: 2c5d da3b 602a fbbc 3a97 19bd 624c a33a
00000290: 8a7e 543c d1c9 ebbc 9e67 723c 007d c4bc
000002a0: 2942 9abc 62ef b1bb 2040 953c 2186 04b9
000002b0: c560 1e3c 7210 9fbc e0a8 79b8 58ac 0dbc
000002c0: f8dc a7bc 6dbd c5bb cf6a e9b8 00f5 dfbc
000002d0: 89fe 44bb df8c 5a3c 88b8 933c 64ea 993b
000002e0: 1f97 36bc fde3 e2bc 9656 f6bc 3725 9ebc
000002f0: 6027 fc3b cc22 74bc fa49 3dba f950 1ebd
00000300: ef3c 02bd 69a2 cbbb 5bfd 3bbc f2c2 babc
00000310: 02f4 12bd 9b03 12bc af69 113c c6bb a3bb
00000320: 08f6 2a3c 1106 063c 4810 15bd 7cab c4bc
00000330: 781e 21bd 53f2 67bc 1afe 9c38 729b 753c
00000340: 5e68 e7bc de03 2abd f3ab 4fbb 0bbd f5bc
00000350: d48c 713b aeba d0bc 74ab f4bc e951 edbc
00000360: 8d87 72bc 3942 3e39 508f d4bc dccd 13bb
00000370: 9c18 5d3c 5b66 ecb9 c2ab 01bb 1665 153c
00000380: b84a c2bc bddc 19bd 1633 24bc e579 6f3c
00000390: 91cb 09bd f345 323c 2786 903b 5cf9 0bbd
000003a0: 86f6 05bc 34d0 3e3c 5e13 5ebc 1969 8f3c
000003b0: 875f c6bc 3b8e bebc e85f 08bd 166b 423a
000003c0: 7284 203c 69ac 173c 9825 0fbd 6f91 8bbc
000003d0: 6cdc 22bd 1b5f 41bc 747c 0fbd d90e 3ebb
000003e0: a3f2 803b c922 9d3c 9622 d2b9 fc4f cf3c
000003f0: ac2c efbc 402d 11bd 8d82 4b3c 3417 00bc
0.028190063 -0.018733177 0.022150923 0.005713313 0.027668737 0.023850944 0.0037874728 0.008714795
-0.003979703 0.00423474 -0.0016641101 -0.0020033396 -0.020070931 0.013435783 -0.017075058 0.0041276896
-0.012034642 0.013228889 0.0003002091 0.0020067443 0.001726448 0.0013789884 0.009905984 0.031120567
-0.019508895 0.024067627 -0.022284318 -0.025997551 -0.011790242 -0.030488867 -0.00040891962 -0.021830386
-0.008843963 0.026342213 0.0026057821 0.0069206394 -0.0038487564 0.012286812 0.024095023 -0.0028584783
-0.027151866 0.012701361 -0.010534475 0.027451418 -0.027026657 -0.022534603 -0.0041474835 0.002667944
-0.019517716 -0.020849958 0.019284572 -0.019453939 0.003587032 -0.0033401917 -0.020139204 0.014732125
-0.009014562 -0.0035238536 0.028507086 -0.021790938 0.00569291 -0.016781166 -0.0080701485 -0.0138063505
-0.024432603 0.018614357 0.012235076 0.002649897 -0.016932365 -0.024906717 -0.036263447 0.011190203
-0.035840653 -0.026349502 -0.016893292 0.014203338 0.018542886 0.019177794 0.0007227171 -0.00011511462
-0.003391418 0.005980531 -0.00513332 -0.031937692 -0.032959167 -0.029669344 0.012709212 0.00049452507
0.01870139 -0.009298572 -0.009444157 0.009942739 -0.0123189455 -0.022783658 -0.02789223 0.026814792
0.01551135 -0.0014385612 -0.018286895 -0.0027906673 0.028132075 0.020123469 -0.012037008 -0.015847387
-0.018434247 0.0018817089 0.021910068 0.012026011 -0.015579738 -0.012833046 -0.01637378 -0.0071367435
0.017532375 0.014916121 -0.00035682952 0.0055801123 -0.015651138 0.025730042 -0.026170468 0.027147401
-0.02162459 0.024274517 0.013251576 0.031424884 -0.023092829 -0.014666524 0.0273286 -0.00033735344
-0.005060664 -0.0057934592 0.026430052 0.02428532 0.030375613 0.0201451 0.023636773 0.014857186
0.028678503 0.0051190765 -0.0018057987 0.014527088 -0.0135536995 0.0030504288 -0.019788919 0.029995916
-0.026750311 0.011781148 0.01468212 -0.0057105636 0.019626446 -0.005197913 -0.0035574161 -0.025086444
-0.0070855296 0.0107563315 0.009061734 -0.019491224 0.024815047 -0.0018779943 -0.0033982536 -0.006037137
0.006663939 -0.030659854 -0.037497737 0.0012458677 0.012969622 -0.028782757 0.014795212 -0.023985386
-0.018830376 -0.005430148 0.018219054 -0.00012638468 0.009666626 -0.019417021 -5.9523503e-05 -0.008647047
-0.020491108 -0.006034544 -0.000111302004 -0.027338505 -0.0030058941 0.01333925 0.018032327 0.004697131
-0.0111444285 -0.027696604 -0.030070584 -0.019304855 0.0076951236 -0.014900874 -0.0007220801 -0.03865144
-0.031796392 -0.006214429 -0.011473979 -0.022798035 -0.035877235 -0.008911992 0.008875295 -0.0049967496
0.010434635 0.008180157 -0.03639248 -0.024007551 -0.039335698 -0.014156896 7.48599e-05 0.014990674
-0.028248008 -0.041507594 -0.0031688183 -0.02999737 0.0036857622 -0.02547964 -0.029866911 -0.028969722
-0.014802826 0.00018144482 -0.025947243 -0.0022553122 0.013494637 -0.00045089689 -0.0019786214 0.009118339
-0.02371727 -0.037564028 -0.010021945 0.014616464 -0.0336414 0.010880935 0.0044105235 -0.034173355
-0.008176452 0.011646319 -0.013554422 0.01750617 -0.024215473 -0.02326118 -0.03329459 0.000741647
0.009797202 0.009257414 -0.03494796 -0.017037122 -0.039760992 -0.01180246 -0.035030797 -0.002900055
0.0039351746 0.019181626 -0.0004008009 0.025306694 -0.029196106 -0.035443544 0.012421262 -0.007818032

final_layer.conv_classifier.bias f4 [4]
00000000: d5a0 aa3a b44c f3bb 8d40 5a3c cc92 c0ba
0.0013017902 -0.007424915 0.013321054 -0.0014692186
