models/ShallowFBCSPNet_persons14_lr0.001_wd0.01_bs64_acc0.6147.pth (torch, 383698 bytes, 9 tensors)

conv_time_spat.conv_time.weight f4 [40, 1, 25, 1]
00000000: 4b6c a83d 505c 95bd 9124 093d fc26 65bd
00000010: e3e5 c1bd 9ade 933c ffda f3bd 078b 2cbe
00000020: 0437 bebd 3084 d63c b6f1 ea3d a7e0 393e
00000030: b655 3b3e f881 293d a714 163c acd9 ffbd
00000040: 7e7c 7d3c 5c4b 7bbd 30fd 993d dcd9 09bd
00000050: 0654 833c 174e 1b3c bc36 8abd 033c 2c3d
00000060: b6b2 403c 4c49 b2bd fc8a 67bc 7450 23bd
00000070: d686 943b bb7a 3d3d b6e4 53bd 5af8 3abd
00000080: 96ee 8f3d 0e07 773d be7a b13d 4fe8 993c
00000090: c398 8cbd 231a 623c 6e3c d63c a8e7 09bd
000000a0: 8cfc 9dbc 9c89 31bd c8d0 1f3a 94fe bdbd
000000b0: c6b0 06bd cf72 e6bb b61e 2f3d b915 be3c
000000c0: 78a4 053d cba6 063e 72cd a43d c7ce ad3b
000000d0: 8686 423d 72fd de3d e1e7 a93d 967d 6b3d
000000e0: 2c84 65bd a3de 1abe 2d01 2abe 77e2 d6bd
000000f0: fe4d d53d 3371 223e d627 123e 3162 75bd
00000100: cd0f 57bd aba7 c1bd d467 ddbd 8e6c a13d
00000110: f5ab c73d eacf d93d 14b9 42bc 978f 9bbd
00000120: fbca aabd fb23 143d d905 6b3d 9011 b5ba
00000130: 7159 bb3d a66b 723d d965 65bd 6f3c 01be
00000140: e445 9abd 752b 11bd 15df be3d 363d db3d
00000150: db88 13bc 0f1a 9a3d 3b38 e93c 0323 2cbc
00000160: 99df b8bb 05f6 39bc ca36 923d 8ba6 b8bc
00000170: c13b 9fbd ea71 c4bd d426 01bd 814f b23d
00000180: 7f14 323d c358 253d 4c6f 763b c04d 1bbe
00000190: 1861 c2bd e1cf 843d 8eee 3abc 6ddb acbc
000001a0: 9c0d 473c 058e 9fbd e05c 59bd d323 733d
000001b0: 0409 783d 4c14 c53c b5fb a93d 0431 2a3d
000001c0: 65da a2bd 40bf c2bc 1565 5cbd ab4d 2d3c
000001d0: 4371 313d a6d0 4e3c f7c9 403d e955 3cbd
000001e0: cd57 473d 9a4d b93b 5a09 e3bc 5084 74bd
000001f0: a6a3 aabb 1b88 0a3e 61a5 f53d 2572 dabc
00000200: 8376 8cbd 07cd 00be 1db6 87bd 71a1 9abd
00000210: aa7e 843d db42 3d3d f6a2 013e 6b86 893d
00000220: 63e5 033e 929e 1f3d 29fb bbbd 634d 2ebc
00000230: 2fe1 19be 49fd b7bd 8292 a4bd ddff 22bd
00000240: ef6c b83d 4683 c63d 83ea 75bb edac 0dbd
00000250: 6d7d 0b3d 3602 643d 4de3 dabc ba36 093c
00000260: d7ae 7b3d d45b e93c e9d3 35bc 4d7d 6e3d
00000270: e0b0 ed3c 411c cdbc cfda abbd 68cc 41bc
00000280: 5dfa babd 3a70 23bd b0aa 563d 384d 87bd
00000290: 55a5 ddbc 28e5 873d 5143 853d 4cac d03d
000002a0: dc63 a13c 528d 623d 7cb2 52bd f458 d83b
000002b0: 6360 14bd 106c 4bbc b373 5c3d 40a2 773b
000002c0: f7f1 4b3c 0645 043d 2966 143d 6569 2e3e
000002d0: 26b2 153e 07b6 94bc c12a 00be 6d44 08be
000002e0: fa57 eebc bc1f 923c 4cdf 913d 5a51 623d
000002f0: 248d c7bd 422a 0dbe dbdb 06be fbfe a8bd
00000300: 8966 d13d 4845 e63d b84f a33c a053 813d
00000310: 2767 473d d4ce 803b 74f9 c73c dfc2 f03d
00000320: 12ba 8c3c 9f92 97bc 2847 81bd 13a9 233d
00000330: 76c4 1cbc 8a16 c63d 51f5 9f3d 9613 523d
00000340: e286 57bd ffa2 90bd e780 54bd 63a0 adbc
00000350: 00ea 1cbd 2d1f bdbd 2ab6 edbd bfc6 a03b
00000360: cdb7 54bd a2fc 4b3b 208b e63d 0dde f63d
00000370: 705a 393d eedb f53c 2735 90bd 7b71 d9bb
00000380: 6177 28bc 03c8 2b3d ed08 5f3c 0674 d23c
00000390: 4f93 a43d 743b 993c 49ad 8d3d dcee 8ebd
000003a0: a4b4 a6bd d40c 96bb f253 b9bc f3f6 8fbc
000003b0: 3751 463d 2a55 ea3b e35b ffbc 7b87 6dbd
000003c0: 5ead b8bb f7a7 4abd f4d6 89ba 87d5 1e3c
000003d0: c6e5 253d deb1 063d 24fe 5b3c b58d 843c
000003e0: 4bde 3e3d 357a a7bc d9db 3ebd df68 413b
000003f0: a4e6 cc3b 4da0 acbd 9d4d b2bd 1b80 adbd
0.0822378 -0.07292998 0.033482138 -0.05594538 -0.094676755 0.01805048 -0.119070046 -0.1684991
-0.09287837 0.026186079 0.11471884 0.18152104 0.18294415 0.041383713 0.009160197 -0.124926895
0.015471576 -0.061351165 0.07518995 -0.033655033 0.016031276 0.009479067 -0.06748721 0.04204942
0.011761358 -0.087053865 -0.014132258 -0.039871648 0.0045326753 0.046259623 -0.051731788 -0.045647003
0.070279285 0.060309462 0.08665989 0.018787531 -0.068650745 0.013800177 0.026151862 -0.03366819
-0.019285463 -0.043344125 0.00060964795 -0.092770725 -0.032883428 -0.007032729 0.042753898 0.023203718
0.032627553 0.13149564 0.08046998 0.005304191 0.047491573 0.108881846 0.082961805 0.057492815
-0.056034252 -0.15123992 -0.16602011 -0.104924135 0.104152665 0.15863495 0.14273009 -0.059908096
-0.052505303 -0.09455808 -0.10810819 0.07882033 0.09749595 0.106353596 -0.011884946 -0.07595747
-0.08339497 0.036167126 0.057378624 -0.0013814438 0.09147919 0.059184693 -0.056005333 -0.1262071
-0.07532862 -0.035441834 0.09319893 0.107050344 -0.009004797 0.075245015 0.028469196 -0.010506394
-0.0056418893 -0.0113501595 0.071393564 -0.022540351 -0.07775069 -0.0959204 -0.03153117 0.087065704
0.043476578 0.040367853 0.003760296 -0.15166378 -0.094911754 0.06484962 -0.011409415 -0.021100724
0.012149241 -0.0779076 -0.053067088 0.059360337 0.060555473 0.02405753 0.082999624 0.04155065
-0.07951812 -0.023772836 -0.053807337 0.0105775995 0.043320905 0.012622988 0.04706761 -0.045980368
0.048667718 0.005655003 -0.02771442 -0.059696496 -0.0052074967 0.13528483 0.11994434 -0.026665756
-0.06858542 -0.12578212 -0.06626532 -0.07550324 0.06469472 0.046206336 0.12659821 0.06715091
0.12880473 0.038969584 -0.091787644 -0.010638568 -0.15027307 -0.08983857 -0.08035757 -0.03979479
0.090051524 0.09693007 -0.0037523813 -0.034588743 0.034055162 0.05566617 -0.026719714 0.008374864
0.061446037 0.02848617 -0.011097887 0.058224965 0.029015005 -0.025037887 -0.08391344 -0.011828519
-0.09129784 -0.03990195 0.052408874 -0.06606525 -0.027056376 0.06635505 0.0650698 0.10189113
0.019700937 0.055310555 -0.051439747 0.006602401 -0.036224734 -0.012415901 0.053821277 0.0037785918
0.012447826 0.03229239 0.03623024 0.17032392 0.1461874 -0.018153204 -0.1251631 -0.13307352
-0.029094685 0.017837398 0.071226686 0.055253364 -0.09743717 -0.13785651 -0.13169806 -0.08251759
0.10224635 0.11243683 0.019935474 0.06314778 0.048682358 0.003930906 0.02441094 0.11755919
0.017178569 -0.018502532 -0.063124 0.039956164 -0.009568324 0.09672268 0.07810462 0.05128821
-0.05261887 -0.07062339 -0.051880743 -0.021194642 -0.038309097 -0.09234462 -0.11607011 0.004906505
-0.0519331 0.0031125923 0.11257005 0.120540716 0.045252264 0.030012097 -0.07041388 -0.0066358424
-0.010282368 0.041938793 0.013612968 0.02569009 0.080359094 0.018705107 0.06917817 -0.069791526
-0.08139923 -0.004579166 -0.022623036 -0.01757381 0.048417296 0.0071512656 -0.031171745 -0.057990532
-0.0056359014 -0.04947659 -0.0010516332 0.009694464 0.040502332 0.03288447 0.013427291 0.016180852
0.046598714 -0.020444015 -0.04659638 0.002951197 0.0062530804 -0.084290124 -0.0870621 -0.084717

conv_time_spat.conv_time.bias f4 [40]
00000000: efa2 1cbe 05fb b7bd 03bc 11bd a8a2 91bd
00000010: 9111 b6bd d001 3abe dad1 343e 3765 8f3c
00000020: d57e 353e 4f63 8fbd 5b97 12be dfca 3fbe
00000030: 12a5 0ebe 2270 9cbc 7aba a83d 2b86 b23d
00000040: 9c00 ccbc 2162 15be b3bd 0c3e 2f4c cb3c
00000050: a324 ae3d e935 0dbd 85c6 e0bd 16d3 5a3d
00000060: 1c62 c53d 7406 513d a5a3 a33d 8437 89bd
00000070: 7e84 07be 7527 09be ce8c df3d 4008 2abe
00000080: 445e 243e c334 0ebe a937 abbd 6e1b 2cbc
00000090: c932 86bd 3095 05be 5aff e0bd db84 103e
-0.15296529 -0.08983425 -0.035579693 -0.07111102 -0.08890069 -0.18164754 0.17658177 0.017504318
0.17724164 -0.070013635 -0.1431555 -0.18729733 -0.13930157 -0.019096438 0.082386926 0.08716997
-0.024902634 -0.14588214 0.1374424 0.0248166 0.08503082 -0.03447524 -0.109753646 0.053423963
0.096378535 0.051031545 0.07990197 -0.06700042 -0.13234136 -0.13393958 0.10915528 -0.1660471
0.16051584 -0.13887314 -0.08360226 -0.010504587 -0.06552655 -0.13045192 -0.109862044 0.1411318

conv_time_spat.conv_spat.weight f4 [40, 40, 1, 44]
00000000: 423c a8bc 4e4a 45bd 03f0 6fbb 46c3 233d
00000010: b4ca d33c 31c7 71ba 5699 5bbd dd33 133d
00000020: c5f2 abbc 53f0 18bd 8ce8 be3c 29ef 89bd
00000030: 10d3 c53c 9ee3 afbc 13e5 58bc e5ed 8ebc
00000040: 4564 26bc d1ed 923c f3dd 593d e8a7 9ebd
00000050: 2d1e 9dbc adf5 2c3d 8a7c e9bc fded 143a
00000060: 6747 43bc 016e 2c3d ed0b 513a b352 8fb9
00000070: 554b ee3c 3922 6c3e 5697 8ebd 0e5f 953c
00000080: e23b 8ebd af9f f93d 8710 12ba 9c7d f8bc
00000090: e500 bc3c 191f 5abd cc56 35be 3d0d c4bd
000000a0: 5f78 623e a696 e33d 0f1b 6a3d 71dd c03d
000000b0: 7f7a 673b cb81 a93c e579 62bd dabf 1abd
000000c0: a551 7ebc eac8 12bc 2bc2 603b 00e6 5bbd
000000d0: af05 593c ba5f c8bc 3e7e 04bc 0977 53bd
000000e0: 8c79 fd39 492b 8c3c 46d6 8ebd 7b80 da3a
000000f0: d6ba 5dbd c3fb 0c3c bf9c 063b cb23 4fbd
00000100: ceda 783d 4b43 0d3d 8fc8 7fbd e78a 1f3d
00000110: 34bf a13c ec56 c13c 57a8 933d b415 913c
00000120: 3044 7fbb f989 80bd e014 c63d 1993 2d3c
00000130: a4f0 1b3d 7b71 6ebc e95c f938 dc3b 313d
00000140: 2e9d 333d 20f7 dd3b c730 4dbd 7b20 60bc
00000150: 4158 643d 3765 7b3d 753a 36bc 0f83 ccbb
00000160: 9a6d 243c bb19 51bd cb5d 78bd 7f8f 563d
00000170: 915a 1e3e 4c4c 533c ee1f 18bd 1c01 1a3e
00000180: d451 7bbd 825f 043d da58 e3bc ba5e 82bd
00000190: 433e b73d f579 083c 062d 013e a677 20bb
000001a0: c8f9 ef3d cd2f 133e ca67 ed3c 71a4 843c
000001b0: 6624 af3a fbcb 1cbe b7dd 6e3b fb95 8d3d
000001c0: b346 d9bd 66d6 763d 7964 6abd 475d 8b3c
000001d0: 096d 2a3c 5805 aa3e a0dd 32be dd6c 97bd
000001e0: 14d7 1ebd e480 4e3e 0c37 f5bc 14db e13c
000001f0: 1894 87be cf9e 43be e672 40be 4607 2fbe
00000200: 8722 5a3e f497 17be 627a 0c3e 87c8 29bd
00000210: 1e2f efbb 59db 993d 9f4c 8fbb 4927 b13c
00000220: 5380 6cbd ef1b 873c df94 353d 2806 ecbd
00000230: 3658 15bc 3670 b3bc 20dd 493c c4a7 d03d
00000240: 3676 afbd 1d5b 3a3d 90c1 16bd 13b6 fb3c
00000250: 9488 b7bd 92f0 b8bd df66 c7bc e867 c3bd
00000260: 1776 07bd ba28 f43d 9250 95bd 2890 7dbd
00000270: 0c0f 673d 4e45 abbc b7a4 253c c664 90bb
00000280: 8401 9a3c 960c 5cbe 5d37 803d 52e5 603d
00000290: e56d 2a3c fa26 1bbe d487 053d 73ef ddb9
000002a0: 3194 463e ac12 303d b021 383e 420e 343d
000002b0: 9bc4 19be 0b98 9cbc 9f89 d9bd 3f1e fdbb
000002c0: ca5d c73c f67e a33c 67f7 5bbc fd5b 05bd
000002d0: d963 f8bc 8d9a 5b3c 871d 82bc 0892 06bd
000002e0: 33f8 093d 7079 25bd 48ac eebc 77f0 eebc
000002f0: f6f0 25bd 8361 29bd ddb4 9abc 527b 503d
00000300: a380 9abd 194b 08bd f6a5 a63c 820b 85bd
00000310: de4c aa3b bd94 083e dcb8 36bd d64f b0bc
00000320: b02a 8b3c a30c d23c 21b5 513d bfea 0c3d
00000330: 9610 8a3b 8d2d acbb 1e51 ec3c 14e6 453d
00000340: b2c7 543a 2da2 8fbd 3a02 06bd 4af5 b4bd
00000350: c443 c23d 30ea 2a3c bb1c e8bc 7bee dfbb
00000360: c152 6c3d e6ed ed3d 7658 acbc 8e6b 2b3c
00000370: f978 6f3c a5c2 133d 0246 09bc 0412 9dbc
00000380: f96c 81bd 13dd a43c 4b15 1cbb 2306 cfbd
00000390: 1b59 94bd 6265 8a3d 9dc1 c7bc e1e4 ab3c
000003a0: 737a 13bd a0f3 143d 0e56 babd 3e55 c3bc
000003b0: 1e9a 8fbd b661 83bd c126 21bd abbe 26be
000003c0: 3055 ecbc 6689 2f3d eff4 14bd 4e3a 9cbd
000003d0: abf6 4e3d 88e0 e73d 4faa 7ebc 19b2 b33d
000003e0: c8f2 47bc b1c8 bfbd 84b5 883d bb92 8d3d
000003f0: fb00 eabc 8607 22bd 7f0d 543d 6e1c b63d
-0.020536546 -0.048166566 -0.0036611564 0.03998115 0.025853492 -0.0009223102 -0.05361303 0.035938133
-0.020989785 -0.037338566 0.023304246 -0.06735069 0.024148494 -0.021470841 -0.013238209 -0.017447421
-0.010155742 0.017935665 0.053190183 -0.07746869 -0.019179428 0.042226482 -0.028501768 0.0005681215
-0.011918879 0.042097095 0.00079744944 -0.000273367 0.029088655 0.2305993 -0.06962459 0.018233802
-0.069450155 0.1218866 -0.0005571921 -0.030333333 0.022949645 -0.053252313 -0.17708892 -0.095728375
0.2211623 0.11112718 0.05715471 0.094172366 0.0035320816 0.020691773 -0.05529203 -0.03778062
-0.015522395 -0.008959034 0.003429542 -0.053686142 0.013245984 -0.024459708 -0.008086739 -0.051627193
0.0004834648 0.017110484 -0.06974463 0.001667037 -0.05413326 0.008604947 0.0020540205 -0.050571244
0.060755543 0.034488004 -0.062447127 0.038950827 0.019744493 0.023601018 0.07209843 0.017710544
-0.0038950555 -0.06276316 0.0967195 0.010594153 0.03807129 -0.014553423 0.00011890551 0.043269977
0.04385107 0.0067738444 -0.050095346 -0.013679619 0.055748228 0.061375823 -0.011122336 -0.0062412093
0.010035897 -0.05104993 -0.060636323 0.052382942 0.15464236 0.012896609 -0.037139826 0.15039486
-0.061357334 0.032317646 -0.027752329 -0.06365724 0.08947422 0.008329858 0.12614831 -0.0024485379
0.11717564 0.14373703 0.028980155 0.016191693 0.0013362288 -0.15312187 0.003644807 0.06913372
-0.10609188 0.06026306 -0.057224724 0.017012252 0.010401973 0.33207202 -0.17467356 -0.07393811
-0.038779333 0.20166355 -0.029933475 0.027570285 -0.26480174 -0.1910355 -0.1879383 -0.17092618
0.21302234 -0.1480406 0.1371856 -0.041451003 -0.007299318 0.0751254 -0.0043731476 0.021625178
-0.057739567 0.016492812 0.044331428 -0.11524612 -0.009115269 -0.021904092 0.012320787 0.10188249
-0.08567469 0.04549705 -0.03680569 0.030726468 -0.08961597 -0.0903026 -0.024341045 -0.09541303
-0.033071604 0.119218305 -0.07290758 -0.061905056 0.056410834 -0.02090707 0.010110072 -0.0044065444
0.01879955 -0.21489176 0.0626056 0.054906197 0.010402177 -0.15151587 0.03260024 -0.00042330808
0.19392468 0.042986557 0.17981601 0.04395891 -0.15016405 -0.019115468 -0.10621952 -0.007724553
0.024336714 0.019958 -0.0134256845 -0.03255843 -0.030321049 0.013403547 -0.01588322 -0.03285411
0.033683967 -0.040399015 -0.029134884 -0.029167397 -0.040513 -0.04135276 -0.01888507 0.050898857
-0.07544067 -0.033274744 0.020342808 -0.064963356 0.0051971516 0.13337989 -0.04460989 -0.021522444
0.016988128 0.025640791 0.05119813 0.03440356 0.004213403 -0.0052544535 0.028847273 0.048315123
0.0008116915 -0.070133545 -0.032716967 -0.08835848 0.094855815 0.010431811 -0.028334012 -0.006833849
0.057696108 0.11617641 -0.021038275 0.010462655 0.0146162445 0.0360743 -0.008378508 -0.01917363
-0.06319613 0.020124948 -0.0023816403 -0.10108592 -0.07243558 0.067576185 -0.024384314 0.020983161
-0.03600545 0.03636515 -0.09098445 -0.023844358 -0.070118174 -0.06415121 -0.0393436 -0.16283672
-0.028849214 0.042855643 -0.0363664 -0.07628308 0.05052821 0.11322123 -0.015543534 0.08774204
-0.01220388 -0.09364451 0.06675246 0.06912752 -0.02856492 -0.039557956 0.051770683 0.08892141

bnorm.weight f4 [40]
00000000: faf3 843f 45c9 883f 35ac 913f 73c8 843f
00000010: 1876 943f e70e 8e3f ec3a 8a3f 098a 973f
00000020: 7ff7 843f 3097 8c3f af12 8e3f 2675 8f3f
00000030: 253b 873f 0a4a 923f 010b 953f 5765 933f
00000040: 347c 873f efba 853f 7c75 983f 1aa3 8d3f
00000050: 6b5a 8f3f b08e 873f 8621 8b3f 93b4 8e3f
00000060: 9339 8e3f 2f2d 8e3f 7eda 7e3f 31fd 8f3f
00000070: da57 843f b348 913f 5258 983f cdf1 963f
00000080: b9b0 8b3f 20d8 933f 12f6 923f 63ca 933f
00000090: d007 8e3f bd0b 883f 9255 843f e1d7 893f
1.0386956 1.0686423 1.1380678 1.0373672 1.1598539 1.1098298 1.0799232 1.1839
1.038803 1.0983639 1.1099452 1.1207626 1.0564924 1.1428845 1.1643983 1.1515301
1.0584779 1.0447673 1.1910853 1.10654 1.1199468 1.059042 1.0869606 1.1148857
1.111132 1.1107539 0.9955214 1.1249143 1.033931 1.1350311 1.1901953 1.1792542
1.0913306 1.1550331 1.1481345 1.1546139 1.1096134 1.0628582 1.0338614 1.0769006

bnorm.bias f4 [40]
00000000: a803 7cbe ad44 783e a087 163e 463b 52be
00000010: c3b9 ffbd c988 65be d1c3 9d3e 07eb 123e
00000020: dbc2 6bbe dbe4 7dbe c5b8 743e d50e 3e3e
00000030: b47d 833e 1a13 153e 2a42 2c3e d055 f8bd
00000040: 4230 f7bd a0f0 a5be 765b 21be e728 8c3e
00000050: 8cea 5a3e 451c 9a3e ad27 623e 3606 ad3d
00000060: 6f77 f63d 1eaf 57be 7d10 f3be 96be 6abe
00000070: 1784 a6be ffb2 483e e090 0ebe 8ce0 35be
00000080: 84f1 593e 8485 13be d07b 463e ff55 1a3e
00000090: 72b5 a73e 0926 b1be 61a2 3ebe 9def 95be
-0.2461077 0.24244948 0.14700174 -0.20530424 -0.12486603 -0.2241546 0.3081346 0.14347468
-0.2302355 -0.24794333 0.23898609 0.18560345 0.2568184 0.14558068 0.16822115 -0.121257424
-0.12069751 -0.32410145 -0.15757546 0.27374956 0.21378535 0.30099693 0.22085448 0.0844845
0.12034499 -0.21062896 -0.47473517 -0.22924265 -0.32522652 0.19599532 -0.13922453 -0.17761439
0.21283537 -0.14406401 0.19383168 0.15071867 0.3275562 -0.3459933 -0.1861663 -0.29284373

bnorm.running_mean f4 [40]
00000000: a66c 1dbe 5168 843f a0cd cfbe 48b2 f8bd
00000010: fc91 52bf 86cb 96bd 53ac 6d40 f81f fd3d
00000020: 0d38 833f 5674 3a3f 2972 0c40 20e8 a83e
00000030: f892 803d 0ee1 01c0 8265 8a3d 917b 9c40
00000040: 78e6 70be 51a7 2a3f fc0d e43e 7127 3440
00000050: 7a25 69bf 6f8d 153f cf5f b0bf 87e6 23bf
00000060: d70f 3d3e 82af a83f 8817 9dbf e927 573f
00000070: f54d 49bf af66 97c0 697a f2be 9074 a43d
00000080: af3a e23e 235e 413c 7e8a 21bf a201 22bf
00000090: a433 2b40 7172 99bf 6f73 563f 4bb2 3cbe
-0.15373477 1.0344335 -0.40586567 -0.121433794 -0.82254004 -0.07363038 3.7136428 0.12359613
1.025148 0.72833765 2.1944678 0.32989597 0.06278032 -2.0293612 0.06757642 4.890084
-0.23525417 0.66661555 0.4454192 2.8149073 -0.9107281 0.58418936 -1.3779238 -0.6402363
0.18463074 1.3178561 -1.2272806 0.84045273 -0.7863458 -4.7312846 -0.47359017 0.08030045
0.44185397 0.011802229 -0.6310195 -0.6328374 2.675027 -1.198805 0.8376989 -0.18427388

bnorm.running_var f4 [40]
00000000: 6483 8e3b 44f8 c73b c617 2e3c b222 8c3b
00000010: 45ac 153c 1b45 aa3b 4c97 1a3c 64eb 9c3b
00000020: abe4 253c 757a cd3b dbc4 3b3c 6f35 a93b
00000030: b804 9c3b 77dd 443c 0948 093c a1d3 de3b
00000040: d512 f33b ae0b 0e3c 05e8 a93b 9944 203c
00000050: 0d3e 173c a3ab b93b 5338 103c 2069 b93b
00000060: e1db ac3b bde6 f13b 654c a73b b4fc d73b
00000070: 33fa 093c 8201 e83b 735c b13b 076a c13b
00000080: 96ee e23b 8384 193c af68 c93b 6e7d 983b
00000090: cb5a d53b fe05 cd3b de6e ba3c 6e23 1b3c
0.004349159 0.0061025936 0.010625785 0.004276597 0.009135311 0.0051962263 0.009435486 0.004788803
0.0101253195 0.0062707015 0.011460508 0.0051638405 0.0047613047 0.012015692 0.008378991 0.0068001305
0.0074180164 0.008669777 0.0051851296 0.00978198 0.009231103 0.0056662126 0.008802491 0.005658284
0.005275235 0.0073822425 0.0051055425 0.006591404 0.008421469 0.007080258 0.005412632 0.005902532
0.0069254143 0.009369972 0.0061465125 0.0046536243 0.0065110675 0.006256818 0.022757944 0.009468896

final_layer.conv_classifier.weight f4 [4, 40, 144, 1]
00000000: c0bf 13bd 56f5 edbc 8bc8 c6bb bda9 f13b
00000010: b7c4 973c 529e 49bc f349 463c 6d81 843c
00000020: fe13 1b3d 0e63 983c c9b5 87bb dedb a9ba
00000030: c81f 01bd ebe8 a7bc ed2b 9fba 7d42 29bb
00000040: bb83 62bc 265c 863c 450c 053d 4c68 e83c
00000050: 4035 793d b7db bb3c ff7d af3c d862 643b
00000060: 5bb5 7dbc 1c37 61bc b22d 81bc 1adf d9ba
00000070: 4129 8ebc 2e95 c0bc d858 87bc 4daa 9ebc
00000080: f6d5 7dbc a45b 903c 654a e3bc 6d0c e6bc
00000090: 619b 19bc e600 02ba 8ce8 e7bc 4238 2dbd
000000a0: 8c28 09bd 2c66 58bc d7d4 c43a f828 eabc
000000b0: 80ab 4dbd fe42 58bc 2e62 3fbb 773c ae3b
000000c0: 019a b7bc 0e14 a2bb 5d2b 1abc ae1c b2bc
000000d0: 3cb1 82bc b9fd bfbc 08cb 61bc 4811 92bc
000000e0: b0c8 4dbd 277e 743c 77b0 9ebc e50b 2dbd
000000f0: d71e 9abc 96b1 86bd a00d 9dbc 80ee c7bc
00000100: dbbd 7abb 7e2f cabb 6b89 d8bb 7673 3abc
00000110: cba5 07bb 3006 48bd 60a3 4fbb e0e8 2fbd
00000120: 69d2 cdbc 4424 10ba eac9 8fbc 7a67 17bc
00000130: 11cd dbbc 4c87 48ba 0cc9 1d3c 57e3 95bc
00000140: e2f4 dcbc 65d2 d63b c90a 163c dd72 f239
00000150: 0f7e dd3b da39 ef3a ae61 cdbc eae0 81bc
00000160: 5b60 07bd 44a3 0cbd 1fa3 83bc 815e 41bd
00000170: b50e 4bbb bfa9 65bc d67e 5fbd a042 03bd
00000180: 7487 55bd 8a58 27bd 858a 05bc 5a84 b7bc
00000190: 3b3e 0abd 6fd2 48bc 33cc babc 085a 1cbc
000001a0: 7af0 97bc 5fd7 3dbc afa4 69bc d3be 383c
000001b0: 29ad f5bc 390e d2bc 4f56 6cbc 65c0 353c
000001c0: 519e 86bc dc8a bd3b ebf7 0bb8 be48 02bd
000001d0: 732d cebc fcb3 81bc 08e1 e4bc eb20 dbbb
000001e0: f5b1 0abd 2f7e f8bc f118 9fbc 9dd9 50bd
000001f0: a098 1fbd 87d1 09bd b6b7 14bd e594 f5bc
00000200: 6602 2bbd 443f 2dbd 36c5 1cbc e2e0 9dbc
00000210: 9158 a6bc 1f76 b4bb c2bc 12bd f3f6 113c
00000220: d21e 01bd 6a22 fabb 8313 16bc 4e11 95bb
00000230: 3539 6fbb 62a6 c13b cf1a 40bd fe56 94bc
00000240: b75b 053c c2e8 5d3c d3d2 5c3c 87fd 403d
00000250: 74c7 943b 8d17 9abc 34ff b93c 58e6 0b3d
00000260: 23e0 1d3c c5f5 233b 8c53 913b f6bc bbbc
00000270: fef8 f73c aa83 5c3d bfc5 4e3d 7437 463d
00000280: 25cd 823d 65c5 e7bb fb6d ad3c 546c c43c
00000290: 7efe a63c 8205 233d 1c78 823c 09d3 9f3c
000002a0: fbdd e33b 8b65 123d 6a5d a5bc dbd3 bc3c
000002b0: 9833 543c 9924 883c f9ed 803c 17aa 1d3c
000002c0: e354 713c 80e4 343c 8538 12bb 5481 87bb
000002d0: 8e0b b6ba 1488 6ebc 8e9f ed3b 4349 553c
000002e0: 5ce0 d3bb 1cc6 5d3c c9c6 5dbc 9b22 83ba
000002f0: d7d7 02bd 731b e4bc 633b c73c e254 32bb
00000300: b0f9 ccbc d2a1 713c 0d94 a6bb 61ac a7bb
00000310: c7cb adba d01c a7bc 7438 96bc 4092 91bc
00000320: eade a8bc 7021 94bc 2397 38bb 0f9f 88bb
00000330: feab 81bc 600a 69bb 828c 0cbd ccf2 84bc
00000340: 8d91 85bc 45dc 5737 f250 c4bb 3497 433c
00000350: 3762 ccbc a2ee a1bb ecf1 18bd ae6d 1b3d
00000360: dac2 4b3c 012b 953c fb09 5abb 0d87 cb3c
00000370: 30de ad3c 87ba 813c f852 1a3c 588b 2d3b
00000380: 02f1 213c 36e5 84bc 7421 00bd e8d7 c73a
00000390: 80b1 573c 7064 f3bc 5810 babc c836 2dbc
000003a0: e452 dbbc 4090 f8bc 6f52 63b9 3464 67bc
000003b0: 4e4b 0bbd 9e97 403c d6e6 07bc 90e0 873a
000003c0: b617 e43c 82c6 d5bc 70dc d8bc ffdf abba
000003d0: fa6d 743b 35eb 38bb 623c d3bc 638c a03c
000003e0: dee2 8ebc 5005 d3bc 9b80 f1bc 5ec6 cb3b
000003f0: 9eb2 96bc 4ea4 89bc 644b 963a 4e90 05bc
-0.03607154 -0.02904765 -0.006066387 0.0073749707 0.018526418 -0.012305813 0.012102592 0.016174996
0.037860863 0.01860192 -0.0041415435 -0.0012959202 -0.03152445 -0.020496806 -0.0012143828 -0.0025826984
-0.013825352 0.016401362 0.032482404 0.028370045 0.0608418 0.022931917 0.021422384 0.0034848955
-0.015485133 -0.013746049 -0.01576886 -0.0016622276 -0.017353656 -0.023508634 -0.016521856 -0.019368315
-0.015492907 0.017621823 -0.027745435 -0.028082097 -0.009375424 -0.00049592403 -0.02830913 -0.04228998
-0.033485934 -0.013207953 0.0015017044 -0.028583989 -0.050212383 -0.013199566 -0.0029202807 0.0053172666
-0.022412302 -0.0049462384 -0.009409753 -0.021742191 -0.015953653 -0.023436414 -0.013781317 -0.017830506
-0.05024022 0.014922655 -0.019371254 -0.04224767 -0.018813534 -0.065768406 -0.019171536 -0.024405718
-0.0038260135 -0.0061702123 -0.0066081784 -0.011380067 -0.0020698186 -0.048834026 -0.0031683072 -0.042946696
-0.025124745 -0.0005498568 -0.017552335 -0.009240979 -0.026831182 -0.00076495553 0.009630453 -0.01829688
-0.026972238 0.0065558427 0.009157845 0.00046243417 0.006759412 0.0018251494 -0.025070991 -0.015854318
-0.033050876 -0.03433539 -0.016068993 -0.047209267 -0.0030984108 -0.014017521 -0.05456432 -0.03204596
-0.05213113 -0.04085592 -0.008150701 -0.022401977 -0.033750754 -0.0122572025 -0.022802448 -0.0095429495
-0.018547285 -0.011586993 -0.014260455 0.011275965 -0.029989796 -0.025641548 -0.014424874 0.011093234
-0.016432913 0.0057843756 -3.3371074e-05 -0.031807654 -0.025168156 -0.015832894 -0.027939335 -0.0066872737
-0.03386112 -0.030333607 -0.019421073 -0.050988782 -0.038963914 -0.033647086 -0.036308013 -0.029978225
-0.041750334 -0.042296663 -0.009568503 -0.019272272 -0.020305904 -0.005507245 -0.035824545 0.008908975
-0.031523533 -0.007633497 -0.009159925 -0.004549182 -0.0036502604 0.005909727 -0.046900567 -0.018107887
0.008139542 0.013544263 0.013477999 0.047116783 0.004540378 -0.018810058 0.022704698 0.03415522
0.009635958 0.0025018316 0.0044350084 -0.022917252 0.030270096 0.053836502 0.050481554 0.048392728
0.063867845 -0.007073092 0.021170607 0.023977436 0.020385023 0.039800175 0.015926413 0.01950981
0.0069539524 0.03574137 -0.020186145 0.02305024 0.012951754 0.016619014 0.015738474 0.009623072
0.014729711 0.011040807 -0.002231152 -0.00413529 -0.0013888942 -0.014558811 0.0072516864 0.013017955
-0.0064659547 0.0135360025 -0.013536164 -0.001000482 -0.031944122 -0.02784512 0.02432031 -0.0027211239
-0.025021404 0.014748054 -0.005083567 -0.0051169847 -0.0013259583 -0.020399481 -0.018337466 -0.017769933
-0.020614106 -0.01808235 -0.0028166256 -0.004169352 -0.015829083 -0.0035559162 -0.034313686 -0.016229056
-0.016304756 1.2866284e-05 -0.0059910947 0.011937905 -0.024949176 -0.0049417773 -0.03734009 0.037946396
0.012436593 0.018208982 -0.003327011 0.02484467 0.021224111 0.015836013 0.009419195 0.002648076
0.009884121 -0.016222578 -0.031281903 0.001524684 0.013164878 -0.029710978 -0.022712871 -0.010572143
-0.026772924 -0.030342221 -0.00021679116 -0.014123011 -0.034007363 0.011754898 -0.008294782 0.0010366607
0.027843338 -0.026095632 -0.0264723 -0.0013113021 0.0037296996 -0.0028216366 -0.025785629 0.019598192
-0.017442163 -0.02575937 -0.02948027 0.0062187156 -0.018395718 -0.01680198 0.001146656 -0.008152081

final_layer.conv_classifier.bias f4 [4]
00000000: d19f 833c 9afc 26bd 560a ba3d 5bad 54bd
0.016067417 -0.040768243 0.09084003 -0.051923137
