models/ShallowFBCSPNet_persons14_lr0.0001_wd0.1_bs128_acc0.8299.pth (torch, 383712 bytes, 9 tensors)

conv_time_spat.conv_time.weight f4 [40, 1, 25, 1]
000000 a1 5d a2 bc c8 40 1f 3d 0b ca 02 bc d1 09 86 3d
       -0.019820036 0.03888014 -0.007982741 0.06544841
000010 21 ce 37 3d c5 7f 4f 3d 22 12 1f 3d 7a 57 78 3b
       0.044874314 0.05065896 0.038835652 0.0037893937
000020 2d fd 7f 3d d3 49 82 3d fa d3 a9 bb e4 47 62 bd
       0.062497307 0.06361737 -0.0051827403 -0.05524434
000030 27 e6 11 bd d8 8a ca bc a7 57 78 bd c2 67 97 bc
       -0.03561988 -0.024724409 -0.060630467 -0.018482093
000040 49 cf eb 3b a6 84 92 bd db 37 46 bd 1f 42 4a 3d
       0.007196341 -0.07154207 -0.04839311 0.049379464
000050 e7 ff b7 bc 5a 13 09 bd 08 57 0d bd ae 90 4d 3d
       -0.022460891 -0.03346572 -0.034506828 0.050186805
000060 08 3c 0e 3d 2b 7e 89 bd 6a 0a 48 3d 9e 04 68 3d
       0.03472522 -0.06713518 0.048838057 0.05664503
000070 78 2a 97 3d 42 6a d7 bc 16 ef 0a 3d 94 a3 46 3d
       0.07381147 -0.026295785 0.033919416 0.048495844
000080 3f b4 2d bc 9e 46 b0 3d 98 d8 e3 3b 05 95 96 3c
       -0.010602056 0.08607219 0.00695331 0.018381605
000090 91 4c 0e bc 6a 40 8f bd 92 e7 43 3d 2b 02 9c bd
       -0.008685247 -0.06994708 0.047828265 -0.07617601
0000a0 95 ae 4b 3d 7e 08 78 bd d3 4c 7f bd d5 33 ad 3c
       0.04972704 -0.060554974 -0.062329125 0.02114288
0000b0 d7 f5 10 bd 90 18 fb 3c 40 13 1c bd fa 75 bb 3c
       -0.0353907 0.03065136 -0.038104296 0.022883404
0000c0 b0 82 93 bb 1f e6 9b 3b d0 2f 6d 3d 84 93 33 3d
       -0.004501663 0.004757657 0.057906926 0.043841854
0000d0 7a 2f 0f bc e9 b0 77 3c 56 27 d9 3c 1a 00 0e bd
       -0.008739347 0.015117862 0.026508015 -0.034668066
0000e0 01 b7 94 3d 1c 3d 80 bd 6e 99 08 3d f1 4e 7d bd
       0.07261468 -0.06261656 0.033349447 -0.061842863
0000f0 f2 b0 8a 3c 4e 31 90 bd 8c cc 8c bc 57 b7 72 bd
       0.016930077 -0.07040654 -0.01718738 -0.059256878
000100 89 1a 9a bc 1b 54 dd bc c4 ae 44 bd 59 c4 85 bc
       -0.018811481 -0.027017644 -0.048018232 -0.016328977
000110 9d 1e 37 3d b8 c4 29 bd 81 1f 21 3c 3b 95 30 bd
       0.04470693 -0.04144737 0.009834171 -0.043111067
000120 ce ab 69 3d a4 3a f6 bc da bb 19 bd bb 89 bd bb
       0.05704861 -0.030057259 -0.037532665 -0.005784241
000130 99 0e 54 3d cd 0d 0a bd 1b 05 83 3d a1 d4 69 3d
       0.051771734 -0.033704568 0.06397458 0.057087544
000140 55 95 aa 3c c1 1c 33 3d 8b fc 7c bd 96 c9 cd ba
       0.02082316 0.043728594 -0.06176428 -0.0015700336
000150 f1 b4 2f 3b 2c ef 08 ba 63 a0 46 bd fe 90 a6 bc
       0.002681073 -0.00052236277 -0.0484928 -0.02033281
000160 46 58 64 bd 4b 0a 7d bc bf 1e a2 3c 22 e6 9a 3d
       -0.055748247 -0.015444349 0.019790052 0.075634256
000170 5c 50 a8 3b fb d4 86 3d 4c 8d fe 3c 14 e5 a5 3c
       0.0051365327 0.065835916 0.031073235 0.020250835
000180 e5 71 25 3d 40 2f f0 3c 0b 43 76 bd a5 86 c5 bc
       0.04039182 0.029319406 -0.06012253 -0.024112055
000190 0c 12 5f bc cc 83 bd 3c b1 86 1c 3c d9 15 8e 3d
       -0.013615143 0.023134135 0.009553597 0.06937761
0001a0 06 94 2c bd 59 8c 8e bd 45 65 fa bb 43 80 80 3c
       -0.042133354 -0.06960363 -0.007641467 0.01568616
0001b0 27 1d 8f 3d 0c 27 9b 3d 84 20 90 3d 75 26 c4 bc
       0.06987982 0.07575807 0.07037452 -0.023944119
0001c0 4a f3 4e bd d7 d2 b1 3d 6d e7 3a bd ca 9a c8 3d
       -0.050524987 0.08682793 -0.04563086 0.09795149
0001d0 1a 89 bc 3d 56 4c 4c bd 1f 4e 9d bd 1f d2 f7 3c
       0.092058375 -0.049877487 -0.07680916 0.03025156
0001e0 e0 c0 0d bd f2 0a 37 bd e4 06 4f 3c b7 dd a8 b9
       -0.034607768 -0.044688173 0.01263592 -0.00032208647
0001f0 1a a5 40 bd 72 b8 a2 bd b9 db 0a bc a0 2c d0 bc
       -0.047032453 -0.079453364 -0.0084752375 -0.025411904
000200 ef 52 47 bd 84 c4 76 bd e1 c4 16 ba 99 b5 87 3d
       -0.048663076 -0.060246006 -0.0005751383 0.06626434
000210 30 60 86 3d 47 fe a6 3d ad f7 0c 3d a6 53 4f 3d
       0.06561315 0.08153968 0.03441589 0.050616883
000220 d1 fa 76 bd d6 5c 70 bd 88 70 3b 3d 1f 3e 30 bb
       -0.06029779 -0.058682285 0.045761615 -0.0026892496
000230 89 67 25 3d 78 d0 87 bc c3 76 49 3d 2a e8 24 bd
       0.040381942 -0.016578898 0.049185526 -0.04026047
000240 bc bf 9c 3c b3 47 d0 bc 72 52 55 3d 1c f3 3a 3c
       0.019134395 -0.025424814 0.05208058 0.011410501
000250 da 15 4e 3d 24 cd a7 bd 77 c2 3c bb 98 b0 8f 3c
       0.050313808 -0.08193424 -0.0028802434 0.017540261
000260 66 aa 19 bb 6f 12 f5 bc 85 2c 12 3d 6f cc 81 3d
       -0.0023447513 -0.029916016 0.03568699 0.06337821
000270 ca 7b 29 bd 95 0a 48 3d 04 f0 30 bd 5c 6d 60 bd
       -0.04137782 0.048838217 -0.043197647 -0.054791793
000280 7d b1 a3 bd 13 68 45 3c 4e 13 7f bd b4 ef 3c 3d
       -0.079928376 0.012048739 -0.06227427 0.046127036
000290 f5 0e c1 bd 1d 6e a9 bd 5e d9 91 bd e9 c2 99 bc
       -0.09426681 -0.082729556 -0.071215376 -0.018769698
0002a0 9a 90 a3 3d 40 88 fa 3c b7 be a4 3d be 33 9a 3c
       0.07986565 0.030582547 0.080441885 0.0188235
0002b0 1d 49 a3 3c 5c 3d 95 3d 77 8f 15 3d da 7b 3d 3d
       0.019932324 0.07287094 0.03651377 0.046260692
0002c0 65 96 57 3d ec e8 5b 3d df cb 3b bd 65 65 6c 3d
       0.05263366 0.05368893 -0.045848724 0.057713885
0002d0 bd 34 5b 3c 36 17 cb 3c a0 7f 48 3d 84 56 5e 3d
       0.013379273 0.024791341 0.048949838 0.054281726
0002e0 f3 81 e1 bc 87 b8 57 3d e8 50 9c 3c 00 32 56 bd
       -0.027527785 0.052666213 0.019081548 -0.052293777
0002f0 d3 ee 24 bd bc b7 53 bd 92 41 50 3d 5b fd 94 bd
       -0.040266823 -0.051688895 0.050843783 -0.07274886
000300 68 c4 0b 3d 1d 47 88 3c a3 84 d0 3c 6b b7 37 3d
       0.034122854 0.016635472 0.025453871 0.044852655
000310 87 79 60 3d f0 d4 95 3d 9e 30 ba bc 37 a1 71 3d
       0.054803398 0.07316005 -0.02272826 0.058991637
000320 c9 c7 ec 3c bb 66 73 bd 5a 97 54 3d 26 09 8c bd
       0.028903859 -0.059424143 0.051902153 -0.068376824
000330 53 32 64 bc a5 b9 9b bd 47 c1 85 bd 09 18 8b bd
       -0.013928014 -0.07603768 -0.06531005 -0.06791694
000340 ba fd 96 ba 3f 69 64 3d 2a cf 4e 3d d1 f7 ea 3c
       -0.0011519708 0.055764433 0.050490536 0.028682621
000350 a0 78 2e bb 63 12 8a 3d 31 ae e7 ba 51 d4 26 bd
       -0.002662219 0.06741788 -0.0017675814 -0.040729824
000360 aa 2d 82 bb 72 af 4e 3d 09 8a 65 bd b8 6a 83 bc
       -0.0039727287 0.050460286 -0.056039844 -0.016042098
000370 e8 34 b9 3c e6 55 52 3c 3e 2a 7b bd 8a 48 31 bd
       0.022608235 0.012837863 -0.061319582 -0.04328207
000380 bf 62 31 bc 9c 32 66 bd d2 a4 60 bd 5a 98 57 bd
       -0.010826766 -0.05620061 -0.054844685 -0.05263553
000390 50 03 6e bd 93 93 b8 3c 54 8e 8e 3b 2a b2 2d bd
       -0.058108628 0.022531306 0.004350463 -0.04240624
0003a0 8f 42 82 bb 99 2e fb 3c 53 db c8 3b 86 c8 fd bc
       -0.0039752196 0.030661868 0.006129661 -0.030979406
0003b0 1f 03 65 3d 79 1f 21 3d 5a 82 33 3d 46 3a 17 3c
       0.05591118 0.039336655 0.043825485 0.009230202
0003c0 7d 24 6a 3b 3b a4 d9 3c 70 16 6b 3d 61 6b 67 3d
       0.0035727315 0.026567569 0.057394445 0.05649889
0003d0 6e 23 93 3d db 62 73 3d 59 d7 f4 3b 93 bd 47 3d
       0.07184492 0.059420448 0.0074719605 0.048764776
0003e0 ed cc d9 bc f3 a7 e4 3c 27 5d 06 3d 65 8c 50 3d
       -0.026586974 0.027912116 0.03280368 0.05091514
0003f0 0a 13 c2 39 ce 49 4b bc 9f 23 9e 3d fa 7f 0c 3d
       0.0003701675 -0.012407733 0.07721638 0.034301735

conv_time_spat.conv_time.bias f4 [40]
000000 6a 60 fb 39 7f c2 12 3b 55 ab c0 bc 79 a7 d4 bb
       0.00047946285 0.002239376 -0.023519197 -0.006489691
000010 91 53 06 3b 1e 5b cc bb 99 1c 41 bc 63 26 40 3c
       0.0020496587 -0.006236448 -0.011786603 0.011727902
000020 f8 e8 72 3c 3f 17 88 bb b6 d2 18 3c 1f fd d8 bb
       0.014826052 -0.004153162 0.009327581 -0.0066219713
000030 74 b5 80 bc de 0b a5 3a dd ac 2e 3c fe df 83 bb
       -0.015711524 0.0012592038 0.010661331 -0.0040245047
000040 b4 e8 c8 bb 6b cb 03 bc c2 23 96 3c 68 29 65 3b
       -0.006131256 -0.008044104 0.018327598 0.0034967307
000050 a5 4a 5d 3b 90 52 12 3c d7 e3 48 bc bd 94 38 3c
       0.0033766415 0.008930817 -0.0122613525 0.011265931
000060 99 02 08 3c 47 55 6b b8 27 4e 24 bb ad 32 db bb
       0.008301401 -5.6107787e-05 -0.0025070996 -0.0066893906
000070 2d ad 06 3b e3 e4 71 bb 65 fd 35 3b 32 e6 52 bc
       0.0020549998 -0.0036910109 0.0027769443 -0.012872266
000080 8e 5b 8c bc 11 8a 8c 3b a0 17 4e bc ed 18 33 3c
       -0.0171335 0.0042889197 -0.012578875 0.010931236
000090 d9 09 f7 3a 9b 89 25 bc d9 87 b2 3c 0f 62 53 bc
       0.0018847539 -0.0101036085 0.021793293 -0.012901797

conv_time_spat.conv_spat.weight f4 [40, 40, 1, 44]
000000 a0 2f e6 bc 42 10 a3 3c bf f8 fb bc 59 15 ba 3c
       -0.028098881 0.019905213 -0.03075826 0.022715257
000010 4e 7c 2c bd 3f 51 91 3b 67 64 0c 3d 0e 54 72 3c
       -0.042110734 0.004434734 0.03427544 0.014790548
000020 e6 57 7d 3c f1 63 d4 bc 23 00 07 3d c1 47 97 bc
       0.015462851 -0.025926562 0.032959115 -0.018466832
000030 51 9d 02 3d ef 38 77 3c ac d0 3b bc 2c fb 69 bc
       0.03188831 0.015089258 -0.0114633255 -0.014281075
000040 87 4c b1 bb 67 1c ea 3c 49 0a 17 3d 2f 05 1a 3b
       -0.005410734 0.028577996 0.036875043 0.0023501625
000050 87 dd fd bc 6c e0 c0 3c 7e 62 f6 bb 6d be 4f bc
       -0.030989422 0.023544513 -0.0075190654 -0.012679678
000060 c9 e7 0d bc c7 f5 2d bd 6d 77 f5 3c 63 1a 75 bc
       -0.008661219 -0.04247072 0.029964173 -0.014959904
000070 20 ad e2 bb 37 53 90 bb 67 04 06 3d 2d 6b a0 bc
       -0.0069176108 -0.004404451 0.032719042 -0.019582355
000080 76 37 f6 bb 3f d3 46 bd 79 e3 00 bc 72 69 3c 3c
       -0.0075139357 -0.048541304 -0.007866734 0.0114997495
000090 92 e0 b8 3c b5 9e 62 bb a1 c8 23 3d 69 a7 2b bd
       0.022568021 -0.003457946 0.039986257 -0.0419077
0000a0 03 48 34 bc eb bf ad bb 0c 68 c6 bb 51 7b 5c 3a
       -0.011003497 -0.0053024194 -0.006054884 0.00084107096
0000b0 8b 94 27 3d d1 2a b7 3b f9 5e 10 3c 3e f7 ae ba
       0.040913146 0.005589821 0.008811706 -0.001334883
0000c0 41 83 1c bc 71 b2 38 3c 3c 20 3a 3c 1a 3c 47 bb
       -0.009552778 0.0112730125 0.011360224 -0.0030400814
0000d0 3f 04 11 3d 37 89 e0 3c a5 59 e3 3c 50 95 5f 3b
       0.03540444 0.02740918 0.027752707 0.0034116097
0000e0 6d 9e f3 3c 35 9b f4 bc 65 f3 8e 3c 2f 6a 31 bc
       0.02973863 -0.029859165 0.017450044 -0.010828539
0000f0 f1 a2 7b bc 21 bf 6f 38 9b 2c 97 bc 69 b6 b6 3c
       -0.0153586725 5.7160043e-05 -0.018453887 0.022303777
000100 9b 4e 9c 3c 16 61 09 3d 16 bc b2 bb 89 b6 43 3c
       0.01908045 0.033539854 -0.0054545505 0.011945375
000110 5b ce cc 3c a8 4d 87 3c 53 7b 02 3d 00 8f 0f 3d
       0.025000742 0.016516522 0.031855892 0.035048485
000120 42 e8 91 bc 68 8c 98 3c 0f b3 96 3a 45 24 bf 3c
       -0.017810944 0.018621638 0.0011497455 0.023332724
000130 0d a4 6e 3a a2 df be bc fc a3 44 bb 81 09 38 bc
       0.0009103425 -0.023299996 -0.003000497 -0.011232735
000140 09 3b 20 bb 84 d7 ce bc b9 1e 8c 3c bf 0c 07 3c
       -0.002444925 -0.02524925 0.017104493 0.008242785
000150 7d e4 5a bb e3 a2 0c bd aa 9e f4 3c e0 30 06 3d
       -0.003340035 -0.03433503 0.029860813 0.032761455
000160 9e f5 d8 3c d4 ce 95 3c b3 f1 89 3c 0c 7c 0b bc
       0.026484307 0.0182871 0.016838884 -0.008513462
000170 38 de 68 3b d6 f3 8b bc 60 e7 1d 3d 60 27 62 bc
       0.0035532843 -0.017084043 0.038550735 -0.013803333
000180 a0 ee 1d 3c a0 49 82 3c 37 f1 83 3c 57 d1 af 3c
       0.009639412 0.015904248 0.016106231 0.021462126
000190 c6 77 50 3d b8 64 7e bc 13 60 1a 3d 2a e9 31 3b
       0.050895475 -0.015526943 0.03768928 0.0027147033
0001a0 fd ff f6 3c 28 7b b7 3b 3d 37 e5 3c 03 1f a6 bb
       0.030151362 0.005599398 0.027980441 -0.005069615
0001b0 ad 0b 20 3c 6a 36 fc bc f3 4f 8a 3c 42 6e 13 3d
       0.009768409 -0.030787665 0.016883826 0.035993822
0001c0 6e 1e 30 3c 88 36 b0 bc 1b 48 a4 3c ec ff ef b9
       0.0107494425 -0.021510378 0.020053914 -0.0004577631
0001d0 62 ff 21 bb 6f 9a 3c bd 03 bb fb bc 6c 22 cd bc
       -0.002471887 -0.046045717 -0.030728823 -0.025040828
0001e0 9b 56 2d bb fa 3b f9 bc 1b b2 fa 3b 9a 61 1a 3c
       -0.0026449326 -0.030424107 0.0076506264 0.009422684
0001f0 1f 49 f5 3c 36 d9 ca bb 4a 27 0d 3d 48 73 b6 3c
       0.029942093 -0.0061904443 0.034461297 0.022271767
000200 ea 9e f3 bc 41 de db 3b 23 84 99 bc 2c 2a e3 3c
       -0.029738862 0.0067098443 -0.018739766 0.02773007
000210 07 f7 10 3d 0b 03 cd 3b 98 ca 07 3d cb dc 54 3c
       0.035391834 0.0062564663 0.033152193 0.012992094
000220 0c 1a f4 3c 36 d8 c1 3c f4 eb e7 3c 54 b0 87 bc
       0.029797576 0.023662668 0.028310753 -0.016563572
000230 6c ce f6 bc 79 bd 14 3d da 54 13 3b 1a 57 a1 bc
       -0.030127726 0.036313508 0.0022480995 -0.019694854
000240 56 44 b1 3c c0 77 af 3c cb ed d2 3c 53 4e 73 3c
       0.02163903 0.021419406 0.025748154 0.014850217
000250 3f 08 af bc 8e d4 4b 3b 1c 27 8e bc 92 2b 01 3c
       -0.021366237 0.0031102034 -0.017352633 0.007883923
000260 af 25 34 3c 91 85 96 bc 1e 80 08 3c eb 87 86 3b
       0.010995313 -0.018374236 0.008331327 0.004105558
000270 64 75 be 3c 5b d6 08 3d 23 6a a5 bc 63 ed 0b bc
       0.023249336 0.03340755 -0.020192211 -0.008540484
000280 61 7c 38 3c f2 a6 d4 3c 93 60 41 3c 19 56 c5 3c
       0.011260123 0.025958512 0.01180281 0.024088906
000290 7b ce 6c bc eb af 35 3c 3b 8f c4 3c 0a 8a b5 bb
       -0.014453526 0.011089305 0.023994079 -0.005540137
0002a0 79 5e 8d bc 8b 6a 3e 39 58 38 48 bd 97 18 ad 3b
       -0.017256962 0.00018159502 -0.04888186 0.0052824724
0002b0 d8 eb 6b bb ca de 50 3d 89 8d 9b bb b3 f0 2b 3d
       -0.0035998728 0.05099372 -0.004747097 0.041977596
0002c0 a3 89 20 3c c8 d4 42 bd 05 b1 bd 3c 17 e6 a5 bc
       0.00979844 -0.047566205 0.023155699 -0.020251317
0002d0 83 9e 08 bd 62 de 7e bc 9c 1d 25 bd 00 e0 c0 bc
       -0.033354294 -0.01555595 -0.04031144 -0.023544312
0002e0 64 68 38 3c f7 fa d6 bc 13 82 28 bc ed 55 a3 3b
       0.011255357 -0.026242716 -0.010284918 0.0049846084
0002f0 a1 42 9b bb b7 f5 ae 3b 0c cf 0b 3c b4 6f f2 3b
       -0.0047381674 0.00533935 0.008533251 0.00739857
000300 f6 43 e0 bc 1c 72 e1 3c 35 5a 04 bd e4 d9 2a bd
       -0.027376156 0.027520232 -0.03231259 -0.041711703
000310 87 7d 0b bd 4a ab 0a 3d 4a bd 03 3a 3b cb 96 bc
       -0.03405526 0.03385476 0.00050254597 -0.018407455
000320 b4 dc 93 bc c4 5c 3c bd 76 0d b0 bc c3 cf 81 3b
       -0.018049575 -0.045986906 -0.021490794 0.0039615347
000330 a9 40 8b bb 0a 3e 94 bb 02 4d 37 bc 65 53 e6 3a
       -0.0042496515 -0.004523997 -0.011187794 0.0017572461
000340 ce fd 04 3c ce e2 28 bd f7 43 87 3c 17 5b 09 bb
       0.008117152 -0.041231923 0.0165119 -0.0020958835
000350 c6 40 d2 3b 57 0a a2 3c 4f 48 15 bd 06 33 4f 3c
       0.006416413 0.019780321 -0.036445912 0.012646442
000360 0f 8c 41 bd aa 8e 4f bc 15 97 08 3d 44 72 05 bd
       -0.04725271 -0.012668291 0.033347208 -0.032579675
000370 72 f2 98 bc 18 58 6b bc 27 f0 c2 3c 46 40 c5 3b
       -0.018670294 -0.014364265 0.023796154 0.006019625
000380 28 22 47 bd c3 79 18 3d 75 88 d2 bc cd d9 92 bc
       -0.04861656 0.037225496 -0.025699833 -0.017926121
000390 63 61 01 bd e4 5a 86 3c 0e cd d1 bc e8 a4 12 bd
       -0.031587016 0.016400762 -0.025610473 -0.035801798
0003a0 94 d0 51 39 b7 fe 6f bc 52 26 46 bc b0 4d 1a bb
       0.00020009495 -0.014648131 -0.012094097 -0.002354484
0003b0 ac 25 7d 3b 8d 03 f1 bc 16 0d 3b 3c 44 b9 70 3c
       0.003862719 -0.029420638 0.011416694 0.014692608
0003c0 68 40 4e 3d 9f db 6d 3c ee 6f e1 3c 59 ef da bc
       0.05035439 0.014517694 0.027519193 -0.026725458
0003d0 f8 b2 ae bc e2 1f 06 3d 7d d1 81 ba a1 5d 0d bc
       -0.021325573 0.03274525 -0.0009904351 -0.00862828
0003e0 30 25 84 bc 22 0a cc 3c 43 85 fc b7 63 8d 75 3c
       -0.016131014 0.024907175 -3.0102796e-05 0.0149873225
0003f0 7d 99 9f bc 9d 50 74 bc 59 44 3b 3b 47 7d 29 bd
       -0.019482369 -0.014911798 0.0028574674 -0.04137924

bnorm.weight f4 [40]
000000 1b 5f 82 3f bd 4d 76 3f 55 0e 82 3f e4 1b 83 3f
       1.0185274 0.9621237 1.0160624 1.0242887
000010 87 73 80 3f bc 84 84 3f 12 d1 82 3f 34 68 79 3f
       1.0035256 1.0353007 1.0220053 0.97424626
000020 27 67 83 3f 91 87 82 3f fb a1 81 3f f6 06 7e 3f
       1.0265855 1.0197622 1.0127558 0.9922937
000030 aa a9 82 3f f6 fc 80 3f d9 2f 78 3f 71 5c 7d 3f
       1.0208027 1.0077198 0.9694801 0.9896918
000040 8a 02 77 3f 84 58 78 3f 16 fd 7b 3f 6b 27 82 3f
       0.9648825 0.97010064 0.98433053 1.016828
000050 09 4b 82 3f ee 2c 82 3f 02 5e 82 3f 54 7e 80 3f
       1.0179149 1.0169961 1.0184939 1.0038552
000060 9a f1 76 3f c9 fa 76 3f cb f0 82 3f 5a ef 82 3f
       0.96462405 0.9647642 1.0229734 1.0229294
000070 3e c3 80 3f bf 6e 81 3f 7d 58 82 3f 56 31 82 3f
       1.0059583 1.0111922 1.0183254 1.0171306
000080 a6 6c 7e 3f d8 f8 81 3f e2 a5 7f 3f e9 46 84 3f
       0.99384534 1.0154066 0.9986249 1.033414
000090 5c 79 80 3f 12 19 77 3f 5e 03 7b 3f f2 ab 78 3f
       1.0037036 0.9652263 0.9805201 0.9713737

bnorm.bias f4 [40]
000000 90 44 2f 3c a8 e8 ae bb 43 7b 15 bd 44 2e 00 bc
       0.010697499 -0.0053377934 -0.036494505 -0.007823531
000010 96 2a a7 bc 6d 11 a8 3b 1b 79 c3 bc 6c 43 1f bc
       -0.020406049 0.0051290304 -0.023861459 -0.0097206645
000020 9d b2 b9 bb 72 17 ca bc bd 70 29 bd 24 42 ed 3c
       -0.0056670443 -0.024669383 -0.04136728 0.028962202
000030 c3 09 df bb ac dc 73 bb 07 f9 41 3a ea dd 09 bb
       -0.0068065836 -0.0037210388 0.00073994737 -0.0021036812
000040 ff 31 27 3c 55 12 88 3c c9 b9 c0 bc 96 f8 8a bb
       0.010204791 0.016610304 -0.02352609 -0.0042410595
000050 f5 65 50 bc ef be 0a 3c 28 db c5 ba d9 e0 e4 bc
       -0.012719621 0.008468374 -0.0015095221 -0.027939247
000060 f7 7e d4 bb 64 8c b2 3b a7 05 c7 3b 0c 14 98 3c
       -0.006484862 0.005448865 0.006073672 0.018564247
000070 24 2a 6e 3b bf e0 21 bb 52 80 c7 3c 5a 1e 20 3b
       0.0036341036 -0.002470061 0.02435318 0.0024432153
000080 8f 2d 98 3c ad d0 64 3c 19 48 d1 bc b3 7c 2c bb
       0.018576412 0.013965768 -0.025547074 -0.0026319444
000090 f4 d5 20 3d e1 f7 45 bc 60 96 60 bc c1 eb 05 bd
       0.03926654 -0.012083025 -0.013707727 -0.032695536

bnorm.running_mean f4 [40]
000000 1b 5b 27 bc e2 c9 e0 ba 83 39 74 bd 89 85 56 bc
       -0.010214592 -0.001715001 -0.05962516 -0.013093361
000010 13 64 79 3b 0f e9 a5 3d 9d 83 5b bc bb 72 32 ba
       0.0038054034 0.08101093 -0.013398078 -0.00068072573
000020 66 48 01 3c be c8 1a 3d b9 09 6b 3c da 7a a4 bc
       0.007890796 0.0377891 0.01434558 -0.020078111
000030 da 55 8a 3c 4f 6a 5c bd e1 2f 33 3c b1 95 32 bd
       0.01688664 -0.05381232 0.010936708 -0.043599788
000040 d1 7a 14 3c d6 59 da ba f1 ce 0b 3d 79 7c 04 3d
       0.009062485 -0.0016658853 0.0341329 0.03234527
000050 4e 0c 38 bc ab 2f 84 3c f5 f2 e5 bb d8 18 8f bb
       -0.011233402 0.016136011 -0.007017488 -0.0043669753
000060 1e 85 4a 3b d4 f4 26 3c fa e5 e3 bb ce 05 0f bc
       0.0030902098 0.0101902075 -0.0069549056 -0.008729411
000070 eb 05 c2 bc c5 ba 26 bd bf c9 fb bc 3c a2 2a 3c
       -0.023684463 -0.04070546 -0.030735848 0.010414656
000080 ed a6 dd 3c 9b 3e 33 bc e7 01 19 3c af 3a 66 3d
       0.027057135 -0.010940219 0.009338832 0.05620831
000090 7b d8 34 3d 73 7b c0 3c 92 b8 d7 bc 7c d0 e7 ba
       0.044151764 0.023496365 -0.026333127 -0.0017686035

bnorm.running_var f4 [40]
000000 31 ba 4e 39 22 bf 6d 38 85 d8 17 39 94 d0 f5 38
       0.00019715053 5.668321e-05 0.00014481142 0.00011721361
000010 2c a1 18 39 6f 81 d6 38 45 91 fa 38 e6 0e 80 38
       0.00014555891 0.00010228424 0.000119479875 6.106291e-05
000020 7c b7 ef 38 a2 e9 eb 38 8a ca fc 38 3d c7 b5 38
       0.00011430585 0.00011249191 0.00012054022 8.6678636e-05
000030 9d 67 03 39 c5 df bb 38 61 63 70 38 cb 0e 7e 38
       0.00012531733 8.958535e-05 5.7313013e-05 6.0572096e-05
000040 8e e1 83 38 75 de a3 38 6b 0b 13 39 d4 61 41 39
       6.2885796e-05 7.8138815e-05 0.00014023266 0.00018442358
000050 c9 46 14 39 66 18 63 39 e7 71 dd 38 8d b6 e2 38
       0.0001414075 0.00021657496 0.00010559317 0.000108105225
000060 6d 88 97 38 a4 ca 54 38 6f 60 fd 38 09 1b 3f 39
       7.2256524e-05 5.0733463e-05 0.00012081942 0.00018225251
000070 e8 0e 8d 38 c9 e8 c0 38 58 a2 f8 38 10 8d af 38
       6.7261804e-05 9.198633e-05 0.000118558004 8.370925e-05
000080 f9 9c d6 38 0e 7e 11 39 2a 75 3e 39 dd d2 d2 38
       0.000102335536 0.00013875237 0.00018163459 0.00010052857
000090 54 01 ec 38 d0 0a 7b 38 96 56 cd 38 31 d1 c7 38
       0.00011253604 5.9853133e-05 9.7912896e-05 9.5280244e-05

final_layer.conv_classifier.weight f4 [4, 40, 144, 1]
000000 eb 31 86 bb 08 f6 c5 3b 10 f3 3d bb 02 cd 9b 3b
       -0.004095306 0.006041292 -0.0028983988 0.0047546634
000010 e1 ef ca bc ef d8 3c 3c 6c f4 27 bc c8 98 43 3c
       -0.024772586 0.01152633 -0.010251146 0.011938281
000020 96 9c 1f 3b d4 f4 3b 3c 7e 03 35 3c 7a 42 10 bb
       0.0024354807 0.011471946 0.011048196 -0.002201228
000030 3d fe c4 bb 29 2c 67 3c 43 5c dc bb 0b bd 3b bc
       -0.006011753 0.01410965 -0.0067248656 -0.011458646
000040 9f ae 0e 3c bd 5d 97 3c ea 79 dc 3c ca ce 1d 3b
       0.008708625 0.018477315 0.026913602 0.0024079555
000050 f6 78 52 3a fa ca 85 3c bc 10 c9 b7 6e 0a 92 bb
       0.0008028889 0.016332138 -2.396886e-05 -0.0044568097
000060 57 b0 16 bc 0f ca 9d 3c d2 16 e2 3b fb d2 bd 3b
       -0.009197316 0.019261388 0.006899693 0.005792973
000070 03 8d 29 3c 7b a0 39 bc 02 7a bc bc 2d d3 a7 3c
       0.010348561 -0.011329765 -0.023007397 0.020486439
000080 8c 68 6d bc da 8d 03 bc 1b 60 da 3b b3 63 2b bc
       -0.014490258 -0.0080294255 0.0066642887 -0.010460782
000090 c0 36 bb 3a d5 a4 b3 3c 66 aa e6 3c 14 67 4d bc
       0.0014283285 0.021929184 0.028157424 -0.012536783
0000a0 73 53 84 3b f5 c0 4e bc 6a 5b 00 3d ec d0 8c 3c
       0.0040382682 -0.012619247 0.03133718 0.017189465
0000b0 61 3b 15 3d 74 fd 49 bb ac 9b 14 3b 4f a8 ba 3c
       0.03643358 -0.0030821236 0.0022675795 0.022785334
0000c0 b0 e2 8d 3c 2d bf 04 3d 54 a5 f1 3c 38 24 20 3c
       0.017320007 0.032408882 0.02949778 0.00977426
0000d0 03 a4 03 ba fb b8 4a 3c 59 d4 bb 3c 91 ee a9 bb
       -0.0005021693 0.012373204 0.022928404 -0.00518591
0000e0 05 28 a2 3c da e9 57 3c 15 db e5 3a 39 5b 0c 3d
       0.019794473 0.013178313 0.0017536605 0.034266684
0000f0 74 9b bb 3b 4f 90 24 3c 79 46 98 bc 5c 70 98 bc
       0.0057253186 0.0100441715 -0.018588291 -0.018608265
000100 bb 8b 87 39 31 05 d8 3c 74 ea 9e bb 43 e3 96 3c
       0.00025853314 0.026369663 -0.0048497263 0.018418914
000110 f1 55 08 3d d3 60 d3 3c 16 7d 70 3b ba 17 66 3c
       0.033285085 0.025803005 0.003669565 0.014043743
000120 a9 b9 54 3c ad c6 ed 3c ba e9 89 3c 5a 18 40 bc
       0.012983718 0.0290254 0.016835082 -0.011724556
000130 a1 81 09 bb d3 70 a2 bb 75 8b 96 bb eb d5 f1 3b
       -0.0020981806 -0.0049572974 -0.0045942613 0.0073802373
000140 1f 3b df 3c 0a f5 e9 ba d4 d8 ef 3b ab c8 eb 3c
       0.02724987 -0.0017849517 0.007319549 0.02878221
000150 a8 99 6b 3c 1a df 3f 3c 91 17 bf 3c 21 c3 d0 3b
       0.014379896 0.011710906 0.023326667 0.0063709174
000160 ff a7 b2 3c d0 81 9c bb 09 3e bd 3a 2e 20 a9 3c
       0.021808622 -0.004776217 0.0014438044 0.020645227
000170 3f b1 8b bc 1a 80 4d bc 7e e6 7f 3c e5 a1 30 3c
       -0.017052291 -0.012542749 0.015618918 0.010780786
000180 53 40 b4 3c e7 a7 bd 3c f6 cf e1 3c e4 ae dc 3c
       0.022003328 0.023151351 0.027564984 0.026938863
000190 15 7a bb 3c 26 74 62 3c 11 7d 0e bc 1b 1a 55 b9
       0.022885362 0.013821637 -0.00869681 -0.00020322988
0001a0 ec 1f 3d bc 5d a1 99 39 bb f9 c4 3c 90 00 38 3c
       -0.011543255 0.0002930266 0.024044862 0.011230603
0001b0 c7 be 22 3c 2e 01 80 3b 6e 04 b0 3c 69 da e9 3c
       0.00993318 0.0039063906 0.021486487 0.028546529
0001c0 84 6f e3 3a 8e df 81 3b 07 0d 10 3d 72 b3 7b 3c
       0.001735196 0.0039634174 0.035168674 0.015362607
0001d0 80 f5 f3 3b 0e 1a a6 3b fa 56 2e bc e8 48 c3 bb
       0.0074450374 0.005069024 -0.010640854 -0.005959619
0001e0 0a 98 56 3c 7b 0f d4 3c 71 e1 7c 3c cc fe d2 3c
       0.013097772 0.025886288 0.015434609 0.025756262
0001f0 58 2e 43 3c ee ec cb 3c 50 2b 36 3b 01 8f 33 3b
       0.011912905 0.02489325 0.0027796812 0.002739847
000200 d1 27 d0 3b ad 2c 45 3c 5e 6e 07 3d 21 0a 20 bc
       0.0063524027 0.012034577 0.03306424 -0.00976804
000210 f9 e9 3d 3c 6c 0d 13 3c e9 5c 4d bb ff 23 b0 3b
       0.011591428 0.008975368 -0.0031335896 0.005375385
000220 f3 84 14 3c 92 0f c9 3c 36 c8 6c 3c b6 09 8a 3c
       0.009064901 0.024543557 0.014452031 0.016850334
000230 ae 21 97 3c 2c cd 07 3d 81 91 67 3c c7 cb 7f 3c
       0.018448677 0.03315465 0.014133812 0.015612549
000240 b1 a4 cd bb f5 a2 51 bc d1 b9 85 3c 56 0c a1 3b
       -0.0062757363 -0.0127952 0.016323956 0.0049148006
000250 7d 60 a4 39 39 37 69 bc 49 52 e0 3a b7 d6 25 3c
       0.00031352407 -0.0142343575 0.0017114367 0.010121993
000260 a1 61 0d 3c 5e cc e8 3b 79 49 22 bc 96 5d 24 3c
       0.008629234 0.0071044406 -0.009905213 0.010032078
000270 a1 30 4f 3c 59 22 b1 bc ad 06 ab bb f8 fe 72 3b
       0.012645871 -0.021622824 -0.0052193017 0.0037078243
000280 00 49 45 bc 42 c3 81 bc d1 ec f8 3a d6 7a f6 3b
       -0.01204133 -0.015840176 0.0018991475 0.0075219674
000290 e1 ec 8c bc 6a bd 18 3c 14 43 c4 bc 99 88 8a 3c
       -0.017202796 0.009322504 -0.023957767 0.016910838
0002a0 5e b3 07 3c 58 a4 28 3c 1f 65 33 3c 3d 05 b7 3b
       0.008282511 0.010293089 0.010949402 0.0055853412
0002b0 ab bf d7 3b b5 9c 78 bc f4 1d aa bc 45 4f 8c bc
       0.006584128 -0.015174081 -0.020766236 -0.017127642
0002c0 82 10 ea bb 83 8e 87 bb dc 44 8b bb 4f 98 08 bc
       -0.007143081 -0.004136862 -0.004250152 -0.008337094
0002d0 17 82 98 3a e4 9c 0c 3b 71 91 33 3c 1f a7 75 3c
       0.001163545 0.0021455819 0.010959969 0.014993458
0002e0 d9 00 ae 3c 53 d3 69 ba 31 fa d0 3a 39 44 db 3b
       0.021240639 -0.00089197344 0.0015943703 0.0066914824
0002f0 db ef e2 3c 00 27 f8 38 47 23 fa 3b 64 f9 74 ba
       0.027702263 0.00011832826 0.0076336 -0.00093450234
000300 dd 87 6b 3c a2 a6 f3 3b 61 f0 48 3a 55 47 bd 3a
       0.014375654 0.0074356357 0.0007665214 0.0014440814
000310 a0 d2 8b bc c1 65 eb 3b c7 8b 98 3c aa ee 5e bc
       -0.017068207 0.007183761 0.018621339 -0.013606707
000320 90 ef ec ba e0 7b b6 bc 4e 90 9d bc d8 8e 4d bb
       -0.0018076766 -0.022275865 -0.019233849 -0.003136566
000330 a7 25 f5 3a d5 a0 ed 3a 19 df 78 bc 86 de bc 3b
       0.0018703238 0.0018129597 -0.015189909 0.0057638315
000340 a5 bf ae bc b1 1d 46 bb 6c e3 73 3c 03 9d 60 bb
       -0.021331618 -0.00302301 0.014885765 -0.0034273274
000350 12 dd 8f bc 76 c3 80 3c 74 ba 23 bc 66 62 7d 3c
       -0.01756147 0.015718203 -0.009993184 0.015465355
000360 6f 5d 0c 3c bd 75 b2 bc fe 42 de bc c9 1a c9 bc
       0.008567198 -0.021784658 -0.027131554 -0.024548905
000370 b0 2a 06 3c 80 02 76 3c a5 96 34 3c 06 51 f7 3b
       0.008188888 0.0150152445 0.011022245 0.0075475005
000380 ba eb 6d bc f0 cd 67 bb 67 78 7c 3c 7c ae 41 3c
       -0.014521534 -0.003537055 0.0154095655 0.0118213855
000390 2d 16 2b bc af 1b 63 bb 6d 9f c9 bc 67 4a ad bb
       -0.010442299 -0.0034653952 -0.024612153 -0.0052884105
0003a0 78 0b 96 bb bc 40 3d bc 8e 61 b2 3b fb df 8e 3b
       -0.004579004 -0.011551078 0.0054437583 0.0043601966
0003b0 a3 6a 28 3a 81 bf 14 3b c3 bc bc bc f4 f9 48 3c
       0.00064245815 0.0022697153 -0.023039227 0.012266625
0003c0 31 6f 54 bc af 97 4a 3c 27 dd 6b 3c b2 fe 3b bc
       -0.012965963 0.012365266 0.014395989 -0.011474298
0003d0 43 42 2c bb fd 07 25 bc 9c e3 02 bd 7b bd 07 bc
       -0.0026284612 -0.010072705 -0.031955346 -0.008284922
0003e0 ce 82 6c bc c5 69 12 3c fd c6 92 bc 53 10 48 bb
       -0.014435483 0.00893635 -0.01791715 -0.0030527308
0003f0 cd d7 fb bb 40 72 ec 3b c6 8a cd 3c 32 5f f3 3b
       -0.0076856376 0.007215768 0.025090586 0.0074271196

final_layer.conv_classifier.bias f4 [4]
000000 59 46 5b 3c 88 ce 94 bc 86 39 d9 3c 9c f9 96 bc
       0.013383471 -0.018164888 0.026516687 -0.01842957
