models/ShallowFBCSPNet_persons4_lr0.01_wd0_bs32_acc0.6844.pth (torch, 383628 bytes, 9 tensors)

conv_time_spat.conv_time.weight f4 [40, 1, 25, 1]
00000000: c514 303d 720f a2bd dcf6 dbbd 11bb 5cbe
00000010: a25f 72be 724c 6dbe ffbf 3ebd 0b32 573e
00000020: 521f 803e 8817 ba3e 35f3 cb3e bd83 653e
00000030: 69ca 40bb 35fd 99be a0ea babe 259f 4abe
00000040: f951 4fbe 4f07 96bd c199 883c 5bc2 033e
00000050: 83bd b23c 3c37 043d 95bc 6e3d 4ee0 063d
00000060: 6a36 0abe 6af0 02bd c7b2 2abe de70 87be
00000070: 22df a3be 0522 9bbe 9198 62be 685f 3dbc
00000080: 2599 973d b78f 363e 14b4 513e 23b9 823e
00000090: b761 4a3e 3761 333e d6b2 a53d 5b40 e3bc
000000a0: 6d36 1abc 7595 d83d e1b1 453e 4d07 373e
000000b0: 0d51 2b3e 9ed5 1a3e 8408 c93d fd0c e538
000000c0: bf03 68be 5cb7 0dbf 09c8 053e ae1c 073d
000000d0: 8c9b 5f3c 3f9b 1fbc 2dfa 45bd 99cf 83bd
000000e0: 1f3e 0a3a bf75 2ebe bb43 39be 93c6 54be
000000f0: de6c 9dbe 503b c0be ed02 48be 42a0 85be
00000100: c6a6 4fbe fab5 81be b6d4 f3bd 0010 8ebd
00000110: 3426 8e3b 01a5 353e 8d0a 903e 0b38 a93e
00000120: 1d33 a63e dd43 ac3e 2585 b53e 3a5d 683e
00000130: cf3a 0b3e 1c2d 923e efb1 523e 452c 7f3e
00000140: a1d4 fc3d d108 ed3c 5d31 1cbc 4cc9 35be
00000150: 7652 14be fcea 20be 9379 76be 3848 79be
00000160: 30fa 73be b053 43be 4500 02be 40f5 e43c
00000170: 1e0b 023e 0ebc 2b3e 5210 ec3d a1d8 bd3d
00000180: e40a 8fbc 7d5b 053d 52d1 bc3d d27c ee3d
00000190: a0d8 283e 64ea 8e3e 0d1d b23e 801f 523e
000001a0: 2ba5 023e 7659 84bd 4934 58be d095 adbe
000001b0: 267c c8be 7890 bcbe a7ba 6ebe dbb7 0f3e
000001c0: 8ebd bf3e 3611 f43e f7c0 123f 54c2 b43e
000001d0: 017c 5f3e a77d 053c a2d6 60be 157e d9be
000001e0: 77a2 f5be 2ffa a9be aea7 2dbe 4bac 943e
000001f0: dc7a 1d3f 0e39 95bc 7475 013e 477b 9e3d
00000200: d27b 483e 4d42 fe3d 7f74 7d3d 3651 ffbb
00000210: 4e86 76bd 5c34 1dbe a12c 24be 131a 83bd
00000220: d115 a03d 0a8e d33d fbbb 723e ac67 df3d
00000230: 956f 8c3d caff c6bd 710a a9be 9192 e3be
00000240: 04f1 edbe 6cd4 ebbe 8775 02bf 54a9 aebe
00000250: 3c6c 0cbe ea95 ef3d 4306 8b3e 82de 1d3e
00000260: 199b 413e 8573 c43d 1ae6 ba3a 15de 8bbe
00000270: 9527 e9be 79f2 01bf 51a7 14bf 2d42 f1be
00000280: 5fde d5be 2bb7 19be df9f 4f3e bd80 ee3e
00000290: 6db9 053f dd5c f23e ebb8 a33e a851 203e
000002a0: ea57 9a3c 482f 2dbd 173f 25be 2715 b1bd
000002b0: 95e4 08be 83fb 353b 7e27 663e a42c 92be
000002c0: fb76 24be 2502 72be 835c b9be 12f2 c2be
000002d0: 2b25 adbe 0bf2 16be 2548 ebbd 89fa 863d
000002e0: c906 a43e 1932 d63e f692 e13e c49f f53e
000002f0: b02e dd3e e9c2 ed3e 68f2 cd3e f59c 9e3e
00000300: 1300 d43d e6c9 2bbd c3f6 bcbd 582f 5dbe
00000310: a014 59be 10b1 22be a9c2 34be f6e8 91be
00000320: c8b4 bebe 7604 a5be c494 dcbe cd67 e1be
00000330: 495a 8fbe 4435 6fbe 3044 e5bd a690 48bc
00000340: 06b1 dd3c 5066 a53d 112c 783e d2b2 fe3d
00000350: 8cf2 6c3e c319 333e 0c23 ff3d 5e41 433e
00000360: a85e 933e 8948 b93e ed6a c53e 071b bd3e
00000370: 2761 643e 6386 df3d 312f 1cbe ba81 8abe
00000380: 7bee f0be e3c6 84be b38e d2bd b7c0 55be
00000390: 2c8b 32be fadd 58bd b177 d2bd d3db bebc
000003a0: 1997 883d 5be6 4b3e 0cec 503e 7eb6 923e
000003b0: 91dc 8a3e ed50 9c3e 7a99 8c3e 1bc6 993e
000003c0: f0e3 973e de6a 933e c1bd c83e 1ba1 9f3e
000003d0: 0a8a e33d b546 483c 274a fdbd ea89 0cbe
000003e0: ad58 b0be fa43 0abf 10a9 7fbd fcce 05be
000003f0: c627 28be ff25 23be a3f2 05be 3d21 22bd
0.042988557 -0.07913102 -0.10740444 -0.21555735 -0.23669294 -0.23173693 -0.04656982 0.21015184
0.25023896 0.36346078 0.3983399 0.22413535 -0.002941752 -0.30075994 -0.3650713 -0.19787271
-0.20246114 -0.07325613 0.016674878 0.1286711 0.021818882 0.032279238 0.058285315 0.032928757
-0.1349732 -0.031967558 -0.1666976 -0.26453298 -0.32006174 -0.30299392 -0.22128512 -0.011558391
0.07402257 0.1782826 0.2047885 0.25531873 0.19763838 0.17517553 0.08090751 -0.027740648
-0.00941239 0.10575382 0.19306137 0.17873879 0.16730137 0.15120551 0.09816077 0.0001092199
-0.22657679 -0.5535791 0.13064589 0.032986335 0.013647925 -0.009741603 -0.04833429 -0.064360805
0.0005273539 -0.17037104 -0.18092243 -0.20778875 -0.30747122 -0.37545252 -0.19532366 -0.2609883
-0.20278463 -0.2533415 -0.11905806 -0.069366455 0.0043380503 0.17738725 0.2813305 0.3305057
0.3246087 0.33645526 0.35453144 0.22691813 0.13596652 0.2855004 0.20575689 0.24919231
0.12345243 0.028934868 -0.0095332535 -0.1775257 -0.14484581 -0.1571464 -0.24069814 -0.24343956
-0.23825908 -0.19074893 -0.12695415 0.027948976 0.12699553 0.16770956 0.1152655 0.09269834
-0.017461248 0.032557953 0.09219612 0.11644901 0.16488886 0.279132 0.3478779 0.20519829
0.12758319 -0.06462376 -0.21113695 -0.3390336 -0.39157218 -0.3682897 -0.2331339 0.14034979
0.37449306 0.4766938 0.5732569 0.3530451 0.21824647 0.008147634 -0.21956876 -0.42479005
-0.47975513 -0.33198687 -0.16958496 0.290377 0.61515594 -0.018215682 0.12642461 0.07738357
0.19578484 0.124149896 0.061878677 -0.0077916635 -0.060186677 -0.15352005 -0.1603265 -0.06401458
0.07816661 0.10329826 0.23704521 0.10908446 0.0685722 -0.09716757 -0.3301578 -0.4444776
-0.46472943 -0.46060503 -0.5096058 -0.34113562 -0.13713163 0.11698516 0.27153215 0.15416911
0.18906821 0.09592346 0.001425925 -0.27317873 -0.4553801 -0.5076061 -0.58067805 -0.471208
-0.41771218 -0.1501128 0.2027583 0.46582595 0.5223606 0.47336474 0.3197702 0.1565615
0.018840749 -0.04228142 -0.16137348 -0.086466126 -0.13368447 0.002776832 0.22476003 -0.28549683
-0.16061012 -0.2363363 -0.36203393 -0.3807531 -0.3381742 -0.1474077 -0.1148837 0.065907545
0.32036427 0.41835096 0.44057435 0.47973454 0.43199682 0.46437767 0.40224004 0.30979124
0.10351577 -0.041940592 -0.092267536 -0.21600091 -0.21199274 -0.15887856 -0.17652382 -0.28498048
-0.372473 -0.32229966 -0.4308225 -0.44024506 -0.2799857 -0.23360163 -0.11194646 -0.012241518
0.02706195 0.08076155 0.2423556 0.12436451 0.231394 0.17490296 0.124578565 0.19067904
0.28783154 0.36188152 0.3855814 0.36934683 0.22302686 0.10914304 -0.15252377 -0.270521
-0.47056946 -0.2593299 -0.10281124 -0.20874296 -0.17435902 -0.05294607 -0.102767356 -0.02329818
0.066694446 0.19912092 0.20402545 0.28654855 0.27121404 0.3053049 0.27460843 0.30033955
0.2966609 0.2879247 0.3920727 0.311776 0.11110313 0.012223889 -0.12367659 -0.13724485
-0.34442654 -0.54009974 -0.06241709 -0.1306724 -0.16421422 -0.15932463 -0.1308084 -0.03958248

conv_time_spat.conv_time.bias f4 [40]
00000000: 56e8 b03d 944e eebc 81e5 51be 417e 8bbd
00000010: 910c f43d e117 983c 3bfe c9bd 0eb0 393e
00000020: 956f 12be d154 6ebc 7be7 023d 4deb 7fbd
00000030: ccf1 bb3c 564f cabd b1ef b9bc 5211 663c
00000040: b877 a13d da5c be3d f807 9dbb 32fd b0bc
00000050: bb83 08be f638 95bd a48a f63d 78b9 8dbd
00000060: 3252 7d3d fe31 18bd 4b09 b63d a233 bcbc
00000070: cf2d a23d 27e9 d13d bb56 0dbe 88fd eebd
00000080: 497c ac3d 949a 283d 1894 8b3d fc67 25be
00000090: a7e2 043c 2cfc 763b fed1 fdbd e322 9fbd
0.086380646 -0.029090203 -0.20497705 -0.068111904 0.11916459 0.018566074 -0.09862944 0.18133566
-0.14300378 -0.014546589 0.03195904 -0.06248026 0.022942446 -0.098784134 -0.022697302 0.014042215
0.07884163 0.09295054 -0.0047922097 -0.021605108 -0.13331501 -0.07286255 0.12038162 -0.06920141
0.061845966 -0.03715705 0.08888491 -0.02297384 0.079188935 0.102495484 -0.13802616 -0.11669451
0.08422143 0.041163042 0.06815356 -0.16152948 0.008110679 0.0037686927 -0.123935685 -0.07770326

conv_time_spat.conv_spat.weight f4 [40, 40, 1, 44]
00000000: 30b5 8c3e d82d 343e ffd7 3c3e ebed 383e
00000010: f6bf 1c3e bb3a a6bd 3abb 4abe ccce 643d
00000020: 01a8 d13c 594f 593d 659f 2b3e 713a 943d
00000030: 4ee1 073e 9dc9 643d fa18 743e 74e8 9cbc
00000040: 9389 693d 61b6 06bd 9a77 0d3e 7ba4 07bd
00000050: 0b6b 333e 7310 863b 0828 863e ba6b 893e
00000060: 4dbe 8ebc 9d02 d83d be08 07be 3437 7dbd
00000070: 25cc 4ebe c5ce af3a 9125 e7bd 9bf2 bdbd
00000080: 44fc 3bbe 1801 21be 4cf5 aabd c5d2 b4bd
00000090: 8eef 06bc 68dc 553d eb10 cdbd 0fcd 94be
000000a0: 81fc ca3c cd00 e1bd 3875 81bc 7d83 7ebd
000000b0: d0d7 ecbd c726 043e c5f7 c6bd 98a9 29bd
000000c0: fdd0 3d3d d0f8 57be 70b9 83bd c187 67bd
000000d0: 767c 813d 6952 4bbe 89eb f43a 785d ebbc
000000e0: d9b1 223d 7d49 e2bd ad7d 2f3e 923d cfbc
000000f0: fe1a 62be c609 33bd 53cd 793d 0cb2 36be
00000100: 03c5 83be 1574 203e e147 7e3e 7a2a 3e3e
00000110: ed76 82bd 4577 a93e 7f3f c53c 48c8 84bd
00000120: 787e 1dbd 2c4c 4c3e 7c06 7abe 0aed 88be
00000130: f689 063d f90c 1c3c 3497 46bd 951c 4ebd
00000140: 3e8c e53c 5210 bc3d b055 0a3e 0816 01bd
00000150: e99c 0cbc 4a2d 123e 7848 a73d cff1 573d
00000160: 4602 64be e748 21be 3eb4 8f3d 3b11 80be
00000170: a0a4 b7be 92dc c33d af21 5fbd df97 44be
00000180: 74e7 8fbd c948 91bc d7e6 8bbe a7cc 323d
00000190: d443 cbbc 60f8 c9bd 8cfa b8be 6d04 c63d
000001a0: 5793 d4bd ab22 a4bd c85b ccbd 2e29 753d
000001b0: 9be2 403c 8878 7abe 4a2d 8ebd d0ec 9ebe
000001c0: 8ca9 6ebe 6bf7 3bbf 6291 9d3d aaea 67bd
000001d0: 0cfc 2fbd 10c4 f2be e838 143e 4286 423e
000001e0: 1e0d e0ba f6ee 1fbd 1949 cdbd 711f 39bd
000001f0: cba8 e4bc c0e3 303e 1082 1ebe 7c30 da3e
00000200: 34bb 3bbe 4d3c 113d 4c6f 1a3c 79cb b1bd
00000210: 1345 ad3d f998 54be 983f 3a3d a0d8 6cbc
00000220: fff3 8ebd 34d6 3f3e c9d7 f23d 71c7 0c3d
00000230: 01b1 9ebc 710b 233e f3b2 8bbd 33c6 ddbd
00000240: dba8 de3c 57e2 e33d 3f78 36bd fd22 4f3c
00000250: 7c57 413e a93a 953d d25b c7bc 30dc 9e3d
00000260: 03f1 153e 7375 7bbe 0aac 5fbe 6860 99bd
00000270: f4a1 3c3c da35 cebe d53e 8b3d 917b e03d
00000280: 2619 f23d dd44 35be 69b3 403e 3572 433e
00000290: f436 d6b9 f060 9d3c e652 173d 25bd 093d
000002a0: 314e 4abe 847b 83be 1d2b 97be 472b 78bd
000002b0: f138 b63c 382b a2bd ab7c e93a 7a0f 15bc
000002c0: 924e ffbd f72a 153d 53bd 71bd 6f62 c0bb
000002d0: 2530 473e d9e6 893d e914 7b3e 0c7c 8a3e
000002e0: 50e2 2c3e 1eda 303e dcd4 453e b232 25be
000002f0: c596 2abd 4bc0 6f3d 8175 fc3d 60e4 9a3d
00000300: 3666 d73d a8e3 963e 5225 253e ebe3 2cbd
00000310: 6122 22bf 39b3 883d 3223 02be 631c 843d
00000320: 7ad6 873e 2b6a 963e 1c3a 393e 95dd 023e
00000330: 380d b63e d3c0 bc3e 86aa 3e3e d75e 123e
00000340: dfde d63e 5880 b73e 37c7 a13e 0667 a33e
00000350: 1eed e2bd 9f6e 80be 961f 0f3d e014 f8bd
00000360: 3bf3 543d 7565 283e e762 ac3e 8b7d 393e
00000370: 244e cb3e 9bf0 223e f194 08be d685 623b
00000380: fc95 963e 6ff3 1bbe 841d 263e 5e02 ae3d
00000390: 96d0 e63c ff0f c5bc 8856 753e 366b f6bb
000003a0: bb8f 9cbe ad2e a03e 12a2 763e 0835 53be
000003b0: 0e93 8a3d 6939 033e c1f3 78bd 8769 d53d
000003c0: 85c6 e03d cb7c 4b3e b66f d8be 2a1e a5be
000003d0: 5aa6 a13e fe99 803e d955 fabe 8fd9 55be
000003e0: 055b 143e ec46 193e 2e4a 28be 9b0c d1bd
000003f0: afca 953d ac8e 3b3d cda8 18be c07e 64be
0.27481985 0.17595613 0.18441771 0.18059509 0.15307602 -0.08116671 -0.19797984 0.05586128
0.025592806 0.053054187 0.16760023 0.07237709 0.1326954 0.055856336 0.23837653 -0.019153811
0.057015967 -0.032888774 0.13815156 -0.033115845 0.17521302 0.0040913164 0.26202416 0.2684
-0.017424727 0.105473734 -0.13186929 -0.061820224 -0.20195062 0.0013413063 -0.11286462 -0.09274789
-0.1835795 -0.15723073 -0.08347568 -0.088292636 -0.008235825 0.05221215 -0.100129925 -0.29062697
0.024778606 -0.10986481 -0.015802965 -0.062137116 -0.115646005 0.12905417 -0.09715227 -0.041421503
0.046341885 -0.21091008 -0.06431854 -0.05652595 0.06322567 -0.19855656 0.0018685918 -0.028731093
0.03972039 -0.11049173 0.17137785 -0.025297914 -0.22080609 -0.043710493 0.060986828 -0.17841357
-0.25736246 0.15669282 0.24832107 0.18570891 -0.063703395 0.33098808 0.024078129 -0.06483513
-0.038450688 0.19950932 -0.24416536 -0.26743346 0.032846414 0.009524577 -0.048484042 -0.050320227
0.028020974 0.091828 0.1350925 -0.03151515 -0.008582332 0.14275089 0.08168119 0.05272084
-0.22266492 -0.15750466 0.070168 -0.25013146 -0.35867786 0.09563555 -0.054475483 -0.19198559
-0.07026568 -0.017734902 -0.27324554 0.043652203 -0.024812616 -0.09861827 -0.36128652 0.09668813
-0.10379665 -0.08014425 -0.099784434 0.059853725 0.011772777 -0.24460042 -0.06942232 -0.3104005
-0.23306865 -0.73424405 0.07693745 -0.056620277 -0.04296498 -0.4741521 0.14474833 0.18996528
-0.0017093753 -0.03904625 -0.10023708 -0.045196 -0.027912518 0.1727438 -0.15479302 0.42615116
-0.18333131 0.035457898 0.009425949 -0.086813875 0.084604405 -0.2076148 0.045470804 -0.014455944
-0.06980132 0.18734056 0.11857564 0.03436989 -0.019371511 0.15922333 -0.06821241 -0.10828819
0.027180126 0.11127155 -0.04454827 0.012642619 0.18881029 0.07286579 -0.024335776 0.07756841
0.1464272 -0.24556522 -0.21842971 -0.07489091 0.011513222 -0.4027546 0.06799094 0.109610684
0.11821203 -0.1770205 0.1881844 0.19086535 -0.00040858204 0.019211262 0.036944292 0.033627648
-0.1975639 -0.25680172 -0.2952508 -0.060588147 0.022243949 -0.079183996 0.0017813643 -0.009097928
-0.12466158 0.036417928 -0.059018444 -0.005871109 0.1945196 0.06733484 0.24519695 0.27047765
0.16883206 0.17270705 0.1931948 -0.1613262 -0.04164769 0.058532994 0.123270996 0.0756309
0.10517542 0.29470563 0.16127518 -0.042209547 -0.6333371 0.06674809 -0.12708738 0.06450727
0.2653082 0.29377875 0.18088573 0.1277984 0.3555696 0.36865863 0.18619737 0.14293991
0.41966912 0.35840106 0.315973 0.31914538 -0.11080383 -0.25084397 0.034942232 -0.121133566
0.051989775 0.16444953 0.33669207 0.18114297 0.39708054 0.15912096 -0.13338067 0.0034564636
0.29411304 -0.15229581 0.16222197 0.08496545 0.028175633 -0.02405548 0.2395879 -0.0075201048
-0.30578408 0.3128561 0.24085262 -0.20625699 0.0676633 0.12814869 -0.060779337 0.10420518
0.109753646 0.19871823 -0.4227273 -0.32249576 0.3157223 0.25117487 -0.48893622 -0.20883773
0.14487846 0.14968461 -0.16434547 -0.102074824 0.073140495 0.04579036 -0.14908142 -0.22313976

bnorm.weight f4 [40]
00000000: 07a2 3e3f 745e 373f 96b6 483f d914 603f
00000010: e6be 533f 6e08 443f 6cb6 7a3f f0a9 1f3f
00000020: 0262 663f 37b5 4b3f 36bf 443f 7ab4 563f
00000030: 66ce 203f 4362 3c3f f799 793f 62be 543f
00000040: 3ce1 313f cb98 533f 99c9 0e3f ade5 8e3f
00000050: d3fa 253f ef03 123f 9583 2c3f e6d9 713f
00000060: 04e4 7e3f d023 563f e2c0 1b3f 33d0 3d3f
00000070: 23f9 143f d3df 353f a0dc 413f 234a 3f3f
00000080: 7edb 963f 2a2c f53e 62a5 633f 64b9 393f
00000090: 7f28 483f 3e56 723f 2aa7 143f 6aa1 713f
0.74465984 0.716285 0.78403604 0.8753181 0.8271316 0.7657536 0.97934604 0.6236868
0.899933 0.79573387 0.76854265 0.83869135 0.6281494 0.73587435 0.97500557 0.83103
0.69484305 0.8265502 0.55776364 1.1163841 0.6483585 0.5703725 0.6738828 0.9447311
0.99566674 0.83648396 0.6084119 0.7414581 0.5819265 0.71044654 0.7572727 0.747225
1.1785734 0.47885257 0.8892423 0.7254851 0.7818679 0.94662845 0.5806757 0.94386923

bnorm.bias f4 [40]
00000000: dc65 45bf 27e5 40bf 850a 493f 06f5 283f
00000010: 9655 363f 448a 403f b8c2 1c3f 98ab 5f3f
00000020: f1f3 1e3f 0b37 33bf 55af 28bf e0bc 3c3f
00000030: 0a75 4a3f 4160 2d3f 2965 1e3f 622e 3ebf
00000040: eef3 58bf 4e65 38bf 3b09 6d3f d4e2 1cbf
00000050: ca02 5c3f 3b4e 583f f6d3 56bf 8f81 2d3f
00000060: 2d5e 37bf 2f9c 22bf b12e 693f 4713 433f
00000070: 8ade 643f 396a 53bf 43ee 3c3f 5287 4abf
00000080: 1ef1 0dbf d097 733f 855a 1a3f 6fc0 403f
00000090: 509a 403f a86d 3d3f 2d2c 6a3f 5c4b 293f
-0.7710855 -0.7534966 0.78531677 0.65998876 0.71224344 0.75210977 0.6123462 0.87371206
0.62090975 -0.70005864 -0.65892535 0.737257 0.7908484 0.67724997 0.6187311 -0.74289525
-0.8474721 -0.7202958 0.9259221 -0.6128361 0.85941756 0.8449437 -0.83917177 0.67775816
-0.71628076 -0.6351957 0.9108687 0.7620129 0.8940207 -0.8258396 0.7380106 -0.7911273
-0.5544604 0.9515352 0.6029437 0.7529363 0.7523546 0.7399545 0.91473657 0.66130614

bnorm.running_mean f4 [40]
00000000: 3acc e540 e646 5fbe 5562 fdbf 124b 4c41
00000010: 555a fdbf 7f29 2f3f 798a d8c0 864c d2c0
00000020: f726 a1c0 0e10 5d3f 999f a0c0 ea4a 74bf
00000030: 7837 dbc0 a428 2dc0 3a83 3ac0 7188 55bd
00000040: ff89 aa3f 1b96 1c40 662a 6740 0885 843e
00000050: 8c6c 363f c2ac b940 c53f 533f 7ff2 0dc0
00000060: 9897 a73f 3ba0 0ec1 8af2 b63e 1e5e 33c0
00000070: 20f3 c140 0c8d 9440 2aab 16c0 df04 8f3f
00000080: c181 8a40 e1d1 48bf 4889 4b40 da93 0f40
00000090: e532 cd40 ee3d c240 3845 f83e 0cf8 2440
7.18118 -0.2180439 -1.9795634 12.768328 -1.9793192 0.68422693 -6.7669034 -6.5718412
-5.0360065 0.8635262 -5.019482 -0.9542681 -6.850521 -2.7056055 -2.9142594 -0.052132074
1.3323363 2.4466617 3.6119628 0.25882745 0.7125938 5.8023386 0.8251918 -2.2179258
1.3093138 -8.914119 0.35731918 -2.8026195 6.0609283 4.6422176 -2.354197 1.1173362
4.328339 -0.7844525 3.180254 2.2433991 6.4124627 6.07006 0.4849031 2.5776396

bnorm.running_var f4 [40]
00000000: 95bf 0c42 739a 0342 b4b6 0f42 2cbe 1142
00000010: 66a4 0742 a07f 3042 5f88 6b42 23f3 d741
00000020: 33a4 f741 e92c e441 3acd 2742 71e0 4542
00000030: c458 3442 4d70 3d42 1cf3 1842 0434 9841
00000040: 7d10 1f42 50e9 b941 0339 fa41 f64d 9741
00000050: d930 1142 bfd7 af41 9df0 0142 acd9 c541
00000060: 99a2 a941 8e77 d241 8e70 8f41 5994 be41
00000070: c4aa ba41 7a39 1742 8c20 2042 e5cd fc41
00000080: 3bb0 ac41 1ee0 c841 4a55 da41 63c6 a441
00000090: 6c6a 5142 1ea5 ec41 599e 9941 471e 0142
35.18709 32.90083 35.92842 36.435715 33.910545 44.124634 58.883175 26.99372
30.955175 28.521929 41.950417 49.46918 45.086685 47.35967 38.23741 19.025398
39.7661 23.238922 31.277838 18.913067 36.297703 21.980345 32.484974 24.731285
21.204393 26.308376 17.929958 23.822435 23.333382 37.80613 40.031784 31.600534
21.58605 25.109432 27.291645 20.596869 52.353928 29.580624 19.202318 32.279568

final_layer.conv_classifier.weight f4 [4, 40, 144, 1]
00000000: 846b 4dbe 33a9 47be 8d13 71bd a76f 783e
00000010: d926 553e add5 f83b dbcd b63d 35a8 c43d
00000020: a8d1 003e 1fca 263e ab01 25bc 3a55 513e
00000030: dbae 5d3e 8ec5 24bc 5be6 9e3c 4be1 9fbd
00000040: 047c 0d3e 3e84 9b3e c9a8 473e 475f 463c
00000050: 48e9 82be eefc 5cbe bae6 06be 9ab5 cfbd
00000060: a019 dbbd 5b4c 113e d418 a73d bd48 1cbe
00000070: 56f2 adbe 2114 473c e440 063d 4e32 7f3e
00000080: 849b 233e abac b73d 492f e03d 600a 683e
00000090: 2dd7 043e 0c56 bf3e aff1 8b3d 4b9f 073e
000000a0: 20e4 8d3a f520 e1bd 4dae 2d3e 2870 cd3d
000000b0: a03e f43d 54f7 94bc d5e5 3a3b 7897 8d3c
000000c0: 2125 1dbc 6d98 553e 021e 453e 4ea2 c8bd
000000d0: 5559 9e3d 4d93 f43a e538 ad3d 2c67 2fbe
000000e0: 4990 c5bd 6cb8 f13c 5f86 f5bd 91f3 23be
000000f0: decd 90be cb5a 84bd c6cf c93e 3b55 d3bb
00000100: 4c4b cd3d 4f88 2cbe 531c 3dbe e56e 48be
00000110: 7a1f 16be 0e03 d4bd c8d9 453e c5cc 8c3d
00000120: e8f0 803d 120d 22be 6bc0 b83c 40af d6be
00000130: 2842 47be e377 ef3c c877 953e ba0a 583e
00000140: 9d63 21bc a464 17bb d8ee f2be 8f24 cebd
00000150: 6ec0 d23d 4857 08bd 69c9 4a3e d645 963d
00000160: f939 093e 7026 9bbc b987 ee3c 66fa 05bd
00000170: 0d36 5abe afbd b23d 0bfe 9c3d 6293 043e
00000180: fa24 b83c 70bc 233c 243a 07be 22e0 64bd
00000190: 38cc b5be e23b 79be 09c1 e5bd a1ab 433e
000001a0: 46dc d2bd b92f f43d da5c 52bd 3e33 bc3c
000001b0: ee17 603e a4d6 043e 317c 0c3e 23fc 373e
000001c0: 02a8 3a3e 6579 ad3e 229f 4a3e d348 673d
000001d0: 73dd debd 6bd3 a3bc 457b 2ebe 1e01 02be
000001e0: 45eb 123d cdbf 423e 3afa fabd fb92 533d
000001f0: edd8 bb3c 7ccd 2dbe 9ca7 b53c bc0f 143e
00000200: 7adf 24bd c1e0 92bd 9693 2a3d 657d 023c
00000210: 4d75 413e 286a 1a3e ec93 983e 0335 b73d
00000220: 94fc 95bc d2ad f3bd aa91 12bc 90dc a43e
00000230: cc95 353e d9b0 d7bd 2da1 3ebe e858 96be
00000240: 5eff 953e b672 64be 3164 e63d f167 b7bd
00000250: 0bdb 85be eaf7 0bbe 66c3 d13d 95e2 313d
00000260: 74b9 b9bc 1b07 a1bd 1518 0b3e 38ea d43d
00000270: 9e21 35be 6ca5 413d 909f 973d 9821 e13d
00000280: cdee 34bd ca8f c93d f610 3abd 6d31 21bd
00000290: a26d fcbd b35a 08bc 2f7a 42be 8539 26be
000002a0: 1146 4abe b5da 26be a67c 58be 711a e0bc
000002b0: 50a7 cf3d 2e3a dfbd bac2 f3bd 20f9 bcbe
000002c0: af34 99be 6888 91be cdcb 513e f737 14be
000002d0: 47a5 893e 4203 883c 5f46 80bd baae 49bd
000002e0: ed16 8cbe 033c c8bd b9cc 1abe 9c28 20be
000002f0: 2d34 17be 641e 233e 5dfa 1a3d dd4e e4bd
00000300: c385 ddbb f479 22be c942 bdbd 4855 80bd
00000310: 3f17 3c3d 311c 813e ee10 c03d 89f9 843d
00000320: 7ebd d0bc 4596 bb3d fcd4 403e ddec bf3d
00000330: 126f 563d 5f60 e73d 729d 9bbc b070 8f3d
00000340: d259 13bd 0bc6 913e 6d4a 9a3d dfc2 e73d
00000350: ce07 d13d 15e4 9a3d 434b 72be e942 00be
00000360: 8db5 3f3d ecec 053e dd76 3ebd 523b b83d
00000370: db25 0ebd 3e97 ffbd 0c7f d9bd 3d1f 80be
00000380: 77e7 2ebd 3ec2 7d3d d76e e7bc 6895 943d
00000390: 29ee 713e 090e 083e 021b 673e 0be6 dbbd
000003a0: 78a9 2dbe e73d d4bd bb68 93be 2193 8cbe
000003b0: 9118 59be 7da8 d83d d778 fe3d 6b24 2ebd
000003c0: f15f d33c 9405 debd 5139 483c 7f82 523c
000003d0: fead 263e c47e 053e 6ec9 fa3d 8d79 98be
000003e0: 8b8e b5bd 6633 82be 0034 63be 81c6 dcbd
000003f0: 23bf 153d c839 063c 8f75 cc3d dc27 f13d
-0.20060545 -0.19498138 -0.058856536 0.24261342 0.208156 0.0075938315 0.089259826 0.096023954
0.12579978 0.1628804 -0.010071198 0.20442668 0.21648733 -0.010056866 0.019396951 -0.07806643
0.1381684 0.3037433 0.1949798 0.012107677 -0.25568604 -0.2158086 -0.13173953 -0.101420596
-0.10698247 0.14189284 0.081590325 -0.15262122 -0.3397395 0.012150795 0.03277673 0.24921533
0.15977293 0.08968481 0.10946519 0.22660208 0.12972708 0.37370336 0.06833207 0.13244359
0.0010825433 -0.10992614 0.16961022 0.10031158 0.11926007 -0.018184341 0.0028518338 0.01728414
-0.009591372 0.20858927 0.19249728 -0.09796582 0.077318825 0.0018659622 0.084581174 -0.171292
-0.09646661 0.029506885 -0.1198852 -0.16010882 -0.28282064 -0.0646263 0.3941633 -0.0064493692
0.10024127 -0.16848873 -0.18467836 -0.19573553 -0.14660445 -0.10352145 0.19321358 0.06874994
0.06295949 -0.15825298 0.02255269 -0.4193058 -0.1945883 0.029231971 0.29192948 0.21097842
-0.00985041 -0.0023100758 -0.47447848 -0.10065567 0.10290609 -0.033286363 0.19803394 0.07337539
0.13401021 -0.018939227 0.029117452 -0.0327095 -0.21309681 0.087275855 0.07665642 0.12946847
0.02247857 0.0099936575 -0.13205773 -0.055877812 -0.3550737 -0.2433925 -0.11218459 0.1910844
-0.1029592 0.11923165 -0.05135808 0.022973653 0.21884128 0.12972504 0.1371925 0.17967276
0.18228152 0.3388168 0.19787267 0.056465935 -0.10882082 -0.019998273 -0.17039211 -0.12695739
0.0358689 0.19018479 -0.12254758 0.051653843 0.022930587 -0.16972917 0.022174649 0.14459127
-0.040252186 -0.07171775 0.041644655 0.007964467 0.18892403 0.15079558 0.29800355 0.08945658
-0.018308915 -0.11898388 -0.008945862 0.32199526 0.17732924 -0.10531778 -0.18616171 -0.29364705
0.29296392 -0.22309384 0.11249579 -0.08955372 -0.2614368 -0.1366879 0.102423474 0.043428976
-0.022671439 -0.078626834 0.13583405 0.10396236 -0.17688605 0.0472769 0.07403481 0.109927356
-0.04417305 0.09841879 -0.04542633 -0.039353777 -0.12325598 -0.008322406 -0.18991922 -0.1623288
-0.1975329 -0.16294368 -0.211413 -0.027356358 0.10139334 -0.10899769 -0.119023755 -0.36908817
-0.29923007 -0.28424382 0.204879 -0.14474474 0.2688391 0.016603116 -0.06263422 -0.049238898
-0.2736124 -0.09777071 -0.15117158 -0.15640491 -0.14765997 0.15929562 0.03783642 -0.111478545
-0.0067603304 -0.15866834 -0.09241254 -0.06266266 0.045920607 0.2521682 0.09378229 0.064929076
-0.025480982 0.09159521 0.18831247 0.0937135 0.05235202 0.11297678 -0.018995974 0.07003915
-0.03597433 0.28471407 0.07533727 0.113164656 0.10206567 0.075630344 -0.23661523 -0.12525524
0.046804 0.1307866 -0.046500076 0.089956895 -0.03470407 -0.12480019 -0.106199354 -0.25023833
-0.04270121 0.061952822 -0.028251095 0.072550595 0.23626007 0.13286604 0.22568896 -0.107372366
-0.16959178 -0.103633694 -0.2879084 -0.27456 -0.21200778 0.105790116 0.12425392 -0.0425152
0.025802584 -0.10840908 0.012220697 0.0128484955 0.1627731 0.13036638 0.12245451 -0.29780236
-0.088650785 -0.2542984 -0.22187805 -0.10780049 0.036559235 0.008192487 0.0998336 0.11775181

final_layer.conv_classifier.bias f4 [4]
00000000: 434b 79be 5217 3abe b22a 123f 149f b5bd
-0.24345116 -0.18172958 0.570964 -0.08868232
