models/ShallowFBCSPNet_persons8_lr0.01_wd0_bs128_acc0.5813.pth (torch, 383642 bytes, 9 tensors)

conv_time_spat.conv_time.weight f4 [40, 1, 25, 1]
0	0x3e4e5716	0.20150408
1	0x3e37ee04	0.1796189
2	0x3e2c2f50	0.16814923
3	0x3e88c9df	0.26716515
4	0x3e67cf1d	0.22637601
5	0x3e46f8cd	0.19430847
6	0x3dd9dbde	0.106376395
7	0x3cf3ac56	0.029745262
8	0xbd69b441	-0.05705667
9	0xbd836033	-0.06414833
10	0xbd2112f8	-0.03932473
11	0xbdf2e2b0	-0.118596435
12	0xbd157c90	-0.036495745
13	0xbd9d388c	-0.07676801
14	0xbdfb9928	-0.122850716
15	0xbd9ffb91	-0.07811654
16	0xbd9010ef	-0.0703448
17	0xbc5e9c67	-0.013587094
18	0x3cf49fad	0.029861296
19	0x3d901fc0	0.07037306
20	0x3d9bc9e7	0.07606869
21	0x3e2f35a2	0.17110303
22	0x3e2cadeb	0.1686322
23	0x3dec4ee4	0.11538485
24	0x3e2f59a5	0.1712404
25	0xbd1e2e11	-0.03861815
26	0xbccac541	-0.024752261
27	0xbd98be8b	-0.07458218
28	0xbe3735ed	-0.17891665
29	0xbdd669eb	-0.10469421
30	0xbd99f42e	-0.07517277
31	0xbd3bd494	-0.045857027
32	0x3de41f78	0.11138815
33	0x3d9e953d	0.07743309
34	0x3dc07148	0.09396607
35	0x3dc0968a	0.09403713
36	0x3e09d10b	0.1345865
37	0x3c80ec36	0.015737634
38	0x3dc6e7ca	0.09712179
39	0xb93e689a	-0.00018158779
40	0xbe144a7b	-0.14481537
41	0xbdfb0f25	-0.12258748
42	0xbe3569b8	-0.1771611
43	0xbd8df728	-0.06931907
44	0xbe120acf	-0.14261936
45	0xbbb5b11d	-0.005544795
46	0x391406ee	0.00014116961
47	0xbcb3235b	-0.021867445
48	0x3d822f2d	0.06356654
49	0x3bff7373	0.007795745
50	0xbd05871a	-0.032599546
51	0x3d71622a	0.058931507
52	0x3e37cc00	0.17948914
53	0x3e1f9b84	0.15586668
54	0x3e601169	0.21881641
55	0x3e0b551c	0.13606685
56	0x3ce26afc	0.027638905
57	0xbdccbe64	-0.09997252
58	0xbe9900e4	-0.29883492
59	0xbee9890c	-0.4561237
60	0xbf09eab2	-0.5387374
61	0xbebf3fba	-0.37353307
62	0xbe9b7c42	-0.3036824
63	0xbe310942	-0.17288688
64	0x3d49b2fa	0.04924295
65	0x3e12ef3f	0.14349078
66	0x3e43a6d2	0.19106606
67	0x3e36815f	0.17822789
68	0x3d2af817	0.041740503
69	0x3c403216	0.011730691
70	0xbd2e6123	-0.042573106
71	0xbd13fb47	-0.03612831
72	0x3cc08567	0.023501111
73	0xbd374a26	-0.044748448
74	0x3d350726	0.04419627
75	0xbdebaa5c	-0.11507103
76	0xbce042fb	-0.027375689
77	0xbafb4dce	-0.0019172968
78	0xbe0e033c	-0.13868421
79	0xbe0b4747	-0.13601409
80	0xbe5626c6	-0.20913228
81	0xbe88bc41	-0.26706126
82	0xbeaf3897	-0.34222862
83	0xbe86c8e4	-0.26325142
84	0xbe2af7c0	-0.16696072
85	0xbe403808	-0.18771374
86	0x3caca986	0.021076929
87	0x3e2282a4	0.15870148
88	0x3e274982	0.16336635
89	0x3e94c955	0.29059854
90	0x3ea19b50	0.31563807
91	0x3e966542	0.2937413
92	0x3e66552f	0.22493432
93	0x3de16f34	0.110075384
94	0xbd5b7e24	-0.053587094
95	0xbd9e4dca	-0.07729681
96	0xbe8f8b97	-0.28036186
97	0xbe30a5f2	-0.17250803
98	0xbe6a1617	-0.22859989
99	0xbe81e4e2	-0.25369936
100	0x3c8220a6	0.015884709
101	0xbd5da45e	-0.05411183
102	0xbe12f027	-0.14349423
103	0xbe547a6e	-0.20749828
104	0xbdaaa604	-0.08332446
105	0xbe3c3f33	-0.18383484
106	0xbde35640	-0.11100435
107	0xbd6c280e	-0.057655387
108	0x3dd8167f	0.10551166
109	0x3d88a8e9	0.06672842
110	0x3e2ca45a	0.1685957
111	0x3dd5e7dd	0.10444615
112	0x3d13a9e3	0.03605069
113	0x3d578f05	0.05262663
114	0x3c594da5	0.013263141
115	0xbdbefa9e	-0.09325145
116	0xbdca9eb7	-0.09893554
117	0xbda70de8	-0.08156949
118	0xbda0a53f	-0.07844018
119	0x3cbad6e4	0.022807546
120	0xbc256563	-0.010094973
121	0x3baacf1c	0.0052126776
122	0x3d5ad488	0.05342534
123	0x3b597e62	0.0033186902
124	0xbd26c374	-0.040713742
125	0x3cb3738c	0.021905683
126	0x3b33cc80	0.0027435124
127	0x3d98dab4	0.07463589
128	0xbd852603	-0.06501391
129	0x3b0a1293	0.00210682
130	0x3c1431cd	0.009045077
131	0xbe086c3a	-0.13322535
132	0xbe4eee7b	-0.2020816
133	0xbe248778	-0.16067302
134	0xbe702635	-0.23452075
135	0xbe5a4f84	-0.21319395
136	0xbe25a74c	-0.161771
137	0xbd71c119	-0.059022043
138	0x3da52cf0	0.08065212
139	0x3e4c5568	0.19954455
140	0x3e8316f6	0.25603455
141	0x3e39e71c	0.18154567
142	0x3e8316a3	0.25603208
143	0x3e67f011	0.22650172
144	0x3e477849	0.19479479
145	0x3d29d7b2	0.04146547
146	0xbd4d8482	-0.050175197
147	0xbd7465d3	-0.05966742
148	0xbd861819	-0.06547565
149	0xbdee4ab6	-0.11635344
150	0x3de9f9d3	0.11424603
151	0x3dd24699	0.10267372
152	0x3d0b0c00	0.03394699
153	0x3d4f2e15	0.050581057
154	0x3c57333d	0.013134775
155	0x3db51803	0.088424705
156	0x3cdc5384	0.026895292
157	0x3dd14c1a	0.10219593
158	0x3de1fe52	0.11034836
159	0x3e1081f4	0.14112073
160	0x3d7b3d7b	0.06133793
161	0x3d78e882	0.06076861
162	0x3d81ec62	0.063439146
163	0xbd9ae4a1	-0.07563139
164	0xbe013e7a	-0.12621489
165	0xbe00deee	-0.12585041
166	0xbe14c9da	-0.14530125
167	0xbe6ab933	-0.2292221
168	0xbe00603a	-0.12536708
169	0xbe3122e9	-0.17298473
170	0xbd41d395	-0.04732092
171	0xbe0728f8	-0.13199222
172	0xbe1fdb4e	-0.15611002
173	0xbcfa5cae	-0.030561771
174	0xbd5b5479	-0.053547356
175	0x3dcb67fc	0.09931943
176	0x3e025e59	0.12731303
177	0x3e6fb6b6	0.23409542
178	0x3e4a6d0a	0.19768158
179	0x3e0db3f5	0.1383818
180	0x3e503e66	0.20336303
181	0x3d4720ef	0.048615392
182	0x3d8f047d	0.06983278
183	0xbdd7d15c	-0.10537979
184	0xbd8716f9	-0.065961786
185	0xbe019751	-0.12655379
186	0xbe75a065	-0.23986967
187	0xbe0c45f2	-0.13698557
188	0xbe28ec85	-0.16496475
189	0xbe2a3d90	-0.16625047
190	0xbdd6059a	-0.10450287
191	0xbca97780	-0.020686865
192	0xbdb8c01d	-0.09021018
193	0x3db1ca94	0.08681217
194	0x3da7be11	0.08190549
195	0x3dbcfba2	0.09227683
196	0x3d28f137	0.041245665
197	0x3a82df09	0.0009984683
198	0x3cabad63	0.0209567
199	0xbb018b1e	-0.0019766758
200	0xbd20a424	-0.039219037
201	0xbc216e90	-0.00985302
202	0xbd7f7221	-0.0623647
203	0x3ad3cde1	0.0016159379
204	0xbdde4d17	-0.108545475
205	0xbdb7b579	-0.0897016
206	0xbdfcbe05	-0.12340931
207	0xbe26531a	-0.16242638
208	0xbdfcdc9f	-0.12346768
209	0xbd76e9dc	-0.06028162
210	0xbe318905	-0.17337425
211	0xbc4d1797	-0.012517831
212	0xbd1d4355	-0.03839429
213	0x3d1189b2	0.035531707
214	0x3d9aabe8	0.0755232
215	0x3e48ce5b	0.19609968
216	0x3e73b06a	0.23797765
217	0x3e93bf0a	0.2885669
218	0x3e0f0f2f	0.13970636
219	0x3e624af3	0.22098903
220	0x3e0c2327	0.13685285
221	0x3d91f48a	0.0712672
222	0x3dc10ccc	0.09426269
223	0x3dc812cc	0.0976921
224	0x3ccfe977	0.02537988
225	0xbd587aa1	-0.052851323
226	0x3b46b542	0.003032044
227	0x3be97bf5	0.0071253725
228	0x3e0d1295	0.1377662
229	0x3da53874	0.08067408
230	0x3e060ba6	0.13090381
231	0xbd18ad8e	-0.03727489
232	0xbbfebcad	-0.0077739567
233	0x3c72ef66	0.014827585
234	0xbe0a56c7	-0.13509665
235	0xbb5b20aa	-0.0033436217
236	0x3cc4b757	0.024013205
237	0x3e1a0d78	0.150442
238	0x3e5ab40e	0.21357748
239	0x3ea215c0	0.3165722
240	0x3e85d205	0.26136795
241	0x3e3f397d	0.18674274
242	0x3df71c55	0.12065951
243	0x3d8ffebc	0.070310086
244	0xbdc51578	-0.096232355
245	0xbe1a5147	-0.15070067
246	0xbe079827	-0.13241635
247	0xbe378847	-0.1792308
248	0xbd880a3a	-0.066425756
249	0xbdf95ae8	-0.12175542
250	0xbd8cbeb5	-0.06872312
251	0xbe268bc5	-0.16264255
252	0xbe19d200	-0.15021515
253	0xbe041636	-0.12899098
254	0xbe13d95b	-0.14438383
255	0x3cb35e53	0.021895563

conv_time_spat.conv_time.bias f4 [40]
0	0x3cacc699	0.021090792
1	0xbdfc7e5f	-0.12328791
2	0x3d94746d	0.07248769
3	0xbdbfac7b	-0.0935907
4	0xbdbe1f34	-0.09283295
5	0xbd90e67f	-0.07075214
6	0x3d124841	0.035713438
7	0x3dad3a84	0.084584266
8	0xbdeb2c48	-0.11483055
9	0x3d8ecc35	0.06972543
10	0xbd64c859	-0.05585513
11	0x3dc80b8d	0.09767828
12	0xbd803c2e	-0.06261478
13	0x3da51c4a	0.08062036
14	0x3d9cc38b	0.07654484
15	0xbd14a0ce	-0.036286168
16	0x3c90554e	0.017618801
17	0xbe3a8749	-0.1821567
18	0x3d789e8d	0.06069808
19	0xbcc23ebc	-0.023711555
20	0x3d62142b	0.055195015
21	0xbd57f77b	-0.05272625
22	0xbe4714e9	-0.1944157
23	0x3e3310b8	0.17486846
24	0x3e0c5107	0.13702784
25	0xbd882b83	-0.06648924
26	0x3da23bab	0.07921537
27	0xbd338d79	-0.04383609
28	0x3e4c8ce1	0.19975616
29	0x3dd53517	0.10410517
30	0xbc16956f	-0.009190901
31	0xbdef5d7d	-0.11687753
32	0xbdb9144a	-0.09037073
33	0x3e30fe69	0.1728455
34	0x3c9751a4	0.018471546
35	0x3ce7fb1b	0.028317979
36	0xbe171f31	-0.14757992
37	0xbd7abe1e	-0.061216466
38	0x3e1595fb	0.14607994
39	0xbd808ec8	-0.06277233

conv_time_spat.conv_spat.weight f4 [40, 40, 1, 44]
0	0xbc43ea7e	-0.011957763
1	0x3e23a4d9	0.15980853
2	0x3eac5761	0.33660415
3	0x3d7a2bba	0.061076857
4	0xbdf99079	-0.12185759
5	0x3ddf989f	0.10917782
6	0xbde61ff5	-0.11236564
7	0x3da5934c	0.08084735
8	0x3e3431fe	0.17597196
9	0xbd3bd6b5	-0.045859057
10	0x3dc2108c	0.09475812
11	0x3e1308d3	0.14358835
12	0x3e2b83dc	0.16749519
13	0xbcba8b23	-0.022771424
14	0x3ce89e80	0.028395891
15	0x3e6fe3eb	0.23426788
16	0xbd0229d4	-0.03177817
17	0xbca54b3d	-0.020177478
18	0x3e2ef1d9	0.17084445
19	0x3dd6fc7e	0.10497378
20	0xbca7960a	-0.020457286
21	0x3ec2d8f5	0.3805615
22	0x3d1e48e0	0.038643718
23	0xbd805fbb	-0.06268259
24	0xbe7b70c5	-0.24554737
25	0xbb556178	-0.0032559317
26	0x3ef7fe3f	0.48436162
27	0xbe59ea03	-0.21280675
28	0xbdf9cc87	-0.121972136
29	0xbe05826c	-0.13038033
30	0x3d63cb3b	0.055613738
31	0xbe723eaa	-0.23656717
32	0xbd9a40c9	-0.07531888
33	0xbd8b3de2	-0.067989126
34	0xbd12febc	-0.035887465
35	0xbcf128c8	-0.029438391
36	0x3e9897a7	0.29803202
37	0x3e2764a7	0.1634699
38	0x3e41c6e1	0.18923523
39	0x3ef4a124	0.4777919
40	0xbe964d23	-0.29355726
41	0x3e6378e4	0.22214085
42	0x3e0cf0a3	0.1376367
43	0x3c31c6f5	0.010850658
44	0x3d1c5e0f	0.03817564
45	0xbce3277d	-0.02772879
46	0xbdb7dd50	-0.08977759
47	0x3b1f3e3f	0.0024298576
48	0x3d8eb8e1	0.069688566
49	0xbd8a9efb	-0.06768604
50	0x3de0db90	0.10979378
51	0x3cf80388	0.030275121
52	0xbd6f0723	-0.058356415
53	0xbdd6341c	-0.10459158
54	0xbc957d37	-0.018248184
55	0xbc8c4eba	-0.017127384
56	0x3a112b3a	0.00055377523
57	0x3dc2538d	0.09488592
58	0x3c1aca66	0.00944767
59	0xbc8bd421	-0.017068924
60	0xbd17c78a	-0.03705553
61	0x3d844834	0.06459084
62	0xbccadd03	-0.02476359
63	0xbd7e7ef4	-0.06213279
64	0x3df29289	0.118443556
65	0xbdb2ae18	-0.08724612
66	0xbd42613c	-0.04745601
67	0xbd0966a1	-0.03354514
68	0x3e0d7e5f	0.13817738
69	0xbc487dac	-0.012236994
70	0x3b89252e	0.0041853404
71	0x3e018861	0.1264968
72	0x3e1cc372	0.15308931
73	0x3e16cdbc	0.14726919
74	0xbd9d7a6b	-0.07689365
75	0x3c619032	0.013767289
76	0x3e483717	0.19552265
77	0x3dcb585d	0.09928963
78	0xbd17c64a	-0.037054338
79	0xbdbdb0ed	-0.092622615
80	0xbe2aebf3	-0.1669157
81	0xbd89a3be	-0.067206845
82	0xbe2ffbd5	-0.1718591
83	0xbe2a10db	-0.16607992
84	0x3e134535	0.14381869
85	0xbd7964a4	-0.060886994
86	0xbd096b41	-0.03354955
87	0xbc4ba5a2	-0.012429627
88	0xbc8d06aa	-0.017215092
89	0xbb8db632	-0.004324698
90	0x3d85be11	0.06530393
91	0xbdb69345	-0.08914808
92	0xbea6bb26	-0.32564658
93	0xbd00a3a0	-0.031406045
94	0xbeb7cb62	-0.35897356
95	0xbe9e045e	-0.30862707
96	0xbd74cb87	-0.05976441
97	0xbe75e642	-0.24013618
98	0xbdecae57	-0.1155669
99	0xbd0d224d	-0.03445654
100	0xbc09ab73	-0.008402693
101	0xbe21547d	-0.15754886
102	0xbe27a448	-0.16371262
103	0xbae3398f	-0.0017335879
104	0xbe746533	-0.2386673
105	0xbec8946e	-0.39175743
106	0xbdef2b5f	-0.11678194
107	0xbe28f9a2	-0.16501477
108	0xbd57c928	-0.052682072
109	0x3e819da7	0.25315592
110	0xbcff30b8	-0.03115116
111	0x3e0c488f	0.13699554
112	0xbe6ea2de	-0.23304316
113	0xbb642da9	-0.0034817255
114	0x3ebc2615	0.36747804
115	0xbd86fecc	-0.065915674
116	0xbe8eb310	-0.2787099
117	0xbeee1dba	-0.46507055
118	0x3e268e37	0.16265188
119	0xbda03561	-0.07822681
120	0xbe64d3ee	-0.2234647
121	0xbe90bb1b	-0.2826775
122	0xbd07704d	-0.033066083
123	0xbd2a8492	-0.041630335
124	0x3e656c9b	0.22404711
125	0xbd9450f3	-0.07242002
126	0x3e2db3e7	0.16963159
127	0x3e6230e6	0.22088966
128	0xbe80d3b0	-0.25161505
129	0x3ed9577f	0.42449567
130	0xbd7c22b2	-0.061556526
131	0x3df9d76d	0.12199292
132	0x3e257c68	0.16160738
133	0xbd55ea43	-0.052225363
134	0xbe57e28f	-0.21082519
135	0xbd815c1b	-0.06316396
136	0x3d369b46	0.044581674
137	0xbc85b96c	-0.016323768
138	0x3bc9025d	0.006134315
139	0x3cf5d7b9	0.030010091
140	0xbcaaa109	-0.02082874
141	0x3c210ad8	0.0098292455
142	0xbd4b19d5	-0.049585182
143	0xbda06766	-0.07832222
144	0xbd8fd968	-0.07023889
145	0xbc979bfa	-0.018506993
146	0xbcb60d69	-0.022223191
147	0xbe22f124	-0.159123
148	0x3c52f67d	0.01287615
149	0xba8808cd	-0.0010378599
150	0x3d8867b0	0.06660402
151	0x3de46cc2	0.111535564
152	0xbe2bab49	-0.16764559
153	0xbe9e3086	-0.30896395
154	0x3d44376e	0.047904424
155	0xbbc339b1	-0.005957805
156	0x3e14e8b8	0.145419
157	0x3c2b6b36	0.010462573
158	0xbef09b29	-0.46993378
159	0x3df7e108	0.12103468
160	0x3b4dffd9	0.0031433015
161	0x3d89c76c	0.0672749
162	0xbcd53c5c	-0.026029758
163	0x3e2acc34	0.1667946
164	0xbdb4a84e	-0.08821164
165	0xbc834e97	-0.016028685
166	0x3d7f503f	0.062332388
167	0xbce70fb3	-0.028205728
168	0xbe6a97cc	-0.22909468
169	0xbe216e91	-0.15764834
170	0x3ceb5001	0.028724672
171	0xbee4855b	-0.44632992
172	0x3e986517	0.29764625
173	0xbe6afa92	-0.22947147
174	0xbdd7ab01	-0.10530663
175	0x3d875155	0.0660731
176	0x3cad3a75	0.021146039
177	0xbdea1f27	-0.11431723
178	0xbdc43244	-0.095799
179	0x3cbdbfbf	0.02316272
180	0x3d836aee	0.064168796
181	0xbc611e5c	-0.013740148
182	0x3d9dd64a	0.07706888
183	0x3c45d0a7	0.012073672
184	0xbd3232da	-0.043505527
185	0x3a8fdb4d	0.0010975391
186	0xbac0e0fa	-0.0014715486
187	0xbe35fdce	-0.177726
188	0xbd8d513a	-0.06900258
189	0x3db886c0	0.090100765
190	0xbd8e3d03	-0.06945231
191	0xbd1f5abc	-0.03890489
192	0x3ced4841	0.028965117
193	0xbc89dfbe	-0.016830321
194	0xbc112453	-0.008858758
195	0xbde75b8a	-0.112967566
196	0x3e33ddfe	0.17565152
197	0xbe39c3e1	-0.18141128
198	0xbd2e3aa6	-0.0425364
199	0x3d37fb27	0.044917252
200	0x3e4bf56e	0.19917843
201	0xbd7accd8	-0.06123051
202	0xbd9db67d	-0.077008225
203	0x3ddd1468	0.10794908
204	0x3e11b5b4	0.1422947
205	0x3e3ba608	0.18325055
206	0x3d5b6d0c	0.053570792
207	0x3e5debce	0.21671984
208	0x3da6df29	0.08148033
209	0x3d3798e8	0.044823557
210	0x3e21f448	0.15815842
211	0x3de53e06	0.11193471
212	0xbe11534a	-0.14191929
213	0xbe2a8d48	-0.16655457
214	0xbe156aec	-0.14591569
215	0xbeb5fd52	-0.3554483
216	0x3e84893f	0.2588596
217	0xbcb2f54c	-0.021845482
218	0xbd5f9d57	-0.05459341
219	0x3d8c8fd7	0.06863373
220	0x3e419a0e	0.18906423
221	0xbcaa6196	-0.020798486
222	0xbdf0cad5	-0.11757437
223	0xbd554cd3	-0.05207522
224	0xbcf053c6	-0.029336821
225	0x3a8152ff	0.0009866654
226	0xbe3ae470	-0.18251204
227	0xbd78c253	-0.060732197
228	0x3d4a52b3	0.049395274
229	0x3e459a62	0.19297174
230	0xbd8bb08a	-0.068207815
231	0xbdc1fd8c	-0.09472188
232	0xbd419e06	-0.047269844
233	0xbd32cf60	-0.0436548
234	0xbd21fb94	-0.039546564
235	0xbce44f3a	-0.02786981
236	0x3d7520b0	0.059845626
237	0xbdc91a8c	-0.098195165
238	0x3d911b39	0.070852704
239	0x3d285fdb	0.04110704
240	0xbe0ee878	-0.13955867
241	0xbcc9fa8a	-0.0246556
242	0x3c8e37b8	0.017360553
243	0x3cb6bdf2	0.02230737
244	0x3b209ad4	0.0024506347
245	0x3dd64f1e	0.10464309
246	0xbe5cfac9	-0.21580042
247	0x3d86aba0	0.065757036
248	0xbde57c5a	-0.11205359
249	0xbd673813	-0.05644996
250	0x3e750eaa	0.23931375
251	0x3e91a52f	0.28446338
252	0xbea30781	-0.31841663
253	0xbe7d96bf	-0.24764536
254	0x3e9f2adf	0.31087396
255	0x3e9b0bba	0.30282384

bnorm.weight f4 [40]
0	0x3f84ee4c	1.0385222
1	0x3f831b88	1.0242777
2	0x3f5924d9	0.8482185
3	0x3f7acf00	0.97972107
4	0x3f83a39d	1.0284306
5	0x3f96cacc	1.1780639
6	0x3f925c69	1.1434451
7	0x3f80acbb	1.0052713
8	0x3f7b3856	0.98132837
9	0x3f676f41	0.90404135
10	0x3f83cd1a	1.0296967
11	0x3f89a7f5	1.0754381
12	0x3f7b07e5	0.9805892
13	0x3f69c676	0.9131845
14	0x3f578525	0.8418754
15	0x3f82dff9	1.0224601
16	0x3f858d63	1.0433773
17	0x3f85dcc8	1.0458002
18	0x3f6b6596	0.9195188
19	0x3f769418	0.96319723
20	0x3f815c8d	1.0106369
21	0x3f85fe7b	1.0468286
22	0x3f84ac10	1.0365009
23	0x3fa233d4	1.2672067
24	0x3f76f415	0.9646619
25	0x3f9a6eb3	1.2065033
26	0x3f77c731	0.96788317
27	0x3f632bd0	0.8873873
28	0x3f8a30da	1.0796158
29	0x3f742b8f	0.95378965
30	0x3f617702	0.88072217
31	0x3f59a124	0.85011506
32	0x3f84e9b1	1.0383817
33	0x3f83e892	1.030535
34	0x3f61704f	0.88061994
35	0x3f653780	0.8953781
36	0x3f8d2a6f	1.1028575
37	0x3f772838	0.96545744
38	0x3f759411	0.95929056
39	0x3f839a99	1.0281554

bnorm.bias f4 [40]
0	0x3f105c90	0.5639124
1	0xbef99055	-0.4874293
2	0xbf285d5e	-0.6576747
3	0x3f125be0	0.5717144
4	0xbf219cfa	-0.6313015
5	0xbef227d3	-0.47296008
6	0xbed01fb5	-0.4064919
7	0x3f126cbd	0.5719717
8	0x3f168b61	0.58806425
9	0xbf2aec7e	-0.6676711
10	0xbf023531	-0.50862414
11	0x3ef7f0ad	0.4842581
12	0xbf23bf4f	-0.6396379
13	0x3f261844	0.64880776
14	0xbf30b4d9	-0.6902595
15	0xbf1dd2c8	-0.6164975
16	0x3f0be4d7	0.54646057
17	0x3f11c57f	0.5694198
18	0xbf2298eb	-0.63514584
19	0x3f1ede1d	0.6205767
20	0x3f195f46	0.59911
21	0xbf025f4c	-0.5092666
22	0x3eea712d	0.4578947
23	0x3ed97874	0.4247471
24	0x3f0da4b8	0.55329466
25	0x3ee5e1ca	0.44898826
26	0x3f1d4343	0.6143076
27	0x3f2ed4cd	0.6829346
28	0xbefc5921	-0.4928675
29	0x3f16be26	0.58883893
30	0x3f3392bb	0.7014577
31	0xbf29dbf4	-0.66351247
32	0xbf1d4547	-0.61433834
33	0x3f13da5f	0.5775508
34	0x3f2d7f82	0.67772686
35	0xbf224b2e	-0.63395965
36	0xbf0973b8	-0.536922
37	0xbf183f02	-0.5947114
38	0xbf14c6c3	-0.58115786
39	0xbf03e440	-0.51520157

bnorm.running_mean f4 [40]
0	0xbdba76c4	-0.09104684
1	0x3f4444f7	0.7666773
2	0xbf22690b	-0.6344153
3	0x3e9d68e3	0.30744085
4	0x3f9aad7d	1.2084194
5	0xbff0513f	-1.8774794
6	0xc075a7b0	-3.8383598
7	0x3fb89118	1.4419279
8	0xbe9b9399	-0.30386046
9	0xc0370404	-2.85962
10	0x3f945717	1.1589078
11	0x3fdd74fb	1.7301325
12	0x3ff5d66d	1.9206063
13	0x3ee7f211	0.4530187
14	0x40431845	3.0483563
15	0x3fab7435	1.3394839
16	0x3d6739c2	0.056451567
17	0xc00daa9b	-2.213538
18	0x3eeabdba	0.45847875
19	0x3f203e5b	0.62595147
20	0x3fe086d2	1.7541144
21	0xbf045bdf	-0.51702684
22	0x403d5d86	2.9588332
23	0xc0568a5e	-3.3521953
24	0xc09ee8c4	-4.965914
25	0x3f7c1d13	0.98481864
26	0xbfa076d2	-1.2536261
27	0x3f480925	0.78138953
28	0x3ed7b870	0.42132902
29	0x3f8553fe	1.0416257
30	0x3f2c5204	0.67312646
31	0xc0050789	-2.078585
32	0x40300f7e	2.7509456
33	0x40342c44	2.8152018
34	0xc00004c3	-2.0002906
35	0xbd006d19	-0.031354044
36	0x3fabe913	1.3430504
37	0xbfb5a826	-1.419194
38	0xc0a2efea	-5.0917864
39	0x3e6e0174	0.23242742

bnorm.running_var f4 [40]
0	0x403dd6a5	2.9662259
1	0x402fd5de	2.7474284
2	0x4065b388	3.5890827
3	0x402e0e9c	2.7196417
4	0x403b540d	2.927005
5	0x3fdb35bf	1.7125777
6	0x405c274e	3.439899
7	0x405d53de	3.4582438
8	0x40254a14	2.5826464
9	0x405b0c87	3.4226396
10	0x400797dc	2.1186438
11	0x40077021	2.1162188
12	0x40523013	3.2841842
13	0x402e6f20	2.7255325
14	0x4017f577	2.374357
15	0x3fea3165	1.8296324
16	0x402eb14a	2.7295709
17	0x402664e8	2.5999088
18	0x3fe2cc09	1.7718517
19	0x4033b075	2.807645
20	0x409576ad	4.670737
21	0x402a9bde	2.6657634
22	0x403b342e	2.9250598
23	0x3fe676f1	1.8005048
24	0x403503f4	2.8283663
25	0x401878cd	2.382373
26	0x401f2ec0	2.4872284
27	0x404c6b30	3.1940422
28	0x405332ba	3.299971
29	0x402b60c7	2.6777818
30	0x4045b303	3.089051
31	0x40041600	2.0638428
32	0x40818a5b	4.048139
33	0x4031b5fa	2.776732
34	0x404ad4ce	3.1692386
35	0x4001fc75	2.0310338
36	0x40774d62	3.864098
37	0x405511aa	3.3292031
38	0x401b7ded	2.429561
39	0x406ada6b	3.6695812

final_layer.conv_classifier.weight f4 [4, 40, 144, 1]
0	0xbb911b60	-0.004428312
1	0x3c6ca361	0.014443249
2	0x3ba6258e	0.005070395
3	0x3d4eb378	0.050464123
4	0x3a353e7e	0.0006913914
5	0xbd9a6bb6	-0.075400755
6	0xbc9c5e55	-0.01908795
7	0xbcf03f15	-0.029326955
8	0x3ab3ecce	0.001372719
9	0x3cee1ecc	0.02906742
10	0xbd754a16	-0.059885107
11	0xbd989ce9	-0.07451803
12	0xbd429870	-0.047508657
13	0xbda4c31e	-0.08045028
14	0xbd61658b	-0.05502848
15	0xbd392699	-0.045202825
16	0x3cebfc96	0.028806966
17	0xbe11ac98	-0.14225996
18	0xbdf3507e	-0.11880587
19	0xbc896bdc	-0.016775064
20	0x3c489375	0.012242188
21	0xbd17af50	-0.037032425
22	0xbce656d6	-0.028117578
23	0xbd4cc475	-0.049992044
24	0xbdc3db86	-0.09563355
25	0x3cb41dd9	0.021986889
26	0x3d34549b	0.044026
27	0xbc2e5f7a	-0.010642881
28	0xbe17e9c9	-0.14835276
29	0xbdc78756	-0.0974261
30	0xbd4122d3	-0.04715235
31	0xbd93d74a	-0.072187975
32	0xbd4b869c	-0.04968892
33	0xbdc5722a	-0.09640916
34	0xbe5b6cb4	-0.21428186
35	0xbcc21588	-0.023691908
36	0xbd2a0f62	-0.041518576
37	0x3d5c018a	0.053712405
38	0xbd585e20	-0.05282414
39	0x3e0a462b	0.1350333
40	0x3da0b80a	0.07847603
41	0x3db6404e	0.08898984
42	0x3d9a5827	0.07536345
43	0x3d56d720	0.052451253
44	0x3d4698b5	0.048485477
45	0x3da7d642	0.08195163
46	0x3daa981b	0.08329793
47	0x3d46201d	0.04837047
48	0x3d99aeca	0.075040415
49	0x3d706de1	0.05869854
50	0xbd8abbf2	-0.06774129
51	0x3ccc2702	0.024920944
52	0x3cd4b206	0.025963794
53	0xbd0e8e58	-0.03480372
54	0xbd369b29	-0.044581566
55	0xbd93b411	-0.07212079
56	0x3c735118	0.014850877
57	0xbd1126ab	-0.035437267
58	0x3ccf034f	0.025270132
59	0xbc80e54c	-0.015734337
60	0xbdb24f47	-0.08706527
61	0x3bd67d32	0.006545686
62	0xbd4f2857	-0.05057558
63	0xbd35ff05	-0.04443266
64	0x3db8330c	0.089941114
65	0xbc9c46a3	-0.019076651
66	0x3ddcf75c	0.107893676
67	0x3c6effc8	0.01458735
68	0x3d81a69d	0.06330607
69	0x3ba5486d	0.005044034
70	0x3d41604a	0.04721097
71	0xbce2b594	-0.027674474
72	0x3c9a7366	0.018853854
73	0xbdf0e944	-0.11763242
74	0xbe066adb	-0.131267
75	0x3c2e53be	0.010640083
76	0xbddd291b	-0.10798856
77	0xbc2e3824	-0.010633502
78	0xbc712d3c	-0.014720257
79	0x3d9d7a60	0.07689357
80	0x3d23831a	0.03991995
81	0xbba4cd94	-0.0050293896
82	0x3df4db3b	0.119558774
83	0x3dd07c36	0.10179941
84	0xbdb5baba	-0.08873506
85	0x3c244fab	0.01002876
86	0x3bd35d8c	0.0064503606
87	0xbde362c7	-0.11102825
88	0xbde111e1	-0.10989738
89	0xbda9dc5e	-0.08293985
90	0x3a7b9a90	0.0009597922
91	0x3d9e85da	0.07740374
92	0x3bb1e7ef	0.00542926
93	0x3dd9a1a6	0.10626535
94	0xbd0c4ba8	-0.03425184
95	0xbc5de68f	-0.013543739
96	0xbd2b6c9b	-0.04185162
97	0x3c198bef	0.009371742
98	0x3dab541e	0.083656535
99	0xbcd2aeb2	-0.025718067
100	0xbe1d4eb0	-0.15362048
101	0xbd371e47	-0.04470661
102	0xbd9aadcb	-0.0755268
103	0xbd9d0650	-0.0766722
104	0x3d5e3a5f	0.054254886
105	0x3d18f1ba	0.037339903
106	0xbd3c9c3b	-0.04604743
107	0x3de37d5a	0.11107893
108	0x3dba3926	0.090929314
109	0xbc4b1da1	-0.012397201
110	0xbe5ccd4c	-0.2156269
111	0x3d91880a	0.071060255
112	0x3ca4cadb	0.02011626
113	0xbe379750	-0.17928815
114	0x3d3ec3d7	0.046573486
115	0xbd364b86	-0.04450562
116	0xbd52ae19	-0.051435564
117	0xbd20b9f7	-0.03923985
118	0x3d4d43c1	0.050113443
119	0x3c0aae7d	0.008464453
120	0xbd4abc98	-0.049496263
121	0x3df44ccf	0.119287126
122	0xbcbeabf4	-0.023275353
123	0xbdaa251e	-0.08307861
124	0x3ca7638d	0.020433212
125	0x3cd0e365	0.025499055
126	0x3cc26cd0	0.023733526
127	0xbd1da2d5	-0.038485367
128	0xbd94b30e	-0.072607145
129	0xbd4d9e1b	-0.05019961
130	0xbe1bf490	-0.15230012
131	0xbd8f301b	-0.06991597
132	0xbe04e329	-0.1297728
133	0xbd7bb871	-0.061455194
134	0x3ce0713c	0.027397744
135	0xbb7d1571	-0.0038617516
136	0xbdeddcab	-0.11614355
137	0xbbc44887	-0.0059900912
138	0xbdd3cd7b	-0.10341927
139	0x3cf8a34c	0.030351304
140	0xbc793385	-0.015210037
141	0xbca4b27b	-0.020104637
142	0xbc8600ab	-0.01635774
143	0xbd05ae14	-0.032636717
144	0xbd348213	-0.04406936
145	0xbbf1e584	-0.0073820967
146	0xbd39007b	-0.045166474
147	0xbbe6bb08	-0.007041339
148	0x3d0420f5	0.032257993
149	0xbad3f9f6	-0.0016172517
150	0xbd845c26	-0.064628884
151	0x3d88b167	0.06674462
152	0xbcf4a2df	-0.02986282
153	0x3cb5b3f9	0.022180544
154	0x3ce5f908	0.028072849
155	0xbe19260f	-0.14955924
156	0x3b64ed99	0.0034931658
157	0xbb10c916	-0.0022092513
158	0xbd82208d	-0.06353865
159	0x3cae3653	0.021266138
160	0x3cd4c6d0	0.025973707
161	0x3bf7a7ee	0.0075578606
162	0xbc90274d	-0.017596865
163	0x3d7518db	0.059838157
164	0x3dd579d7	0.1042363
165	0xbbb59f6d	-0.0055426867
166	0xbce31b35	-0.027722934
167	0x3d2fa760	0.04288423
168	0xbe39c016	-0.18139681
169	0x3cb27193	0.021782672
170	0x3d8c1354	0.06839624
171	0x3db80644	0.0898557
172	0x3d1e9b96	0.038722597
173	0x3d72d024	0.05928053
174	0x3c9e3d96	0.019316476
175	0x3ca31161	0.019905748
176	0x3e082972	0.1329706
177	0x3d158d7f	0.036511894
178	0x3dd255a9	0.10270245
179	0x3d9385c7	0.072032504
180	0x3d794d31	0.06086463
181	0xbe168d42	-0.14702323
182	0xbcb325de	-0.021868642
183	0xbda58c64	-0.08083418
184	0xbd8c2833	-0.06843605
185	0x3cb8174e	0.02247205
186	0xbd832e23	-0.06405284
187	0x3d9f3b52	0.07774986
188	0x3d749f68	0.059722334
189	0x3c5d1e83	0.013496044
190	0xbcf0cb21	-0.029393734
191	0xbdb2f4eb	-0.08738121
192	0xbd5b86f7	-0.05359551
193	0xbd86824e	-0.065678224
194	0xbe024631	-0.12722088
195	0xbd5d3cbe	-0.054013006
196	0x3cbb9344	0.02289737
197	0xbd54bc85	-0.0519376
198	0xbd21bbdd	-0.0394858
199	0xbd87d00c	-0.06631479
200	0xbe0758d4	-0.13217479
201	0xbdde476c	-0.108534664
202	0xbce982be	-0.028504726
203	0x3c829c4e	0.015943673
204	0x3d12d5d9	0.035848472
205	0xbda24086	-0.07922463
206	0x3d948ba2	0.07253195
207	0x3d81c993	0.06337275
208	0xbb86a3e7	-0.004108894
209	0x3e01d8c6	0.12680349
210	0xbccfe145	-0.025375972
211	0xbcf01b48	-0.029309884
212	0x3d159e02	0.03652764
213	0xbc0d9ded	-0.0086436095
214	0x3befbbe6	0.0073161004
215	0x3d270944	0.04078032
216	0x3d827e4b	0.06371745
217	0x3e0b2f84	0.13592345
218	0x3e42a978	0.1900996
219	0x3cfb9f0d	0.03071549
220	0x3c525b22	0.012839111
221	0xbc7b5c0c	-0.01534177
222	0x3da5b80a	0.08091743
223	0x3ce449af	0.027867166
224	0x3de0657f	0.10956859
225	0xbad896a1	-0.0016524383
226	0x3dcdbc81	0.1004572
227	0x3cf3535a	0.029702831
228	0x3d23c146	0.03997924
229	0xbd16a771	-0.03678078
230	0xba04621e	-0.0005050021
231	0xbd6150c9	-0.055008683
232	0x3d1690d0	0.036759198
233	0xbd35138f	-0.044208106
234	0xbd535531	-0.051594917
235	0x3d539947	0.05165985
236	0x3dafb054	0.08578554
237	0xbd1d0f20	-0.038344502
238	0x3c41230b	0.01178814
239	0xbd4e901d	-0.050430406
240	0x3df2e6b0	0.118604064
241	0x3dbd5b81	0.092459686
242	0xbc0c9779	-0.008581036
243	0xbd8eb4de	-0.069680914
244	0xbc792d89	-0.01520861
245	0xbd83d56a	-0.0643719
246	0xbcd54a9a	-0.02603655
247	0xbcedc443	-0.029024249
248	0x3cb53230	0.022118658
249	0xbbc33e42	-0.0059583494
250	0x3da3bb41	0.079947
251	0xbce05288	-0.027383104
252	0x3d463713	0.048392367
253	0x3d09e8bb	0.033669215
254	0xbcd71e72	-0.026259635
255	0x3d31387e	0.043266766

final_layer.conv_classifier.bias f4 [4]
0	0x3d9c5064	0.07632521
1	0xbb83cb10	-0.0040220097
2	0x3e1ced55	0.1532491
3	0xbe07a244	-0.13245493
