models/ShallowFBCSPNet_persons2_lr0.001_wd0.01_bs16_acc0.6469.pth (torch, 383684 bytes, 9 tensors)

conv_time_spat.conv_time.weight f4 [40, 1, 25, 1]
00000000: b95a 89bd 831e aa3b cccd 623d 2e12 943d
00000010: 71cb 58bc 4b4a 8e3d 438a 943d 0514 bcbc
00000020: 2641 13ba 3252 af3d 35ab b73d 9e34 19bd
00000030: d4f8 97bc dbd1 363d a47f bebc b3ec a3bd
00000040: 5103 3bba 6d5f 9ebd 9a62 343b e880 c4bd
00000050: 57da 09bd db89 eabc 4d87 383a 351a 9a3d
00000060: 5a17 efbc 0e8e 863b 4678 98bd d45d adbd
00000070: c513 19bc 4d16 24bc 6f50 f8bc b4ed 623d
00000080: 7c31 46bd a338 4b3d 3e6d 73bb c5b7 50bd
00000090: e218 94bc 727a 23bd 4fa6 ba3c 946f 84bd
000000a0: 56bc ebbc c863 693d f3ff e73c d834 de3b
000000b0: 91d8 ca3d ea85 3fbb 7059 7f3d a905 df3d
000000c0: 4dfc cd3d 1ab9 34bd b9ea b3bc faea 53bd
000000d0: 1b90 2ebd d89a 6b3d c476 8e3b dd4d 843d
000000e0: 8f51 e43d 6e32 9a3d 9791 c83d d2ee 3f3c
000000f0: e057 b13d 3034 0fbd 48fa 12bd 70e2 41bd
00000100: 0000 a939 2167 a7bd 39f3 6abd d735 d5bd
00000110: d76c b8bd c1d1 bdbd 8102 0a3b c5d6 973a
00000120: 7ea8 193d 4ea4 22bd 5599 523d fed3 c1ba
00000130: 5a44 46bd 22b5 cf3c 5e44 bb3d ba16 c63c
00000140: cee4 05bd a2de c33c cfa6 8f3d 82ea 093d
00000150: 6a23 95bc b338 85bc aedc a8bd cbdb 98bd
00000160: 765b 43bd 3764 c03a 46cb 443d dad1 b03d
00000170: 2c16 ba3a 0f9e 6abb 2f80 27bc e42f 5f3c
00000180: fe94 c4ba 1649 4ebc 5d89 23bd 21be d2bd
00000190: a364 d13d 4839 033c 7fbd acbc b634 d33d
000001a0: 249e 873d 229f 8e3d 47f5 253d df62 553d
000001b0: f95d 60bd f4b0 89bd 7c2b 5bbc 5197 06bd
000001c0: 7a37 b7bd 5f85 d5bd 43d0 be3c 5994 e03b
000001d0: ea36 39bd 6865 613b cb78 c0bd 6b65 13bd
000001e0: c698 9cbd 3a61 a7bc 1e54 a7bd cb14 83bd
000001f0: 317f a2bc 02f9 a93c 7c3b 41bd 087a 663d
00000200: 4544 4abd 8d89 9cbd 5199 8fbd ce96 4ebd
00000210: 7788 14bc 4687 e5bc 6943 afbd 3978 4abc
00000220: 3267 293d df96 953d 35f1 693c 139e 513d
00000230: 26d0 79bc 15a9 513d 165f 313d fc67 3cbd
00000240: ab4d 413d a2d6 e03c 179e 37bd 73a3 c0bc
00000250: 6d3e 903c 2033 b83c de8f 2e3d c51e 4ebd
00000260: 8653 e93c df52 873d b958 4ebd e82b 36bd
00000270: d11c 203d d200 4ebc dc7a 9cbc f9e0 683d
00000280: bf47 833d 09c3 b03d b551 b03c 97ae adbc
00000290: e011 cdbd ee01 debd d33e d7bd 91c8 66bd
000002a0: 4382 fe3c b870 c3bb c93b efbc 388b 013c
000002b0: db3b 6dbd 594c bbbc 8d58 8e3d 172b 2a3d
000002c0: 6656 dd3c 29e7 c93c 670a 763d 1f6e 2fbd
000002d0: 0fa0 3a3d fb97 b8bd 3b45 74bd d9e1 8bbd
000002e0: c1b7 d0bb e46d 38bd 2b6b e8bc 27a2 583d
000002f0: 89ea 223d de3a c83d c412 783b 2a7a 113d
00000300: d7d0 dcbc d448 ec3b a6ac 08bc 6d68 2e3d
00000310: 942d 8e3b 9553 9abd 4fb3 b13a 44ad cf3d
00000320: 8e7e b73d 3931 bd3d b571 af3d 60a7 07bd
00000330: 3e82 cfbd e0e3 253c b244 9bbd 341b 10be
00000340: 2248 0ebe e315 99bd 1ac5 e6bd 4de3 9ebc
00000350: 7d18 803d dc86 503d 86a0 143c eca3 00bd
00000360: d54d 673d 8a53 c73d 34d4 713d a696 89bc
00000370: 03fc 513d 8491 36bd 96db 643d c8d9 dfb9
00000380: 3190 3cbd e5e1 e4ba 0ba8 953d 127e 8b3d
00000390: 9e30 1d3c cd9c 20bd f6fd f43b 50d1 ecbc
000003a0: 624a 87bd a953 b9bd f35f 83bd 24e0 633c
000003b0: 717d 4bbc fc6b 95bd 217a 47bd ca76 063d
000003c0: 6dab 933c 0b39 02bd bf1e 81bd 4b87 75bc
000003d0: d031 4ebd 32f1 e6bc 5be9 f3bc 0f51 f1bc
000003e0: 0a54 abbd 64f7 29bd dc76 3ebd c3e3 4cbd
000003f0: f062 6a3d b7bb cebc a2bf 94bd a3dd 2ebc
-0.06706757 0.0051916256 0.055372044 0.0723003 -0.013232098 0.06947764 0.07252934 -0.022958765
-0.0005617313 0.085605994 0.08968202 -0.037403695 -0.018551268 0.044633728 -0.023254223 -0.08004131
-0.0007133978 -0.07733045 0.0027524591 -0.095948994 -0.03365549 -0.028630188 0.00070392044 0.0752453
-0.02918594 0.0041062897 -0.07444815 -0.08465162 -0.009343092 -0.010015083 -0.030311791 0.055402473
-0.048387036 0.04961456 -0.003714397 -0.050956506 -0.018078271 -0.039911695 0.02278438 -0.06466594
-0.028776329 0.056979924 0.028320288 0.006781202 0.09904588 -0.0029224106 0.062341154 0.108897515
0.10057888 -0.04412184 -0.02196251 -0.051737763 -0.0426179 0.057520717 0.004347654 0.06460164
0.111483686 0.0752915 0.09793394 0.011714654 0.08659339 -0.03496188 -0.035883218 -0.04733509
0.00032234192 -0.08173967 -0.05736086 -0.1041066 -0.090051346 -0.09268523 0.0021058621 0.0011584392
0.037514202 -0.039707474 0.05141576 -0.001478791 -0.04840503 0.025354926 0.091438994 0.024180759
-0.03268891 0.02390987 0.07014238 0.03367091 -0.018205363 -0.016262388 -0.08245216 -0.07463797
-0.047694646 0.0014678304 0.04804542 0.08633776 0.0014197282 -0.0035799777 -0.010223432 0.013622258
-0.0014998016 -0.012590667 -0.03992592 -0.102901705 0.10224273 0.008009262 -0.021086453 0.10312788
0.0662196 0.06963946 0.040517118 0.052096244 -0.05477712 -0.06723204 -0.013377067 -0.03285915
-0.08946128 -0.10425829 0.023292666 0.006853622 -0.045218386 0.0034392718 -0.093980394 -0.03598539
-0.07646327 -0.020432103 -0.08170341 -0.0640045 -0.01983604 0.020748619 -0.04717587 0.05626872
-0.049381513 -0.07643423 -0.07011665 -0.050436787 -0.009065739 -0.028018605 -0.08557779 -0.012357765
0.04135818 0.07304167 0.0142787 0.051176142 -0.01524738 0.05118664 0.04330357 -0.045997605
0.04719321 0.027446095 -0.0448285 -0.023515439 0.017607892 0.022485316 0.04261767 -0.050322313
0.02848221 0.06607603 -0.05037758 -0.044475466 0.03908998 -0.012573438 -0.019101553 0.056855176
0.06410169 0.0863095 0.021523336 -0.021201415 -0.10013175 -0.10840212 -0.1051003 -0.05634362
0.031067973 -0.005964365 -0.029203312 0.0079067275 -0.05791841 -0.022863554 0.069504835 0.041545
0.027018737 0.024646359 0.060068514 -0.04282963 0.0455628 -0.09013363 -0.059636336 -0.068301864
-0.0063695614 -0.045026675 -0.028371414 0.052889016 0.03977445 0.09776853 0.0037852982 0.035516895
-0.026955051 0.00721083 -0.008341944 0.042580057 0.0043389294 -0.07535473 0.0013557466 0.1014047
0.08959685 0.09237904 0.0856661 -0.033118606 -0.101322636 0.01012513 -0.07581462 -0.14072877
-0.13894704 -0.07474878 -0.11268063 -0.019395495 0.06254671 0.050909862 0.009071475 -0.031406328
0.05647071 0.09732731 0.059040263 -0.016795468 0.051265728 -0.04457237 0.055873476 -0.00042696134
-0.04603595 -0.0017462341 0.07307442 0.068111554 0.009594111 -0.039212037 0.0074765636 -0.028908402
-0.06605984 -0.0904916 -0.06414785 0.01390842 -0.012420044 -0.07295987 -0.048700456 0.03282813
0.018026078 -0.03179268 -0.063046925 -0.01498587 -0.050340474 -0.028191183 -0.029774358 -0.029457597
-0.083656386 -0.041495696 -0.046500072 -0.050021898 0.05722326 -0.025235994 -0.072631136 -0.0106729595

conv_time_spat.conv_time.bias f4 [40]
00000000: 3d5b edbd cc33 593e 7797 f43d 258a a6bd
00000010: d9b3 22be 564d a23c 6462 e73d 6977 3ebe
00000020: d31c e5bd f90e 183c b38f fd3d 5938 d73d
00000030: 03fb a73c 6aab 473e 40ae 103e a886 eb3d
00000040: 8cdb f93d 80b9 60be bd81 023e b43f 093e
00000050: 45e5 743e b026 c23c 980b 2dbe 85e0 e63d
00000060: 73a6 093e d3c0 343e 196c 143d b888 093e
00000070: 9926 253e 1b51 8e3c 328c 5d3e 8a7c 2cbe
00000080: 1097 d6bd 1ead 4f3d bde0 093e 7450 1dbd
00000090: 7cf2 0f3e 512d 663e 66c9 363e 2dfe 383e
-0.11589668 0.21211165 0.11942952 -0.08131818 -0.15888919 0.019812267 0.112980634 -0.18600239
-0.111871384 0.0092809135 0.12380924 0.10508794 0.020505434 0.19498983 0.14128971 0.11500293
0.12200078 -0.21945763 0.12744804 0.13403207 0.23915584 0.023700088 -0.16898954 0.112732925
0.13442402 0.17651682 0.036235902 0.1343106 0.16128005 0.017372658 0.21635512 -0.16844383
-0.10478032 0.050702207 0.13464637 -0.038406804 0.14057344 0.22478224 0.17850265 0.1806571

conv_time_spat.conv_spat.weight f4 [40, 40, 1, 44]
00000000: cd6f 193c 5daf c83c 8518 fb3c 044e 893c
00000010: 5e76 cdbd 0152 04bc 66c6 523d 84a7 903c
00000020: cec2 c0bc 4e9d 0bbc ccac 023b 084d ea3c
00000030: af3d a93c 9f85 953c 175e 8cbd 2774 99bd
00000040: 2dd3 163d a475 383b 6f52 643d 46d3 b2bd
00000050: 7ba7 2a3d 821d b13d 6f8c a93d 1d9b 863d
00000060: 2ce3 923d 7e81 d8bd 3cd8 c03b 4564 1d3d
00000070: 2635 68bc c98f 05be d666 913c 7767 f63c
00000080: b00a 633d d98c d93c 83ff c2ba 3ab2 8fbc
00000090: 477a 083c d8f9 ec3c 7f77 44bd 891b e83c
000000a0: 9a84 6cbb fa23 e43d ae22 253d bf5b 663d
000000b0: 6dd1 5abd 55e2 973c cf4f 23bc cbbb 1e3d
000000c0: 80ad 263d 5f6c bd3c 5b7a dabc 05af 26bd
000000d0: d190 33bd 86f2 cbbb a29c 263d bbf5 5d3b
000000e0: def9 58bb 2c84 89bd 9a40 d13c edfe f83c
000000f0: ca13 943c 0096 a4bc eb0a 1cbd 06be 6b3d
00000100: f746 51bd b6bd e0bc 8791 08bd 067b 8cbc
00000110: 2dd6 fb3c a70d f83d bf43 57bc b39f f7bc
00000120: 7e2d e4bb 84f6 0e3e 2f89 0ebd 93de 703c
00000130: 53e5 eabb 43c9 f8ba f7f9 333c d453 013c
00000140: 20a2 19bd cc04 1abd 4575 8f3d e502 8b3b
00000150: 2e16 913c 6f5b cbbd f1dc a2bd 42ab 44bc
00000160: 9582 cdbc d9d8 293d f029 313c 93df d93c
00000170: a31b adbd c24e 253d 2e5d e63c 66e6 083c
00000180: 8a65 343d f637 dd3c 242c 963b 4980 0f3d
00000190: c02b 983d 0665 123d d33b 8dbd 9162 05bc
000001a0: 8179 babc 602e 89bd 7551 d83c ea98 55bd
000001b0: 0c90 fabb 2b29 803d 8568 9b3d 76a3 6d3d
000001c0: 9402 8c3c ddb8 f1bd e454 983d b4a0 50bc
000001d0: e17e 89bd c2c2 d5bd 15aa 0dbc 27d0 333c
000001e0: 3acb 2a3d 48a7 aabc 5881 0d3c d01f d43b
000001f0: 2f37 5f3d 2141 993d f4a8 87bd 571e 513c
00000200: 7a1f b2bd ad0d e53d 9a6a 25bb 5a19 ba3c
00000210: 92fc 553c 6796 75bc 86e0 56bd 3b8f 4abd
00000220: 2611 ccbb 6637 f6bc 848b 91bb a102 29bd
00000230: f775 bbbc 47f9 b73c 6f70 97bc 4a24 61bd
00000240: 28e8 01bc dfcd 613d 3e2b cebc fbc9 b93c
00000250: 53dd 6bbc 16f8 8cbc e605 c73c 10dd ad3b
00000260: 6d0d ac3d 1215 9dbc 1346 37bd 77d2 79bc
00000270: fb11 b43c d6e9 b9bd 53b9 5bbd c145 fe3c
00000280: 22dc c7bc 2040 b8bd 7aa9 d13c 92f1 8dbc
00000290: 2f9a a93d 7ce7 863d 77ac 193d bebe 5f3c
000002a0: 46ae 7d3c 4d5b 1ebb c1d7 cdbd 6f64 c73a
000002b0: 0078 a7bc cd8f 913d 3aa0 a73d 2df0 323d
000002c0: 1ff2 273d a226 e9bc a3a7 b7bc b844 213d
000002d0: fbb3 b1bd c3f8 2ebd 3ce9 43bc b222 113c
000002e0: d3e9 2b3d 7717 2a3d 912f 24bc 5a21 16bc
000002f0: 5f30 debb 9f68 823c fa21 89bd 1f65 ce3b
00000300: 63be b9bc 5325 7dbd 4464 2f3d 7147 21bb
00000310: 67c0 893d 5ddc 953d 90f7 04bd 160a 783c
00000320: 2960 99bb e116 19be 78a9 a5bc ea04 b8bc
00000330: a6fe 87bd 19fd 16be ccf1 7e3c ed7d 5cbc
00000340: 26ac 403c 59e2 2b3c 96f9 cb3c f4b4 b33c
00000350: e6d6 4a3d c926 653d a037 feba 1202 a2bb
00000360: 273c 98bd 5b8a 8a3d fc4c 983d 1c01 f23c
00000370: 0b05 8abd bd87 fe3c a81f 493c 2f13 53bd
00000380: f778 b23d 5b54 873c 70fe 81bb a4cf c83c
00000390: eadf d9bc 0c3d bdbb 0173 223c 7f74 413c
000003a0: e2d0 8cbc 85a7 49bd 41fb 9f3d 538f 5f3d
000003b0: b8d7 8abc 603e 163d b1f4 babc ee8a 033d
000003c0: ea4e e3bc 6148 bcbd c51e 12bd 1b60 493c
000003d0: 5568 71bd 2a60 f93d 9af1 993c 88e7 9d3c
000003e0: 6f72 ccbb a331 173e 9b82 06bd d4bd 5e3b
000003f0: 44cd 21bd 98d6 f33c f439 b6bc 7817 f93c
0.009365034 0.024497682 0.03065134 0.016760834 -0.100323424 -0.008076192 0.05145874 0.017658003
-0.02353039 -0.008521391 0.001993942 0.028601184 0.020659296 0.018252192 -0.06853884 -0.074928574
0.036822487 0.002814629 0.055742677 -0.087317035 0.041663628 0.08648206 0.08278739 0.06572554
0.07172236 -0.10571574 0.005885152 0.038425703 -0.014172828 -0.13043131 0.017749231 0.030078633
0.055430114 0.02655642 -0.0014877174 -0.01754104 0.008329934 0.028927729 -0.047965523 0.028333442
-0.003608978 0.111396745 0.040316276 0.05623984 -0.05342238 0.01854054 -0.009967758 0.038753312
0.040692806 0.023122964 -0.026669672 -0.040694255 -0.04383928 -0.0062239794 0.04067672 0.003386839
-0.0033107917 -0.06714663 0.0255435 0.030394996 0.018075842 -0.020091057 -0.03809635 0.057554267
-0.051093068 -0.027434211 -0.03334191 -0.017148506 0.030741775 0.12111979 -0.0131387105 -0.030227518
-0.006963431 0.13961226 -0.034798797 0.014701503 -0.007168451 -0.0018980879 0.010984889 0.007893521
-0.03750813 -0.03760223 0.07004789 0.0042422884 0.017710771 -0.09929549 -0.079522975 -0.012003722
-0.02508668 0.041466568 0.010813221 0.026595866 -0.08452537 0.040358312 0.028120603 0.0083557125
0.044042148 0.027004223 0.0045828987 0.03503445 0.0743022 0.035740875 -0.06896176 -0.008141176
-0.022763016 -0.066982985 0.02640603 -0.052147783 -0.0076465663 0.06257852 0.07588295 0.058017217
0.017091073 -0.11802838 0.074380666 -0.012733627 -0.06713653 -0.10437538 -0.008646508 0.01097492
0.04169772 -0.020831719 0.008636795 0.006473519 0.054495987 0.074831255 -0.06624022 0.012763581
-0.0869741 0.11184249 -0.0025240541 0.022717167 0.013060706 -0.014989472 -0.052460216 -0.049453
-0.00622763 -0.030055713 -0.0044416804 -0.041262273 -0.022883398 0.022457732 -0.01848623 -0.05496625
-0.0079288855 0.055127975 -0.025167104 0.02267932 -0.0143960295 -0.01720814 0.024294805 0.0053058937
0.08400998 -0.019175086 -0.044744562 -0.015247933 0.02198123 -0.09077804 -0.053643536 0.03103912
-0.02439696 -0.08996606 0.025593508 -0.017327104 0.08281361 0.06587121 0.03751799 0.013656316
0.015483445 -0.0024163306 -0.100509174 0.0015212427 -0.020442963 0.07107506 0.08184858 0.04368608
0.04100239 -0.028460804 -0.022418803 0.039372176 -0.08676907 -0.042717706 -0.011957463 0.00885837
0.04197104 0.041526284 -0.010021106 -0.009163225 -0.0067806686 0.015919028 -0.06695934 0.0062986757
-0.022673791 -0.061803173 0.04282023 -0.0024609233 0.06726151 0.073174216 -0.032462656 0.015139123
-0.0046806526 -0.14950134 -0.02022241 -0.02246328 -0.06640367 -0.14744987 0.015560579 -0.013457757
0.011759793 0.010490977 0.024899285 0.021936871 0.04952135 0.05594519 -0.001939524 -0.0049440945
-0.07433348 0.067646705 0.074365586 0.029541545 -0.06739243 0.031070584 0.012275614 -0.051531967
0.087144785 0.016519716 -0.003967099 0.024513073 -0.026596028 -0.0057750996 0.009915114 0.01180756
-0.017189447 -0.049232025 0.07811595 0.054580044 -0.016948566 0.03668058 -0.022821756 0.032114916
-0.02774759 -0.09193493 -0.035673875 0.01229098 -0.05893739 0.12176545 0.018791962 0.019275442
-0.0062392275 0.14765029 -0.0328394 0.0033987658 -0.039502397 0.029765412 -0.022244431 0.030406699

bnorm.weight f4 [40]
00000000: a191 923f 65b4 933f 4d54 953f 8a17 8f3f
00000010: fd82 963f f445 8c3f 9ac3 913f 50df 8d3f
00000020: d831 913f 93e4 8e3f b5ac 8a3f 891a 8c3f
00000030: ed45 833f 28b7 8f3f 4bc0 923f 0fc4 923f
00000040: a1bf 913f 648c 943f 9961 913f 273d 943f
00000050: a7b4 8e3f 6d06 943f 2946 8d3f 55c0 8e3f
00000060: f11e 903f e3b2 913f b99d 953f 9481 8b3f
00000070: 617d 933f 8125 893f 868c 9a3f 7799 973f
00000080: 82d4 8a3f 1249 973f 80f4 8a3f c0b1 953f
00000090: 32e3 943f bc95 983f 391c 903f 8fbb 873f
1.1450692 1.1539427 1.1666352 1.1179059 1.1758724 1.0958848 1.1387818 1.1083775
1.1343336 1.1163505 1.0833956 1.0945598 1.0255715 1.122777 1.1464933 1.1466082
1.1386606 1.1605344 1.135791 1.1581162 1.1148881 1.1564461 1.1037036 1.1152445
1.1259443 1.1382717 1.1688758 1.0898919 1.1522638 1.071457 1.2074134 1.1843709
1.0846102 1.1819174 1.0855865 1.169487 1.1631835 1.1920695 1.1258613 1.0604113

bnorm.bias f4 [40]
00000000: 43c8 a8bc 00cb ca3c 2b9b b6bd 1c4d 0f3c
00000010: 401c 96bd bf7b fcbd aa75 d9bd bf8e 0abe
00000020: e70d dfbd ae63 8ebd 6cb5 c23d 3b21 833e
00000030: cec3 d33d 68fd dbbd 958e 09be bfac a13d
00000040: 150b 42be c10f 073e 7b65 c7bd 983e b43d
00000050: cbcb 42bd 7b6f 02be 2e30 453e e402 15be
00000060: 7223 c0bd 2211 1ebe 64fa ff3d 77fb 08bd
00000070: 47a3 85bc 9d09 b83d dbf1 0cbe 51fc 9fbd
00000080: d57b 933d 64e0 093e df99 04be b95c 43bd
00000090: 5018 133e 9c04 c1bd d038 fe3d 2f64 02be
-0.020603305 0.024755001 -0.08916315 0.008746412 -0.07329607 -0.1232829 -0.10618146 -0.13531016
-0.108913235 -0.06952606 0.0950726 0.2561129 0.10340081 -0.10741693 -0.13433297 0.07894277
-0.1894954 0.13189603 -0.09736153 0.08801001 -0.047557633 -0.12737839 0.1925666 -0.14551884
-0.09381761 -0.15436223 0.1249893 -0.03344294 -0.016313208 0.089862086 -0.13764136 -0.078117974
0.072013535 0.13464504 -0.12949322 -0.04769585 0.14364743 -0.09424707 0.1241318 -0.1273353

bnorm.running_mean f4 [40]
00000000: 66f3 dbbe 2d61 1140 fd62 51bf 1d0e 813f
00000010: c59d be3e a00d e8bf 5e46 0ac0 8d03 ac3e
00000020: a944 11bd d10d c43e 1c50 43bf e930 0a3f
00000030: 7251 a2bf 6ba5 24bf ce1f 43bf 39ab 01bf
00000040: 8726 b33e d6b2 3e40 bd23 62be c18e 65bc
00000050: 62ef 1abd ea92 bfbf d6cf 1d40 ff44 10c0
00000060: 6e99 afbe 0042 15bf 6e56 38be 28c5 8e3e
00000070: acd6 d03f cbf6 4140 35f3 683f 6998 b0be
00000080: ab19 503f 0c0d 40bf 631f 493f 0170 a2bf
00000090: 1a35 953e 154d 9d3e 8aa5 2a40 c009 c1bf
-0.42959136 2.2715561 -0.8179167 1.0082432 0.37229744 -1.8129158 -2.1605449 0.3359646
-0.03546587 0.3829179 -0.7629411 0.5398088 -1.2681105 -0.6431491 -0.76220405 -0.5065189
0.34990332 2.9796653 -0.22083946 -0.014011086 -0.03782595 -1.496671 2.4658103 -2.2542112
-0.34296745 -0.58303833 -0.1800172 0.27884793 1.6315513 3.030688 0.90996104 -0.3449128
0.81289166 -0.7501991 0.7856352 -1.2690431 0.29142076 0.3072287 2.6663537 -1.50811

bnorm.running_var f4 [40]
00000000: f9a3 903c 99b8 d93c 9dfa 2c3d e102 933c
00000010: 7781 d43c c299 103d 7fd8 f43c 39ee a33c
00000020: 03d0 663c 3f46 a03c 58e7 f63c 5afd 4f3c
00000030: f1bd a73c 7072 b33c f2b5 d73c c4f2 9b3c
00000040: 79df 693c b054 bf3c 6bba 563c 7c49 ce3c
00000050: de35 6c3c cbd9 b13c 14f7 863c eb3c c23c
00000060: b095 903c 0d12 a33c 9a04 e53c effd c63c
00000070: 4963 e53c 313b 8b3c 39f4 903c f31a 123d
00000080: ce73 173d e9a3 7d3c c8c4 933c dca1 cb3c
00000090: 363f b63c 4fa0 863c 9ab1 693c 8b6b a43c
0.017656313 0.02657728 0.04223119 0.017945709 0.02594064 0.035302885 0.02988839 0.020011054
0.01408768 0.019564746 0.03013961 0.012694681 0.020476313 0.021905154 0.026331875 0.019036658
0.014274471 0.023355812 0.013105969 0.025181524 0.01441714 0.021710297 0.016475238 0.023710689
0.017649502 0.019906068 0.027956296 0.024291007 0.028001444 0.016995998 0.01769458 0.035670232
0.036975674 0.015480974 0.018038169 0.024857454 0.022246938 0.016433863 0.014263535 0.020070812

final_layer.conv_classifier.weight f4 [4, 40, 144, 1]
00000000: 7e44 4d39 9b38 cf3b 32d2 203d d0e1 35bc
00000010: a709 be3c ceba 18bc 2bdd 22bc d710 c1bc
00000020: fa10 babc 8686 1cbd f694 0dbc b3f9 24bd
00000030: f8a5 923c ffc7 0f3c 4c66 38bd f7b6 82bd
00000040: 0a11 acbd 64a2 3ebd a510 9fbd 7015 10bd
00000050: d5a3 18bd 9c6b 30bd a42b 9abd 39de 74bc
00000060: 5c33 b8bd fcb9 b1bd 4f4e b2bd 4c57 5bbd
00000070: 0a8e 37bd a7d2 88bd bdd8 5dbd 4a67 463a
00000080: bb99 41b9 871c 783c a6a8 8c3b 9ee1 413c
00000090: e520 293d 4e9e 853d c8cd 083d aea7 833d
000000a0: 2571 8a3c 30b6 5a3d 1268 493c 7a56 593d
000000b0: d207 053c e330 cf3c 5b01 b8bc 87e6 76bc
000000c0: decb 8d3c fa63 21bd 122e efbc d32a c73c
000000d0: d014 ec3b 4d8d d23c 27a7 7b3c d641 183d
000000e0: c31d 4d3c 28f5 8bbb 3a25 f63c 8157 a03c
000000f0: b875 0a3d 597a 053c 057f 18bc b533 333d
00000100: eb26 7e3d 70eb 3d3d 307a f83d a329 bf3d
00000110: 87e7 e63c 78b3 ab3d 5379 cb3c f06e fdba
00000120: b0f5 febb 453c c23a 1c4c 81bc f348 233d
00000130: 39fe 473d ceb5 403d f6ee 573d a189 cdbb
00000140: adc1 0b3d 4227 9dba 3002 1d3d f45f 033c
00000150: 0666 7d3d e3d0 d53c e1d7 113d 7b74 f53a
00000160: c37a 083c 901c 4d3d e2b3 043d baed 6e3d
00000170: 118c 2e3d 9c3f a1bb f764 053d ccee 313d
00000180: 2a31 913d c6d1 833b badb bf3c a4f9 ab3c
00000190: 1631 6dbc e7a6 3bbd fee7 1fbb e30a 2d3d
000001a0: c7e6 433d 4daf 903d 5126 ce3a b102 703c
000001b0: 09f8 8f3b aceb f0bc bcaa 6cbc d393 f9bb
000001c0: 91df c1bc 9479 573c e370 d7bb d550 a2bc
000001d0: 0418 59bc 1e6a 733d dbf8 413d 00ef fa3b
000001e0: ed9f db3c ca48 893d 779b 1e3d 0072 873d
000001f0: e8ca d33c 75f7 8e3d 62dc 383d 749c 00bd
00000200: d57e 043c f3a8 45bb 1640 e3bb b39c 19bd
00000210: ff02 6abc bc19 55bd a418 84bd 653b 993c
00000220: 9b7b 7fbc 31a2 09bb e9ca 133d ac46 c43c
00000230: 4340 133d 81e8 cf3b 6d40 01bd 46d6 a2bd
00000240: c7ff 003d 849e 9ebb 8712 293d 24fe fcba
00000250: f157 723c bb89 d1bc ebf3 4b3a 5f84 0239
00000260: 65f6 fdbb b4c9 9d3c dd38 693a 552d c53c
00000270: b510 a3bb 7998 66bc 83b3 12bd ed93 1c3d
00000280: 6a9d 9cbd b6bc 313c edc4 ff3c 44bc 0b3b
00000290: 21fe 5abd 171e 0fbd 1cdd 463c d828 3bbd
000002a0: e559 6fbc b2df 72bd 84a3 5bbd 6918 2d3d
000002b0: 943c bbbc 9b37 ae3c e315 abbc 4c0f ecbc
000002c0: 8435 6ebd 08d8 633c 7c7c 103d 9111 9ebc
000002d0: c799 5a3d 63c8 69bb b0b0 363d cbce b93c
000002e0: bebd e33c 16f0 d53c b0f6 a93c d79a ce3c
000002f0: 52f8 693d 5395 2b3d 568f 793c 8973 a73c
00000300: 363f 4bbb 8ecc 77bb 8111 0ebd 3540 053d
00000310: f632 f73c 97db 243c 69dd f2bb db6c 5abc
00000320: 8193 acbc 28c8 40bd 879e 29bd 62ad 2cbd
00000330: c818 84bd 1fbd 31bd 2ff1 c03c 6838 f63c
00000340: e083 f9bb 31c8 66bc fac3 09bc 4d92 f5bb
00000350: 1a6f 2b3c 9565 7a3d 82f2 9f3c b7dc 243d
00000360: b53c e43c 61d7 973b 7666 333d 8d30 913a
00000370: 22fa aa3c ffa7 5f3c 74cc 1e3d 0be9 85bb
00000380: 69ae 3e3d 7377 0cbd bcad a23d c0ec 063d
00000390: b293 433b e570 fcbc 18f2 04bd 3476 27bd
000003a0: 0ba9 5c3c d439 763c 68f2 d2bc b3fa babc
000003b0: bfb0 21bd 998a 87bc 8d27 683c f332 5b3c
000003c0: 6297 6f3d 1317 a6bc ef7d 9ebc 24f4 c3bc
000003d0: ed50 883c 4797 053d 7248 e2bb bcef ba3c
000003e0: 0f97 ce3a 5277 99bb 8e67 d43b f4fd f2bc
000003f0: b2fb 2bbc aa97 b9bc 9f2d 93bc bdb3 70bc
0.00019575839 0.0063238866 0.039262958 -0.011101201 0.023197962 -0.009321881 -0.009940426 -0.0235676
-0.022713173 -0.03821423 -0.008641472 -0.040277194 0.017901406 0.00877571 -0.045019433 -0.06382554
-0.084016874 -0.046541587 -0.077668466 -0.035176694 -0.037265617 -0.043071374 -0.07527855 -0.01494556
-0.08994171 -0.08678052 -0.087063424 -0.05355005 -0.044813193 -0.06680804 -0.054161776 0.0007568492
-0.00018463183 0.01514352 0.0042925654 0.0118335765 0.041291136 0.06524335 0.033399373 0.06428467
0.016899655 0.053396404 0.012292879 0.053060986 0.00811954 0.025291866 -0.022461584 -0.01506961
0.017309126 -0.039401986 -0.029196773 0.024312412 0.0072046295 0.025702143 0.015359676 0.03717216
0.012519303 -0.0042711683 0.030047048 0.019572975 0.03380367 0.008146846 -0.009307628 0.043750484
0.062048834 0.04636711 0.121326804 0.093341134 0.028186573 0.0838384 0.024838125 -0.001933543
-0.007780753 0.0014818987 -0.015783362 0.03986449 0.04882643 0.047048382 0.052718125 -0.00627251
0.03412025 -0.0011989849 0.038332164 0.0080184825 0.061864875 0.026100582 0.03560627 0.001872673
0.00833005 0.050076067 0.032398112 0.058332182 0.042614046 -0.004920913 0.03256699 0.043440625
0.070894554 0.0040228097 0.023420203 0.020993061 -0.014477035 -0.045813467 -0.0024399753 0.04224671
0.04782751 0.07064686 0.0015727972 0.014649079 0.0043935818 -0.029409252 -0.014445003 -0.007616499
-0.023666175 0.013151545 -0.0065747364 -0.019813934 -0.013250355 0.059427373 0.047356468 0.0076578856
0.026809657 0.067033365 0.03872248 0.06613541 0.02585359 0.069807924 0.04513205 -0.031399205
0.00808688 -0.0030160516 -0.00693513 -0.037502956 -0.014282941 -0.052026495 -0.06450012 0.01870508
-0.015593435 -0.0021001215 0.036082182 0.02395948 0.035949957 0.0063448553 -0.03155558 -0.07951026
0.03149393 -0.004840674 0.041277435 -0.0019301814 0.014791475 -0.02557837 0.0007780182 0.00012447078
-0.00775032 0.019261219 0.0008896718 0.024069468 -0.004976357 -0.014074438 -0.035815727 0.03822701
-0.07647212 0.010848215 0.031221831 0.0021321932 -0.053465012 -0.034940805 0.0121376775 -0.04569325
-0.014608835 -0.059295364 -0.053622738 0.042259607 -0.022856034 0.02126675 -0.02088446 -0.028815888
-0.058156505 0.013906486 0.035274968 -0.019295486 0.05336931 -0.0035672418 0.044602096 0.022681614
0.027800437 0.026115458 0.020747513 0.025220318 0.057121582 0.041890454 0.015231928 0.020440834
-0.0031013018 -0.0037811133 -0.03468466 0.032531936 0.030175667 0.01006212 -0.007411648 -0.013331617
-0.02106643 -0.047065884 -0.04141095 -0.04215754 -0.06450039 -0.04339325 0.023552505 0.030056193
-0.0076145977 -0.014085815 -0.008408541 -0.007494247 0.0104635 0.061132032 0.019524816 0.040249553
0.027860979 0.0046338295 0.043798886 0.0011077091 0.020871226 0.013650893 0.0387692 -0.004086619
0.04655305 -0.034293603 0.079432935 0.032940626 0.0029842672 -0.030815551 -0.03245744 -0.04088421
0.013468037 0.015028436 -0.025750354 -0.02282462 -0.0394752 -0.01654558 0.014169586 0.013378846
0.05849398 -0.020274675 -0.01934716 -0.023920126 0.01664015 0.032614972 -0.006905609 0.022819392
0.0015761572 -0.0046834135 0.0064820712 -0.02966211 -0.010497021 -0.022655327 -0.01796609 -0.01469129

final_layer.conv_classifier.bias f4 [4]
00000000: 5dc7 d63c ad1d 6bbd 2427 cc3d 8696 61bd
0.02621811 -0.057401348 0.09968403 -0.05507519
