models/ShallowFBCSPNet_persons1_lr0.0001_wd0.01_bs64_acc0.3312.pth (torch, 383698 bytes, 9 tensors)

conv_time_spat.conv_time.weight f4 [40, 1, 25, 1]
00000000: 874e 683c 04a5 853d b93a 9f3d abd7 de3c
00000010: 5e31 38bd c87a c4b6 ff29 3c3c 79b5 09bd
00000020: 7473 823d 0cc0 81bc 91ab 883c 22e1 1dbc
00000030: 6850 643d 26c4 473c 6abe 24bd d1a8 693d
00000040: 5312 91bd b423 1b3d 2ae6 36bc e45a 233c
00000050: 0ceb 40bc 00fa c73a 6545 6cbc 718b d83c
00000060: c613 bdbc f9c6 59bc d3ed bdbc a5f0 bc3c
00000070: 07f5 96bc cba3 cfbc 87cc a1bd 1932 93bc
00000080: 5282 253d 59af 2ebd 7f2a 01bd aef9 1c3d
00000090: 1aca 963d d8eb 063c 6af8 07bd b161 9bbc
000000a0: 5283 60bd 4c92 01bd f243 973d 5d51 873d
000000b0: e5e9 0fbd e963 863d af18 8fbd e6bf dc3c
000000c0: 88e8 90bd c2c3 303d f1fd 293d 09e2 893c
000000d0: 5845 4dbc 19ab 0fbd cb54 97bd 3f63 5a3d
000000e0: 5fec 803d e9d6 13bc dae5 0d3d 65c1 5b3c
000000f0: dc95 f93b 8d2f 30bd 6a85 aa3c f167 0e3d
00000100: 0a9e 813c 5cb9 49bc 95ac 6a3d b687 55bd
00000110: b2b1 dc3c 0cdf 8b3d 53e9 873d c450 0ebd
00000120: ee2c ecbc 3010 8f3d f2ee 89bc 7f7e 933d
00000130: 52f9 80bd 1d67 a2bd 8be5 9fbd 76cf 86bd
00000140: 8023 88bb c102 b23b e9ce 803d 9209 243c
00000150: 0a42 873c e784 3bbd f3de d83c 80a4 20bd
00000160: 947e 11bd 3ac6 8cbc bd2d 7bbd ed53 be3c
00000170: c647 803d 3778 8ebd 2b83 1a3d fc80 46bd
00000180: bc8c 263d c8b5 ccbb 20cf 0e3d 6a46 0abd
00000190: 2015 86bc 52c2 6b3c a07b 6ebd 0e5b f6bb
000001a0: 9bd5 6bbc fb92 b2bc 34eb 143a 3313 533d
000001b0: 7ece ff3c 01f8 133d a20f 233d f62a 25bd
000001c0: 87b0 683d 24c1 e63a bba8 0e3d e391 29bd
000001d0: 1e32 8ebb eb26 ba3c 234b 8d3d ffec 913d
000001e0: a492 28bd 2950 e13a 4b64 1abd 5a8e 863a
000001f0: 943c a2bc f5c4 f13c e55b dbbc 3174 0abd
00000200: ec72 8d3b 8636 17bd 6645 003d d6da 453d
00000210: 465a 2c3d a148 29bd 58db a93c 56a8 1d3d
00000220: e058 103d 6b97 923d 3ddf 0f3d 33aa 66bd
00000230: f960 fbbc 4c90 b4bb ac3e 29bd 54bd 81bc
00000240: 141c 90bb fe63 233b 25b3 0f3d 7473 ec3c
00000250: e5db 46bd 81df 8cbd 6e62 bcbc 08ef 453c
00000260: 6568 50bd c5aa ec3c 793e 0abc c6c0 0b3b
00000270: 3f00 2dbd 85d8 88bd 2214 c0bb ab93 283d
00000280: e757 153d e9b0 293d e088 ef3c a3f3 8fbd
00000290: 45d9 e7bc f8fb 16bd 3909 f7bc ab16 57bd
000002a0: 22cb 9cbd 2367 453d ce2b b13b 395b 623c
000002b0: d618 88bb 6b8f ecbb 74fb c4bc 98ef 89bc
000002c0: 6264 adbb 12f6 76bd f256 403d 4aed 0bbd
000002d0: 7bbc e1bc 52fd 093c 2810 8cbd 0e67 833b
000002e0: 6174 7d3d 4b69 47bd 6a41 dbbb ea6e 12bc
000002f0: 5a8c 40bc 11a1 8cbb 85c9 cdbb 9c4a 9abc
00000300: abce 573d c4c6 35bd eb0a 76bb e6c3 a5bc
00000310: c9ba 77bd 5536 3c3b 5a26 133d cf50 62bd
00000320: 2601 c6bc a868 bebc 2ed2 63bd 8de8 2d3a
00000330: 975d 0fbc f2b5 433d 2b00 0abd f206 68ba
00000340: f298 283c 8c3f 65bc 4170 04bd 0f10 1e3d
00000350: 974a 9c3d b07e 19bd 348b 453d 5d77 093b
00000360: 7d70 2a3c 2c78 b8bc 8615 55bd 138b f7bc
00000370: 1305 1ebd 353b 8d3d 1f0a 0c3c f721 1abd
00000380: e855 89bd e761 e53c 7358 033d c544 173c
00000390: fc32 853d cd8a 203d ec10 8dbd 9514 06bd
000003a0: 202a 913d 82d7 173d 47f4 0a3c ca70 3c3c
000003b0: 1609 88bc a418 973c 655d f93c dea7 8fbd
000003c0: ef0b 97bd dde6 bbbc df1a 033d 9084 7cbd
000003d0: ee3b 483d c4f2 8ebd 6afe 823d b7c2 4db8
000003e0: 8e16 2d3c 00fd 76bd 8e36 643d 162f c73c
000003f0: f246 ac3c 405d c83a b316 783c 26bc 84bd
0.014178879 0.06525615 0.07774872 0.027202448 -0.044968955 -5.855549e-06 0.011484622 -0.03362033
0.06369677 -0.015838645 0.016683372 -0.009636195 0.055740744 0.0121927615 -0.040220656 0.05704576
-0.07083573 0.037875846 -0.011163274 0.0099704005 -0.01177479 0.0015257001 -0.014420842 0.026433678
-0.023080718 -0.013292068 -0.023184692 0.023063967 -0.018427385 -0.025346657 -0.079003386 -0.017968224
0.040407486 -0.042647693 -0.031534668 0.03832405 0.073627666 0.0082349405 -0.03319589 -0.018967481
-0.054812737 -0.03163366 0.073860064 0.06607316 -0.03513517 0.06562025 -0.0698713 0.026946973
-0.07075602 0.04315544 0.041501943 0.016831415 -0.01252874 -0.03507528 -0.0738922 0.053317305
0.06295084 -0.009023407 0.03464303 0.013412808 0.0076167416 -0.043014098 0.02081557 0.034767095
0.01582243 -0.0123122595 0.057293493 -0.052131377 0.0269402 0.06829652 0.066363 -0.034744993
-0.028830018 0.069855094 -0.01683757 0.072018616 -0.06297554 -0.079298235 -0.07807454 -0.06582539
-0.0041546226 0.005432457 0.06289465 0.010012047 0.016510982 -0.045781042 0.026473498 -0.03921938
-0.035521105 -0.017184366 -0.061322916 0.023233378 0.0626369 -0.06956523 0.037722748 -0.048462853
0.04066156 -0.006247256 0.0348655 -0.03375856 -0.016367495 0.014389591 -0.058223367 -0.007518179
-0.014394189 -0.021798601 0.00056808 0.05153198 0.031226393 0.036125187 0.03980983 -0.040324174
0.056808975 0.0017605168 0.034828883 -0.041398894 -0.0043394705 0.022723636 0.06899097 0.071252815
-0.041155472 0.0017190027 -0.037693303 0.0010265813 -0.019804277 0.029512862 -0.026777217 -0.033802215
0.0043166783 -0.036917232 0.031316184 0.0483044 0.04207828 -0.04132903 0.020734474 0.038490616
0.035241008 0.07157787 0.035125006 -0.05631466 -0.030685889 -0.0055103656 -0.041319534 -0.015837349
-0.0043978784 0.0024931426 0.035082955 0.028863646 -0.04854955 -0.068785675 -0.022996154 0.012080915
-0.05088081 0.028890023 -0.008437746 0.0021324619 -0.042236563 -0.06681923 -0.005861775 0.041156452
0.036460783 0.04142848 0.029240072 -0.07028892 -0.028301844 -0.03686139 -0.030155765 -0.052511852
-0.07655932 0.048194062 0.0054068333 0.0138156945 -0.0041533513 -0.007219245 -0.024045683 -0.01683788
-0.0052915076 -0.060293265 0.046957918 -0.034161843 -0.027555695 0.008422213 -0.06839019 0.004010088
0.061878566 -0.0486844 -0.0066911476 -0.008937577 -0.011752212 -0.0042916615 -0.0062801265 -0.018834405
0.05268733 -0.04437901 -0.0037543129 -0.020235013 -0.060480867 0.0028718908 0.035925247 -0.055252846
-0.02417047 -0.023243263 -0.055620365 0.0006634079 -0.008750341 0.04778094 -0.033691566 -0.00088511326
0.010290371 -0.013992202 -0.032333616 0.038589533 0.076314144 -0.037474334 0.048228458 0.0020975687
0.010402796 -0.02251824 -0.05202248 -0.030217683 -0.038579058 0.068960585 0.008547335 -0.037630048
-0.067058384 0.028000785 0.032066774 0.0092327045 0.06503865 0.03919487 -0.06887993 -0.032734472
0.07088113 0.03707076 0.008481092 0.0115015 -0.016605895 0.018444367 0.030440042 -0.0701444
-0.07375323 -0.022937233 0.03200805 -0.06164986 0.04888528 -0.069798976 0.06396182 -4.905715e-05
0.0105644595 -0.060299873 0.05571609 0.024314445 0.021029923 0.001528658 0.015142131 -0.06481199

conv_time_spat.conv_time.bias f4 [40]
00000000: 31ae 333a 4fc6 3d3a 50ea 69b9 b759 e539
00000010: cf65 be38 d6bf a6ba 0a24 2fba 2f3c 4d3a
00000020: 2087 8239 dfc4 e739 9e45 9e3a 0ef1 30ba
00000030: df9a b3b8 1938 263a 9ae8 0139 2ce0 6338
00000040: c7ab eeba 1094 91ba 4a6d 4eba 3138 593a
00000050: 8eca ae3a 0303 2dba 5b58 703a 1061 ea39
00000060: f557 95b9 b449 8fba 0bfd c5ba 4f80 4a39
00000070: 5178 0fba e36c c539 03d7 2739 6fd7 24b9
00000080: 03e1 f9ba aa3f 43ba 04d2 1fbb 2d44 92ba
00000090: 8c3e 523a 7c40 ccb9 f79f 113b 05f4 1cba
0.00068542646 0.0007239328 -0.000223079 0.00043745126 9.078869e-05 -0.0012721966 -0.00066810905 0.00078290974
0.00024896208 0.00044206434 0.0012075191 -0.0006749787 -8.564232e-05 0.00063407567 0.0001238905 5.4329794e-05
-0.0018209153 -0.0011106748 -0.00078745617 0.0008286266 0.0013335512 -0.0006599875 0.00091684394 0.00044704275
-0.00028485028 -0.0010932 -0.001510532 0.0001931202 -0.00054729456 0.00037655895 0.00016006459 -0.00015720514
-0.0019064251 -0.00074481464 -0.0024386654 -0.0011159234 0.00080201845 -0.00038957957 0.002222059 -0.00059872895

conv_time_spat.conv_spat.weight f4 [40, 40, 1, 44]
00000000: dc54 ddbc 8407 09bd 5583 f73b 6e1b 683c
00000010: 4f32 a33b e805 1ebd d96e 253c 5eb6 8cbc
00000020: 86c4 4ebb d648 ccbc d5b9 b43c 58bf a0bc
00000030: 2186 2dbc 9238 19bc 8df4 0fbb fe05 fabb
00000040: 05fc cbbc 4215 93bc ac83 9bbc e685 a8bc
00000050: ead2 1abb 70c3 d23c 49a9 c03b 566a c5bc
00000060: d6b9 de3c 5e55 a3bc a37f 92bc 3951 b53c
00000070: c0d5 3cbb 9f96 023d 7150 f33b 6dd3 453c
00000080: a332 0c3c d681 92bc d31d 7e3c ef34 78bc
00000090: a340 083c 696f 013c efd1 9e3b 62b2 7fbc
000000a0: 6741 dbbc c7db 7a3b a459 d13b 75af acbb
000000b0: a55c 04bc b070 11bd 4ede 0ebd 0ade 2b3b
000000c0: 1b9b 04bd 4a4d 953c 1dbd 03bd f1fc d73c
000000d0: db3f 673c 6833 183d 44ad a33c db78 8b3b
000000e0: 8b0a 9c3b 61a7 633b 6851 cc3c b653 69bc
000000f0: 1a3c 0dbc a798 a3bb f438 2f3c 7b06 edbc
00000100: a107 f23c 53b2 c0bb 5000 50bc 1913 7e3c
00000110: b9f9 28bc 19ea 2a3d a563 1a3d 54b1 cc3c
00000120: b742 663c 48fb ff3b ac33 d43c 4b5d cbbc
00000130: c54b fb3c 5e3e a7bc 5b1e 9ebc a18b d73c
00000140: db6d f4bc 8db4 cb3c a34a 5abb 861c e23c
00000150: 8a77 c53c 0424 be3c dfb5 143d 7b1b 13bd
00000160: 396f c8bc a717 f83c 9ce5 d6bc a726 71bc
00000170: 50d6 0a3d e9a3 e63c 55b6 98bb 29e4 bf3c
00000180: 971b 21bd 5cf3 0ebd 7836 49bc fd16 de3c
00000190: 6af7 19bd a8fb 1d3c cb92 0bbd 8b9e d73c
000001a0: e009 ba3b be82 163d d7af 243c eef1 fa3c
000001b0: e404 8cbc 3212 50bc a05b bc3b ae5a c53b
000001c0: ceac 3d3b 9c97 dbbc a817 283d 97b9 efbc
000001d0: 5701 d4bb f9a8 273d 96bf 21bd ed7b 8fbc
000001e0: f102 48bc a3fd eabc 7893 033d b64d eb3b
000001f0: 4879 00bd 8a15 4ebc 3375 edbc c7e1 1c3d
00000200: 3f2d 013d 5e33 813a 4b93 f33c a6d6 533c
00000210: 4fe1 213d 3375 01bd 4a36 1f3d 694a d0bb
00000220: db20 54bc c382 b63b ed64 093c 8d8b 6a3c
00000230: 50c7 f4bc e74f f4bb 7f65 4ebb 4c72 e43c
00000240: 3474 d2bc 4731 ad3c f0ff dc3a 5a06 a53b
00000250: 65b5 6fbc 709f fb3c 26a0 113d 3277 ffbc
00000260: 1bdc 62bc 36f9 0e3d 9189 d1bb 8160 24bd
00000270: c2b4 3c3c 423a 903c 21cd b13b cb46 163d
00000280: 824b dabc 9775 55bb 95b6 e03a 5364 983b
00000290: 9380 74bc 25da 10bc 6878 e6bc 429c 193d
000002a0: 95ee ebbc 3c08 833b 7212 75bc 5e47 bc3c
000002b0: 3f59 e6bc 9b91 033d cc94 bd3c 6e23 9a3c
000002c0: 320e 19bd 522a 13bd bdc9 0e3d dcc3 0cbd
000002d0: 6dd1 aebc a3fd 03bd bd6f a83c cd94 e5bc
000002e0: 36be 1a3d 964c 223a ec09 e23a ce5d d63c
000002f0: 6391 5ebc 12ff 673b e57a 6c3c 50f4 1c3c
00000300: bdfa 3cbc d5a8 efbb d5aa 143d 5859 163d
00000310: bef3 37bc 6313 0e3d 15ea c03c 1915 c4bb
00000320: 8876 10bd 1429 e7bb e900 d63c f142 5b3b
00000330: ed92 0f3d 481a 11bd 5d7c 8e3c c66d b53c
00000340: b225 f93c a681 763c 027d e83c 1937 c4b9
00000350: b647 e03b c3ee e3bc 5a07 aa39 5f42 52ba
00000360: 351b f3bc f0a2 b6bc 48b2 ddbc 06dd 28bc
00000370: 9f15 153d 25b8 fdbc a202 5cbc 4907 dcbc
00000380: 5ce2 053d 4731 513c cc51 f83c 4d98 f73c
00000390: 3642 813b 20fd 12bc 998d 84bc 23ff 153c
000003a0: c81e e23c 5879 4dbc 249c 84ba 3528 80bc
000003b0: ebbb c9bb 628a ad3a 86d1 d33c 6aa1 30bc
000003c0: b99c 153c 8c97 eebc 28b6 18bb 618d e3bc
000003d0: 9032 05bd bc4b ad3c 8f62 1ebd bff8 82bc
000003e0: f165 a23b e0b0 42bc d12e 4f3c 6a96 dbbb
000003f0: 8d63 e6bb c1d2 1ebd 9aa6 a3bc 4679 a4bc
-0.027018003 -0.033454433 0.007553498 0.014166696 0.0049803625 -0.03857985 0.010097229 -0.017176803
-0.0031550243 -0.024937075 0.022061268 -0.01962249 -0.010591061 -0.009351866 -0.0021965832 -0.007630109
-0.024900446 -0.017954472 -0.018983684 -0.02057166 -0.002362425 0.025727957 0.0058795554 -0.024098556
0.027188223 -0.019938167 -0.017883128 0.022133457 -0.0028813928 0.031881925 0.007425361 0.012074334
0.008556995 -0.017884176 0.01551004 -0.015149339 0.008316192 0.007900097 0.0048468034 -0.015606495
-0.026764585 0.003827797 0.00638886 -0.0052699395 -0.008078729 -0.035507858 -0.034879975 0.0026224875
-0.032374483 0.01822533 -0.032162774 0.026365729 0.014114345 0.0371584 0.01998008 0.0042563505
0.004761999 0.0034737217 0.024941161 -0.01424115 -0.008620286 -0.004992563 0.010694731 -0.028933754
0.029544653 -0.005880633 -0.012695387 0.015507483 -0.010313445 0.04172716 0.037692685 0.0249869
0.014053992 0.0078119375 0.025903545 -0.024824759 0.030675778 -0.020415481 -0.019301584 0.026311697
-0.02983754 0.024866367 -0.0033308647 0.027601492 0.024104852 0.023210533 0.03630626 -0.03591488
-0.024467098 0.030284716 -0.026232533 -0.014718688 0.03389579 0.02815433 -0.0046604075 0.023424225
-0.039332952 -0.034900054 -0.012281053 0.027110571 -0.037589468 0.009642519 -0.03407554 0.026320716
0.0056774467 0.03674578 0.010051689 0.03063294 -0.017092176 -0.012699651 0.0057482272 0.0060227728
0.002894211 -0.026805691 0.041038185 -0.0292633 -0.0064698863 0.04093263 -0.03948935 -0.017515147
-0.012207733 -0.028685397 0.03212306 0.0071808947 -0.031365663 -0.0125783775 -0.028986549 0.038301256
0.03153729 0.0009857228 0.02973332 0.012929594 0.03952151 -0.03160591 0.038870133 -0.0063565266
-0.0129472865 0.005569787 0.008385879 0.014315498 -0.029880196 -0.007455814 -0.0031493602 0.027886532
-0.025690176 0.021141661 0.0016860943 0.0050361576 -0.01463065 0.030715674 0.03555312 -0.031184766
-0.013846423 0.034905635 -0.006394573 -0.040131096 0.011517705 0.017605904 0.0054260646 0.036688607
-0.026647333 -0.003257131 0.0017144257 0.0046506315 -0.014923233 -0.008841072 -0.028133586 0.037502535
-0.028800288 0.0039987843 -0.014958011 0.02298325 -0.028118728 0.032121282 0.023142241 0.018815722
-0.037367053 -0.03592903 0.03486036 -0.034366474 -0.021340096 -0.03222431 0.020561093 -0.028025055
0.037779056 0.0006191222 0.0017245389 0.026167776 -0.013584468 0.0035399836 0.014433597 0.009579733
-0.01153439 -0.0073138275 0.03629573 0.0367063 -0.011227546 0.034686457 0.023549119 -0.0059839603
-0.03526929 -0.0070544574 0.02612348 0.0033456648 0.03505223 -0.035425454 0.017393285 0.02214707
0.030413482 0.015045559 0.02837992 -0.00037425084 0.006844486 -0.027823811 0.00032430404 -0.00080207543
-0.02967606 -0.022294492 -0.02706255 -0.010306602 0.036397573 -0.030971596 -0.013428362 -0.026858943
0.032686576 0.012768096 0.030312441 0.03022399 0.0039446605 -0.0089714825 -0.0161808 0.009155068
0.027602568 -0.012541138 -0.0010117334 -0.015644172 -0.006156435 0.0013240094 0.025856744 -0.010780672
0.009131604 -0.029124998 -0.0023301933 -0.027777376 -0.032518923 0.021154277 -0.03866821 -0.015987752
0.004956 -0.011882991 0.012645439 -0.0067012804 -0.0070309103 -0.03877521 -0.019976903 -0.020077359

bnorm.weight f4 [40]
00000000: 8b5d 803f 744e 803f d5f3 7f3f c243 803f
00000010: 3482 803f 062c 803f 969c 7f3f d548 803f
00000020: 216e 803f 5281 803f 5c75 803f d62c 803f
00000030: d239 803f 80b8 7f3f 83c2 7f3f cf01 803f
00000040: 589a 7f3f 765f 803f eff4 7f3f 3e04 803f
00000050: 73ca 7f3f 062a 803f 5571 803f 1265 803f
00000060: ba2c 803f 6fbe 7f3f af72 803f dbdc 7f3f
00000070: 5744 803f 0b84 803f f625 803f ba5d 803f
00000080: d91a 803f 2f10 803f a6de 7f3f 546f 803f
00000090: bc39 803f e11a 803f ea55 803f 2818 803f
1.0028547 1.0023942 0.99981433 1.0020678 1.0039735 1.0013435 0.99848306 1.0022227
1.0033609 1.0039465 1.0035815 1.0013683 1.0017645 0.998909 0.99906176 1.0000552
0.99844885 1.0029132 0.99983114 1.0001295 0.9991829 1.0012825 1.0034586 1.0030844
1.001365 0.99899954 1.0034999 0.99946374 1.0020856 1.0040296 1.0011585 1.0028603
1.0008193 1.0004939 0.9994911 1.0033975 1.0017619 1.0008203 1.0026219 1.0007372

bnorm.bias f4 [40]
00000000: ac5f f0b9 45a4 80ba 762a 013b 1e90 103b
00000010: f64d 1dbb fd74 303b f7c6 b13a 40cf 8dba
00000020: be7a b93a d373 64b9 608d f93a a4ef 843b
00000030: 4d79 e83a 9638 d63a 302c 383b fb94 ed3a
00000040: ac8c beba 5bc8 913a dd59 fdba f248 fd39
00000050: b41b b43a 76dd 85ba c6e4 d4ba 2fc4 dfb9
00000060: adeb 153b 67a7 953a 3194 413a 8718 ab39
00000070: c7fe 303b 35ef 623a 2e74 38ba 5db8 8dba
00000080: faf7 cdba 6ec2 dd3a 6f4a 4dbb d1dd bb3a
00000090: 858b e03a 562f 43bb dd68 e0b9 dba8 763a
-0.00045847648 -0.0009814581 0.0019709147 0.0022058557 -0.0024002767 0.00269252 0.0013563324 -0.0010819212
0.001415096 -0.00021786922 0.0019039325 0.0040568877 0.0017736346 0.0016343768 0.002810251 0.0018126065
-0.0014537773 0.0011122333 -0.001932915 0.0004831027 0.0013741166 -0.0010213095 -0.0016242496 -0.00042680043
0.002287607 0.0011417688 0.0007384448 0.00032633936 0.0027007328 0.00086568604 -0.0007036355 -0.0010812391
-0.0015714162 0.0016918906 -0.0031324883 0.0014333074 0.0017131424 -0.0029782853 -0.0004280274 0.00094093167

bnorm.running_mean f4 [40]
00000000: 78a3 b23a d16d a43a dd9b 97ba 9fdb 95ba
00000010: 28a2 0fba c4ad 9a39 c8f5 c63a e025 3739
00000020: 7977 233a 9e0e 4b3b a8a4 e4b9 db7a 0aba
00000030: ed09 1abb 3daf b9ba c02d c2b9 36b0 1b3b
00000040: b8ab fb38 54e1 ef3a c163 ac3a eaf1 c0b9
00000050: 45e6 03bb f3de 43ba 6df6 e6b9 a095 fb39
00000060: 7bfb 8eba 607f 0eba 0c6c c9b9 7dc0 ae3a
00000070: f474 3bb8 3862 8bba 5b6a 35bb 0f72 e9b5
00000080: 81de 9239 c95e 30b8 f0da e839 61a2 e2ba
00000090: bd73 8637 e00a 223b cc1c e7ba ebb1 34ba
0.001362904 0.0012544935 -0.0011566837 -0.001143325 -0.000547918 0.00029502634 0.001517945 0.0001746635
0.00062357594 0.0030984054 -0.00043610227 -0.0005282589 -0.0023504451 -0.0014166605 -0.0003703665 0.0023756153
0.00012000598 0.0018301406 0.0013152288 -0.00036801334 -0.0020126265 -0.00074718817 -0.0004405262 0.0004798593
-0.0010908687 -0.00054358505 -0.0003841821 0.0013332512 -4.4693195e-05 -0.001063413 -0.00276818 -1.7393048e-06
0.00028013068 -4.2049945e-05 0.0004441361 -0.0017290824 1.602794e-05 0.002472572 -0.0017632484 -0.0006892967

bnorm.running_var f4 [40]
00000000: 3c2d 003b a4c7 043b 1d9c f33a 2d03 fb3a
00000010: f957 013b bed2 003b db92 003b 72cd f73a
00000020: 7e80 f73a 8f69 fc3a 4574 023b d456 f73a
00000030: 4c7b fa3a f1de f53a d035 f83a 38c0 f33a
00000040: 5107 093b f14b fc3a 1029 f53a b861 f73a
00000050: 6773 f53a cadc fb3a 1665 fc3a 2b3e f93a
00000060: 506d f23a 82f6 fc3a e5b2 fa3a ae16 f13a
00000070: 45fd 003b 16ce 013b 2bb7 f63a e3bf f73a
00000080: 57c4 f63a c2c7 f33a aaae f83a 74f7 003b
00000090: a343 ff3a a170 fd3a 7f4f f73a 4e91 f83a
0.0019558212 0.0020260597 0.0018585954 0.0019150727 0.0019736274 0.0019656862 0.0019618783 0.0018905832
0.0018882898 0.0019257533 0.0019905728 0.0018870481 0.0019110232 0.0018758458 0.0018936936 0.0018596714
0.0020908902 0.0019248707 0.0018704254 0.0018873727 0.0018726409 0.001921558 0.00192562 0.001901572
0.0018495712 0.0019299539 0.0019126801 0.00183936 0.001968221 0.0019806675 0.0018822899 0.0018901791
0.0018826824 0.0018598961 0.0018972952 0.0019678744 0.0019475113 0.0019335934 0.0018868296 0.0018964203

final_layer.conv_classifier.weight f4 [4, 40, 144, 1]
00000000: a312 19bc 132b 45bc 40ef ae3c 41e7 04bc
00000010: 947a f33c 8281 653b 546c e5b9 2c56 f53b
00000020: c02c cfbb 7899 583c fbd1 60bc d83f 83bc
00000030: cf17 9fb7 25d6 8e3c ea08 123a 07bc 183c
00000040: d0d9 afbc 221b 0bba 35d3 62bc f9e8 e3bc
00000050: e988 2abc 0427 013d ddcb b7bc 6efb 8aba
00000060: 9cba 023c 4d93 f73c cb9e aabc 3191 6dba
00000070: 8fb0 803c 656b dcbc 5806 b6bc 1cd5 cabc
00000080: bed4 14ba 28a8 79bc ff71 69bc 51af 65bb
00000090: 5b37 4c3b 6ee1 b3bc 8a9d f23c e719 af3c
000000a0: aa46 debb 4e76 9ebc aad9 d03b 6506 e4bc
000000b0: 0732 483b 0060 a43c 75e3 8c3b 7cd9 8f3c
000000c0: b663 d1bc 7e65 4e3c 8e36 8c3c 9889 023c
000000d0: 4f25 f0b9 99e2 5f3c ad5e e8bc 0f26 91bc
000000e0: be83 c8bb 47d8 c33c 3887 73bc 81e4 513c
000000f0: 276c d13c bb29 e9bb fd44 023b 405c 8cbc
00000100: 8876 d0bc 7583 46bc 60cf e93b 202a 3abc
00000110: 6a83 e43c 192d 2a3c 3c84 7ebc e529 103c
00000120: b494 eabc 6a64 963c 2d1d 93bc a2cb b2bc
00000130: 3ac5 a23c 9fb7 853c 63ab f63c 7396 98bc
00000140: f5d7 3d3c 8ae2 743b 2129 b83c 00ca e8bc
00000150: f706 24ba 871b f8bc dfd7 753b 9fb1 4c3c
00000160: 0b90 19bc a0d9 acbc e524 c0bb 0eb3 60bc
00000170: 1493 bebc 3c97 e53c eae9 c73c 88f6 57bc
00000180: 5fa7 e93c 9587 8a3c 13ea 2bbb e03a e93b
00000190: 662a 823c 9834 a1bb 1891 a8bc 6eac 90bc
000001a0: cc14 243b 7e52 a03c 398c c63c eea5 29bc
000001b0: 8383 18bc c538 cd3c 9229 fabc 32e6 83bc
000001c0: 5668 eabc 3e61 ce3c 3ad0 7b3c 2d16 dfbc
000001d0: 3556 b9bc 0175 d33c 0264 7c3c 2117 88bc
000001e0: 035e bb39 e941 1ebc c265 623c 65bc a5bc
000001f0: a00a 60bb a971 4ebc 3e67 7bbc 63ee 673c
00000200: e7fd babc 4e34 debc bf7c b3b9 fe3f 5c3c
00000210: 869c e3bc 9e6a 75bc e319 c1bc 4379 a73c
00000220: cd6d ddbc 10ef 3ebc 7325 a63c 1e07 2ebc
00000230: 2a20 f53b 4a73 e93c a701 cf3c d405 d13c
00000240: 4fc6 afbc 7420 bfbc b324 c13b 0d37 afbb
00000250: 1278 98bc 9ce2 90bc c1e5 f93b ec8a bdbc
00000260: 2e4f ccbc 7a30 7cbb 1475 a53c 79a2 6ebc
00000270: c173 c6bb 67d1 213c 0bbd 67b9 6d65 e43c
00000280: 0be7 863c 0a1a 69bc 0032 433b 6716 bf3c
00000290: b755 423b 4e9b 1bbc 8f5b 153b b6c2 dc3c
000002a0: 7916 bc3c 267d 60bb aeeb 263b 0aba 01bc
000002b0: c2e0 f9bb 438f 3fbc ff4e b4bc fc3b 683c
000002c0: 1bb5 8ebc 3e89 053d b746 f73c 21cb bc3c
000002d0: aa7e babb c1a4 6fbc 3f95 203c de48 bbba
000002e0: 7e10 2b3c 357a cc3c 6584 abbc bb6a 93bc
000002f0: ce0a 943b ef43 503c 4a8a b63c 7611 823c
00000300: cedc 883c 7a71 8cbb 2545 b73c 8ccf dd3b
00000310: b999 5d3c b882 133b c64d f23c c324 c13c
00000320: 5ab3 1a3a 6fba 883c 5f19 743c 05f9 a3bc
00000330: 8667 c43c c4db 29bc 1274 c4bc 6ee9 103c
00000340: c7b4 7abc 0b9b a03c 7781 4e3c 2d01 1fbc
00000350: b1dd 3c3c c590 e83c 41ea cdbc 5943 87bc
00000360: 7d8e 16bb 7085 7cbc 9085 77bc 9102 37bc
00000370: 3dc8 fbbb 1819 69bc 412e 053d 8982 25bc
00000380: dac1 333a 20ee 7d3a 30d5 3fbc 4cfe b53b
00000390: e1c3 1dbc 8e2a d93c cace a03c d661 6e3c
000003a0: f791 81bc 7d7d 4dbc 7593 b63c 6cbf 8fbb
000003b0: bb13 dcbc eb8d 8d3c 2ae4 bfbb 41ed ed3c
000003c0: 0bfd 5c3c ef74 dc3c 2d2c 41bc c557 a63c
000003d0: d07e 223c ef97 9d3c c2ed b53b 0097 b33b
000003e0: d2a2 0a3c ee2e d33b 3713 e93c c374 9a3c
000003f0: 8938 1d3b 70fe f43c 5d48 cfbc 0fc4 a2bc
-0.009342822 -0.0120341955 0.021354318 -0.008111776 0.029721536 0.003501982 -0.00043758994 0.007487079
-0.0063224733 0.013220184 -0.013721938 -0.016021654 -1.8965364e-05 0.017436096 0.00055707863 0.009322173
-0.021466166 -0.00053064723 -0.013844301 -0.027821051 -0.0104086185 0.03153135 -0.022436077 -0.0010603496
0.007979061 0.030221606 -0.020827672 -0.0009062468 0.01570919 -0.026906678 -0.022219822 -0.024759822
-0.0005677453 -0.0152378455 -0.01424837 -0.0035047124 0.0031160924 -0.02195808 0.029616136 0.021374656
-0.006783326 -0.019343521 0.006373604 -0.02783508 0.0030547397 0.020065308 0.004299576 0.01755976
-0.025560241 0.01259744 0.017115857 0.007967375 -0.00045804164 0.013664865 -0.028365457 -0.017718343
-0.0061192205 0.02390684 -0.014863782 0.012810827 0.025564266 -0.0071155704 0.0019877546 -0.017133832
-0.025447145 -0.012116303 0.0071353167 -0.011362582 0.027894694 0.010386729 -0.015534457 0.008799051
-0.02863536 0.018358428 -0.017958248 -0.021825615 0.019869436 0.016322909 0.03011102 -0.018626427
0.011587133 0.0037366473 0.02248055 -0.028416634 -0.00062571414 -0.030286564 0.0037512702 0.01249352
-0.009372721 -0.021099865 -0.005863773 -0.013714565 -0.023263492 0.028026216 0.024403531 -0.013181336
0.028522192 0.016910354 -0.0026232048 0.007117614 0.015889358 -0.0049195997 -0.020576999 -0.017660346
0.002503681 0.019570585 0.024236785 -0.010354502 -0.009308699 0.025051484 -0.0305374 -0.016100977
-0.028614204 0.025192853 0.015369469 -0.027232254 -0.022624115 0.025812628 0.015404703 -0.016612591
0.00035737464 -0.009659269 0.013818206 -0.020231435 -0.003418602 -0.012600341 -0.015344439 0.014155957
-0.022826148 -0.02712455 -0.00034234484 0.013442991 -0.027784597 -0.014979033 -0.023571914 0.020443564
-0.027029896 -0.011653677 0.020281529 -0.010621814 0.007480641 0.028497357 0.025269343 0.025515474
-0.021456866 -0.023330905 0.0058942675 -0.0053471387 -0.018611941 -0.01768618 0.0076262658 -0.023137532
-0.0249401 -0.0038481043 0.020197429 -0.014565104 -0.0060562794 0.009876586 -0.000221003 0.027880395
0.016467592 -0.0142274 0.002978444 0.023326112 0.002965314 -0.009497477 0.002279017 0.026948314
0.022959935 -0.0034254282 0.0025470066 -0.00791789 -0.00762567 -0.011691871 -0.022010325 0.014174458
-0.017420342 0.032601587 0.030185087 0.023046078 -0.005691369 -0.014626683 0.009801208 -0.0014288684
0.010440944 0.024960617 -0.020937154 -0.017995229 0.0045178896 0.012711509 0.022282738 0.015877467
0.01670685 -0.0042859884 0.022371838 0.0067691263 0.01352542 0.0022508334 0.0295781 0.0235771
0.0005901359 0.016690461 0.014898627 -0.020016203 0.023975145 -0.010367338 -0.023981128 0.0088447165
-0.01530189 0.01960518 0.012604109 -0.00970487 0.011527465 0.028389344 -0.025136115 -0.016511606
-0.0022973113 -0.015412673 -0.015107527 -0.0111700455 -0.0076837824 -0.014227174 0.032514814 -0.010101923
0.0006857194 0.00096866675 -0.011708543 0.005553996 -0.009629221 0.02650955 0.019629855 0.014549693
-0.015816672 -0.012542126 0.02228711 -0.004386833 -0.026864877 0.017279586 -0.0058560567 0.029043796
0.0134880645 0.026911227 -0.0117903175 0.020305524 0.00991793 0.019237487 0.0055520246 0.005480647
0.008461671 0.0064448034 0.028451545 0.018854504 0.0023989996 0.029906482 -0.02530306 -0.019868879

final_layer.conv_classifier.bias f4 [4]
00000000: 975c c3ba 54b0 3dba 5c3b 813b 7326 eeba
-0.0014904913 -0.0007236053 0.0039438438 -0.0018169418
