models/ShallowFBCSPNet_persons8_lr0.001_wd0.1_bs32_acc0.2984.pth (torch, 383670 bytes, 9 tensors)

conv_time_spat.conv_time.weight f4 [40, 1, 25, 1]
000000 d9 53 70 bd ed a4 0b bd 9b af 16 bd dd 9d 4b 3d
       -0.058673713 -0.034092832 -0.036788564 0.049711097
000010 dd 7e 42 b9 37 3f 86 3d ed 7f c1 3d b0 d5 cd 3d
       -0.00018548542 0.06555026 0.09448228 0.10050523
000020 bb f2 e0 3d 34 ba 68 3d 39 22 92 bc 60 b8 9f bd
       0.10983797 0.056818202 -0.017838584 -0.077988386
000030 ae d7 e7 bb f2 e3 ab bd fb 2e ab 3c d3 88 82 3d
       -0.0070752716 -0.083930865 0.020896425 0.063737534
000040 62 51 cb 3c fc d7 c5 3c cf 31 80 3c b2 b2 34 3d
       0.02481908 0.024150841 0.01564875 0.04411573
000050 86 29 65 3b 57 e3 d5 bc 45 28 12 bc 80 41 ff 3b
       0.0034967377 -0.02610938 -0.008920734 0.0077897906
000060 a5 75 e6 bc 65 b8 a8 3b 77 70 77 bd 4d 7b 2e bd
       -0.02813227 0.0051489347 -0.06040999 -0.042598058
000070 14 73 b5 bd d8 03 35 bd e1 7f 61 bb c0 91 24 bd
       -0.0885984 -0.04419312 -0.0034408497 -0.04017806
000080 ea a6 47 3d 50 76 46 3d 3f 61 a0 3c 37 9c a3 3d
       0.048743166 0.048452675 0.01957762 0.0798878
000090 c4 af 9c 3d 54 01 4c 3d 3d 3a 22 bd 9a 81 d5 bd
       0.07650712 0.049805954 -0.03960632 -0.1042511
0000a0 55 b0 0a be 6e 1b fe bd 52 c9 a2 bd 3f d2 fb bc
       -0.13543828 -0.124075755 -0.07948555 -0.030739902
0000b0 7d ba ee bc db 23 3f 3d bc 9a 24 3d 9a 1c 8e 3d
       -0.029141659 0.046665054 0.04018663 0.06939049
0000c0 6d a0 ca 3c cc 4a 70 bd 41 d6 a4 3c 1c f7 4c 3d
       0.0247347 -0.05866508 0.020121695 0.05004035
0000d0 bc 41 27 3c 65 76 12 3d 43 30 d9 bc bc f0 a8 3c
       0.010208543 0.03575744 -0.02651227 0.020622604
0000e0 ca 8f 3b 3d b9 3a de bb 8b 53 b7 bc f4 82 b9 38
       0.045791425 -0.0067819026 -0.022378704 8.845879e-05
0000f0 89 2e a0 bd 2f 3f 41 bd eb c6 03 bd 0d 69 16 bd
       -0.07821376 -0.047179397 -0.032172125 -0.036721278
000100 5f fb 50 3d be 05 e2 bb 75 5b 0c bd d6 a8 80 3c
       0.051020976 -0.006897657 -0.034266908 0.015705507
000110 4c 45 6e bb 84 0a 79 bd bd a2 59 bd 6c 54 36 bd
       -0.0036357222 -0.060801044 -0.053133715 -0.044514105
000120 fb 98 49 bd 21 5d 10 bd 83 72 a1 3d e2 08 88 3d
       -0.04921816 -0.035245065 0.078831695 0.06642319
000130 28 2d 3a bd 57 8b 27 3d 32 a9 14 3b 3f 65 b5 3c
       -0.04545322 0.04090437 0.0022683856 0.022143004
000140 8e d8 95 3d 89 e7 a6 3c 1a 75 3a 3d e9 9d e8 bc
       0.07316695 0.020374076 0.045521833 -0.02839561
000150 bf 33 b5 bd 80 61 f0 bd 54 ba ae bd ac 54 ac bd
       -0.088477604 -0.11737347 -0.08531633 -0.084145874
000160 65 fd 22 3d b3 ad 80 3c 70 78 ab 3d 86 b4 a3 bc
       0.039792437 0.015707826 0.08372581 -0.019983541
000170 f3 cc 7f 3d 6d cc 4c bd 29 d0 39 bd 4d c4 91 3c
       0.062451314 -0.049999643 -0.045364533 0.017793799
000180 1d c5 4e 3d 45 a6 2f 3c 60 fc 79 3c c3 38 1d 3e
       0.05048095 0.010720794 0.015257925 0.15353684
000190 e2 7c 4e 3d 9b f5 0e bd a1 6d 84 bc 65 fb 73 bc
       0.050412066 -0.034902196 -0.016165556 -0.01489148
0001a0 cf 61 13 bd af 1b 9d bd 8c a8 80 3c 1b 5a 21 3d
       -0.03598195 -0.07671296 0.01570537 0.039392572
0001b0 b9 f5 95 3d 64 1a 79 3c 53 b7 d7 3c 5e c4 6d bc
       0.073222585 0.015204046 0.026332533 -0.01451215
0001c0 0d 6a 70 bd e7 17 75 3c 59 8a 09 3c 6e 48 cb 3c
       -0.058694888 0.014959312 0.008394801 0.02481481
0001d0 ae 51 7a 3d 63 c4 ac bc 98 9f 16 bd 24 15 cb bd
       0.061113052 -0.021089738 -0.036773294 -0.09916142
0001e0 c3 de 4c bc cd 5f 82 bd fb c0 15 bc 6c b0 0d 3c
       -0.012504282 -0.06365929 -0.009140248 0.008648019
0001f0 ee 51 4a 3d 56 d8 59 3d 9e 0d 3f 3c 97 60 80 3d
       0.04939454 0.05318483 0.011660961 0.06268423
000200 e5 49 e2 3c 14 22 2b 3c 97 e7 2b 3c 23 81 69 bd
       0.027623126 0.010445137 0.010492227 -0.05700792
000210 55 55 0b bd 61 5a 80 bd 9c c8 af bd 51 e5 21 bc
       -0.034016926 -0.062672384 -0.08583185 -0.009881333
000220 94 81 62 38 9a 26 42 bb 77 c7 25 bd 48 36 f6 3c
       5.4003278e-05 -0.002962506 -0.040473428 0.03005518
000230 4d 77 52 3d b7 7a db bc 37 4b ad 3c b1 90 24 bb
       0.051383305 -0.026791913 0.02115403 -0.0025110657
000240 48 25 c1 3c 3b e5 44 bd 3d 86 ae 3b de ab 1a bd
       0.023577347 -0.048070174 0.005326061 -0.03776156
000250 5a 5b 72 ba a9 75 9e 3b 6d cd 02 3d 86 14 fc bc
       -0.000924518 0.0048358035 0.03193419 -0.030771505
000260 4f a9 ae bb 5d 94 80 3d 80 2e d2 3d a2 2c 05 bc
       -0.0053302418 0.06278298 0.102627754 -0.008128317
000270 00 09 a9 3b 7a 5d ce bd ce e6 51 bd ab 2b bc bd
       0.0051585436 -0.10076423 -0.051245503 -0.091880165
000280 1a 6e 13 bd e6 ac 91 3d 79 84 fe 3d 1c f0 02 3e
       -0.035993673 0.07113056 0.12427611 0.12786907
000290 e9 72 9c 3d df 46 0e bd 7c cf 61 bd 69 1a da bd
       0.07639105 -0.034735557 -0.055129513 -0.106495686
0002a0 74 fd 03 bd 8a 13 76 bd f8 96 1d 3d eb f6 2d bd
       -0.032224134 -0.060077228 0.038474053 -0.042471807
0002b0 20 da e9 bb fd db 6e 3c 02 62 3a 3d 6f bf 24 bd
       -0.007136598 0.0145788165 0.045503624 -0.040221628
0002c0 33 b4 5a bd 90 98 d2 bc 4c 96 52 bd f2 29 ca 3d
       -0.053394508 -0.025707513 -0.051412866 0.09871282
0002d0 0f a4 cf 3d 40 8e fd 3d fa 40 de 3d c3 68 b1 3d
       0.101387136 0.12380648 0.10852237 0.0866256
0002e0 b2 e5 9d 3c 25 f6 23 bd 30 5a 10 bc 18 8b 96 3b
       0.019274566 -0.040029664 -0.008810565 0.004594218
0002f0 43 4e 3c bd 50 65 bb bd c5 f2 01 be 10 77 f2 bd
       -0.045973074 -0.09150183 -0.12690265 -0.118391156
000300 c8 0e b6 bd d5 72 2f 3d a3 b9 e9 bb 91 58 24 3d
       -0.08889538 0.04283412 -0.0071327253 0.040123526
000310 ca 1e 17 3d 7f e6 a0 3d c3 22 40 3d ed ca df 3b
       0.036894597 0.07856464 0.04690815 0.0068296106
000320 a4 8e ba bd db 63 2e bd ac 19 12 bd 7a 90 17 3d
       -0.09109238 -0.0425757 -0.035669014 0.037003018
000330 63 d2 e7 3d d1 f5 90 3d aa bd 92 bc 1c 30 97 bc
       0.11319425 0.07078136 -0.017912704 -0.018455558
000340 c7 18 24 bd 1b 07 e0 bd 90 1e f2 bc 53 9c 85 bc
       -0.040062692 -0.10938855 -0.029555589 -0.016309893
000350 66 1a c6 3d fb 2b 50 3d ab 72 20 bd 43 cf 05 3d
       0.09673004 0.050823193 -0.039171856 0.032668363
000360 5b 39 0b bd f1 40 cd bb 20 6b 02 bd b9 bc 7a 3d
       -0.033990245 -0.006263845 -0.031840444 0.061215136
000370 74 07 63 3d 90 ae 30 bd d7 8d 71 3c 74 76 f0 bc
       0.05542703 -0.043135226 0.01474329 -0.029353358
000380 5a c3 16 3d ee c3 45 3d 3a 61 11 3c 7e 6c 8c 3c
       0.036807396 0.048282556 0.008873278 0.017141577
000390 8a fd 05 bd 4b 8a ff 3c c6 91 a2 bd 7c 28 70 bd
       -0.032712497 0.031193873 -0.0793796 -0.05863236
0003a0 53 e8 87 bd fd 06 0e 3d 7b 2e f8 3c 42 19 93 3b
       -0.06636109 0.034674633 0.030295601 0.004489095
0003b0 fd d6 8e bd 69 08 6e bd 58 fe 1c bd b6 24 6a 3d
       -0.069745995 -0.05811349 -0.0383285 0.057163917
0003c0 25 c3 85 3b 43 42 06 3d d4 08 f3 3b ab 32 af ba
       0.004082101 0.032778036 0.007416824 -0.0013366541
0003d0 ea 2f 20 bc b3 68 e4 3c 2a 88 7d bd 8f b5 2a bc
       -0.009777049 0.027881956 -0.061897434 -0.0104192635
0003e0 8b 4c 14 3d 36 b4 a5 bc ee 67 cf 3c d9 55 07 3d
       0.03620581 -0.020227533 0.025318112 0.033040855
0003f0 87 89 7b 3c b7 cb 5a 3d 43 95 ee bb d6 81 6a bc
       0.015352613 0.053416934 -0.007280977 -0.014313182

conv_time_spat.conv_time.bias f4 [40]
000000 37 95 6a 3e 92 a7 65 be bf df 4b be bd cd 65 3e
       0.22908483 -0.22427204 -0.19909571 0.22441764
000010 61 39 08 be ab 05 38 be 78 f5 4b be af fb 36 3c
       -0.13303138 -0.17970912 -0.19917858 0.0111684045
000020 7e ac 1b bd 97 0d fb bd fc 19 f4 bb 71 00 c0 3c
       -0.0380063 -0.122584514 -0.0074493866 0.02343771
000030 d9 01 07 3d 1d ab 1d be 4e 99 20 be cb 8a 10 be
       0.032960746 -0.15397306 -0.15683481 -0.14115445
000040 16 e1 a8 3d c3 64 ff 3d 3a 08 d0 bd f7 45 2b be
       0.08246057 0.12470391 -0.10157819 -0.16725908
000050 0b c7 45 bc 51 a7 4d 3e 79 84 28 3e e3 c6 22 3e
       -0.012071381 0.20083357 0.16456784 0.15896182
000060 92 c3 94 bd 9d 02 42 3e 96 91 db bd 76 53 30 3d
       -0.072638646 0.1894631 -0.10721128 0.043048345
000070 e2 cc d2 bc 4b 70 a0 3d 28 86 2d be 16 a3 07 be
       -0.025732461 0.07833918 -0.16945708 -0.13245806
000080 11 59 4b 3e 9e 05 4d be 21 f4 66 be 71 66 18 3e
       0.19858195 -0.20021674 -0.22554065 0.14882828
000090 5b cd be 3d eb 8e 18 be cf 4b 45 be 15 6d 6e be
       0.09316512 -0.14898269 -0.192672 -0.23283799

conv_time_spat.conv_spat.weight f4 [40, 40, 1, 44]
000000 13 47 83 bd 8c 0e e2 bc de 29 e8 bb a8 41 34 bc
       -0.06410041 -0.027594827 -0.007085069 -0.011001982
000010 eb 78 d8 3c d3 57 37 bc 61 f7 3f bb bd cb e0 3c
       0.026424846 -0.0111903725 -0.0029291736 0.0274409
000020 e9 33 8f 3b 7c cc d6 bc 14 8f 9b 3b 35 36 dc 3b
       0.004370202 -0.026220553 0.004747281 0.006720329
000030 e7 91 bf 38 e1 f3 25 bc a0 c7 2a 3c 7d 90 a1 3b
       9.134766e-05 -0.010128946 0.010423571 0.0049305544
000040 de 38 87 bd 5a 06 5b 3d 29 e3 2d 3c 74 96 31 bb
       -0.066026434 0.053472854 0.010613241 -0.0027097734
000050 79 ae 1b bd 50 26 21 3c 22 fa 3c bd 6c f3 74 bc
       -0.038008187 0.009835795 -0.046136983 -0.014950614
000060 70 e6 ab bd 8f 1d 8d 3d 91 fd 99 3c d3 f7 dd bc
       -0.08393562 0.068904035 0.018797668 -0.02709571
000070 99 6b 56 3c bf cc 27 3c 24 a9 30 bd 30 70 a4 bd
       0.013087177 0.010241686 -0.043130055 -0.080292106
000080 83 26 0f 3b c5 5f d8 3c a7 e2 bd bd 75 67 b1 bd
       0.0021843023 0.026412854 -0.09271746 -0.08662311
000090 5c c0 1d 3c 38 e0 52 bc 99 ee 13 3c 8c 27 94 3d
       0.009628382 -0.012870841 0.009029054 0.072341055
0000a0 db 40 05 3d e4 14 05 3d 3c 2d a6 3c db d0 1c bc
       0.032532554 0.032490626 0.020285241 -0.009571279
0000b0 e9 3d c8 bc ac 9d cd ba 25 cd 38 3d f6 d0 f3 3c
       -0.024443584 -0.0015687249 0.045117516 0.029762726
0000c0 3a b7 0c bd 55 01 bf 3c 2e 8e fd bb b0 32 df bc
       -0.034354426 0.023316065 -0.0077378964 -0.02724585
0000d0 0a 62 05 3c ea 45 08 3d 30 92 b2 3b 48 e5 2e 3c
       0.00814105 0.0332698 0.005449556 0.010674782
0000e0 7f 81 2e bc fb dd ad bc 24 f9 7b 3b df 77 69 bd
       -0.010650991 -0.021224013 0.003844806 -0.056999084
0000f0 75 95 03 3d 23 ed 33 bd 7a ae 80 bd 16 71 6b bd
       0.032124955 -0.043927323 -0.06283279 -0.057480894
000100 bf 3f 86 3d 2d a1 d1 3d 9f cc b5 3c d8 00 08 3d
       0.06555127 0.1023582 0.022192298 0.03320393
000110 74 ef 49 bd 7e 94 b2 3c f9 b9 07 3b 98 bb 9d 3d
       -0.049300626 0.021799322 0.0020710214 0.07701796
000120 12 5c 2b bd a5 fa d6 3c 5d 6a 86 3d 26 da 72 3d
       -0.041835852 0.026242564 0.06563256 0.059290074
000130 97 03 37 bd 52 b5 9e 3c 59 e1 d2 3d f4 5f 69 3d
       -0.044681158 0.01937357 0.10296888 0.056976274
000140 3b 67 94 3c 8c aa a2 b9 d6 55 52 3d 46 a2 b8 bc
       0.01811563 -0.00031026115 0.05135139 -0.022538316
000150 c4 6b 26 bd 92 f4 69 3b 51 67 a4 3a 69 7f 1c 3c
       -0.040630117 0.0035698754 0.0012542998 0.009551861
000160 35 5c d2 3b 08 2d 66 bb 85 90 94 3d 11 e5 02 3d
       0.0064196833 -0.0035122056 0.072541274 0.031956736
000170 f8 91 ba 3c 6d 73 18 bc fe 71 42 bd ab 0c ac 3c
       0.022774681 -0.009304863 -0.047471993 0.021002134
000180 a0 2c 0f 3d 34 00 29 bb a6 a4 b6 3c fe 3e bc bc
       0.034954667 -0.0025787475 0.022295307 -0.022979256
000190 ee 14 5b 3c 3a a9 35 bc 2a 46 81 bb 52 1f 06 3c
       0.013371689 -0.01108771 -0.003945132 0.008186178
0001a0 27 fe 24 3d 8f 24 77 bc ec 83 4e bd 87 18 f5 bb
       0.04028144 -0.0150844 -0.05041878 -0.0074797305
0001b0 a3 a3 47 3d 99 52 65 3d 51 a0 eb 39 ac fa 3b 3d
       0.04874004 0.055986974 0.00044942138 0.045893356
0001c0 c1 6c 6e bd b6 2e c3 3c 2b 35 3d 3d 4a 6e b5 3d
       -0.058209185 0.023825984 0.046193283 0.088589266
0001d0 42 b5 a1 bc af a7 0e 3b 29 76 21 3c 27 a6 01 3d
       -0.01973975 0.0021767428 0.009854832 0.031652596
0001e0 31 e2 1e bd 3b 2f 2e bd 7a 46 cd bb db 46 a8 3c
       -0.03878993 -0.04252551 -0.006264505 0.020541599
0001f0 cb 81 0a 3d 33 88 5d bc 27 82 3e bc 07 f7 75 bb
       0.033815186 -0.013521242 -0.01162771 -0.0037531273
000200 5a b8 9c bd e9 7c 4f bc fc fa 7c 3c a8 aa c3 bc
       -0.0765235 -0.012664058 0.015440699 -0.023885086
000210 02 ec 85 bd 69 a0 20 3d 63 aa de 3c dc 3e d9 3c
       -0.065391555 0.03921548 0.027180856 0.026519231
000220 42 7c 10 3d be d5 2b 3d 0d 4e 42 bd f8 c4 40 3d
       0.03527475 0.041951887 -0.047437716 0.047062844
000230 98 58 f1 3c e3 fa 81 3d 25 75 0c 3d f4 c0 77 3c
       0.02946119 0.06346681 0.034291405 0.015121687
000240 d0 27 3a 3d e5 c3 04 bd fd cd e7 3d 33 ef da bc
       0.045448124 -0.032413382 0.11318586 -0.026725387
000250 aa 36 c0 3d 6b cd 19 3b 2a fd a5 3d 4f e0 d3 bd
       0.09385426 0.0023468386 0.08104928 -0.10345518
000260 7f 95 a0 bd 44 df 76 3c 07 86 00 3d 66 34 50 bd
       -0.07841014 0.015067879 0.03137782 -0.05083122
000270 0b 6f 9d bd 66 f8 06 3c 51 87 0d bd 2e 30 0b 3d
       -0.076871954 0.008237934 -0.034552876 0.033981495
000280 a9 50 bd bd 56 d5 22 3d 4b 6c bf bd da b2 20 bd
       -0.092439 0.039754234 -0.09346827 -0.039233066
000290 ad a8 be bb b4 71 16 3c 4c c2 03 bd 7e 19 a5 3c
       -0.0058184476 0.009182382 -0.032167718 0.020153757
0002a0 dd b2 94 3b ed 07 06 bc a9 bf 93 3c e2 86 e6 bd
       0.0045379237 -0.008180601 0.018035727 -0.112561956
0002b0 86 79 18 bd 37 76 c8 bd 2e 88 b0 3c 1b 6f cf bc
       -0.03722527 -0.09788173 0.02154931 -0.025321534
0002c0 df 51 58 3c 81 42 f2 3a c8 ec 03 3c 1e 12 96 3b
       0.013203113 0.0018482954 0.0080520585 0.0045797965
0002d0 39 54 17 bd 85 39 9e bb b7 0b 58 bc df 62 c6 bc
       -0.036945555 -0.004828634 -0.013186387 -0.024217067
0002e0 11 95 33 3c 46 69 fa bb 9a 4e fc bc 42 70 91 bc
       0.010960833 -0.007641944 -0.030799199 -0.017753724
0002f0 f9 ea 80 3c 19 45 5c bc e5 ae 28 bd e7 22 9d ba
       0.015737044 -0.013444209 -0.041182417 -0.0011988551
000300 e1 21 f5 3c 8b fe 13 bd 2b fe 1f bd 13 f4 b3 3b
       0.029923381 -0.036131423 -0.039060753 0.0054917424
000310 21 92 a7 3d ef 27 78 3d 01 b1 9a bb ba 9c 7a 3d
       0.08182169 0.06058496 -0.0047208075 0.061184622
000320 bc cc 3b 3d f6 ca 8f bb ad 83 98 3d 0f c5 41 3d
       0.045849547 -0.0043882085 0.0744699 0.04730707
000330 84 64 65 bc 32 b7 e8 bc d0 9b db 3d 75 6a 2d 3d
       -0.014001016 -0.028407667 0.10723078 0.042337853
000340 8c d5 b6 bc 43 70 d0 bc 2e e3 21 3d d1 54 89 bc
       -0.022318624 -0.025444156 0.039523296 -0.016764076
000350 2d 30 0b 3d 3c 61 02 ba 22 a3 ee bc fe d0 4f 3d
       0.03398149 -0.00049735955 -0.029130522 0.05073642
000360 7e 58 a0 bd f8 0d 4a 3d e6 9c ff bc 38 56 14 3c
       -0.078293785 0.049329728 -0.031202745 0.009053759
000370 c6 32 87 3d 46 e1 ae bc 06 79 8c 3d b7 1b 2b 3d
       0.06601481 -0.021347653 0.06859021 0.041774478
000380 a7 9f c4 bb f6 d7 10 3d d3 d0 2f 3d f9 1d e8 bc
       -0.0060004774 0.035362206 0.04292376 -0.028334605
000390 33 a3 9e 3c dd bc 5a 3b 58 6d a6 3c b9 51 d7 bb
       0.019364929 0.0033376731 0.020315811 -0.0065710214
0003a0 66 c1 65 3d 92 8b 0d 3c 95 9e f9 bc 60 bd 0b bc
       0.056092642 0.008639233 -0.030471126 -0.008529037
0003b0 be 59 a3 3d 1d 47 06 3d 97 23 1f 3d 97 0f 5d 3d
       0.07976101 0.032782663 0.0388523 0.053969946
0003c0 eb a9 48 3d ad 82 4b ba 51 75 25 bc 4b 89 9f 3c
       0.04899017 -0.00077633077 -0.010098771 0.019474646
0003d0 c6 ee 16 bc 5d 0a 4a bd d7 be 0d bc 62 2d c0 3c
       -0.009212201 -0.04932629 -0.008651457 0.02345914
0003e0 68 71 ed bb d4 46 c5 3c 67 e7 65 bd 57 cd a6 bc
       -0.007246185 0.024081625 -0.056128886 -0.020361586
0003f0 bc 3d 19 bd f4 78 57 3a f8 bf 5a bb 12 3f 59 3b
       -0.03741239 0.00082196225 -0.0033378582 0.0033149165

bnorm.weight f4 [40]
000000 b4 5e 80 3f 6c cb 89 3f c6 b7 67 3f 55 1a 80 3f
       1.0028901 1.0765204 0.9051479 1.0008036
000010 76 dd 70 3f f6 e1 83 3f cb 3c 7b 3f 78 40 70 3f
       0.9408792 1.0303333 0.9813964 0.9384837
000020 a3 76 84 3f ad 06 80 3f 22 3d 76 3f 96 bc 87 3f
       1.0348705 1.0002037 0.9618703 1.0604427
000030 59 c1 76 3f 1e ec 5d 3f f7 28 65 3f 71 4e 83 3f
       0.96388775 0.8668841 0.8951563 1.0258313
000040 1a f0 81 3f 75 a9 82 3f a4 39 82 3f 0d 91 7e 3f
       1.0151398 1.0207964 1.017384 0.9944008
000050 a5 70 81 3f f0 e3 82 3f 4a c7 81 3f df a4 7f 3f
       1.0112501 1.0225811 1.0138943 0.9986095
000060 ba 49 77 3f da db 84 3f ad 3e 7e 3f 08 67 79 3f
       0.9659687 1.0379593 0.99314386 0.9742284
000070 f3 b4 79 3f 4e c9 80 3f 5e 9f 69 3f c2 30 7b 3f
       0.9754173 1.0061433 0.912588 0.98121274
000080 88 5e 85 3f 9d 64 80 3f 11 af 84 3f d9 03 81 3f
       1.0419474 1.0030705 1.0365926 1.0079299
000090 7a 15 80 3f 81 c7 74 3f e2 4c 83 3f 14 70 73 3f
       1.0006554 0.9561692 1.0257838 0.9509289

bnorm.bias f4 [40]
000000 a6 4b 85 3e 3a ce 2e 3e 96 ec 00 3e 5d 06 c1 bd
       0.26034278 0.17070857 0.1259025 -0.09425042
000010 e1 ec 0c 3e a3 6f c2 3c 13 1f d5 bd e4 0d 23 3e
       0.13762237 0.023734873 -0.104063176 0.15923268
000020 3d 98 2c 3e b5 5a 9a 3d 05 7e 19 3e 2e b4 d2 bd
       0.1685495 0.07536832 0.14989479 -0.10288273
000030 d7 3a 33 3e 6c 04 a5 bd eb ea 2e 3e 53 03 81 3e
       0.17502914 -0.08057484 0.17081802 0.2519785
000040 d1 33 a0 be ee e8 82 3e 69 2c eb 3d 79 44 32 3e
       -0.31289533 0.25568336 0.1148308 0.17408933
000050 3b 3c 94 be 41 43 78 be 43 32 6f be 6a cb 8d bd
       -0.28952202 -0.24244405 -0.23359017 -0.06923564
000060 8d 69 03 3e 16 df 1e be 21 6c 56 be 04 17 51 3e
       0.12833233 -0.15514788 -0.20939685 0.20418936
000070 20 d9 e1 3d 9e 36 67 be 71 7c 23 3e 31 9e 83 3d
       0.110277414 -0.22579429 0.1596544 0.06426657
000080 75 0c a6 3e a6 f1 60 3e f5 6c 51 3e 56 6c ee 3d
       0.3243138 0.21967182 0.2045172 0.11641757
000090 7a b2 34 3e 68 3b 1d be 2c f7 f0 bb e3 bc 02 3e
       0.17646208 -0.15354693 -0.007353684 0.12767367

bnorm.running_mean f4 [40]
000000 8c b5 73 bf 9f c4 ad 3f 67 d5 83 bf 57 b8 3b c0
       -0.95198894 1.3575629 -1.02995 -2.9331262
000010 38 3d 58 3d 9a 73 58 3f 4b 46 81 c0 94 6d 2b be
       0.052792758 0.84551394 -4.0398307 -0.1674102
000020 de b3 3e 3f 0d 55 65 3f 77 de 1a 40 68 63 9d c0
       0.74493206 0.895829 2.4198282 -4.9183846
000030 5c 51 a6 40 7d 0d 14 40 d7 d0 26 bf 43 b4 b5 bf
       5.1974316 2.3133233 -0.65162414 -1.4195637
000040 72 74 20 40 6c 77 47 bf b1 0d 16 bf ba 62 e4 bf
       2.5071073 -0.779166 -0.5861464 -1.7842629
000050 dc a6 9b bf c6 d5 d5 3f d2 56 89 3f af 46 a9 be
       -1.2160296 1.6705863 1.072962 -0.3306174
000060 d7 45 3b bf be fb 9a bf f6 0f e3 3f 7b da b6 3f
       -0.7315344 -1.2108076 1.7739246 1.4285425
000070 42 2b 4b bf 0e 20 c2 3f 1e af df bf ee 7a f4 3e
       -0.7936288 1.5166032 -1.7475317 0.47750038
000080 ca 9b c6 3f 45 09 d7 bf 22 02 99 bf c0 40 a1 3f
       1.5516293 -1.6799704 -1.1953776 1.2597885
000090 dd 06 87 40 b1 c7 e0 be 33 af 34 bd cc a8 7e bf
       4.219588 -0.43902352 -0.044112395 -0.99476314

bnorm.running_var f4 [40]
000000 3f a9 0a 3c ec 53 14 3c e8 d2 44 3c 7a 72 e9 3b
       0.008463203 0.009053212 0.012013175 0.0071242424
000010 fc 8d bc 3b 74 96 be 3b bd a4 08 3c 21 7d 06 3c
       0.0057542305 0.0058162753 0.008340058 0.008208544
000020 da c4 0d 3c de 76 89 3b 0f 1e 08 3c b9 dd 20 3c
       0.00865289 0.0041950783 0.008307948 0.009818488
000030 a1 0f c1 3b 91 f6 ce 3b 58 7d 1c 3c 7e fd 0d 3c
       0.0058917557 0.006316014 0.009551369 0.008666394
000040 61 a8 0c 3c 96 79 c2 3b 2c 3f b3 3b f7 d6 4b 3c
       0.008585067 0.0059349043 0.005470177 0.012441388
000050 dd 4b 24 3c d7 b2 10 3c 5f 1c ea 3b 35 84 0a 3c
       0.010027853 0.008831701 0.0071444954 0.008454372
000060 b8 0c 00 3c b8 f5 ae 3b ac 65 30 3c 49 ab e5 3b
       0.007815532 0.0053393506 0.010766428 0.007008944
000070 4e b8 b4 3b c6 c6 ec 3b 30 9f 0f 3c f9 70 0d 3c
       0.005515135 0.007225844 0.008765981 0.008632892
000080 98 32 1a 3c 69 be 1d 3c ea fa 0c 3c 9e 6b b7 3b
       0.009411477 0.009627917 0.008604744 0.0055975458
000090 d4 5c ef 3b 6b 1b 06 3c 95 d3 76 3b d1 a9 0b 3c
       0.007304767 0.008185248 0.0037662734 0.008524374

final_layer.conv_classifier.weight f4 [4, 40, 144, 1]
000000 b0 22 3b 3c 17 70 c3 3c 74 4b 01 bd 36 8d 19 3c
       0.011421844 0.02385716 -0.0315661 0.009372046
000010 57 ad e6 3b 67 cd 07 3c 72 27 4f 3c 07 cb c9 3c
       0.0070397067 0.008288718 0.012643682 0.024632944
000020 a0 b7 f7 bb 4b 82 65 3a 85 bb 00 bd e2 5f e6 bc
       -0.0075597316 0.0008755072 -0.031428833 -0.028121892
000030 66 c2 d0 bb 40 4a 1b 3b 0d bf 9c bc 91 03 09 bd
       -0.0063708303 0.002369538 -0.019134069 -0.033450667
000040 c1 41 c1 bb dc 1c 14 bd d3 1a ca ba a4 8b a1 3c
       -0.005897731 -0.036160335 -0.0015419371 0.019719906
000050 57 a2 69 bc 92 0b e6 3b fd 59 03 bc 0c 78 87 3c
       -0.014259896 0.0070204223 -0.00801706 0.016536735
000060 68 bb f3 bc 7f c9 e7 3b 06 58 26 bc df 88 9a bc
       -0.029752448 0.0070735808 -0.010152822 -0.018864093
000070 c1 bd ce bc 4b ec aa bb fc 28 95 3c 7a 2f 66 3c
       -0.025236966 -0.0052161566 0.01820802 0.014049405
000080 30 b0 b3 bb 6b 46 4d 3d 74 bb f1 3c e7 87 14 38
       -0.0054836497 0.050115984 0.02950833 3.541252e-05
000090 87 76 47 3b 0c 97 45 bc d9 59 ea bb 92 a4 cd 3c
       0.0030435638 -0.012059938 -0.007151824 0.025102887
0000a0 28 ab c8 3c e5 86 8d 3c ff 30 04 3d 08 83 12 bd
       0.024495676 0.017276237 0.03227329 -0.035769492
0000b0 8d 19 31 3b 2a ed 11 bb f7 27 d3 3c 15 d1 15 3d
       0.0027023286 -0.0022266605 0.025775893 0.03657635
0000c0 99 f8 ee 3c 4b d2 47 bc 8d d9 dc 3c 2f a2 22 bc
       0.029171275 -0.012196134 0.026959205 -0.009926363
0000d0 cd 92 85 bc 1f 4e 3f 3c 71 f5 25 3c e2 19 a9 bb
       -0.016305352 0.01167634 0.010129319 -0.005160556
0000e0 4a 64 d8 bb e7 bb e7 bc a5 41 1f 3c 24 86 58 3c
       -0.0066037523 -0.028287841 0.009720241 0.013215575
0000f0 fd 88 93 ba 85 42 88 bb 78 65 a3 3a c5 b9 c7 3c
       -0.0011256036 -0.0041583204 0.0012466153 0.024380574
000100 19 7d 5a 3c e5 bc 0e bc da c4 1c 3b 5c 36 01 bc
       0.01333549 -0.008712028 0.0023921044 -0.007886495
000110 69 61 54 3b 1b d6 b5 bc 04 95 92 3c d3 21 0d bd
       0.0032406694 -0.02219682 0.017893322 -0.034456085
000120 25 02 5d bd 79 e4 aa bc 99 0a b9 bc e3 6a ce bc
       -0.053957123 -0.020860897 -0.022588061 -0.025197452
000130 07 13 86 bd 7a ea 99 bc fd 5c 0e 3c 9e 11 01 3c
       -0.06546598 -0.018788565 0.008689162 0.007877735
000140 4d a9 14 bc 15 fd 65 3c d5 79 77 3c 14 4b e6 3c
       -0.009073568 0.01403739 0.015104731 0.028111972
000150 9f ef aa 3b c6 df f5 bb 19 37 17 bc 1b 36 09 bd
       0.0052165533 -0.0075034825 -0.009229445 -0.033498865
000160 79 f4 eb ba b4 02 83 bc 04 48 8f bb 66 a0 75 ba
       -0.0018001936 -0.0159925 -0.0043725986 -0.00093699095
000170 1a 55 26 3c 6f 7b cd 3b 5f ec ea 3c b9 f6 50 3b
       0.010152126 0.006270818 0.028677164 0.003188534
000180 53 96 92 39 89 f6 d0 3c 1d 7b 01 bc 27 6a 9d 39
       0.0002795929 0.025508182 -0.007902888 0.00030024463
000190 d5 ad a3 bd 5a 40 7e bc db a5 c6 bc 74 b6 fb bc
       -0.0799214 -0.015518272 -0.024249008 -0.030726649
0001a0 da 1a aa 3b 1d 57 ff bb 4a 8a 76 3c 8f b1 cf 3c
       0.0051911892 -0.007792367 0.015047619 0.025353221
0001b0 af 7b c8 3c 03 aa bc bc 4e 1e ef bb ac 58 ad bb
       0.02447304 -0.023030287 -0.007297314 -0.0052901115
0001c0 a5 64 d9 bc 6c 3f 58 bd a6 90 01 bd 8e 31 92 3c
       -0.026537249 -0.05279486 -0.031632088 0.017845895
0001d0 30 a1 98 bc 1a 88 ba 3b d5 89 ec bb 47 ca 09 bd
       -0.018631548 0.005692494 -0.0072185793 -0.033640172
0001e0 fe 53 44 bd 2e d1 b9 bc 0d b6 57 bd a0 e6 a2 bc
       -0.047931664 -0.022682752 -0.05266385 -0.019885361
0001f0 17 f0 b5 3a a0 ea b8 bc b8 54 72 bc 19 df a1 bb
       0.0013880756 -0.022572815 -0.014790706 -0.0049399254
000200 23 35 93 bd dc e9 4a bd 38 96 01 bd cb dc e5 bb
       -0.071878694 -0.049539432 -0.0316374 -0.007014846
000210 b2 97 c6 bc 75 89 bc bc 7e 21 98 3c af b7 0b bd
       -0.024242256 -0.023014763 0.018570658 -0.03411072
000220 13 8a 64 bd 12 fe 98 bc ec 2c c0 3c 5a 04 4f 3c
       -0.05579574 -0.018675838 0.02345892 0.012635315
000230 31 d4 7e bc aa a4 99 bc 8e 57 0e bd fb d7 7e bc
       -0.01555352 -0.018755276 -0.034751467 -0.015554423
000240 30 a1 3a bc c6 43 dc 3b c1 0e 0c ba 22 3f 91 bc
       -0.011390969 0.0067219464 -0.00053427747 -0.0177303
000250 90 23 f3 bb 67 7e 85 3c 39 2a ac 3c da 4b 32 3d
       -0.007420011 0.016295625 0.021016227 0.04352937
000260 53 82 12 3d 2f d9 ac 3b b6 98 71 bc a4 51 ce bc
       0.035768818 0.0052749137 -0.014745882 -0.025185414
000270 17 8b e1 bb 9d cd 99 3c e4 9e ba bc b0 70 f2 bb
       -0.006883036 0.018774802 -0.022780843 -0.0073986873
000280 82 fe ec 39 f7 70 14 3c 56 7c fd 39 be 6b 97 3b
       0.0004520305 0.009060136 0.00048348558 0.004620998
000290 fe 8d aa 3c c5 c0 0b bd cb ed 27 bc fd c5 b2 3b
       0.02081966 -0.034119386 -0.010249565 0.005455731
0002a0 2b 44 48 39 ce ef fb bc 08 3c 35 3b 67 2b 16 3d
       0.00019098881 -0.030753996 0.002765419 0.036662485
0002b0 b2 0e 10 3d 48 bd 03 3d b5 e0 c4 bb 25 48 05 bc
       0.035170265 0.032162935 -0.0060082325 -0.008134876
0002c0 c5 e6 eb 3c e7 f7 70 bc 1e 1a 17 3d cd 60 c2 3c
       0.028796563 -0.014707542 0.03689014 0.023727799
0002d0 91 ad 0f 3d 88 aa 0c 3d 48 0b 15 3c 00 93 b6 3a
       0.035077635 0.03434232 0.009096928 0.0013929307
0002e0 25 09 d1 3c 7c ca fb bb b2 51 bc bc 46 d7 74 bc
       0.025517056 -0.00768405 -0.022988174 -0.014943903
0002f0 f4 de ea bc c9 ed 2c 3a c7 b1 a0 3b 12 e4 3c bc
       -0.028670765 0.0006596712 0.004904005 -0.011528986
000300 c3 2f 43 3c 60 5b a1 3c e7 2c ec ba 51 41 fb 3b
       0.011913243 0.019696891 -0.0018018753 0.0076676984
000310 b4 1c cc b7 45 59 77 bb 20 6e 07 bd 1b cb 25 bc
       -2.4332061e-05 -0.0037742418 -0.033064008 -0.010119225
000320 db 5e eb bb 00 8c ce bb 6e c3 d5 bc 4e 6e 81 bc
       -0.0071829385 -0.0063033104 -0.026094165 -0.015799668
000330 31 e3 ca bc 60 46 18 bd 10 e3 dd bc bb 94 92 3c
       -0.024766536 -0.03717649 -0.02708581 0.017893186
000340 85 07 b6 3a 5b 08 0e bc e1 e7 6a bc 0c bc 21 3d
       0.0013887739 -0.008668984 -0.014337511 0.039485976
000350 ba 85 b2 3b db f9 46 3d 9c a0 f9 bb 00 55 08 bc
       0.0054480704 0.048578124 -0.007618023 -0.008321047
000360 cc 87 32 3b 47 0e ea bb b0 28 f1 3b 5d 01 ba 3b
       0.0027241586 -0.0071428153 0.0073595867 0.005676432
000370 a3 1d b5 bc 64 92 38 3c bf 58 25 bc 40 ce 6c 3c
       -0.022108858 0.011265371 -0.0100919595 0.014453471
000380 da 3e 9d 3b 0c a9 56 3c 07 e8 d4 bc d6 9e 86 bc
       0.0047987523 0.013101827 -0.025989546 -0.01643316
000390 59 56 1c bd c4 53 ae bc 98 b6 a9 bc 43 e8 4d 3c
       -0.038168285 -0.021280177 -0.02071695 0.012567583
0003a0 d0 93 6b bc 7b 35 cd bc 9c 48 b3 bb d4 a6 6f 3c
       -0.014378503 -0.025049916 -0.005471302 0.014627177
0003b0 15 9f 44 3d 1b e9 1b 3b aa fd 77 3c f2 01 2e 3c
       0.048003275 0.0023790065 0.015136162 0.010620581
0003c0 63 8e 44 bc 4a c2 ea 3c d6 0b 22 3d 79 5c a3 3b
       -0.011996838 0.028657097 0.03956207 0.004985389
0003d0 fa 13 e4 3c b9 f2 b0 3c ad 7d c2 bc 61 42 a7 3b
       0.027841557 0.021600114 -0.023741568 0.0051043485
0003e0 00 d5 77 3d de ab 03 3c 97 af 01 3c 92 4e c3 3c
       0.060505867 0.008036582 0.007915399 0.023841176
0003f0 44 77 87 3c d7 31 f4 bb 6d 91 46 bc 73 86 aa 39
       0.016536362 -0.0074522304 -0.012119633 0.000325251

final_layer.conv_classifier.bias f4 [4]
000000 62 53 ba 34 bf fc 25 bd d3 35 bc 3d fa 61 33 bd
       3.470587e-07 -0.04052424 0.09189954 -0.04379461
