models/ShallowFBCSPNet_persons4_lr0.01_wd0.1_bs32_acc0.4688.pth (torch, 383656 bytes, 9 tensors)

conv_time_spat.conv_time.weight f4 [40, 1, 25, 1]
0	0x3d77d8c0	0.060509443
1	0x3da67cf3	0.08129301
2	0x3d9dd651	0.07706893
3	0x3d284c13	0.041088175
4	0xbd82b2dd	-0.06381772
5	0xbde67158	-0.11252087
6	0xbe41a1c4	-0.18909365
7	0xbe400d58	-0.1875509
8	0xbe01ffe5	-0.12695272
9	0x3c52339d	0.012829688
10	0x3dd40045	0.10351614
11	0x3e5ad748	0.21371186
12	0x3e589c0d	0.21153279
13	0x3df5853e	0.119883046
14	0x3c9d9aa8	0.019238785
15	0xbdd47f02	-0.10375787
16	0xbe2c5df3	-0.16832714
17	0xbe2490c5	-0.1607085
18	0xbe0d5e1b	-0.1380543
19	0xbd23c1d8	-0.039979786
20	0x3d8404fc	0.06446263
21	0x3e19979d	0.14999242
22	0x3e08fd6d	0.13377924
23	0x3de84ce7	0.11342793
24	0x3d81e0da	0.06341715
25	0xbccf1d69	-0.025282579
26	0xbd5705c5	-0.052495737
27	0x3b431495	0.0029766907
28	0x3cff7e61	0.031188192
29	0x3def3292	0.116795674
30	0x3e1aeda5	0.15129717
31	0x3e4a3546	0.19746885
32	0x3e5a8034	0.21337968
33	0x3e0a4676	0.13503441
34	0x3c934ba2	0.0179804
35	0xbdfd943f	-0.12381791
36	0xbe61fcd6	-0.22069106
37	0xbe86d82a	-0.26336795
38	0xbe657df0	-0.22411323
39	0xbdfaa008	-0.12237555
40	0x3b4cfbeb	0.0031278084
41	0x3df8880b	0.12135323
42	0x3e343e79	0.17601956
43	0x3e26bd00	0.16283035
44	0x3dc3a801	0.095535286
45	0x3d0d6f9d	0.03453027
46	0xbd46c48e	-0.048527293
47	0xbda7f571	-0.08201111
48	0xbd86f27d	-0.0658922
49	0xbc7e519d	-0.015522388
50	0xbd541c1b	-0.051784616
51	0xbd234b4e	-0.039866738
52	0xbd22e05f	-0.03976476
53	0x3bd515fd	0.0065028653
54	0xbc1c4ce2	-0.009539815
55	0x3c87678f	0.016528873
56	0xbc1ce790	-0.009576693
57	0x3d38ab8e	0.045085482
58	0x3d97c703	0.07411005
59	0x3db2446c	0.08704457
60	0x3e0e4125	0.13892038
61	0x3e0630bc	0.13104528
62	0x3d975275	0.07388774
63	0x3c90c4e2	0.017672006
64	0xbdb592b8	-0.08865875
65	0xbe36779b	-0.17819063
66	0xbe4e456c	-0.2014367
67	0xbe5c7930	-0.21530604
68	0xbe5e4514	-0.21706039
69	0xbe345a44	-0.17612559
70	0xbdbd9330	-0.092565894
71	0x3cf8c788	0.030368581
72	0x3d872131	0.06598128
73	0x3dba0c38	0.09084362
74	0x3df14fea	0.117828205
75	0xbe46e4d9	-0.19423236
76	0xbe21a91b	-0.15787165
77	0xbe195d59	-0.14977016
78	0xbde4c030	-0.11169469
79	0xbd825fc4	-0.06365922
80	0xbd82d214	-0.063877255
81	0xbcef7b5a	-0.029233623
82	0xbb3eabe7	-0.002909416
83	0x3cc156de	0.023600992
84	0x3da2123a	0.07913633
85	0x3d9cc5fa	0.076549485
86	0x3de66886	0.11250405
87	0x3e204939	0.15652932
88	0x3e2d5a96	0.16929087
89	0x3e36a799	0.17837371
90	0x3e406374	0.18787938
91	0x3e21bb18	0.15794027
92	0x3daf5a6a	0.08562167
93	0xbc6a1f64	-0.014289711
94	0xbda7cdaf	-0.08193528
95	0xbe287b84	-0.16453367
96	0xbe313ae2	-0.17307618
97	0xbe2014a5	-0.15632875
98	0xbe04b410	-0.12959313
99	0xbdb1870d	-0.08668337
100	0xbd8216b3	-0.06351986
101	0xbd36ace4	-0.044598475
102	0xbd4517de	-0.048118465
103	0xbdca49c1	-0.09877349
104	0xbe0006e6	-0.12502632
105	0xbe14005e	-0.14453265
106	0xbdf1afdc	-0.11801121
107	0xbd5d7858	-0.054069847
108	0x3ccc2124	0.024918146
109	0x3de57426	0.11203794
110	0x3e7427e3	0.2384334
111	0x3e9b88ed	0.30377904
112	0x3ea348c6	0.3189146
113	0x3e684d18	0.22685659
114	0x3e097679	0.134241
115	0xbc93df76	-0.01805089
116	0xbe11b518	-0.14229238
117	0xbe5be3cf	-0.21473621
118	0xbe70e137	-0.23523413
119	0xbe43fe37	-0.19139944
120	0xbdc6c54d	-0.09705601
121	0xbc04d797	-0.008108041
122	0x3d91c1c5	0.07117037
123	0x3dfc9f2e	0.123350486
124	0x3db4e429	0.088325806
125	0x3e500ead	0.20318098
126	0x3e47a07d	0.19494815
127	0x3e1d67ba	0.153716
128	0x3dda3744	0.10655072
129	0xbc88bfb3	-0.016692972
130	0xbdc0e6d6	-0.094190285
131	0xbe3ddc98	-0.18541181
132	0xbe38fce2	-0.18065217
133	0xbe160038	-0.14648521
134	0xbda956c0	-0.082684994
135	0xbc3a953b	-0.011388118
136	0x3d35e627	0.044408944
137	0x3d5c1b89	0.053737197
138	0x3d033ae8	0.0320386
139	0xbd93f775	-0.07224933
140	0xbe217854	-0.15768558
141	0xbe4f85fe	-0.20265958
142	0xbe323711	-0.17403819
143	0xbda6be7d	-0.081418015
144	0x3a870a0e	0.0010302679
145	0x3e0b4068	0.13598788
146	0x3e376a85	0.17911728
147	0x3e781bdb	0.24229376
148	0x3e650ef3	0.22368984
149	0x3e4116d9	0.18856372
150	0xbcc387f8	-0.023868546
151	0xbc8569fa	-0.016285885
152	0xba45cc38	-0.00075453846
153	0x3d2f635f	0.042819377
154	0x3cbe08d1	0.023197563
155	0x3d0769be	0.033059828
156	0xbb6d5384	-0.003621311
157	0x3c051509	0.008122691
158	0x3c997c31	0.018735977
159	0x3c0784a0	0.008271366
160	0x3cd9014f	0.026489882
161	0x3ced65b2	0.028979156
162	0x3cac5696	0.021037381
163	0xbc2e8fd8	-0.010654412
164	0xbd5da511	-0.054112498
165	0xbdaa3c8d	-0.083123304
166	0xbdcd6564	-0.10029104
167	0xbda92f3f	-0.082609646
168	0xbd713eda	-0.05889783
169	0xbb314c21	-0.0027053433
170	0x3cba3c8d	0.022733951
171	0x3d1c7a5b	0.038202625
172	0x3d81351e	0.063089594
173	0x3c8f99e0	0.017529428
174	0xbb91f36c	-0.004454067
175	0x3e1cf3bf	0.15327357
176	0x3dc6e025	0.09710721
177	0x3d76037e	0.060061924
178	0x3d1e9aa9	0.038721714
179	0xbbaca812	-0.005269059
180	0xbd783a15	-0.060602266
181	0xbd9c557e	-0.07633494
182	0xbdeaab76	-0.11458485
183	0xbe25fe99	-0.16210403
184	0xbe54cbfe	-0.20780942
185	0xbe35d310	-0.17756295
186	0xbe584278	-0.21119106
187	0xbe483e33	-0.19554977
188	0xbe52bc85	-0.20579727
189	0xbe2761b0	-0.16345859
190	0xbd8569b6	-0.065143034
191	0x3ca41466	0.020029258
192	0x3df24328	0.11829215
193	0x3e375ac4	0.17905718
194	0x3e648e6a	0.22319952
195	0x3e5a6f7a	0.21331587
196	0x3e4e9d40	0.20177174
197	0x3e2cb00e	0.16864035
198	0x3de5d1bb	0.112216435
199	0x3d7dfefc	0.06201075
200	0xbdbfeb34	-0.09371033
201	0xbd242f95	-0.04008444
202	0xbd0cccf7	-0.034375157
203	0xbd27ee78	-0.040998906
204	0xbd8ae81e	-0.06782554
205	0xbd3f992a	-0.046776928
206	0x3b67c477	0.0035364905
207	0x3ab38d7d	0.0013698783
208	0x3b17b7e6	0.0023150383
209	0x3b1c9128	0.002389023
210	0x3cb65e9e	0.022261914
211	0x3cc9eb30	0.024648279
212	0x3d82ce22	0.06386973
213	0x3da44b05	0.08022121
214	0x3dd8b99e	0.10582279
215	0x3e0fa8e1	0.14029266
216	0x3dd2b8fc	0.10289189
217	0x3da03d01	0.078241356
218	0x3c2742e7	0.010208822
219	0xbd5e2370	-0.054233015
220	0xbdad4b0f	-0.08461582
221	0xbddd0231	-0.107914336
222	0xbdb38799	-0.087660976
223	0xbdc4beb9	-0.0960669
224	0xbd48fcb4	-0.04906912
225	0xbe4185cb	-0.18898694
226	0xbe4d51b8	-0.20050704
227	0xbe4c8f36	-0.19976506
228	0xbe2d2f65	-0.16912611
229	0xbdf50ebc	-0.11965701
230	0xbdc9dfbd	-0.09857128
231	0xbda4225d	-0.08014367
232	0xbda74d93	-0.08169093
233	0xbd703fe7	-0.058654692
234	0xbce65f3d	-0.028121585
235	0x3cb8009a	0.022461224
236	0x3d9b0d37	0.0757088
237	0x3e1720df	0.14758633
238	0x3e222cda	0.15837422
239	0x3e388a9f	0.1802163
240	0x3e2dcf43	0.16973595
241	0x3df636cd	0.12022171
242	0x3d90d7c9	0.07072408
243	0x3d465e5e	0.04842984
244	0xbc238538	-0.009980492
245	0xbd5edc36	-0.05440923
246	0xbdf1f8cc	-0.11815032
247	0xbe089435	-0.13337786
248	0xbe240f8a	-0.16021553
249	0xbe2c7563	-0.16841654
250	0x3df414f7	0.11918061
251	0x3dbf2632	0.09333457
252	0x3dcd88e9	0.10035879
253	0x3db32957	0.08748119
254	0x3dff297e	0.12459086
255	0x3e0c777d	0.13717456

conv_time_spat.conv_time.bias f4 [40]
0	0xbeb1b8a1	-0.34711173
1	0x3e87f582	0.26554495
2	0xbe56bedd	-0.20971246
3	0x3ed21967	0.41035005
4	0xbe2a9672	-0.16658953
5	0xbecca93b	-0.39972863
6	0xbeb8bab9	-0.36079958
7	0xbf12635a	-0.5718285
8	0x3eda1326	0.42592734
9	0x3e305df6	0.17223343
10	0xbc92a388	-0.017900243
11	0xbecf82bb	-0.40529427
12	0x3f027d7f	0.5097274
13	0x3e033f23	0.12817053
14	0x3e83da69	0.2575257
15	0x3e243051	0.16034056
16	0x3dfa8392	0.12232126
17	0x3e41c437	0.18922506
18	0xbeb82cf3	-0.35971794
19	0xba6d9329	-0.0009062761
20	0xbeb8c2c7	-0.36086103
21	0xbe2af5ed	-0.16695376
22	0x3ef78862	0.4834624
23	0x3ee1f527	0.4413235
24	0x3cce5af1	0.025189849
25	0xbeb4262c	-0.35185373
26	0x3e565183	0.20929532
27	0x3ea9f908	0.33197808
28	0xbe81e104	-0.25366986
29	0xbd63fbbd	-0.05566
30	0xbdb20602	-0.08692552
31	0x3cb41664	0.021983333
32	0xbec4ad40	-0.3841343
33	0xbe96208c	-0.29321706
34	0xbe75b576	-0.23995003
35	0x3e4e2a58	0.2013334
36	0x3d7282bc	0.05920671
37	0x3e91a529	0.2844632
38	0xbe9c72ae	-0.30556244
39	0x3d761b77	0.060084786

conv_time_spat.conv_spat.weight f4 [40, 40, 1, 44]
0	0x3e89637a	0.26833707
1	0x3e83860d	0.2568821
2	0x3e888413	0.26663265
3	0x3d83e599	0.06440277
4	0x3dcbe44e	0.09955655
5	0x3ddd1967	0.10795861
6	0x3d9fc4bd	0.07801197
7	0x3e16f02b	0.14740054
8	0x3dde15ad	0.10843978
9	0x3deda72f	0.11604153
10	0x3e214f0a	0.15752807
11	0x3e72e3b5	0.23719676
12	0x3e30debc	0.17272466
13	0x3e1d5bd4	0.15367061
14	0x3e4ffa92	0.20310429
15	0x3d8363a8	0.06415492
16	0x3dc47af4	0.09593764
17	0x3e079852	0.132417
18	0x3e0ecc64	0.13945156
19	0xbd939e26	-0.07207899
20	0x3cc0bab6	0.02352653
21	0x3e5a9360	0.21345282
22	0x3e41f410	0.18940759
23	0x3d828fff	0.06375121
24	0xbba8398b	-0.005133813
25	0x3de1702c	0.11007723
26	0x3d9cca44	0.076557666
27	0x3dee8c67	0.11647873
28	0x3dab754c	0.08371982
29	0x3df86d89	0.12130267
30	0x3d89404f	0.06701719
31	0x3d29b81d	0.04143535
32	0x3db564a3	0.088570856
33	0x3d9828fc	0.07429692
34	0x3d8cf037	0.06881755
35	0x3d24fc97	0.04027995
36	0x3e6a90ba	0.22906771
37	0x3e8d2555	0.27567545
38	0x3e0b3972	0.13596132
39	0x3dec36d0	0.11533892
40	0x3de10427	0.1098712
41	0x3d280f0e	0.041029982
42	0x3e3ad03c	0.18243498
43	0x3dc01d78	0.09380621
44	0xbe8497e4	-0.25897133
45	0xbe3a9821	-0.18222095
46	0xbe8f1e80	-0.27952957
47	0xbd1b3c76	-0.037899457
48	0xbd27a65f	-0.04093015
49	0xbdfb5cdd	-0.12273572
50	0xbd826ce9	-0.06368429
51	0xbdbad5b6	-0.091227934
52	0xbd5de182	-0.05417014
53	0xbdf6f97b	-0.120593034
54	0xbdf55d42	-0.11980678
55	0xbe2e0670	-0.16994643
56	0xbe0b0cab	-0.13579051
57	0xbe14396b	-0.14475028
58	0xbe651c2a	-0.22374025
59	0xbdaf97f9	-0.08573908
60	0xbd66468a	-0.056219615
61	0xbd7aa6d6	-0.061194263
62	0xbd96c5e9	-0.07361967
63	0xbc9ce5e2	-0.019152585
64	0xbd3bf38c	-0.04588656
65	0xbe4b5676	-0.19857201
66	0xbe2b7ee4	-0.16747624
67	0xbd9839e3	-0.07432916
68	0xbd43c9a4	-0.04779972
69	0xbe05ae71	-0.13054825
70	0xbdde4fe6	-0.10855083
71	0xbdac3f5c	-0.08410522
72	0xbd3180e9	-0.04333583
73	0xbd911e0d	-0.0708581
74	0xbe138e51	-0.14409758
75	0xbdce59ae	-0.10075699
76	0xbd0635b4	-0.03276606
77	0xbcd259d2	-0.025677595
78	0xbdbbcd3f	-0.09170007
79	0xbda09143	-0.078402065
80	0xbe166579	-0.14687146
81	0xbe2f358e	-0.17110273
82	0xbe0775bf	-0.1322851
83	0xbd8d931a	-0.06912823
84	0xbdb0fd0f	-0.08642017
85	0xbbffe377	-0.0078090983
86	0xbd851c5d	-0.064995505
87	0xbc9278ec	-0.017879926
88	0x3df4ae48	0.11947304
89	0x3cdf912a	0.0272909
90	0x3e269278	0.16266811
91	0x3d102e55	0.035200436
92	0x3c9f10fc	0.019417278
93	0xbc7e349f	-0.0155154755
94	0x3d8492d0	0.06473315
95	0x3da4b7b7	0.08042853
96	0xbd3b9787	-0.045798805
97	0x3de4b8bf	0.1116805
98	0xbcea936e	-0.028634753
99	0x3d48cfe6	0.049026392
100	0x3d98b51a	0.074564174
101	0x3d2af3b6	0.041736327
102	0x3d1d9426	0.038471363
103	0xbd778026	-0.060424946
104	0x3d7c7200	0.061632156
105	0x3d4d5c45	0.050136823
106	0x3d85810f	0.065187566
107	0xbdf686c0	-0.1203742
108	0x3cb7f6a1	0.022456469
109	0x3b42cabc	0.002972289
110	0x3dd50fe4	0.104034215
111	0x3d8f7d84	0.07006362
112	0x3c63d036	0.013904622
113	0xbb3cf249	-0.0028830937
114	0xbc6994ab	-0.014256637
115	0x3d52a879	0.0514302
116	0x3d92179a	0.07133408
117	0x3b518507	0.003197016
118	0xbd1ad06c	-0.037796423
119	0x3d929131	0.07156599
120	0x3d311a50	0.043237984
121	0x3c3ab720	0.011396199
122	0x3d39343d	0.045215834
123	0x3db04d80	0.08608532
124	0xbc10e2ee	-0.008843167
125	0x3d490689	0.049078498
126	0x3c5e66b2	0.013574289
127	0x3d16bd89	0.03680185
128	0x3c8eb1bb	0.017418733
129	0xbd79a295	-0.060946066
130	0x3d22456b	0.039616983
131	0xbc9d3c00	-0.01919365
132	0x3e02218b	0.12708108
133	0x3d875f38	0.066099584
134	0x3dce7b2d	0.10082088
135	0xbc71ebcc	-0.014765691
136	0xbd8227da	-0.06355257
137	0x3d894bf9	0.06703944
138	0xbc80b5fb	-0.015711775
139	0xbd37232b	-0.044711273
140	0xbbc25c86	-0.00593144
141	0x3bb35047	0.0054722163
142	0xbc4fc73d	-0.012681779
143	0x3cbdc34b	0.023164412
144	0xbd0e2fd6	-0.03471359
145	0xbae506e1	-0.0017473364
146	0x3def3d39	0.11681599
147	0x3d0c5c97	0.034267988
148	0xb7e7e82c	-2.764546e-05
149	0xbd88ee3b	-0.06686064
150	0xbd150c73	-0.036388826
151	0x3e047501	0.12935258
152	0x3d3c2413	0.04593284
153	0x3d333436	0.043750964
154	0xbc1bf009	-0.009517678
155	0xbc256e2e	-0.01009707
156	0x3d8ebb1f	0.06969284
157	0x3d816ed1	0.06319965
158	0x3d3ff477	0.046864
159	0x3d53cd3e	0.051709406
160	0xbd03e959	-0.03220496
161	0x3c3c9ace	0.011511518
162	0x3e286149	0.16443361
163	0x3d442e4c	0.047895715
164	0xbc908455	-0.017641226
165	0xbd0f4bf0	-0.03498453
166	0x3d37fb2e	0.044917278
167	0x3d151b65	0.03640308
168	0x3b099224	0.0020991648
169	0xbce12477	-0.027483208
170	0x3da7c3f6	0.081916735
171	0xbc9245e5	-0.017855594
172	0x3c5b1f2e	0.013374133
173	0x3cb11fb5	0.021621564
174	0xbd21976e	-0.039451055
175	0xbd71aa6d	-0.05900042
176	0x3ea7ffb4	0.32812274
177	0x3e3cd4da	0.18440571
178	0x3e815844	0.25262654
179	0x3ca0ac10	0.019613296
180	0x3d5c371c	0.053763494
181	0x3d7756ed	0.060385633
182	0x3e100e11	0.14067866
183	0x3dffaa2b	0.12483629
184	0x3d018979	0.031625245
185	0x3df24dbf	0.11831235
186	0x3ddde9c7	0.10835605
187	0x3e0d6213	0.13806944
188	0x3d261336	0.040545665
189	0x3e078a6d	0.13236399
190	0x3e7254c3	0.23665147
191	0x3a8642bc	0.0010243277
192	0x3d20e92d	0.039284874
193	0x3daec44d	0.08533535
194	0x3d5252b2	0.051348396
195	0xbd918ae4	-0.071065694
196	0x3dcf91bd	0.10135219
197	0x3e22a617	0.15883671
198	0x3dc7da0b	0.09758385
199	0x3cb01f0f	0.021499185
200	0x3db9bfa7	0.09069758
201	0x3e17a4e2	0.14808992
202	0x3cc0f35b	0.02355354
203	0x3d89af33	0.0672287
204	0x3ddb5a1a	0.10710545
205	0x3e0a5e5f	0.13512562
206	0x3df2690f	0.118364446
207	0x3d87348b	0.06601819
208	0x3df31775	0.118697084
209	0x3d83f40e	0.06443034
210	0x3db5391b	0.08848783
211	0x3dae9133	0.08523788
212	0x3e0bbbce	0.1364586
213	0x3dfe842c	0.124275535
214	0x3dfb9e40	0.12286043
215	0x3d876061	0.0661018
216	0x3dc4ca0d	0.09608851
217	0x3bef8e91	0.0073106964
218	0x3e06f55e	0.13179538
219	0xba07b1c6	-0.00051763316
220	0x3da122d8	0.07867974
221	0x3e0d4e0e	0.13799307
222	0x3d539e24	0.051664487
223	0x3d26b467	0.04069939
224	0x3e0a457d	0.1350307
225	0x3d11eb30	0.035624683
226	0x3ca54e53	0.02017895
227	0x3e18ef5c	0.14935058
228	0x3e0fc90c	0.14041537
229	0x3d5acce2	0.053418048
230	0x3e0e3fa8	0.1389147
231	0x3df8837d	0.121344544
232	0x3e00ac0d	0.12565632
233	0x3dcbb9b3	0.09947529
234	0x3dac95ac	0.08426985
235	0x3d35095f	0.04419839
236	0x3d52c84f	0.05146056
237	0x3dff0627	0.12452345
238	0x3e280dd8	0.16411531
239	0xbdf7d548	-0.12101227
240	0xbc679114	-0.01413371
241	0x3df6f574	0.12058535
242	0x3dddcc38	0.10829967
243	0x3d57ce01	0.052686695
244	0xbd5bd44f	-0.05366927
245	0x3d962a31	0.07332266
246	0x3c9f74a3	0.019464796
247	0x3bb0fa28	0.0054009147
248	0x3d39927b	0.04530571
249	0x3d8669b9	0.06563134
250	0xbd65ea29	-0.056131516
251	0xbc1de8ac	-0.009637993
252	0x3c2ecc88	0.010668881
253	0x3d9c4e08	0.07632071
254	0x3d18d9e0	0.037317157
255	0x3be66caa	0.0070319967

bnorm.weight f4 [40]
0	0x3eff183c	0.49823177
1	0x3f3f310f	0.7468423
2	0x3f3b51bd	0.731716
3	0x3f34b91c	0.70594954
4	0x3f1635c8	0.58675814
5	0x3f373fe1	0.71581846
6	0x3f0dfdc9	0.5546537
7	0x3f32e44c	0.69879603
8	0x3f310fb5	0.6916459
9	0x3f187422	0.59552205
10	0x3f2a229b	0.66459054
11	0x3f307d87	0.6894154
12	0x3f1f9557	0.6233725
13	0x3f1f3007	0.6218266
14	0x3eededb9	0.4647043
15	0x3f52c2bd	0.823284
16	0x3f404f99	0.75121456
17	0x3f25745f	0.64630693
18	0x3f195af6	0.5990442
19	0x3f39ac10	0.7252817
20	0x3f037d93	0.51363486
21	0x3ef4a977	0.4778554
22	0x3eed8646	0.46391505
23	0x3f27a45e	0.6548518
24	0x3f350f87	0.7072682
25	0x3f46c4cd	0.77644044
26	0x3f281a91	0.6566554
27	0x3f170f9f	0.5900821
28	0x3f259854	0.6468556
29	0x3f52a8f3	0.82289046
30	0x3f48cd80	0.7843857
31	0x3f3696f0	0.7132406
32	0x3efa97ed	0.48944035
33	0x3ef727d5	0.48272577
34	0x3f0de397	0.554254
35	0x3f208a40	0.6271095
36	0x3f13ee50	0.5778551
37	0x3f236552	0.6382648
38	0x3f40870f	0.75206083
39	0x3f2710d2	0.6526004

bnorm.bias f4 [40]
0	0xbf5f481d	-0.8721941
1	0xbf357f39	-0.7089725
2	0x3f3837d4	0.71960187
3	0xbf326046	-0.6967815
4	0x3f3932f5	0.7234338
5	0x3f2d29c9	0.67641884
6	0xbf3f7310	-0.74784946
7	0xbf2c1cd4	-0.6723149
8	0xbf341ecf	-0.7035951
9	0x3f5a9e2a	0.8539759
10	0xbf40590d	-0.7513588
11	0x3f2cfac9	0.6757017
12	0xbf471e4b	-0.777806
13	0xbf574967	-0.8409638
14	0xbf5688a0	-0.83802223
15	0x3f260dc1	0.64864737
16	0x3f312c4b	0.6920821
17	0xbf49babe	-0.7880057
18	0xbf42cfc6	-0.7609829
19	0xbf2a439c	-0.66509414
20	0xbf630a2b	-0.8868739
21	0x3f616b75	0.8805459
22	0x3f665c89	0.8998495
23	0x3f392677	0.7232432
24	0x3f2d1bbe	0.67620456
25	0x3f287bf4	0.6581414
26	0x3f4638a4	0.77430177
27	0x3f46f743	0.7772104
28	0x3f3d083c	0.7384069
29	0xbf076725	-0.5289176
30	0x3f1c821c	0.6113603
31	0xbf39223c	-0.7231786
32	0xbf5a3f69	-0.85253006
33	0xbf608d6c	-0.8771579
34	0x3f592d5d	0.84834844
35	0xbf46d9ee	-0.77676284
36	0x3f436e1b	0.7633988
37	0x3f53fb8e	0.82805717
38	0xbf2081bc	-0.6269796
39	0xbf43252d	-0.762286

bnorm.running_mean f4 [40]
0	0xc1866dba	-16.803577
1	0x41a80952	21.00455
2	0xc1395cd3	-11.585162
3	0x4098a6e7	4.770374
4	0xc1039ecb	-8.226268
5	0xc1795ca5	-15.585118
6	0xc0810109	-4.0313764
7	0xc1629cf4	-14.163319
8	0x402d2341	2.7052767
9	0xc08ca73d	-4.395415
10	0xc1897805	-17.183603
11	0x4072f7a4	3.7963648
12	0x40d597da	6.6747866
13	0xc0b8404d	-5.757849
14	0x408d3412	4.4126062
15	0xbfcab199	-1.5835449
16	0x40eb5c1a	7.354993
17	0xc12b0611	-10.688981
18	0x3faf0673	1.3673843
19	0xc106491c	-8.392849
20	0x402b3951	2.6753733
21	0x4113d7bf	9.240172
22	0x40a3424b	5.1018424
23	0x41688510	14.532486
24	0xc01bb8ca	-2.4331536
25	0xc098c297	-4.7737536
26	0x400c2403	2.189698
27	0xc1ce0356	-25.751629
28	0x402cd801	2.7006838
29	0x4065ed7b	3.5926197
30	0xc1b23b0c	-22.278831
31	0xc11077cd	-9.029248
32	0x40cd8979	6.4230313
33	0xc086673f	-4.2001033
34	0xbf4013d1	-0.7503024
35	0xc100255c	-8.009121
36	0xc14697d0	-12.412064
37	0x41b5f395	22.743937
38	0x3fec7da0	1.8475838
39	0xc00cb27a	-2.1983933

bnorm.running_var f4 [40]
0	0x3fd23bd5	1.6424509
1	0x3fb14561	1.3849298
2	0x400d6888	2.209505
3	0x3fc67bb6	1.5506504
4	0x3f85b57e	1.0446012
5	0x3f943171	1.1577588
6	0x3f4ae44b	0.792546
7	0x3f84d44b	1.0377287
8	0x3fa293f4	1.2701402
9	0x3fb5e459	1.4210311
10	0x3fad63c6	1.3546073
11	0x3fc4f00b	1.5385755
12	0x3fe78ffc	1.8090816
13	0x3fbbaa6d	1.4661385
14	0x3f8df85c	1.1091418
15	0x3fddbaef	1.7322673
16	0x40142b85	2.3151562
17	0x3f684063	0.90723246
18	0x3fa145d8	1.259944
19	0x3f8e190f	1.1101397
20	0x3f4335e7	0.76254123
21	0x3f77c45e	0.9678401
22	0x3f4e83e2	0.8066999
23	0x3fbabdaf	1.4589137
24	0x3ff6b657	1.9274396
25	0x4023690c	2.5532866
26	0x4049225d	3.1427224
27	0x3f7c8897	0.9864592
28	0x3f68c3bc	0.90923667
29	0x4065f36f	3.592983
30	0x40283665	2.62832
31	0x3fa24107	1.2676095
32	0x3f8a2798	1.0793333
33	0x3f8e9f77	1.1142415
34	0x3f8b4cb1	1.0882779
35	0x3f950e35	1.1644961
36	0x3fc9ec82	1.5775301
37	0x3f8bf709	1.0934764
38	0x3fdff07d	1.7495266
39	0x3faa1326	1.3287094

final_layer.conv_classifier.weight f4 [4, 40, 144, 1]
0	0xbdc3ecc8	-0.09566647
1	0xbc839bf9	-0.016065584
2	0x3e09e06b	0.13464515
3	0xbd0fac19	-0.035076234
4	0xbc070a01	-0.008242131
5	0x3bcc2f3f	0.006231218
6	0xbd2e7ab4	-0.042597488
7	0xbcbcef1e	-0.023063239
8	0x3e14a199	0.1451477
9	0x3e209a0f	0.15683769
10	0x3cfadbe6	0.030622434
11	0xbc8cabff	-0.017171858
12	0xbd15498c	-0.036447093
13	0x3d8c5e24	0.068538934
14	0x3e0b03b9	0.13575639
15	0x3e1d7478	0.1537646
16	0x3ded246b	0.11579212
17	0x3c599bf1	0.013281808
18	0xbe0130a1	-0.12616207
19	0x38b95736	8.837732e-05
20	0xbd6e7402	-0.058216102
21	0x3d8c9dfe	0.06866072
22	0x3dc471ec	0.095920414
23	0x3d2b0b03	0.04175855
24	0xbdd424c5	-0.10358576
25	0x3cb13dec	0.021635972
26	0xbb84d1e3	-0.0040533408
27	0xbd74626c	-0.059664175
28	0xbd4f7dec	-0.050657198
29	0x3ded3136	0.11581652
30	0x3dc65396	0.096839115
31	0x3d9be5ec	0.076122135
32	0x3db65d80	0.089045525
33	0xbc2bd90d	-0.010488761
34	0xbdbc7eb2	-0.09203853
35	0x3dc1c209	0.094608374
36	0xbde4f0d9	-0.111787505
37	0xbcf17186	-0.029473078
38	0xbe26c5fe	-0.16286466
39	0xbe3cd46f	-0.18440412
40	0xbd7efe73	-0.06225438
41	0x3c81ba69	0.015835958
42	0xbe3921b1	-0.18079259
43	0xbe03bb76	-0.1286448
44	0xbd14aae2	-0.03629578
45	0xbcb0f2fd	-0.02160024
46	0xbda91840	-0.082565784
47	0xbe0308b6	-0.12796292
48	0xbe227552	-0.15865067
49	0xbd9e2344	-0.0772157
50	0xbe30c3a9	-0.17262138
51	0xbe22d716	-0.15902361
52	0xbceeec8d	-0.02916553
53	0xbda596fb	-0.08085438
54	0xbdc7e35a	-0.09760161
55	0xbd9ac240	-0.075565815
56	0xbdd147ab	-0.10218748
57	0xbc9c3a6d	-0.019070828
58	0x3a06c420	0.0005140919
59	0xbdfbad3f	-0.122889034
60	0xbd219627	-0.039449837
61	0xbe2287bf	-0.15872096
62	0xbe197bcf	-0.14988635
63	0xbddd5c3e	-0.108086094
64	0xbdc5264a	-0.09626444
65	0xbd5caf91	-0.05387837
66	0xbdb5e923	-0.08882358
67	0xbda5e616	-0.08100526
68	0xbd5f7920	-0.054558873
69	0xbe16116e	-0.14655086
70	0xbd2e970e	-0.042624526
71	0xbe0b4588	-0.13600743
72	0xbd3472f0	-0.044054925
73	0xbdb699f6	-0.089160845
74	0xbe32f9ab	-0.17478053
75	0x3cfee09f	0.031112967
76	0xbcdcde2d	-0.02696141
77	0x3d15f879	0.036613915
78	0x3b30e517	0.0026992017
79	0x3c2962c8	0.010338493
80	0xbdc845f9	-0.09778971
81	0x3ce036f6	0.027369957
82	0x3aa7a978	0.0012791594
83	0x3c896e35	0.016776184
84	0xbd32b923	-0.04363359
85	0xbe017c51	-0.12645079
86	0xbcba547a	-0.02274536
87	0xbb51a122	-0.0031986912
88	0x3cca5846	0.024700295
89	0xbdca7cf3	-0.098871134
90	0x3d8e4845	0.06947378
91	0xbdb5e9f5	-0.088825144
92	0x3d613e38	0.054990977
93	0x3d21f6cf	0.039542016
94	0xbd93abdf	-0.07210516
95	0x3db5062a	0.08839066
96	0xbd7e58eb	-0.062096518
97	0xbd9aae7c	-0.075528115
98	0xbce8802c	-0.02838143
99	0x3df78db9	0.12087578
100	0xbd124ef5	-0.03571983
101	0x3c055ffe	0.008140562
102	0x3d82664b	0.06367167
103	0x3d888e25	0.06667737
104	0x3d3e7605	0.04649927
105	0xbd16dadb	-0.03682981
106	0xbdadedfd	-0.08492658
107	0x3b825989	0.0039779586
108	0x3c9628aa	0.018329937
109	0xbc448798	-0.011995219
110	0x3d59d31c	0.053179845
111	0x3d8f3f78	0.069945276
112	0xbdd10b15	-0.10207192
113	0xbcb46157	-0.022019072
114	0x3b883c23	0.0041575595
115	0xbd91da37	-0.07121699
116	0x3db82ab2	0.089925185
117	0xbca8f234	-0.020623304
118	0x3ceb63b2	0.028734062
119	0x3dd97ebd	0.106198765
120	0x3cf6eec7	0.030143155
121	0xbc469993	-0.012121576
122	0xbd182621	-0.037145738
123	0x3d856f9c	0.065154284
124	0xbd719706	-0.058981918
125	0xbcb50b2d	-0.022100056
126	0xbd38a316	-0.045077406
127	0xbcae6b78	-0.02129148
128	0xbcedd9d6	-0.029034536
129	0x3e071278	0.13190639
130	0x39b93cf2	0.00035331358
131	0x3c8b8e64	0.01703567
132	0xbc3a5e43	-0.011375013
133	0x3cc6e365	0.024278352
134	0x3e03bada	0.12864247
135	0x3df33818	0.118759334
136	0x3e03b1ab	0.12860744
137	0x3da34e6f	0.079739444
138	0xbcf6a2cb	-0.030106923
139	0x3defbf18	0.1170637
140	0x3d26d6d3	0.040732216
141	0xbcf342d4	-0.029694952
142	0x3d099b01	0.03359509
143	0x3c414c65	0.011797999
144	0x3df287e6	0.11842327
145	0x3da2542f	0.07926213
146	0x3ddc6a86	0.10762505
147	0x3e4bb7cb	0.1989433
148	0x3d2267b0	0.039649665
149	0xbd45b6c6	-0.04827001
150	0xbd12078e	-0.035651736
151	0x3d1e0a5e	0.038584106
152	0xbd855cf7	-0.06511872
153	0x3ad4e2c6	0.00162419
154	0xbd356399	-0.044284437
155	0x3e006b53	0.12540941
156	0x3db47801	0.088119514
157	0x3de473f3	0.11154928
158	0x3d3c240c	0.045932814
159	0xbcdd274d	-0.02699628
160	0x3d86de54	0.065853745
161	0x3e24f022	0.16107228
162	0x3dfbdb79	0.122977205
163	0x3d7c2f0d	0.06156831
164	0x3e373e6b	0.17894904
165	0x3de36a0f	0.111042134
166	0x3da1f18a	0.07907398
167	0xbba37b07	-0.0049890312
168	0xbc86e5b9	-0.016466962
169	0xbdd6872c	-0.10475001
170	0xbe1731d6	-0.14765105
171	0xbe6a7d86	-0.22899446
172	0xbd6643bb	-0.056216937
173	0xbe01d79f	-0.12679909
174	0xbdcdc939	-0.10048146
175	0xbcf887e0	-0.030338228
176	0x3d5c67dc	0.053809986
177	0xbe71e44e	-0.23622248
178	0xbcc2ded9	-0.023787903
179	0xbe02298f	-0.12711166
180	0xbbe1a0ff	-0.0068856473
181	0xbe53163c	-0.2061395
182	0xbd614930	-0.055001438
183	0xbd84f7d3	-0.06492581
184	0xbdaaf7b0	-0.08348024
185	0xbdf9cef9	-0.1219768
186	0xbe088b21	-0.13334323
187	0xbc4eb8f6	-0.01261734
188	0xbd69d0c4	-0.05708386
189	0xbdab6d9c	-0.08370516
190	0x3c46e529	0.012139597
191	0xbe0b586b	-0.13607948
192	0xbe5ff57e	-0.21870992
193	0xbe05cde9	-0.1306683
194	0xbdf4067b	-0.119152986
195	0xbe30fd91	-0.17284228
196	0xbdc56e51	-0.09640182
197	0xbe3637e3	-0.17794757
198	0xbc5c8f97	-0.013461969
199	0xbd871a3e	-0.06596802
200	0xbd9aa6c3	-0.075513385
201	0xbdb8b88a	-0.09019573
202	0xbdd324b8	-0.10309738
203	0xbd90d1a0	-0.07071233
204	0xbe590d72	-0.21196535
205	0xbe0f76a1	-0.14010097
206	0xbddf03ce	-0.108893976
207	0x3c34c775	0.011033882
208	0xbe081a18	-0.13291204
209	0xbe05ea4b	-0.13077657
210	0x3cbe919d	0.023262793
211	0xbe2d8d5d	-0.16948457
212	0xbe2560de	-0.16150233
213	0x3b6f04a0	0.0036471263
214	0xbe18040e	-0.14845297
215	0xbdbbbb96	-0.091666386
216	0xbe000d25	-0.12505014
217	0xbc92845d	-0.017885381
218	0x3d5e7e86	0.05431988
219	0xbc998bb8	-0.01874338
220	0xbcf49291	-0.029855045
221	0xb997ce9b	-0.00028954897
222	0xbe2e2d74	-0.17009526
223	0x3c307e4c	0.010772299
224	0xbd545172	-0.051835485
225	0xbc40d3fe	-0.011769293
226	0x3abb3cff	0.0014285146
227	0x3c9c6c4a	0.019094605
228	0xbe1ba83a	-0.15200892
229	0xbda06a57	-0.07832783
230	0xbdbc5f13	-0.091978215
231	0xbe2f90d1	-0.17145087
232	0xbd213909	-0.039361034
233	0xbd606cce	-0.054791264
234	0x3af4c637	0.0018674795
235	0xbd70acbe	-0.05875849
236	0xbd65aa70	-0.056070745
237	0x3acac51f	0.0015470124
238	0x3dcda428	0.10041076
239	0xbda2a8b9	-0.079423375
240	0xbdaebb36	-0.085318014
241	0xbabf22e3	-0.0014582541
242	0xbe083aff	-0.13303755
243	0x3d89d77d	0.06730554
244	0xbe0f1fac	-0.13976926
245	0xbe0ada92	-0.1355994
246	0xbd9ba133	-0.07599106
247	0xbde0dc40	-0.10979509
248	0xbd1e87b5	-0.03870364
249	0x3caa57cc	0.020793818
250	0xbdd4a0c1	-0.10382224
251	0xbd9dbecd	-0.07702408
252	0xbda3c49d	-0.079964854
253	0xbdbd587d	-0.092453934
254	0xbd8be980	-0.06831646
255	0xbdd577b9	-0.10423226

final_layer.conv_classifier.bias f4 [4]
0	0xbd980fae	-0.07424866
1	0xbdd8ffba	-0.10595651
2	0x3e8c4aa5	0.274007
3	0xbd0bbf2b	-0.03411786
