models/ShallowFBCSPNet_persons8_lr0.01_wd0.1_bs16_acc0.2742.pth (torch, 383656 bytes, 9 tensors)

conv_time_spat.conv_time.weight f4 [40, 1, 25, 1]
-0.0017811274 0.08418565 0.12075793 0.14177378 0.1442227 0.100682124 0.025160348 -0.057980493
-0.139926 -0.20216909 -0.22082013 -0.19842787 -0.124532916 -0.020458829 0.093542226 0.18975966
0.23251891 0.23101874 0.1794124 0.10153771 0.020785421 -0.04140342 -0.08219483 -0.10015428
-0.091812804 -0.08316828 -0.03266648 -0.0037620116 0.018824395 0.024961146 0.0037194786 -0.015271275
-0.029194398 -0.043057036 -0.058174647 -0.06143909 -0.049810875 -0.02909966 -0.005252263 0.027787197
0.053751342 0.065210484 0.06920436 0.06580513 0.065361805 0.053541888 0.038038343 0.026969062
0.008542073 -0.021635523 -0.07326156 -0.024568059 -0.0051642107 0.004074792 0.019940238 0.012915236
-0.017772617 -0.047541667 -0.082430825 -0.10618251 -0.11969699 -0.10600677 -0.07023922 -0.034697674
0.010101735 0.054569785 0.08503082 0.09577788 0.08086053 0.067907535 0.03970661 0.01087233
-0.013422332 -0.021670016 -0.03373268 0.10970399 -0.009084736 -0.034730963 -0.056507774 -0.08198529
-0.076977715 -0.031003052 0.01874539 0.06260087 0.10186292 0.115874104 0.08589425 0.018519389
-0.056842055 -0.13495678 -0.18751806 -0.19684993 -0.15796602 -0.09518186 -0.018404616 0.06921425
0.13672887 0.15198252 0.13617294 0.17179579 0.02922372 -0.008518531 -0.0564293 -0.09302284
-0.10536739 -0.090247735 -0.057537388 -0.0029149747 0.060258344 0.12268003 0.16656154 0.18606465
0.17441946 0.14287724 0.09042521 0.033114135 -0.022067511 -0.07169504 -0.10188702 -0.101142086
-0.09981897 -0.089863606 -0.059556186 -0.005855551 -0.012144303 -0.13441901 -0.015335315 0.00895066
0.031433664 0.06578257 0.06995723 0.04222725 0.016002493 -0.0037357218 -0.02732304 -0.02827573
-0.008997782 0.040414777 0.08848115 0.1390557 0.17474656 0.17477342 0.13526428 0.07697141
0.016475584 -0.07139181 -0.1522862 -0.17086476 -0.14880872 -0.23619035 0.054074913 -0.054406215
-0.09787619 -0.12584157 -0.15058751 -0.12681642 -0.056023207 0.0070855385 0.07044555 0.12679017
0.14430548 0.11704993 0.047077958 -0.048739843 -0.14851692 -0.22383693 -0.2519567 -0.2104312
-0.1350432 -0.036623817 0.061499465 0.14377849 0.17457697 0.16255195 0.18295677 0.024443299
-0.07990311 -0.12936394 -0.17587245 -0.18800417 -0.14915821 -0.06183387 0.03954162 0.13905701
0.2294971 0.26457655 0.24576738 0.17499752 0.063049205 -0.070719786 -0.1660944 -0.21354365
-0.20439607 -0.15896176 -0.07612153 0.002403476 0.050437644 0.07740296 0.08441821 0.032396313
-0.09944643 -0.075977154 -0.09617938 -0.10584179 -0.08201422 -0.040425304 0.0068816333 0.07767093
0.16604294 0.23627254 0.2800784 0.2826527 0.2660666 0.20888777 0.1371556 0.09001347
0.04905577 0.008804807 -0.013426599 -0.006186407 -0.020959787 -0.06754023 -0.07610784 -0.056035172
-0.20692982 0.07123835 0.041126266 0.0697784 0.09285166 0.079570904 0.07033417 0.06290637
0.031555027 -0.003204356 -0.044872645 -0.08435588 -0.12074201 -0.16288292 -0.18513139 -0.1806666
-0.1591463 -0.11366895 -0.044789366 0.03095299 0.09134172 0.14933883 0.19564907 0.18504697
0.13420093 0.16846272 0.03666076 0.03171333 -0.014482923 -0.060750987 -0.09359732 -0.12689286
00000000: b874 e9ba 8769 ac3d ef4f f73d 252d 113e
00000010: 1eaf 133e 6e32 ce3d 131d ce3c f47c 6dbd
00000020: c348 0fbe 6a05 4fbe ac1e 62be ad30 4bbe
00000030: 1d0b ffbd 4699 a7bc 1193 bf3d 5b50 423e
00000040: 7019 6e3e 2d90 6c3e e2b7 373e 01f3 cf3d
00000050: 3046 aa3c a296 29bd c355 a8bd b01d cdbd
00000060: 5a08 bcbd 2254 aabd 49cd 05bd 158c 76bb
00000070: 9e35 9a3c 517b cc3c 7fc2 733b 5f34 7abc
00000080: 1729 efbc 935c 30bd 8a48 6ebd 8ea7 7bbd
00000090: 7d06 4cbd 6962 eebc 2d1b acbb faa1 e33c
000000a0: 5e2a 5c3d 138d 853d 04bb 8d3d d7c4 863d
000000b0: 69dc 853d bd4e 5b3d 18ce 1b3d 39ee dc3c
000000c0: 0df4 0b3c fb3c b1bc 280a 96bd f442 c9bc
000000d0: 8a38 a9bb d585 853b b659 a33c 6d9a 533c
000000e0: e197 91bc 0dbb 42bd 7ed1 a8bd 3776 d9bd
000000f0: b223 f5bd 141a d9bd 95d9 8fbd 261f 0ebd
00000100: bf81 253c 9184 5f3d a324 ae3d 3127 c43d
00000110: 359a a53d 1b13 8b3d 66a3 223d db21 323c
00000120: 57e9 5bbc 5185 b1bc 472b 0abd 7cac e03d
00000130: 25d8 14bc 0e42 0ebd b274 67bd e7e7 a7bd
00000140: 7ea6 9dbd 1dfa fdbc ef8f 993c e334 803d
00000150: 829d d03d 674f ed3d 53e9 af3d f9b5 973c
00000160: 37d3 68bd 1c32 0abe bc04 40be 0793 49be
00000170: d8c1 21be b5ee c2bd 47c5 96bc 33c0 8d3d
00000180: a702 0c3e 4ea1 1b3e eb70 0b3e 3ceb 2f3e
00000190: 9566 ef3c 4f91 0bbc 6922 67bd c282 bebd
000001a0: dcca d7bd ced3 b8bd 53ac 6bbd 2909 3fbb
000001b0: 74d1 763d ab3f fb3d 1c8f 2a3e bb87 3e3e
000001c0: 049b 323e 694e 123e da30 b93d b0a2 073d
000001d0: edc6 b4bc d9d4 92bd 24aa d0bd 9523 cfbd
000001e0: e36d ccbd 690a b8bd 30f1 73bd ecdf bfbb
000001f0: e6f8 46bc 23a5 09be f940 7bbc caa5 123c
00000200: 96c0 003d 03b9 863d bc45 8f3d 7bf6 2c3d
00000210: a917 833c 03d3 74bb 91d4 dfbc 81a2 e7bc
00000220: 6f6b 13bc f789 253d 9b35 b53d 9e64 0e3e
00000230: c3f0 323e cef7 323e b882 0a3e 30a3 9d3d
00000240: cef7 863c df35 92bd eaf0 1bbe 2cf7 2ebe
00000250: 5061 18be e2db 71be a87d 5d3d 0dd9 5ebd
00000260: 5073 c8bd 9ddc 00be 9d33 1abe 2adc 01be
00000270: 9778 65bd ce2d e83b c245 903d 48d5 013e
00000280: d1c4 133e e0b7 ef3d d1d4 403d 6ea3 47bd
00000290: d214 18be 8235 65be 7800 81be 477b 57be
000002a0: c448 0abe db02 16bd dde6 7b3d ab3a 133e
000002b0: 4ec4 323e 0574 263e 0559 3b3e 503d c83c
000002c0: 3ea4 a3bd fb77 04be e817 34be 2a84 40be
000002d0: eebc 18be 8345 7dbd 65f6 213d f664 0e3e
000002e0: 4a01 6b3e 9476 873e 72aa 7b3e 8d32 333e
000002f0: f11f 813d 89d5 90bd a714 2abe 30ab 5abe
00000300: 344d 51be dfc6 22be 9be5 9bbd a383 1d3b
00000310: b497 4e3d 7185 9e3d 74e3 ac3d ffb1 043d
00000320: 92aa cbbd e999 9bbd b2f9 c4bd 95c3 d8bd
00000330: 12f7 a7bd 0195 25bd 537f e13b f011 9f3d
00000340: 2907 2a3e 6ef1 713e 7066 8f3e dbb7 903e
00000350: e239 883e ade6 553e 8572 0c3e fb58 b83d
00000360: b4ee 483d 0a42 103c 3dfb 5bbc 58b7 cabb
00000370: dcb3 abbc 8852 8abd 6dde 9bbd 2385 65bd
00000380: 69e5 53be 69e5 913d 0474 283d fae7 8e3d
00000390: 0329 be3d 12f6 a23d 5c0b 903d 0ed5 803d
000003a0: d83f 013d 2c00 52bb 61cc 37bd c7c2 acbd
000003b0: 9647 f7bd c8ca 26be 1593 3dbe aa00 39be
000003c0: 3ff7 22be 44cb e8bd 0e75 37bd 2091 fd3c
000003d0: 5e11 bb3d 47ec 183e 3b58 483e f47c 3d3e
000003e0: f86b 093e 7e81 2c3e 9829 163d d6e5 013d
000003f0: c849 6dbc 07d6 78bd f4af bfbd 34f0 01be

conv_time_spat.conv_time.bias f4 [40]
0.23207194 0.22410011 0.18892866 -0.2331104 -0.09571106 0.19331421 -0.21483733 -0.23115377
-0.15117933 -0.18674225 0.24701563 0.21647158 0.15279679 -0.24372894 -0.00024737365 0.19128858
0.1329719 -0.19007611 0.073193334 -0.22550547 -0.18246976 -0.013328654 0.14335926 0.20365009
-0.046100374 -0.19527122 -0.20628755 0.08967929 -0.113121524 0.2051117 -0.21092151 0.16179737
-0.19894259 -0.16119224 -0.007115215 0.23715965 0.15876663 -0.3246681 0.17435668 0.23698987
00000000: 44a4 6d3e 807a 653e 8476 413e 7eb4 6ebe
00000010: 2904 c4bd 29f4 453e 51fe 5bbe 93b3 6cbe
00000020: c1ce 1abe 5c39 3fbe aaf1 7c3e baaa 5d3e
00000030: c376 1c3e 1494 79be eeb1 81b9 27e1 433e
00000040: c929 083e 50a3 42be 63e6 953d e8ea 66be
00000050: 5ad9 3abe 6d60 5abc c5cc 123e a689 503e
00000060: bfd3 3cbd 2ef5 47be 0b3d 53be c7a9 b73d
00000070: 42ac e7bd cd08 523e cffb 57be 36ae 253e
00000080: 9bb7 4bbe 940f 25be c026 e9bb fbd9 723e
00000090: b893 223e e63a a6be 8f8a 323e 79ad 723e

conv_time_spat.conv_spat.weight f4 [40, 40, 1, 44]
0.0071868054 -0.040932167 -0.012402845 -0.05280381 0.051984593 -0.08760668 0.07196819 0.08800812
-0.037418734 -0.11528794 -0.06570023 -0.019234482 -0.021674339 0.028395925 0.04201166 -0.034568217
-0.14836565 0.092042774 0.04978474 -0.048970867 -0.06489559 -0.057631385 -0.011590519 -0.04037663
0.011208778 -0.0030067 -0.019889126 -0.035288867 0.08592459 0.06811957 -0.09385183 -0.11724425
0.055467308 0.079200625 -0.07762225 -0.098737426 0.010736726 -0.0034888145 0.010346352 -0.004187245
0.0456415 -0.038492136 0.056517728 0.00038671278 0.015552935 0.006342313 -0.02300035 0.0342812
0.047487073 0.027605643 0.020080602 0.012690163 0.036014132 0.026701964 0.046129614 -0.042094007
0.016864067 0.021889672 0.023076855 0.008432184 0.008888561 0.017743923 0.028593326 0.04299962
0.008200194 0.014407063 -0.0009801342 0.021792373 0.02313389 0.03958359 0.014567283 0.027289491
0.026681682 0.02703366 0.025891282 0.023086471 0.014423231 0.0027863022 0.035780586 0.0334427
-0.025282389 -0.03122574 -0.03614059 -0.03356252 0.02108326 0.024769707 0.010638193 0.03193442
0.023973541 0.06413994 -0.01001209 -0.019242572 0.017884122 -0.04396375 -0.002138891 -0.004207982
0.012776386 -0.0076589715 0.020851683 0.027863137 -0.025705554 0.014227298 0.035880357 -0.0050825337
-0.048898418 -0.018325504 0.027599057 0.040078547 0.00477681 0.033376724 -0.024181513 -0.034198295
0.031546474 0.03770528 -0.03944652 -0.016448116 -0.007105772 -0.020470206 -0.028641343 -0.02337767
-0.029957945 -0.019333033 -0.006070649 -0.0014861543 0.059411462 0.0060587954 0.047040742 -0.010769655
0.021289932 0.004260051 -0.0028661063 0.019210264 0.03787698 0.13973977 -0.020143276 -0.008270179
-0.026354507 -0.011356753 -0.049017776 -0.047748897 0.028809404 0.090942346 0.105434075 0.059370846
-0.062348463 -0.02519588 0.03778464 -0.01676275 0.08099238 -0.090454936 -0.002987543 0.06454732
0.09213018 0.12664576 -0.061597526 -0.030179093 0.03030407 0.08479984 -0.08034104 -0.007985189
-0.06805364 -0.044514947 0.018291406 0.062128313 -0.049814448 -0.049061928 0.071067095 0.09240966
0.08730392 0.0031181637 0.05941634 -0.06714045 0.02462163 0.019145269 -0.014425114 0.044335984
-0.026306504 -0.10721962 0.05249814 0.026873393 -0.0029769929 0.040199894 -0.029250829 -0.018518653
-0.01593469 -0.026804984 -0.0061629335 -0.027759738 0.074400686 -0.0036722359 -0.06789071 0.038073953
0.0070560058 0.020475559 -0.035200324 -0.057786994 -0.011185801 -0.06294595 0.07808721 0.07532825
-0.031149838 -0.07639032 0.0681214 -0.0027949864 -0.021977605 -0.005761518 0.016112529 -0.011613057
-0.011415338 -0.016365997 -0.03591069 -0.045540974 -0.09902422 0.0046523632 -0.08420978 0.05649905
-0.06493838 -0.017089654 -0.0292767 -0.045271914 -0.07787567 -0.16686696 0.028221622 0.007380203
0.016550582 -0.020047173 0.02865278 0.062472377 -0.052326955 -0.114141196 -0.12995128 -0.05138858
0.07790126 0.008463118 -0.038036976 0.0124595435 -0.07587136 0.09314272 0.004862209 -0.075239874
-0.12116989 -0.16223034 0.09046981 0.05830405 -0.051143695 -0.10697516 0.073433995 -0.002287609
0.050195314 0.040260028 -0.06509669 -0.093811624 0.03140048 0.05059857 -0.104300424 -0.1304542
00000000: 4b7f eb3b 7da8 27bd 4d35 4bbc cf48 58bd
00000010: cced 543d 226b b3bd 0f64 933d 9a3d b43d
00000020: 6344 19bd 151c ecbd d88d 86bd a291 9dbc
00000030: 628e b1bc 929e e83c 6b14 2c3d 6797 0dbd
00000040: 2aed 17be ec80 bc3d 15eb 4b3d ad95 48bd
00000050: fbe7 84bd e30e 6cbd 29e6 3dbc f761 25bd
00000060: 06a5 373c 0e0c 45bb 85ee a2bc 0f8b 10bd
00000070: 3bf9 af3d 4682 8b3d 6335 c0bd c11d f0bd
00000080: b031 633d f033 a23d 6af8 9ebd d936 cabd
00000090: 18e9 2f3c 98a4 64bb bf83 293c 2835 89bb
000000a0: 95f2 3a3d eea9 1dbd 227f 673d b6bf ca39
000000b0: bdd1 7e3c 2dd3 cf3b 3b6b bcbc 726a 0c3d
000000c0: ce81 423d 3b25 e23c 1380 a43c 67ea 4f3c
000000d0: 8e83 133d 14be da3c 68f2 3c3d c46a 2cbd
000000e0: 8326 8a3c f851 b33c ac0b bd3c 2527 0a3c
000000f0: 54a1 113c b45b 913c 8d3c ea3c 5f20 303d
00000100: 1b5a 063c 9a0b 6c3c d977 80ba eb85 b23c
00000110: 4983 bd3c 6722 223d 9dab 6e3c 368e df3c
00000120: 8b93 da3c b275 dd3c f419 d43c d71f bd3c
00000130: 6a4f 6c3c 659a 363b aa8e 123d 36fb 083d
00000140: 031d cfbc 20cd ffbc 2808 14bd da78 09bd
00000150: cdb6 ac3c d7e9 ca3c d14b 2e3c abcd 023d
00000160: 2964 c43c cd5b 833d c009 24bc 99a2 9dbc
00000170: b981 923c 5513 34bd a32c 0cbb 1de3 89bb
00000180: 0c54 513c 1cf8 fabb 26d1 aa3c 3c41 e43c
00000190: 7494 d2bc 9d19 693c 48f7 123d 628b a6bb
000001a0: b549 48bd 5e1f 96bc 6b17 e23c 6729 243d
000001b0: c986 9c3b 08b6 083d 4f18 c6bc 8313 0cbd
000001c0: e036 013d da70 1a3d ad92 21bd 33be 86bc
000001d0: 89d7 e8bb 22b1 a7bc 40a1 eabc 8782 bfbc
000001e0: 5d6a f5bc 4f60 9ebc 4bec c6bb 10cb c2ba
000001f0: 6f59 733d dc88 c63b cbad 403d 3573 30bc
00000200: 3968 ae3c e697 8b3b 49d5 3bbb d85e 9d3c
00000210: e424 1b3d f117 0f3e 8303 a5bc a57f 07bc
00000220: 68e5 d7bc ad11 3abc ddc6 48bd 5994 43bd
00000230: b301 ec3c fb3f ba3d d2ed d73d d82e 733d
00000240: 1a61 7fbd 9767 cebc 11c4 1a3d 0952 89bc
00000250: 55df a53d 7040 b9bd a7ca 43bb 6331 843d
00000260: bfae bc3d 6daf 013e b04d 7cbd 253a f7bc
00000270: 3e40 f83c 8aab ad3d d889 a4bd 4fd4 02bc
00000280: b55f 8bbd 4e55 36bd dcd7 953c 427a 7e3d
00000290: 3c0a 4cbd 29f5 48bd a08b 913d 4741 bd3d
000002a0: 66cc b23d 1b5a 4c3b 8c5e 733d ef80 89bd
000002b0: 4db3 c93c 8ad6 9c3c 5057 6cbc a699 353d
000002c0: bd80 d7bc f695 dbbd 4a08 573d 9725 dc3c
000002d0: a719 43bb a5a8 243d 6f9f efbc 6eb4 97bc
000002e0: 7889 82bc 2096 dbbc 6ff2 c9bb 6468 e3bc
000002f0: 635f 983d e5a9 70bb 490a 8bbd 6ff3 1b3d
00000300: 1136 e73b 5cbc a73c 372e 10bd 0eb2 6cbd
00000310: a644 37bc cee9 80bd 30ec 9f3d b345 9a3d
00000320: f22d ffbc 8772 9cbd 3c83 8b3d 172c 37bb
00000330: 610a b4bc 1ecb bcbb 6cfe 833c b144 3ebc
00000340: 6607 3bbc fc11 86bc 1617 13bd 2c89 3abd
00000350: 36cd cabd da72 983b 2d76 acbd 8c6b 673d
00000360: 6afe 84bd 9aff 8bbc b1d5 efbc 0b6f 39bd
00000370: 477d 9fbd 2cdf 2abe 0831 e73c a1d5 f13b
00000380: 1695 873c f839 a4bc 3cb9 ea3c 09e3 7f3d
00000390: ca54 56bd dcc2 e9bd f311 05be d57c 52bd
000003a0: b28a 9f3d e4a8 0a3c a9cc 1bbd 1d23 4c3c
000003b0: 7262 9bbd 9cc1 be3d 2a53 9f3b 5d17 9abd
000003c0: eb27 f8bd b61f 26be 3c48 b93d 3ad0 6e3d
000003d0: 0d7c 51bd cb15 dbbd 9064 963d b6eb 15bb
000003e0: 9a99 4d3d b3e7 243d 6a51 85bd 4f20 c0bd
000003f0: ca9d 003d 7240 4f3d 769b d5bd c995 05be

bnorm.weight f4 [40]
0.10369215 0.1691869 0.3210934 0.13177073 0.14552331 0.44092643 0.13255773 0.06268248
0.18236557 0.18863384 0.1301333 0.1307458 0.18666334 0.17945278 0.270949 0.26411727
0.2742314 0.26010478 0.12575936 0.16622514 0.04927848 0.2785146 0.10717871 0.10147939
0.4404287 0.66365135 0.2001648 0.1145893 0.44356504 0.31630504 0.22688118 0.1308446
0.14998636 0.35762247 0.082552165 0.26634136 0.518312 0.6174385 0.18451989 0.20050764
00000000: 8d5c d43d 553f 2d3e 5b66 a43e e8ee 063e
00000010: 1004 153e 1cc1 e13e 37bd 073e ac5f 803d
00000020: 0abe 3a3e 3b29 413e aa41 053e 3ae2 053e
00000030: ad24 3f3e 78c2 373e d4b9 8a3e 613a 873e
00000040: 0f68 8c3e 742c 853e 10c7 003e ec36 2a3e
00000050: 3bd8 493d 7799 8e3e 8380 db3d 6dd4 cf3d
00000060: df7f e13e 0ee5 293f 00f8 4c3e cbad ea3d
00000070: f51a e33e bcf2 a13e 8a53 683e 20fc 053e
00000080: 0696 193e 4b1a b73e 1c11 a93d e55d 883e
00000090: 18b0 043f 7310 1e3f c8f2 3c3e e051 4d3e

bnorm.bias f4 [40]
-0.99409145 0.9754625 -0.91236895 0.9608592 -0.9940048 0.89786977 0.98383594 -0.97972083
-0.9798982 1.0009494 1.0045137 -0.9837882 0.9850544 0.94756204 -0.93988836 0.9332
0.9271706 -0.9575058 0.9647171 -0.99225146 0.99926585 0.9664333 -0.95864004 -0.9782652
0.87189704 0.78254545 0.96327925 -0.97198725 0.85674435 0.9300765 -0.9580649 1.0213289
-0.9721527 0.93250793 0.98788774 0.9523858 0.8368114 0.78245586 1.0131894 0.9669157
00000000: c77c 7ebf e9b7 793f 0391 69bf defa 753f
00000010: 1977 7ebf cbda 653f acdc 7b3f fcce 7abf
00000020: 9cda 7abf 1c1f 803f e893 803f 8bd9 7bbf
00000030: 862c 7c3f 6d93 723f 869c 70bf 32e6 6e3f
00000040: 0d5b 6d3f 1a1f 75bf b3f7 763f 3104 7ebf
00000050: e3cf 7f3f 2c68 773f 6f69 75bf 976f 7abf
00000060: a534 5f3f e654 483f 7899 763f 28d4 78bf
00000070: 9953 5b3f 7e19 6e3f be43 75bf e8ba 823f
00000080: 00df 78bf d7b8 6e3f 36e6 7c3f 8ecf 733f
00000090: 4639 563f 074f 483f 31b0 813f ca87 773f

bnorm.running_mean f4 [40]
-0.6626807 -5.944523 1.2311913 0.07665118 4.3849206 -28.200794 3.8561745 6.989427
-1.8346355 -5.150131 1.2426665 -0.42758426 -2.806836 -1.2283365 0.8451253 2.36813
1.6025621 -3.163233 3.2279413 6.7655168 4.3531046 2.2687256 -5.7060475 1.7525092
-3.534219 0.49747753 -5.9961815 -2.485878 -5.0739274 -6.418535 6.722457 0.32143158
-7.9014964 25.996405 6.1666765 6.4870086 21.269135 0.70411825 -2.4935243 0.15498652
00000000: 71a5 29bf 8839 bec0 ad97 9d3f 4bfb 9c3d
00000010: 4551 8c40 3a9b e1c1 90cb 7640 63a9 df40
00000020: 56d5 eabf e0cd a4c0 b20f 9f3f 53ec dabe
00000030: 33a3 33c0 213a 9dbf 225a 583f 718f 1740
00000040: c120 cd3f 6972 4ac0 9796 4e40 1d7f d840
00000050: a24c 8b40 cd32 1140 f197 b6c0 3952 e03f
00000060: a530 62c0 60b5 fe3e b8e0 bfc0 a018 1fc0
00000070: 9d5d a2c0 a464 cdc0 5e1e d740 ae92 a43e
00000080: 0fd9 fcc0 a3f8 cf41 6a55 c540 9395 cf40
00000090: 3027 aa41 1841 343f e795 1fc0 c9b4 1e3e

bnorm.running_var f4 [40]
0.6462549 2.60888 4.757391 2.5795262 1.627438 2.0801027 1.2946346 0.964731
2.526042 0.7965337 0.93874824 0.6631224 0.5273461 1.6458647 2.1423953 1.487934
2.655654 1.1004578 2.5212862 1.4426299 0.79809195 2.3065977 1.4032534 0.25055346
2.0091813 2.2372859 1.2692671 0.934543 1.9381516 1.3470408 1.6502959 1.1694727
0.9582072 1.9891822 0.49945608 1.8522531 5.163617 1.4672999 2.3496482 0.8972512
00000000: f670 253f e4f7 2640 8c3c 9840 f516 2540
00000010: e34f d03f 6720 0540 96b6 a53f 9cf8 763f
00000020: acaa 2140 a2e9 4b3f ce51 703f 64c2 293f
00000030: 2700 073f b2ab d23f 011d 0940 9f74 be3f
00000040: 3cf6 2940 cddb 8c3f c15c 2140 19a8 b83f
00000050: c14f 4c3f 4c9f 1340 cf9d b33f 8b48 803e
00000060: 6d96 0040 b12f 0f40 5877 a23f 363e 6f3f
00000070: 5a15 f83f d56b ac3f e53c d33f 48b1 953f
00000080: 114d 753f 869d fe3f b5b8 ff3e a116 ed3f
00000090: 5a3c a540 7cd0 bb3f a360 1640 41b2 653f

final_layer.conv_classifier.weight f4 [4, 40, 144, 1]
-0.03593559 0.10340332 -0.12836505 -0.004026167 0.016662288 0.030093702 -0.016666004 0.023681995
-0.09986588 -0.027230749 0.0030961437 0.02059742 0.036738094 -0.005195388 0.040740017 0.09278825
-0.024231413 -0.07165298 -0.023500608 -0.03292111 0.0074647292 -0.014332316 0.0993021 0.051004194
0.00067258853 0.012887851 -0.01791651 0.041108552 -0.0145087205 -0.017550986 -0.055512268 -0.02004003
0.027287848 0.08734492 0.015122462 -0.018463708 -0.051170874 -0.015165527 0.023789398 -0.007068261
0.026406603 0.03889203 -0.042141214 0.023944335 0.10163551 0.11480239 0.047263127 -0.051594514
-0.04596943 -0.022506764 0.08426704 -0.024684172 0.07081317 0.06968039 0.032451466 -0.006174386
0.04100272 0.06294121 0.10664879 0.04044116 0.04556338 -0.025619648 0.01128874 0.039195895
-0.053292535 0.031877715 -0.03871357 -0.05048508 0.06715346 -0.06444045 -0.01823596 -0.09312384
-0.033494767 0.08413556 -0.067903675 -0.0572718 0.02417951 -0.07400963 -0.060257383 -0.054922245
0.023026237 0.018392976 -0.05536566 -0.1015694 0.008063597 -0.104677446 -0.03227376 0.040670227
-0.04196682 -0.10635665 0.026109388 0.0014147994 -0.056346353 0.041759513 -0.02145364 0.04044851
-0.038278535 -0.06232267 0.072744235 -0.07704988 -0.009014869 -0.071638696 -0.034721 -0.13686919
-0.03335978 -0.011755715 -0.11980547 -0.08803352 0.03841414 -0.06607766 -0.008533128 -0.015852962
-0.06760292 0.0014980109 0.044713035 0.0523989 0.042714424 -0.036587834 0.016166542 0.023155414
0.030418582 0.016884971 -0.055102892 0.014481598 0.07347015 -0.038624268 -0.05611541 0.03233828
0.032255556 0.014945843 -0.038256835 0.017408978 0.029844102 -0.06990918 0.05837259 -0.020767186
-0.063623 0.009582075 0.007914416 0.007988728 -0.06115982 0.013328198 0.0135660665 -0.03098001
0.018275643 -0.007771339 0.05979262 0.0044031334 0.053906024 -0.04498582 -0.04444505 0.043647014
0.008644524 -0.037061714 0.0029844185 -0.0635407 -0.0016892239 0.038469203 -0.034705732 -0.09297008
0.04834731 -0.0121090785 -0.16435924 -0.013235126 -0.045022134 0.0050068516 -0.012278402 0.066840775
-0.07987245 0.12332357 -0.016559206 -0.01742518 0.059926685 0.02890671 0.1399951 0.05764624
0.124581106 0.04215203 0.0028963357 0.080924965 0.11309911 0.03765239 0.0051663923 0.036844566
0.09656636 0.10029258 0.1166945 0.07043729 0.016221857 0.045688033 -0.051985186 -0.007815013
0.014902539 -0.048539236 0.037837226 0.03592844 -0.03345645 -0.009084971 -0.06963858 0.0035089862
-0.1431971 0.06629361 0.013660558 0.030689526 -0.09775542 -0.08931453 0.08791089 -0.031063344
-0.0072482615 -0.057323128 -0.0400894 0.0047887997 -0.01456015 -0.0625184 -0.009422758 -0.04203901
-0.1332057 -0.13365085 -0.06329658 -0.03175094 -0.0648722 -0.034239713 0.024005996 0.07627891
0.041018024 -0.10253976 -0.12372829 -0.09164681 -0.033669114 -0.073893405 -0.10105016 -0.094462
-0.06735315 -0.072856955 0.07100292 -0.025719002 -0.0773575 -0.03816783 0.07481576 -0.012689921
0.04750094 -0.095384374 0.003820826 0.04445906 -0.104188696 -0.0016594513 -0.044028733 0.07648751
0.008262918 -0.074798904 -0.05984982 0.080198474 -0.064574964 -0.043851394 0.11658214 0.06349513
00000000: 3231 13bd 1fc5 d33d 2172 03be f0ed 83bb
00000010: 5a7f 883c 1187 f63c 2587 88bc be00 c23c
00000020: 7c86 ccbd 0513 dfbc ace8 4a3b ecbb a83c
00000030: af7a 163d 133e aabb 01df 263d c407 be3d
00000040: f580 c6bc ccbe 92bd 5984 c0bc 49d8 06bd
00000050: b09a f43b 17d2 6abc e65e cb3d c6e9 503d
00000060: a750 303a 9127 533c a5c5 92bc 7161 283d
00000070: fcb5 6dbc 16c7 8fbc d560 63bd fd2a a4bc
00000080: c48a df3c e5e1 b23d 34c4 773c 3441 97bc
00000090: 8d98 51bd d578 78bc fce1 c23c df9c e7bb
000000a0: a952 d83c 404d 1f3d 449c 2cbd e926 c43c
000000b0: 4726 d03d 841d eb3d fb96 413d c554 53bd
000000c0: 714a 3cbd 1b60 b8bc 3394 ac3d 7636 cabc
000000d0: 7f06 913d 98b4 8e3d d4eb 043d 8152 cabb
000000e0: 78f2 273d 52e7 803d ae6a da3d a1a5 253d
000000f0: aba0 3a3d 4ce0 d1bc 68f4 383c e08b 203d
00000100: 4649 5abd 3592 023d 1f92 1ebd 71c9 4ebd
00000110: c187 893d 5bf9 83bd 9463 95bc b6b7 bebd
00000120: cf31 09bd 444f ac3d 1511 8bbd d695 6abd
00000130: 1c14 c63c 5c92 97bd 72d0 76bd 26f6 60bd
00000140: 85a1 bc3c deac 963c 1ac7 62bd 9e03 d0bd
00000150: 2d1d 043c 2161 d6bd 7d31 04bd d395 263d
00000160: 66e5 2bbd 84d1 d9bd 5be3 d53c ca70 b93a
00000170: 6fcb 66bd 060c 2b3d 8bbf afbc 56ad 253d
00000180: f4c9 1cbd 0e46 7fbd eefa 943d 54cc 9dbd
00000190: 1ab3 13bc 4fb7 92bd 9b37 0ebd 7027 0cbe
000001a0: 44a4 08bd 0b9b 40bc 925c f5bd eb4a b4bd
000001b0: 2558 1d3d b953 87bd 88ce 0bbc 12de 81bc
000001c0: 6673 8abd e858 c43a 0425 373d 3ba0 563d
000001d0: 52f5 2e3d 20dd 15bd b26f 843c 6cb0 bd3c
000001e0: 6430 f93c 5a52 8a3c 92b3 61bd 3944 6d3c
000001f0: 8577 963d 7b34 1ebd 46d9 65bd 2575 043d
00000200: 671e 043d 69df 743c 33b3 1cbd 469d 8e3c
00000210: 9e7b f43c 8b2c 8fbd 1918 6f3d f21f aabc
00000220: c74c 82bd 23fe 1c3c 77ab 013c 27e3 023c
00000230: b882 7abd 845e 5a3c 3544 5e3c cac9 fdbc
00000240: cdb6 953c b7a6 febb 1be9 743d 2948 903b
00000250: 90cc 5c3d 0d43 38bd 030c 36bd 36c7 323d
00000260: c3a1 0d3c 06ce 17bd 3c96 433b a021 82bd
00000270: f368 ddba e291 1d3d 9927 0ebd 1967 bebd
00000280: d407 463d 2865 46bc ca4d 28be 24d8 58bc
00000290: 2169 38bd 8410 a43b 5a2b 49bc d1e3 883d
000002a0: 2b94 a3bd 1191 fc3d 2ca7 87bc 40bf 8ebc
000002b0: af75 753d c4cd ec3c e05a 0f3e 771e 6c3d
000002c0: 6124 ff3d 9ba7 2c3d 73d0 3d3b fdbb a53d
000002d0: 82a0 e73d 6439 1a3d d74a a93b 54ea 163d
000002e0: 95c4 c53d 3266 cd3d 87fd ee3d 6d41 903d
000002f0: b3e3 843c 6023 3b3d 6bee 54bd 8a0a 00bc
00000300: c729 743c 14d1 46bd 35fb 1a3d b329 133d
00000310: a109 09bd 21d9 14bc ac9e 8ebd 05f7 653b
00000320: 43a2 12be f2c4 873d 88d0 5f3c 9a68 fb3c
00000330: fe33 c8bd 89ea b6bd a00a b43d 8e78 febc
00000340: d382 edbb a8cb 6abd c834 24bd 5deb 9c3b
00000350: b28d 6ebc a609 80bd e961 1abc 1931 2cbd
00000360: 1367 08be c5db 08be a3a1 81bd 460d 02bd
00000370: b7db 84bd f13e 0cbd 39a8 c43c 1e38 9c3d
00000380: 8402 283d 5e00 d2bd 4265 fdbd 53b1 bbbd
00000390: a0e8 09bd 6d55 97bd 63f3 cebd 4b75 c1bd
000003a0: 73f0 89bd 0736 95bd fb69 913d a8b0 d2bc
000003b0: 9c6d 9ebd df55 1cbd 0139 993d 63e9 4fbc
000003c0: 5890 423d e258 c3bd d366 7a3b b41a 363d
000003d0: e260 d5bd f281 d9ba 7957 34bd 7ca5 9c3d
000003e0: 3161 073c 2b30 99bd 1625 75bd 193f a43d
000003f0: e13f 84bd 859d 33bd 9ec2 ee3d bc09 823d

final_layer.conv_classifier.bias f4 [4]
-0.17067888 -0.12405179 0.37986016 -0.048576754
00000000: 72c6 2ebe dd0e febd 087d c23e 6bf8 46bd
