models/ShallowFBCSPNet_persons2_lr0.0001_wd0_bs16_acc0.6844.pth (torch, 383656 bytes, 9 tensors)

conv_time_spat.conv_time.weight f4 [40, 1, 25, 1]
0	0xbca197fb	-0.01972579
1	0xbd8f35cc	-0.06992683
2	0x3d389100	0.045060158
3	0x3cd1c3d8	0.02560608
4	0x3d3f0fb6	0.046645842
5	0x3d01f163	0.031724345
6	0xbce73b07	-0.028226389
7	0x3d951b8d	0.072806455
8	0x3d28a3b3	0.04117174
9	0x3d6450c9	0.055741105
10	0x3c5ca910	0.013468042
11	0x3d37607e	0.044769756
12	0xbd2685c9	-0.04065493
13	0x3bf8d1e0	0.0075933784
14	0xbc5b48f8	-0.013384096
15	0x3d51944b	0.051166814
16	0xbd93a83e	-0.07209824
17	0xbd2a5d79	-0.04159305
18	0x3d5da8a1	0.054115895
19	0xbb4d1e88	-0.0031298716
20	0x3d56ed3c	0.052472338
21	0x3cf26420	0.029588759
22	0xbd072376	-0.032992803
23	0xbc5b4007	-0.0133819645
24	0xbd3cacea	-0.04606334
25	0xbd473d67	-0.048642542
26	0x3d28c7b7	0.041206088
27	0xbd9dbccb	-0.07702025
28	0xbd074a18	-0.033029646
29	0xbbc6bffd	-0.0060653673
30	0xbd80ac46	-0.062828586
31	0x3d2bbb33	0.041926574
32	0xbd02c80f	-0.031929072
33	0x3cc32643	0.023821956
34	0x3d6e31f9	0.058153126
35	0xbd5816c3	-0.052756082
36	0x3d326e1d	0.043562043
37	0x3cc0d0c7	0.023537053
38	0xbb3ca970	-0.0028787516
39	0x3d903dfc	0.070430726
40	0x3c170379	0.009217137
41	0x3d8cda98	0.06877631
42	0xbd1c9dcd	-0.038236428
43	0xbc31c86b	-0.010851006
44	0x3d3fcf77	0.046828713
45	0x3d7336ec	0.05937855
46	0xbcb2ab9d	-0.021810347
47	0x3c5b77b5	0.01339524
48	0xbd971ea7	-0.07378893
49	0xbd333c26	-0.043758534
50	0x3d409baa	0.047023453
51	0xbcdadf16	-0.026717704
52	0x3d004d9a	0.031324007
53	0x3d05bb37	0.032649245
54	0x3d1a880a	0.037727393
55	0x3da3ffcb	0.08007773
56	0x3d6d83d9	0.057987068
57	0x3d1f3d0b	0.038876574
58	0x3c99cb09	0.018773573
59	0x3d840093	0.06445422
60	0xbcc62556	-0.024187725
61	0x3d0215b2	0.03175897
62	0x3d1513a1	0.036395673
63	0xbd4ac3c5	-0.049503107
64	0xbc94cb15	-0.018163243
65	0xbd22c75b	-0.0397409
66	0x3c8a9921	0.01691872
67	0x3d1e3aa8	0.038630158
68	0x3d4ede26	0.050504826
69	0x3d2d3d68	0.04229489
70	0xbd804b8f	-0.06264412
71	0xbd2c0532	-0.041997142
72	0x3cfd9d25	0.030958721
73	0x3d2fb532	0.04289741
74	0x3d965621	0.073406465
75	0xbc49d863	-0.012319657
76	0xbd44deaf	-0.04806393
77	0x3ce0b999	0.02743225
78	0xbd8250e5	-0.06363086
79	0x3d116fdc	0.035507068
80	0x3c289e32	0.010291623
81	0x3d3960e5	0.04525842
82	0x3d1df041	0.038559202
83	0xbc12edd9	-0.00896784
84	0x3d498094	0.049194887
85	0xbc274c62	-0.010211082
86	0x3d817eed	0.06323037
87	0x3d8ffb37	0.07030337
88	0xbd223066	-0.039596938
89	0xbb5bf0cb	-0.0033560272
90	0xbd513f26	-0.051085614
91	0xba4688b9	-0.0007573474
92	0xbc667e08	-0.014068134
93	0xbc9cfdd3	-0.019164002
94	0x3d445197	0.047929373
95	0xbd68e476	-0.056858502
96	0x3c710544	0.014710728
97	0x3d1f3af4	0.03887458
98	0x3c24a7ae	0.010049744
99	0xbd446c36	-0.04795476
100	0xbcac5c5a	-0.02104013
101	0x3b6a371c	0.0035738414
102	0x3d96e855	0.073685326
103	0xbcebad62	-0.028769199
104	0xbc3f351f	-0.01167038
105	0x3c6c8aec	0.014437418
106	0xbc7f856e	-0.015595777
107	0x3c745376	0.014912477
108	0x3d9c1127	0.07620459
109	0xbbd3087c	-0.0064402204
110	0x3ca476f4	0.020076253
111	0x3d3f198a	0.046655215
112	0x3d7d5309	0.061846767
113	0xbd3d6257	-0.046236362
114	0x3d3dbad3	0.046320748
115	0xbca6d87b	-0.020366898
116	0x3bf54cfe	0.007485985
117	0xbc810913	-0.015751397
118	0x3d3d644b	0.046238225
119	0xbd98434c	-0.07434711
120	0x3d27b40a	0.040943183
121	0x3d88b259	0.06674642
122	0xbd718ef9	-0.05897424
123	0x3bce00fd	0.006286739
124	0xbce2a315	-0.027665654
125	0x3d832df0	0.06405246
126	0xbd14c346	-0.03631904
127	0xbcd83d08	-0.02639629
128	0xbd8e4915	-0.06947533
129	0x3cb57783	0.022151714
130	0xbd18ad57	-0.037274685
131	0x3d94d64b	0.07267436
132	0x3c04e2ea	0.008110741
133	0xbcfdc4ab	-0.030977568
134	0x3d6d2910	0.05790049
135	0x3d2eda25	0.042688508
136	0xbd229300	-0.03969097
137	0x3cb85f5c	0.022506408
138	0xbbbc06e9	-0.0057381284
139	0xbc664f05	-0.014056926
140	0x3d82a60c	0.06379327
141	0x3d5a9f18	0.05337438
142	0xbcf485ae	-0.0298489
143	0xbd9a3514	-0.07529655
144	0x3c809705	0.015697012
145	0x3d920d85	0.07131485
146	0xbc8f816e	-0.017517772
147	0xbd45f721	-0.048331384
148	0xbd80f977	-0.06297582
149	0x3d4e37e3	0.050346266
150	0xbcf11331	-0.029428096
151	0xbd87d2b9	-0.06631989
152	0x3cac3542	0.021021489
153	0x3c6ebb98	0.014571093
154	0xbd627db2	-0.055295654
155	0xbc6fe76d	-0.014642579
156	0xbd5cd757	-0.0539163
157	0x3d4aac5c	0.04948078
158	0x3d834bfa	0.06410976
159	0x3d00b546	0.031422876
160	0xbc28f7e6	-0.01031301
161	0xbd44a3b6	-0.04800769
162	0xbd929a97	-0.07158392
163	0xbd705309	-0.05867294
164	0x3cb4fe6e	0.022093978
165	0x3d80fff5	0.0629882
166	0xbccff31b	-0.025384476
167	0xbd7b0f46	-0.061293863
168	0xbd2f129e	-0.042742364
169	0xbd07f48b	-0.0331922
170	0xbc888a23	-0.016667431
171	0x3d6445e5	0.05573072
172	0xbd16aec9	-0.036787782
173	0xbd6faa57	-0.058512058
174	0xbb86d110	-0.0041142777
175	0xbd416960	-0.047219634
176	0x3b4252ad	0.002965133
177	0x3a426247	0.0007415157
178	0xbcf8122b	-0.0302821
179	0x3c531ad7	0.012884817
180	0x3d25e81e	0.040504567
181	0x3d984e06	0.07436757
182	0xbd445d38	-0.047940463
183	0xbc85ecf4	-0.01634834
184	0x39e3c562	0.00043443876
185	0x3cb3ac3a	0.02193271
186	0x3c8bd331	0.017068477
187	0xbd1dd459	-0.03853259
188	0x3d6d8b96	0.057994448
189	0x3c5f91c4	0.013645593
190	0xbd973f0c	-0.07385072
191	0xbd96cae4	-0.07362917
192	0xbd4a66f5	-0.049414594
193	0xbb17ce2c	-0.002316366
194	0xbd4da296	-0.050203882
195	0x3d493db5	0.049131114
196	0xbd1f82fd	-0.03894328
197	0x3bb891bd	0.0056326077
198	0x3da535a0	0.08066869
199	0x3d8b5850	0.06803954
200	0xbbf72ef1	-0.0075434376
201	0xbd5121c2	-0.051057585
202	0xbd316723	-0.04331125
203	0x3c8975b7	0.016779764
204	0xbc8b5e20	-0.017012656
205	0xbd87ae24	-0.066250116
206	0x3c8335dd	0.016016895
207	0xbd977010	-0.07394421
208	0xbd110ffa	-0.035415627
209	0x3be2172b	0.0068997345
210	0xbd3d70ea	-0.04625026
211	0xbc8dff4a	-0.017333645
212	0xbd0832a3	-0.033251416
213	0xbd14e3f8	-0.03635022
214	0xbd6be039	-0.057586882
215	0x3d95701c	0.07296774
216	0x3d8aea83	0.06783011
217	0xbc61cdda	-0.013781989
218	0x3cae3284	0.021264322
219	0x3cc24f8b	0.02371957
220	0xbc003d18	-0.007827066
221	0x3d9bf0e2	0.07614304
222	0x3d47fa51	0.048822705
223	0x3cda2478	0.026628718
224	0x3d17b1c8	0.03703478
225	0x3d9a9fbd	0.07549999
226	0x3d5cceb1	0.053908054
227	0xbb931424	-0.004488485
228	0x3d9cf133	0.076631926
229	0x3d9822b9	0.07428498
230	0xbd4ec9bc	-0.050485358
231	0xbd151fa7	-0.03640714
232	0x3a6370cd	0.00086761714
233	0xbda035c0	-0.07822752
234	0xbd4259c2	-0.04744888
235	0xbc0365e0	-0.008019894
236	0xbd685e7b	-0.05673073
237	0xbca2471a	-0.019809294
238	0x3d73b23b	0.059496146
239	0xbd2ac381	-0.041690353
240	0x3cfdf4f1	0.031000586
241	0xbc54aab9	-0.012980157
242	0xbd21550b	-0.039387744
243	0x3d50a6a1	0.05094016
244	0x3c986ac2	0.018605594
245	0xbd46d5b7	-0.048543658
246	0x3d37aede	0.0448445
247	0x3d91ec2a	0.07125123
248	0xbc8821ce	-0.016617682
249	0xbd5f861a	-0.05457125
250	0x3bf196ec	0.0073727276
251	0x3ad3cce9	0.001615909
252	0x3d83d429	0.06436951
253	0xbd3b3d06	-0.045712493
254	0x3c926cc6	0.017874133
255	0x3c9c0dc7	0.019049538

conv_time_spat.conv_time.bias f4 [40]
0	0xbb515acf	-0.0031944995
1	0x3b0461fc	0.0020200005
2	0xba0d9277	-0.0005400548
3	0x3b2837bc	0.0025667986
4	0x3a790770	0.00094997045
5	0xba36d48b	-0.00069744204
6	0xbba86d06	-0.0051399497
7	0x3a9deadd	0.0012048144
8	0xb8ac12f6	-8.205131e-05
9	0xbb955762	-0.004557536
10	0x3baa7851	0.005202331
11	0x3b2e9f0b	0.002664509
12	0x3b34a6ec	0.0027565314
13	0xbb74faf6	-0.003738103
14	0x399f5304	0.00030388695
15	0xba7101fc	-0.0009193716
16	0x3b2cb925	0.0026355472
17	0x3be731dd	0.0070555047
18	0xba0e62eb	-0.000543161
19	0x3b25dac5	0.0025307399
20	0x3be13e66	0.0068738936
21	0x3bf5ab45	0.0074972236
22	0xba284007	-0.0006418232
23	0x382e8206	4.1605927e-05
24	0x3b1955d0	0.0023397096
25	0x3a630e6c	0.0008661512
26	0x3b436497	0.0029814595
27	0xba9ef691	-0.0012127926
28	0xbb1f6f27	-0.0024327727
29	0xbb183825	-0.0023226824
30	0xbbdf7ee7	-0.006820548
31	0x3a19c64e	0.00058660365
32	0xbb8c3381	-0.0042786007
33	0xba24eabe	-0.0006291083
34	0x38d1e91b	0.00010009316
35	0x3a3a8046	0.0007114451
36	0xbac11f41	-0.0014734046
37	0xbb573212	-0.003283624
38	0x3a358ab0	0.0006925268
39	0x3988f54d	0.00026122705

conv_time_spat.conv_spat.weight f4 [40, 40, 1, 44]
0	0xbc3e35be	-0.011609493
1	0x3cc1007c	0.023559801
2	0xbcf704be	-0.030153628
3	0xbd30fd72	-0.043210454
4	0xbb119d87	-0.0022219138
5	0xbc817bd8	-0.015806124
6	0x3d06ace0	0.03287971
7	0xbc8e0b41	-0.01733935
8	0xbc679ff9	-0.014137262
9	0xbd2b0364	-0.04175128
10	0xbbc86f40	-0.0061167777
11	0x3cbdae0a	0.023154277
12	0x3cd87ca1	0.026426615
13	0x3bb71f7a	0.005588469
14	0x3c7448dd	0.01490995
15	0xbd20b90d	-0.03923898
16	0x3c446a05	0.011988168
17	0xbd14c591	-0.036321227
18	0x3bf32559	0.0074202237
19	0x3d1183cb	0.03552608
20	0x3c9fa8ad	0.01948961
21	0x3d3c704a	0.046005525
22	0xbd0cbda5	-0.034360547
23	0x3cf4b955	0.02987353
24	0xbc5b22c5	-0.013374989
25	0x3c801a97	0.015637679
26	0x3ca3e7de	0.020008024
27	0xbd030a9a	-0.031992532
28	0x3cf06f28	0.029349878
29	0x3c37d98a	0.011221299
30	0xbb40257d	-0.002931922
31	0x3c7ae426	0.015313184
32	0xbc9a5ce6	-0.018843126
33	0xbcd7f02b	-0.026359638
34	0xbc66e206	-0.014091974
35	0x3c7688cb	0.015047262
36	0x3cd9f77b	0.026607266
37	0xbc2eec57	-0.010676465
38	0xbc39458e	-0.011308087
39	0x3bb994a8	0.005663473
40	0x3d241142	0.04005552
41	0xbcb6736f	-0.02227184
42	0x3c6f9a28	0.014624156
43	0x3d18b6db	0.03728376
44	0xbcbc7af8	-0.023007855
45	0x3cb82ef0	0.022483319
46	0x3d1fc324	0.03900446
47	0x3c9c6ea4	0.019095726
48	0x3c608c0c	0.013705265
49	0x3bf1e2bc	0.007381765
50	0xbd29be9f	-0.041441556
51	0x3d1c5af5	0.03817268
52	0x3d0aadfd	0.033857334
53	0xbd122d8e	-0.035687976
54	0xbcca2f2a	-0.024680693
55	0xbcd89301	-0.026437284
56	0x3d12bc95	0.035824377
57	0x3ca008a2	0.019535366
58	0xbcbe91d7	-0.023262901
59	0xbb9594ce	-0.004564858
60	0x3c0364c6	0.008019632
61	0xbae52d4a	-0.0017484811
62	0x3c55855e	0.0130322855
63	0xbd007a53	-0.031366657
64	0xbcecfa05	-0.028927812
65	0xbc968888	-0.01837565
66	0x3cf7a684	0.030230768
67	0xbcce88d2	-0.025211725
68	0x3ca01e09	0.019545572
69	0xbc37c486	-0.011216288
70	0x3cfeba3f	0.031094668
71	0x3c54074d	0.012941194
72	0x3caa08cd	0.02075615
73	0x3c69b504	0.014264349
74	0x3ca1e383	0.019761806
75	0x3c21faca	0.009886453
76	0x3cf7997a	0.03022455
77	0xbc31d74b	-0.0108545525
78	0x3ce12e25	0.027487824
79	0xbc97262c	-0.018450819
80	0xbd1bc026	-0.038025044
81	0xbc85374a	-0.016261715
82	0xbd0b7feb	-0.03405754
83	0xbd0b07c4	-0.033942953
84	0xbc2aaa70	-0.010416612
85	0x3d451585	0.048116226
86	0x3cad956f	0.02118942
87	0xbc8c8302	-0.017152313
88	0x3d359615	0.044332583
89	0xbbfe8b8f	-0.0077681015
90	0xbc493f3b	-0.012283142
91	0xbd31d092	-0.0434118
92	0xbc85312c	-0.016258799
93	0x3c5caedb	0.013469423
94	0x3d0a5e4b	0.03378133
95	0xbce264c6	-0.027635943
96	0x3d16c569	0.03680936
97	0xbc680985	-0.014162426
98	0x3d0cb145	0.034348745
99	0xbba5d631	-0.005060934
100	0x3cb5bc63	0.022184556
101	0xbbe252bb	-0.006906835
102	0xbcaf2b23	-0.021382874
103	0x3d297bcd	0.04137783
104	0xb9a10f2d	-0.0003071962
105	0x3ca68016	0.020324748
106	0xbcbe5ece	-0.023238566
107	0x3bbf6274	0.005840594
108	0x3d01a50f	0.031651553
109	0x3c35d6aa	0.011098543
110	0x3c1d0693	0.009584087
111	0x3d153c7f	0.036434647
112	0xbd1bf11f	-0.038071748
113	0x3c5bcd3a	0.013415629
114	0xbccb17a9	-0.024791555
115	0xbcb17c6f	-0.02166578
116	0x3d1aadfd	0.037763584
117	0xbd2c4a57	-0.042063083
118	0x3d33806a	0.043823637
119	0xbc887af8	-0.016660199
120	0xbd20f4a3	-0.039295804
121	0x3d0f06a3	0.03491844
122	0xbbe0abf8	-0.006856438
123	0x3c87adc7	0.016562356
124	0x3b3211c5	0.0027171236
125	0xbca0dc75	-0.019636372
126	0x3cf4acbc	0.029867522
127	0x3bc0e2e9	0.005886425
128	0xbcdbf023	-0.026847905
129	0x3c716cec	0.014735442
130	0xbc3fdedb	-0.011710848
131	0xbcd4ce6b	-0.025977334
132	0x3d0c319c	0.034227
133	0xbb80d566	-0.003931689
134	0x3cdbbe60	0.026824176
135	0xbca300ba	-0.019897807
136	0x3c349303	0.011021378
137	0x3b2be434	0.002622855
138	0xbc81f3c0	-0.0158633
139	0xbc2958ea	-0.01033614
140	0xbc33b0a0	-0.010967404
141	0xbcc51d6f	-0.024061887
142	0xbd0312f2	-0.03200049
143	0x3c9d8a73	0.019231057
144	0x3cc48f86	0.023994219
145	0xbd158a63	-0.03650893
146	0x3c99c2e7	0.018769694
147	0xbc404beb	-0.01173685
148	0xbcf52d34	-0.029928781
149	0xbca69513	-0.020334756
150	0xbce74dbc	-0.028235309
151	0xbc56fd04	-0.013121847
152	0x3c22d20a	0.0099377725
153	0xbcbcb8bf	-0.023037313
154	0xbd1bd645	-0.03804614
155	0x3d226920	0.039651036
156	0x3ca556c9	0.020182984
157	0xbc51f684	-0.012815122
158	0x3d00c440	0.03143716
159	0xbc9817d0	-0.018566042
160	0xbb8956b2	-0.004191243
161	0xbd2fc260	-0.04290998
162	0x3d30efd6	0.043197475
163	0x3d03f422	0.032215245
164	0x3d06737f	0.03282499
165	0xbc072cfc	-0.008250471
166	0x3cdc82a2	0.02691776
167	0xbcb1074b	-0.021609923
168	0xbc5b4a5d	-0.013384429
169	0xbc1b1d54	-0.009467442
170	0x39070d1f	0.00012879491
171	0x3c0d70fb	0.008632894
172	0xbbe46dd1	-0.006971099
173	0x3a3a9ea5	0.0007118977
174	0x3d24d5cb	0.04024295
175	0xbcf12a6f	-0.02943918
176	0x3ca02545	0.019549021
177	0x3c8e7dfc	0.017394058
178	0x3bde31a7	0.0067808214
179	0xbb8a544d	-0.004221475
180	0x3a9f3568	0.0012146654
181	0xbce9955f	-0.028513609
182	0xbce3b3cb	-0.027795693
183	0x3c972c97	0.01845388
184	0x3c977866	0.018490028
185	0xbb9fbac2	-0.004874558
186	0x3c6de45d	0.014519778
187	0x3b0a577c	0.0021109274
188	0xb9d6c60d	-0.0004096482
189	0xbd0ea153	-0.03482182
190	0xbc81e52f	-0.015856354
191	0x3d18f8b5	0.03734656
192	0x3b16c843	0.002300755
193	0xbb86545d	-0.0040994124
194	0x3cc34869	0.023838239
195	0xbd2e954e	-0.042622857
196	0x3b88f341	0.0041793888
197	0x3c596d38	0.013270669
198	0x3cb30610	0.021853477
199	0xbc5ae93f	-0.013361274
200	0x3c73537f	0.01485145
201	0xbc7357f6	-0.0148525145
202	0x3c4ea4ae	0.012612505
203	0x3cec4fb8	0.028846607
204	0xbd265751	-0.040610615
205	0xbc7a5d2c	-0.015281003
206	0x3cc18721	0.023624005
207	0x3d144c13	0.036205363
208	0x3c56073d	0.013063249
209	0x3c9d667e	0.019213911
210	0xbc36619a	-0.011131668
211	0x3c9af7f3	0.01891706
212	0xbd106841	-0.035255674
213	0x3d47a0e5	0.048737425
214	0x3cd63728	0.026149347
215	0x3d52138a	0.051288165
216	0xbcc03a2d	-0.02346524
217	0x3d55a5b3	0.052159976
218	0xbbac5a35	-0.005259777
219	0x3d3457ef	0.044029173
220	0xbc248e8f	-0.010043754
221	0x3beeff48	0.0072936155
222	0x3cece2f4	0.028916813
223	0x3ccbd9c8	0.02488412
224	0x3ccbd6b3	0.02488265
225	0xbd161b30	-0.03664702
226	0x3bf9d87f	0.0076246853
227	0xbb370f35	-0.0027932648
228	0x3c8d9526	0.017283034
229	0xbcb070e6	-0.02153821
230	0x3d102156	0.03518804
231	0xbc88c62e	-0.016696062
232	0x3cc02461	0.023454847
233	0xbc495fd3	-0.012290913
234	0xbc70b1ec	-0.014690857
235	0x3cdc142a	0.026865084
236	0x3ca20337	0.019776924
237	0xbcb0719d	-0.02153855
238	0xbb157817	-0.0022807175
239	0x3cc3a92a	0.023884375
240	0x3b0d2326	0.0021535843
241	0xbc652547	-0.013985938
242	0xbbae1025	-0.005311983
243	0xbc9a4314	-0.018830813
244	0xbc563cc2	-0.013076009
245	0x3c7707de	0.015077559
246	0xba287fd0	-0.0006427737
247	0x39a9f557	0.00032416984
248	0xbcf2ba96	-0.029629987
249	0x3cb19c44	0.021680959
250	0xbb9872e1	-0.0046523665
251	0xbc6f21ad	-0.014595431
252	0xbd0fad71	-0.035077516
253	0xbd14617f	-0.036225792
254	0x3c1a8ec6	0.009433454
255	0xbced12e9	-0.028939681

bnorm.weight f4 [40]
0	0x3f808dae	1.0043237
1	0x3f835ca9	1.0262653
2	0x3f842fb1	1.0327054
3	0x3f8430db	1.032741
4	0x3f813c02	1.0096438
5	0x3f84e0be	1.0381086
6	0x3f83d71f	1.0300025
7	0x3f82c1d7	1.0215405
8	0x3f7ea3b3	0.99468535
9	0x3f7e4efb	0.99339265
10	0x3f7f5034	0.99731755
11	0x3f845fdd	1.0341755
12	0x3f839e20	1.0282631
13	0x3f81c394	1.0137811
14	0x3f84cb7d	1.03746
15	0x3f80d41a	1.0064728
16	0x3f81868d	1.0119187
17	0x3f840e56	1.0316875
18	0x3f854d62	1.041424
19	0x3f81091d	1.0080906
20	0x3f837cfb	1.0272516
21	0x3f7a311c	0.97731185
22	0x3f839a30	1.0281429
23	0x3f7b190b	0.9808509
24	0x3f851f96	1.0400264
25	0x3f81060d	1.0079972
26	0x3f7c4767	0.9854645
27	0x3f8256dd	1.0182759
28	0x3f84e874	1.0383439
29	0x3f812f38	1.0092535
30	0x3f846d76	1.0345905
31	0x3f80cd54	1.0062661
32	0x3f81d35b	1.0142626
33	0x3f81e161	1.0146905
34	0x3f80c07a	1.0058739
35	0x3f82c6e5	1.0216948
36	0x3f8017c5	1.0007254
37	0x3f822a2e	1.0169122
38	0x3f82f07d	1.0229641
39	0x3f7988d9	0.9747444

bnorm.bias f4 [40]
0	0x3aae2289	0.0013285439
1	0x3c472134	0.012153912
2	0x3ca1fc9a	0.01977377
3	0x3a5b8a7f	0.00083748245
4	0x3c19670e	0.009362949
5	0x3c4c4e55	0.012469848
6	0xbb757cf3	-0.0037458509
7	0x3932e27b	0.00017059773
8	0x3b0e21fd	0.002168774
9	0xbbf18c4d	-0.0073714615
10	0x3c2be3b4	0.0104913
11	0x3c164f5e	0.009174196
12	0xbb169f0d	-0.0022982985
13	0x3c8095f8	0.01569651
14	0x3bc1af4a	0.0059107887
15	0xbb19f747	-0.0023493336
16	0xbc169cf5	-0.009192695
17	0xbc93c9d4	-0.018040575
18	0xbb8deb8d	-0.0043310584
19	0xbc6ca416	-0.014443418
20	0xbc67f319	-0.01415708
21	0xbb50afe5	-0.0031843123
22	0x3afb2d01	0.0019163192
23	0x3bd579f6	0.006514783
24	0x3c00717c	0.007839557
25	0x3befdd2a	0.007320066
26	0xbafa9df2	-0.0019120558
27	0x3c6150aa	0.013752142
28	0x3b9362a9	0.004497845
29	0xba748d98	-0.00093289604
30	0x3c5717ac	0.013128202
31	0xbb74e041	-0.003736511
32	0xba5bbb2d	-0.00083820784
33	0xbc29ce43	-0.010364118
34	0xbc07d150	-0.00828965
35	0x39e2db4c	0.00043269468
36	0xbb27af59	-0.0025586693
37	0xbc148cc4	-0.009066764
38	0xbc77e885	-0.015131121
39	0xbc9f91c7	-0.019478692

bnorm.running_mean f4 [40]
0	0x3b7eff29	0.0038909412
1	0xba400262	-0.0007324574
2	0x3a974113	0.0011539779
3	0xbb0a8050	-0.002113361
4	0x3a8d81ad	0.0010796093
5	0x3b846df5	0.004041428
6	0xb90e473e	-0.00013568715
7	0xbb52b029	-0.0032148457
8	0xbb59f2fd	-0.0033256405
9	0xbb9950ef	-0.0046788375
10	0xba9a0cab	-0.0011753043
11	0xb8253c6a	-3.939533e-05
12	0xbc087d9d	-0.00833073
13	0xbbc177e8	-0.0059041865
14	0x3a8c67f1	0.0010712129
15	0x3b89b8c4	0.004202934
16	0x3a3cffd8	0.00072097545
17	0x3aa9f403	0.0012966398
18	0x3b77f757	0.0037836635
19	0x3b500d9c	0.0031746393
20	0xbba96816	-0.0051698787
21	0xbb8052c6	-0.0039161174
22	0xba2c2ea9	-0.0006568232
23	0x3b350523	0.002762147
24	0xbb7f6f4f	-0.0038976257
25	0xbb8e6451	-0.0043454547
26	0xba26e071	-0.0006365842
27	0x3996529a	0.00028671772
28	0x3c40c91a	0.011766696
29	0x3aac0ec2	0.0013126957
30	0xbb711ebc	-0.0036792
31	0x3aa1ae73	0.0012335315
32	0xbb431d2f	-0.0029772033
33	0x3b9f8579	0.004868206
34	0xbb0fc4ad	-0.0021937296
35	0x3aff4adc	0.0019477266
36	0x3bfd2d4d	0.0077263475
37	0xbb11318a	-0.0022154772
38	0x3be91c31	0.0071139564
39	0xb98b92f5	-0.00026621638

bnorm.running_var f4 [40]
0	0x38f1a39e	0.000115222516
1	0x3914828f	0.00014163017
2	0x398e38f5	0.00027126787
3	0x39a00fa5	0.00030529234
4	0x392db183	0.00016564694
5	0x3957229c	0.00020516891
6	0x394c1e64	0.00019466277
7	0x390b291d	0.00013271389
8	0x390ca220	0.00013411837
9	0x388a4396	6.592942e-05
10	0x3894d52e	7.096898e-05
11	0x39948fac	0.00028335804
12	0x3990593a	0.000275323
13	0x395a52b7	0.00020820914
14	0x3951250e	0.00019945597
15	0x390d66b7	0.00013485072
16	0x3952d5f8	0.0002010687
17	0x396c5a1a	0.0002254028
18	0x39645539	0.00021775522
19	0x391e667a	0.0001510623
20	0x39802a27	0.00024445468
21	0x390fe14d	0.00013721474
22	0x3978aac2	0.00023714735
23	0x38354b8e	4.322413e-05
24	0x39080946	0.00012973425
25	0x3958fdd9	0.00020693931
26	0x38ff9518	0.000121871184
27	0x3919a935	0.00014654252
28	0x38f47f59	0.00011658547
29	0x38b38a0e	8.5611e-05
30	0x392e622d	0.00016630506
31	0x391ccabd	0.00014952845
32	0x390521a0	0.00012696395
33	0x398c641a	0.00026777462
34	0x397c4969	0.0002405994
35	0x39b2d531	0.00034109646
36	0x38a6ce8b	7.9539685e-05
37	0x38b9fa4c	8.868109e-05
38	0x39828f38	0.00024902239
39	0x384c7334	4.874468e-05

final_layer.conv_classifier.weight f4 [4, 40, 144, 1]
0	0x3c7cf0ce	0.015438272
1	0xbcdef61d	-0.027216965
2	0xba989d25	-0.0011643512
3	0x3c316d65	0.010829304
4	0x3cf72473	0.030168748
5	0xbcc3f9ae	-0.023922767
6	0xbcf18f51	-0.029487284
7	0x3c93a8cf	0.01802483
8	0x3c5c1539	0.013432794
9	0xbc8906e6	-0.016726922
10	0xbc9d2041	-0.019180419
11	0x3b6049d0	0.0034223683
12	0x3bf81079	0.007570323
13	0xbc8838b7	-0.016628606
14	0xbbd6f815	-0.0065603354
15	0x3b9d9821	0.004809395
16	0x3bd04964	0.006356405
17	0xbc3a4d93	-0.011371034
18	0x3c8342cf	0.016023068
19	0x3c7656c1	0.015035332
20	0xbcf98982	-0.030461077
21	0x3c6801c0	0.0141605735
22	0x3cbe2823	0.023212498
23	0xbcbe39c7	-0.02322091
24	0x3b86a6d6	0.004109244
25	0xbc55f683	-0.013059261
26	0xbc88ce8c	-0.016700052
27	0x3bfcbb70	0.007712774
28	0x3b7e73c5	0.0038826328
29	0xbc84a149	-0.016190188
30	0x3c60bb22	0.013716491
31	0xbb847b24	-0.004043
32	0xbca2f8ab	-0.019893965
33	0x3cf54f19	0.029944943
34	0x3cf17acd	0.029477501
35	0x3c866d8b	0.016409656
36	0x3cb2b679	0.021815525
37	0x3d1a17d7	0.03762039
38	0x3bed1930	0.0072356686
39	0xbc54845e	-0.012971012
40	0x3c51ad5b	0.012797679
41	0x3c4eda7e	0.012625335
42	0x3d290114	0.041260794
43	0x3c9dd92d	0.019268597
44	0x3c5675ba	0.013089592
45	0xbbc82693	-0.006108114
46	0x3bb7618d	0.0055963458
47	0x3a92383b	0.0011155674
48	0x3caee1e4	0.021347947
49	0xbc8cf16b	-0.01720496
50	0xbc209e22	-0.009803327
51	0x3ca3c426	0.019990992
52	0xbc8495f7	-0.01618479
53	0x3d1b707d	0.037949074
54	0xbc379442	-0.011204781
55	0x3cbd49b2	0.02310643
56	0xbcb4fce4	-0.022093244
57	0x3c22a69a	0.009927416
58	0xbc77a63a	-0.015115315
59	0xbbd02caf	-0.006352983
60	0x3cc8145b	0.024423769
61	0xba81b735	-0.0009896519
62	0x3c234249	0.009964534
63	0xbb3337f7	-0.002734659
64	0xbce9fc31	-0.028562637
65	0xbb416be6	-0.0029513775
66	0xbca81717	-0.020518823
67	0x3a8cab92	0.0010732284
68	0xbbb6dba6	-0.0055803834
69	0xbb86fde7	-0.004119623
70	0xbbcf81e9	-0.006332625
71	0xbcc0257d	-0.023455376
72	0xbb9c998d	-0.004779047
73	0x3c32e5cc	0.010919046
74	0x3cb9d994	0.022686757
75	0x3c950487	0.018190635
76	0xbcc01fbb	-0.02345263
77	0x3cb24c00	0.021764755
78	0x3d178aaf	0.036997493
79	0xbcc991c5	-0.024605641
80	0x3c9347d5	0.017978588
81	0xbc8b7626	-0.017024111
82	0x3c00be91	0.007857935
83	0x3cc68bbe	0.024236556
84	0x3c04abe4	0.008097623
85	0x3bf1ec17	0.0073828804
86	0x3c9d27d0	0.019184023
87	0x3cbf9c30	0.023389906
88	0xbce2b738	-0.027675256
89	0xbc3314fe	-0.010930298
90	0x3ca949cc	0.020665072
91	0xbd07e6da	-0.03317914
92	0x3c6a8b84	0.01431549
93	0xbc3c44a4	-0.011490975
94	0x3c1df108	0.009639986
95	0xbcacb394	-0.021081723
96	0x3cc41650	0.02393642
97	0x3c024141	0.007950128
98	0x3cdb4037	0.026764018
99	0xbb898644	-0.004196914
100	0xbc13d93b	-0.00902396
101	0x3c0e7e6d	0.008697134
102	0xbbabf226	-0.005247372
103	0xbcc0d474	-0.023538806
104	0xbbed544d	-0.0072427155
105	0x3c69c009	0.014266976
106	0x3ce8c99d	0.02841645
107	0x3cf1bb34	0.02950821
108	0x3c189e7b	0.009315128
109	0x3b907fb6	0.0044097556
110	0xbba626ee	-0.0050705587
111	0xbcd0595c	-0.025433235
112	0x3ccf14ec	0.025278531
113	0x3a754c64	0.00093573914
114	0x3bad286e	0.0052843606
115	0x3affc488	0.0019513527
116	0xbc90be9a	-0.01766901
117	0xbad815c6	-0.0016485981
118	0x3be53b7f	0.006995618
119	0xbcaa5616	-0.020793002
120	0x3ca116c6	0.01966418
121	0xbb5c21ce	-0.0033589485
122	0xbca0a978	-0.019612059
123	0xbce70ed4	-0.028205313
124	0xbcd5ecb8	-0.026113853
125	0x3b41e3fe	0.0029585357
126	0xbae9dc06	-0.0017842061
127	0xbc1970e3	-0.009365293
128	0xbc3641c1	-0.011124075
129	0x3cf205b8	0.029543743
130	0x3c6be542	0.014397921
131	0xbc31d1a6	-0.010853207
132	0xbcb3fd19	-0.021971272
133	0x3a81f267	0.000991416
134	0x3bfe0fa8	0.007753331
135	0x3cb4b5f2	0.022059415
136	0x3bbfc903	0.00585282
137	0xbcafd521	-0.021463932
138	0x3cc8325d	0.024438078
139	0x3cf176cb	0.02947559
140	0xbcb701a1	-0.022339644
141	0x3c19554c	0.009358715
142	0x3cbba027	0.022903515
143	0xba90b4b4	-0.0011040182
144	0x3ca1b6e0	0.019740522
145	0xbb737ef6	-0.0037154532
146	0x3be93d68	0.007117916
147	0x3a2b94d9	0.00065453124
148	0xbc611917	-0.013738892
149	0x3b2cd056	0.0026369295
150	0xbcb671ec	-0.022271119
151	0x3c978cf0	0.018499821
152	0xbcd26596	-0.025683206
153	0xbc956988	-0.018238798
154	0x3c48cdee	0.012256129
155	0x3c4fa3df	0.012673347
156	0xbcb099f4	-0.021557786
157	0x3bd1c70f	0.0064019035
158	0xbbfebb03	-0.0077737584
159	0xbc41015a	-0.011780107
160	0x3cd962bf	0.026536344
161	0x3c818f79	0.015815483
162	0x3c92181e	0.017833766
163	0x3ca35db5	0.019942144
164	0xbbf65e2e	-0.0075185513
165	0x3cb98672	0.022647116
166	0x3c03f025	0.00805286
167	0xbc2b2716	-0.0104463305
168	0xbcb70913	-0.022343194
169	0xb99901f4	-0.0002918389
170	0xbc818297	-0.01580934
171	0xbd1e03fa	-0.03857801
172	0x3b52e9fa	0.0032182918
173	0x3ac74309	0.0015202473
174	0xbcc0d724	-0.023540087
175	0xbcd084b4	-0.025453903
176	0x3cd96cc2	0.026541118
177	0xbc0bc3ad	-0.008530539
178	0x3bede4b7	0.007259931
179	0x3c675ddf	0.014121502
180	0xbc8348a0	-0.016025841
181	0x3c782a83	0.015146854
182	0xbc3fc3d4	-0.011704404
183	0xbca43655	-0.020045439
184	0xbcf85a09	-0.03031637
185	0x3c3f910e	0.011692299
186	0xbce167e7	-0.027515365
187	0x3ba1d936	0.0049392236
188	0xbc98d751	-0.018657358
189	0x3ccd1f1a	0.025039244
190	0xbcf80ddf	-0.030280052
191	0xbc832fab	-0.01601394
192	0xbc14a30a	-0.009072075
193	0x3c89613a	0.016769994
194	0x3bdf7670	0.006819539
195	0xbcd2576e	-0.025676455
196	0x3c666826	0.014062917
197	0xbcc67a46	-0.024228226
198	0x3ca51324	0.020150729
199	0xbc540874	-0.0129414685
200	0xbc9ee09d	-0.019394213
201	0x3cd505c0	0.026003718
202	0x3b2b7122	0.0026159962
203	0x3baa3726	0.0051945625
204	0x3c4c1df0	0.0124583095
205	0xbcd90832	-0.026493166
206	0xbc7b15e6	-0.015325045
207	0x3c9be265	0.019028852
208	0x3cd923fb	0.026506415
209	0xbca9db90	-0.020734578
210	0x3d0e66b6	0.03476592
211	0x3cd4455d	0.025911981
212	0x3c8dc1e2	0.017304365
213	0xbc5ffd43	-0.013671222
214	0x3caa7aea	0.020810563
215	0xbc962757	-0.018329306
216	0x3b6409ec	0.0034795953
217	0xbc17844c	-0.009247851
218	0xbc3216fc	-0.010869738
219	0xbbc08446	-0.005875143
220	0xbcda3a91	-0.026639255
221	0x3c917e95	0.017760554
222	0x3d0b333c	0.033984408
223	0x3d0536a8	0.032522827
224	0x3c7b5945	0.015341108
225	0x3d012179	0.031526063
226	0xbc8ce678	-0.01719974
227	0xbc8588e2	-0.016300622
228	0x3ae30c0c	0.0017322316
229	0x3c9e6e42	0.019339684
230	0xbca4a6e6	-0.020099115
231	0xbcb8083a	-0.02246486
232	0x3c57b91a	0.01316669
233	0x3c954ef8	0.018226132
234	0xbce49507	-0.027903093
235	0xba5c428f	-0.0008402252
236	0x3b97771b	0.004622353
237	0xbc03d64d	-0.008046699
238	0x3b893d9d	0.004188253
239	0x3c88411b	0.016632607
240	0xbc778e61	-0.015109629
241	0x3bf67678	0.007521447
242	0x3cba6edd	0.022757942
243	0xbc21ac2d	-0.00986771
244	0xbc283b9d	-0.010268119
245	0x3d094638	0.03351423
246	0x3d01f280	0.031725407
247	0x3c964ed6	0.018348139
248	0x3bea5304	0.0071510095
249	0x3b8cfc57	0.004302542
250	0x3c96c131	0.018402668
251	0xbc1b2247	-0.009468622
252	0xbca8ca6f	-0.02060434
253	0xbc5ddb44	-0.0135410465
254	0x3cb7c9d2	0.022435103
255	0x3ccae307	0.024766458

final_layer.conv_classifier.bias f4 [4]
0	0x3c370da2	0.011172684
1	0xbc8e460b	-0.017367383
2	0x3ca94c45	0.020666251
3	0xbc73f9c7	-0.0148910945
