models/ShallowFBCSPNet_persons1_lr0.001_wd0.01_bs16_acc0.5750.pth (torch, 383684 bytes, 9 tensors)

conv_time_spat.conv_time.weight f4 [40, 1, 25, 1]
0	0x3d144bdc	0.036205158
1	0x3d556949	0.05210236
2	0xbd755928	-0.05989948
3	0x3aeab025	0.0017905278
4	0xbcc36778	-0.023853049
5	0x3d846237	0.064640455
6	0x3d772ee8	0.060347468
7	0xbd8816d9	-0.06644983
8	0xbd2807e9	-0.04102317
9	0xbd6e4263	-0.05816878
10	0xbd7753e2	-0.06038273
11	0x3d07c982	0.033151157
12	0xbd843aa8	-0.064565
13	0x3d92257d	0.071360566
14	0x3d69c9c1	0.057077173
15	0xbd3677b2	-0.044547744
16	0xbc1320f7	-0.008980027
17	0xbccd3fc0	-0.025054812
18	0x3cf1a155	0.029495874
19	0xbd985801	-0.074386604
20	0xbd7b2fda	-0.06132493
21	0xbc1299dc	-0.008947816
22	0xbc2e6a3b	-0.0106454445
23	0xbd39284b	-0.045204442
24	0xbc73323e	-0.014843522
25	0xbca3b624	-0.019984312
26	0x3d2773fb	0.040882092
27	0xbcd0e44a	-0.025499482
28	0xbcd5226e	-0.026017394
29	0xbd1d94ef	-0.038472112
30	0xbd944363	-0.072394155
31	0x3d5a7c55	0.05334123
32	0x3c89a742	0.016803388
33	0x3b8f5b86	0.004374924
34	0x3cfc88d6	0.030826967
35	0x3c3a470e	0.01136948
36	0xbd12bbdd	-0.03582369
37	0x3c14ff37	0.009094051
38	0xbd795e08	-0.06088069
39	0x3c2ed053	0.010669786
40	0x3d6c8212	0.057741232
41	0xbc0f7241	-0.008755268
42	0xbd0c9fb2	-0.034331985
43	0xbd872457	-0.06598728
44	0xbaa918db	-0.0012901084
45	0x3d28271b	0.04105292
46	0xbd254c6f	-0.040356096
47	0xbb18f36b	-0.0023338448
48	0x3c79f358	0.015255772
49	0xbcdee98a	-0.02721097
50	0x3d784265	0.060610194
51	0x3d690f4e	0.05689936
52	0xbc884f4c	-0.016639374
53	0xbd7aecdc	-0.061261043
54	0x3c410a19	0.011782193
55	0x3b979d82	0.0046269307
56	0x3d2af83f	0.041740652
57	0x3d830146	0.06396727
58	0x3d9c9c68	0.076470196
59	0x3d934f34	0.07192841
60	0xb9f122d7	-0.0004599306
61	0xbcac11e7	-0.02100463
62	0x3d689577	0.056783166
63	0xbcedee77	-0.029044373
64	0x3c893fd0	0.016754061
65	0xbd31273a	-0.0432503
66	0xbd532a78	-0.051554173
67	0xbce43f35	-0.02786217
68	0x3d830dcf	0.06399118
69	0x3d16674c	0.036719605
70	0x3d20a9d4	0.03922446
71	0xbd7d091e	-0.061776273
72	0x3d3e2392	0.04642064
73	0x3d1ad038	0.03779623
74	0xbd826ada	-0.063680366
75	0x3ca4d47f	0.020120857
76	0x3d363ab3	0.044489574
77	0xbcacd7b1	-0.021098943
78	0xbd95b4eb	-0.07309898
79	0xbd6d6123	-0.057953965
80	0x3c2c0034	0.010498095
81	0x3d755972	0.059899755
82	0xbcedf96c	-0.029049598
83	0xbcbdd2e0	-0.023171842
84	0x3d59a6a3	0.053137433
85	0x3ae2999a	0.0017288208
86	0x3d860afb	0.06545063
87	0xbc999617	-0.018748326
88	0xbcc44ab0	-0.023961395
89	0xbd3dc0c5	-0.046326417
90	0xbd89b011	-0.06723035
91	0x3d98d684	0.074627906
92	0xbc3a38eb	-0.011366109
93	0x3d4d3f75	0.050109345
94	0xbd52c00b	-0.051452678
95	0x3c2bf765	0.010495995
96	0xbd93644d	-0.07196865
97	0x3c08febb	0.008361514
98	0x3c2fe061	0.010734648
99	0x3bb196ef	0.005419604
100	0xbd3ea8ff	-0.046547886
101	0xbd239666	-0.039938353
102	0x3cc36510	0.023851901
103	0xbda88f59	-0.082304664
104	0x3acc5e00	0.0015591979
105	0x3d317ce1	0.043331984
106	0x3d8d5e70	0.06902778
107	0x3d93df45	0.0722032
108	0x3c549014	0.012973804
109	0xba64240b	-0.00087028806
110	0xbd3d9666	-0.04628601
111	0xbcd4d1bc	-0.025978915
112	0x3d49a391	0.049228255
113	0xbd111cf4	-0.035428002
114	0xbd2a0ae6	-0.0415143
115	0x3ccbbc52	0.024870072
116	0xbd0d2838	-0.034462184
117	0xba560fcb	-0.00081658055
118	0x3d10dfea	0.03536979
119	0x3d64b8c0	0.055840254
120	0xbc8b40b4	-0.016998626
121	0xbce08ce1	-0.027410926
122	0x3d15207f	0.036407944
123	0xbcdbfa4d	-0.026852751
124	0xbc1867bd	-0.009302077
125	0xbd96d3ce	-0.07364617
126	0xbd148d62	-0.036267646
127	0xbcdb6cca	-0.026785273
128	0x3d346679	0.044043038
129	0xbc143c7c	-0.009047624
130	0xbd00179f	-0.031272527
131	0xbc1b56a6	-0.009481108
132	0xbd9c0cc9	-0.07619626
133	0x3c4655eb	0.012105445
134	0xbd53cae7	-0.051707175
135	0xbd0747c0	-0.03302741
136	0xbd2bd525	-0.041951317
137	0xbbbe055a	-0.005798978
138	0x3ce55082	0.02799249
139	0x3cdfcccf	0.02731934
140	0xbccc06a1	-0.024905505
141	0xbd84025b	-0.06445762
142	0xbc967b25	-0.018369267
143	0x3d9281f4	0.07153693
144	0x3d40ae09	0.047040973
145	0xbbbf0798	-0.0058297627
146	0x3d80614a	0.062685564
147	0x3b5f1cc3	0.0034044243
148	0x3af77c1c	0.0018881592
149	0xbd743b03	-0.05962659
150	0x3cafc196	0.021454614
151	0xba16c768	-0.000575176
152	0xbd166d29	-0.036725197
153	0xbd5bf244	-0.05369784
154	0xbb90bf67	-0.004417348
155	0x3c023982	0.007948281
156	0x3d6f7b7b	0.05846737
157	0xbcf11ffa	-0.029434193
158	0x3d0e87b6	0.034797393
159	0xbda489a3	-0.080340646
160	0xbda23908	-0.07921034
161	0x3d205374	0.039142087
162	0x3d008e80	0.0313859
163	0xbcbb0ad1	-0.022832306
164	0x3d309f72	0.04312081
165	0x3cefc45e	0.02926844
166	0xbc2221ec	-0.009895783
167	0x3d857961	0.06517292
168	0xbd32740f	-0.043567713
169	0xbcde7cdf	-0.027159153
170	0x3d0b4756	0.034003578
171	0xbd188e5e	-0.037245147
172	0xbd2542e6	-0.040347002
173	0xbd91fd0c	-0.07128343
174	0x3ca8f8aa	0.020626385
175	0xbc8c040f	-0.017091779
176	0x3d805134	0.06265488
177	0xbc18b1a4	-0.009319697
178	0x3d9d91c5	0.07693819
179	0xbd2f4cee	-0.042797975
180	0xbbec62df	-0.007213935
181	0xbd0b59ad	-0.03402107
182	0xbd9e6341	-0.07733775
183	0xbd326c1c	-0.043560132
184	0x3d4d2257	0.050081577
185	0xbb224489	-0.0024760088
186	0x3d8a5237	0.067539625
187	0x3d88eca4	0.066857606
188	0xbd4d61f2	-0.050142236
189	0xbba21221	-0.004946009
190	0x3cad6dbd	0.021170491
191	0x3d96e57f	0.07367992
192	0xbd299441	-0.04140115
193	0xbc84923f	-0.016183017
194	0xbc3328eb	-0.010935049
195	0x3d2c9690	0.042135775
196	0x3d8634a7	0.065530114
197	0x3cacec2b	0.021108707
198	0xbcb4c6ee	-0.022067513
199	0xbc7d4129	-0.01545743
200	0x3d00c7a6	0.0314404
201	0x3d6e90cd	0.05824356
202	0xbca2d046	-0.019874703
203	0x3a84bccf	0.001012707
204	0x3d2761c6	0.04086473
205	0xbd3ec6c3	-0.046576273
206	0x3d9f23a3	0.07770469
207	0x3d1c42b1	0.03814954
208	0xbd0f86fb	-0.035040837
209	0xbd8bb434	-0.068214804
210	0xbd1b6106	-0.037934326
211	0x3d10f516	0.035389982
212	0x3d88fed1	0.06689227
213	0xbd110dcf	-0.03541356
214	0xbd93d784	-0.07218841
215	0xbd84f73c	-0.06492469
216	0xbcdb3c89	-0.026762264
217	0x3d04f2f2	0.032458253
218	0xbc259652	-0.01010664
219	0x3c7a4139	0.015274339
220	0x3c3121aa	0.010811249
221	0x3c3cd391	0.011525051
222	0x3d98e4dc	0.074655265
223	0xbb554b02	-0.003254593
224	0x3d8ecae5	0.06972293
225	0xbd7b4802	-0.06134797
226	0x3c515d4f	0.012778594
227	0xbd222ccc	-0.039593503
228	0x3d81748a	0.06321056
229	0xbd86180c	-0.06547555
230	0x3d7a54ce	0.061116032
231	0x3c8d879b	0.017276576
232	0xbc4f0eaf	-0.012637778
233	0x3c9a95b4	0.018870212
234	0xbdaced07	-0.08443647
235	0xbd47b498	-0.048756212
236	0xbd0d4b98	-0.03449592
237	0x3d12127b	0.035662156
238	0xbca07bf9	-0.019590365
239	0x3cc22a13	0.023701703
240	0x3dafbdf1	0.0858115
241	0x3d0550fd	0.03254794
242	0xbd09d8d7	-0.03365406
243	0x3d174631	0.036932174
244	0xbcee63c8	-0.029100314
245	0x3d3ecba3	0.04658092
246	0xbcf04aca	-0.029332537
247	0x3a5847d8	0.00082504516
248	0xbd1762c7	-0.036959436
249	0x3d1c8377	0.038211312
250	0x3d969d63	0.07354238
251	0x3d111f0e	0.035430007
252	0x3bdc6c82	0.0067268023
253	0x3c4816d2	0.012212472
254	0x3d3b7449	0.045765195
255	0x3c4def9b	0.012569333

conv_time_spat.conv_time.bias f4 [40]
0	0x3bd1484a	0.0063867914
1	0x3baea1a9	0.00532933
2	0x3b7173c9	0.0036842695
3	0x3ba341fd	0.0049822317
4	0xbb8fe6a3	-0.0043915077
5	0x3b638dcb	0.0034721966
6	0xbbc462bf	-0.0059932168
7	0xba631b5b	-0.0008663439
8	0x3c1bd7f2	0.009511935
9	0xbb412b5d	-0.002947531
10	0x3c05082a	0.008119622
11	0xbbfed4e6	-0.0077768443
12	0xbb4d95b7	-0.0031369755
13	0x3b8d54b4	0.004313076
14	0xbc17befd	-0.009261844
15	0xbc0d4298	-0.008621834
16	0xbbb88a46	-0.005631718
17	0xb919a5d9	-0.00014653
18	0x3b886d3a	0.0041634114
19	0x3b116bb4	0.002218944
20	0xb9935717	-0.00028102912
21	0xbb736574	-0.0037139328
22	0xbc3dea46	-0.0115915
23	0xbb9094fa	-0.0044122906
24	0x3be64ef2	0.007028454
25	0x3b09e566	0.0021041273
26	0xba60294b	-0.0008551075
27	0x3bff194b	0.0077849976
28	0xbba9cf99	-0.0051822183
29	0x3aacd504	0.0013186042
30	0x3be82f24	0.0070856977
31	0x3bf9badb	0.007621152
32	0x3aa382d8	0.0012474908
33	0x3a073b47	0.00051586743
34	0xbad6f1e1	-0.001639899
35	0x3c6e85f7	0.014558307
36	0xbc669196	-0.014072796
37	0x3bcb769f	0.006209209
38	0xbb81dfad	-0.003963432
39	0x3b74cac6	0.0037352308

conv_time_spat.conv_spat.weight f4 [40, 40, 1, 44]
0	0xbd5cf1cb	-0.05394153
1	0x3cb1113e	0.021614667
2	0xbd28ec6b	-0.04124109
3	0x3d116ccd	0.03550415
4	0x39e2a223	0.0004322688
5	0x3cce45a4	0.025179692
6	0xbd242fd3	-0.04008467
7	0x3d23e67a	0.04001472
8	0xbcae132f	-0.021249382
9	0xbcc9b171	-0.024620743
10	0xbcae06e9	-0.02124353
11	0xbc29f80d	-0.010374081
12	0xbbb7f8bd	-0.0056143687
13	0xbd14b3ea	-0.036304392
14	0x3bfea845	0.007771524
15	0xbcd35351	-0.025796564
16	0x3cc56679	0.024096714
17	0xbc80be78	-0.015715823
18	0x3d01454a	0.03156022
19	0x3d031d75	0.032010514
20	0x3c9bc0e3	0.019012874
21	0x3be4a507	0.0069776806
22	0xbba77f0b	-0.0051115802
23	0x3ccb23e8	0.024797395
24	0xbc8c9930	-0.01716289
25	0xbcbad335	-0.02280579
26	0xbd0bc084	-0.034119144
27	0x3cfe6669	0.031054692
28	0xbcdd4137	-0.027008636
29	0x3cdb8b52	0.026799832
30	0xbd179501	-0.037007336
31	0x3cf6cb36	0.030126195
32	0xbcc633f3	-0.024194693
33	0x3c3e3e65	0.011611556
34	0x3c46b22a	0.012127439
35	0x3cfe2bba	0.03102671
36	0xbcd92fe6	-0.026512098
37	0x3cae2981	0.021260025
38	0xbc5532cc	-0.013012599
39	0xbcd0fdee	-0.025511708
40	0xbc526243	-0.01284081
41	0xbc46d3bb	-0.012135441
42	0x3ce7201c	0.028213553
43	0x3c95466b	0.018222054
44	0xbca3be23	-0.019988125
45	0xbd2f30a5	-0.042771
46	0xbbcb27b8	-0.006199803
47	0xbcffff00	-0.031249523
48	0x3ce73a1f	0.028225956
49	0x3ce14ce1	0.027502479
50	0xbccc31d6	-0.024926107
51	0xbcd1d547	-0.025614394
52	0xbb31f33b	-0.0027153033
53	0xbd0b3fcb	-0.033996385
54	0x3ca1522c	0.019692503
55	0x3ce968fa	0.02849244
56	0xbd230e3b	-0.039808493
57	0xbbc57701	-0.0060261493
58	0x3bc5165e	0.0060146293
59	0x3c9cba25	0.01913173
60	0x3d0f1155	0.03492864
61	0xbd0b438e	-0.033999972
62	0xbc38f303	-0.011288407
63	0xbca4388b	-0.020046493
64	0xbd4a89c4	-0.04944779
65	0xbcb35a87	-0.021893753
66	0x3cdbfb6e	0.02685329
67	0x3a97bbe5	0.0011576383
68	0xbd2fd8a8	-0.04293123
69	0xbb60deee	-0.0034312564
70	0xbd11db63	-0.035609614
71	0xbcca647c	-0.024706118
72	0xbcb20d22	-0.021734778
73	0x3d0c889c	0.03430997
74	0xbd1aa34f	-0.0377534
75	0x3c8637fe	0.016384121
76	0x3b48eb8e	0.003065798
77	0xbccfacd0	-0.025350958
78	0x3d03f09e	0.032211892
79	0x3d3381ac	0.043824837
80	0x3cd33b92	0.025785241
81	0xbcc8a031	-0.024490448
82	0x3c90b0d8	0.01766245
83	0xbc2cbba6	-0.010542786
84	0x3a52f204	0.00080469274
85	0xbcba7aff	-0.022763727
86	0x3c8c9ddb	0.017165115
87	0x3d21433c	0.03937076
88	0x3cbef576	0.023310404
89	0x3c7e5fd8	0.015525781
90	0xbd0d85fd	-0.03455161
91	0xbba610cd	-0.005067921
92	0x3c6792f9	0.014134162
93	0xbd3c4e4b	-0.045973103
94	0x3d08b14f	0.03337222
95	0x3d1b4e3b	0.037916403
96	0x3cfb1193	0.030648028
97	0xbcacba90	-0.021085054
98	0xbb762c91	-0.0037563185
99	0x3bc9b73f	0.006155878
100	0xbd2cf34e	-0.04222422
101	0xbc82062e	-0.015872087
102	0x3cccc17e	0.024994608
103	0xbc7b3779	-0.01533305
104	0x3c83c730	0.016086191
105	0x3ba8be4c	0.0051496383
106	0x3d0c9626	0.03432288
107	0xbc729d31	-0.014807985
108	0x3c05ce16	0.0081668105
109	0x3b928b3c	0.0044721644
110	0xbc94a255	-0.018143812
111	0x3bc9b22c	0.006155273
112	0x3b5d7149	0.0033789447
113	0xbcfcb306	-0.030847084
114	0xbc2a225a	-0.010384167
115	0x3b2eb4d5	0.0026658077
116	0x3d2f7881	0.04283953
117	0x3cf47e0a	0.029845256
118	0xbd0eeeee	-0.03489583
119	0x3bc82f31	0.0061091413
120	0x3cd776e2	0.026301805
121	0x3c861621	0.016367974
122	0xbcfb15fe	-0.030650135
123	0x3c121db7	0.008918217
124	0x3ccff788	0.025386587
125	0x3c39580a	0.011312494
126	0xbc7ef2e7	-0.015560842
127	0x3c8e13d5	0.017343441
128	0x3c0e4371	0.0086830715
129	0x3c0fef26	0.008785045
130	0xbcbc7956	-0.023007076
131	0xbd03c5b1	-0.032170955
132	0xbd021e02	-0.0317669
133	0xbd22f252	-0.039781876
134	0xbb4ee935	-0.0031572108
135	0xbc17cf7e	-0.009265779
136	0xbc901f16	-0.017592948
137	0x3cc2e517	0.02379088
138	0x3c6eff4a	0.014587233
139	0xbbafd18f	-0.0053655575
140	0x3cba3f64	0.022735305
141	0x3c875fbc	0.016525142
142	0x3cbc627f	0.022996185
143	0xbc1f90df	-0.00973913
144	0xbc73fe99	-0.014892244
145	0xbd64c22a	-0.05584923
146	0xbccfb554	-0.025355019
147	0xbc3891d9	-0.011265242
148	0x3d1221e3	0.03567685
149	0xbb0109fd	-0.0019689791
150	0xbca0bb38	-0.019620523
151	0xbc31a942	-0.010843577
152	0x3c2d5cb6	0.010581186
153	0x3c40a827	0.011758841
154	0x3cd20ea0	0.02564174
155	0x3ccafc80	0.024778605
156	0xbc057729	-0.008146086
157	0x3c2c2e3a	0.010509068
158	0x3cb0453e	0.021517392
159	0x3ca1d297	0.019753737
160	0x3cd181e7	0.025574638
161	0x3ae07ce0	0.0017127059
162	0x3d10422c	0.035219356
163	0x3cea708a	0.028618116
164	0x3a4238bc	0.0007408967
165	0xbcb8c102	-0.02255297
166	0xba0976e5	-0.0005243852
167	0xbd0d06e5	-0.034430403
168	0x3c8606b7	0.016360624
169	0x3d16f881	0.036858086
170	0xbba640a8	-0.0050736256
171	0xbcb4e1f9	-0.022080408
172	0x3cee81d2	0.029114638
173	0x3cd96b74	0.026540495
174	0xbcbb099a	-0.022831727
175	0x3c1a3ecb	0.009414385
176	0x3d0de49e	0.034641854
177	0x3d3cf8cb	0.046135705
178	0x3c0d88dd	0.008638588
179	0xbd0068ae	-0.03134983
180	0xbce034cd	-0.027368927
181	0x3cdf3180	0.027245283
182	0x3d1c073f	0.038092848
183	0x3bd5b3c7	0.0065216753
184	0x3c5759ca	0.013143966
185	0xbd0139bf	-0.03154921
186	0x3cddcf57	0.027076406
187	0xbc565f28	-0.01308421
188	0x3d19000b	0.037353557
189	0xbcb7b456	-0.022424858
190	0x3b044d27	0.0020187588
191	0x3cfc5af3	0.030805087
192	0x3ce8d663	0.02842254
193	0x3c95ea33	0.018300151
194	0x3ccd0a34	0.02502928
195	0x3cc0cc76	0.023534995
196	0x3d20b038	0.039230555
197	0xbb007191	-0.001959894
198	0x3d27af20	0.040938497
199	0xbcc20dc7	-0.02368821
200	0x399b5b13	0.0002963176
201	0x3ca7a2c9	0.020463364
202	0xbcd87b7f	-0.026426075
203	0x3c76ca34	0.015062857
204	0xbc9f4bf2	-0.019445393
205	0x3d2344bb	0.03986047
206	0xbd2ad007	-0.041702297
207	0x3c89be3b	0.016814342
208	0xbbe9bed2	-0.0071333433
209	0xbc95ea70	-0.018300265
210	0xbd078e77	-0.03309485
211	0xbc47515b	-0.012165393
212	0x3d1f70f0	0.038926065
213	0x3c32d1b0	0.010914251
214	0xbb50e700	-0.0031875968
215	0x3d2f6023	0.042816292
216	0xbcb55a71	-0.022137852
217	0x3c22c1f7	0.00993394
218	0x3cedb8c2	0.029018763
219	0xbd1a5ab6	-0.037684165
220	0xbcd14542	-0.02554572
221	0x3b92cef0	0.0044802353
222	0x3d28d703	0.041220676
223	0xbd0c2617	-0.034216013
224	0xbb7b2f35	-0.0038327698
225	0xb9b7735e	-0.00034990435
226	0x3b813912	0.003943571
227	0xbd0a369e	-0.033743493
228	0xbbed27b0	-0.007237397
229	0x3ccc07e5	0.024906108
230	0xbc7b2bc2	-0.015330257
231	0x3c6ecae7	0.014574743
232	0xbcd67752	-0.026179943
233	0x3c838b21	0.016057553
234	0xbd06d4de	-0.03291785
235	0x3d192ef8	0.03739831
236	0x3c96667c	0.018359415
237	0x3ccb52e5	0.0248198
238	0xbb09e9b4	-0.002104384
239	0xbce8418e	-0.028351571
240	0xbb815050	-0.0039463416
241	0xbc87c69d	-0.016574198
242	0x3cfd9e0b	0.03095915
243	0xbc34394d	-0.01099999
244	0x3989d763	0.00026291152
245	0x3c0de81f	0.008661299
246	0x3d17ad91	0.03703076
247	0xbc9ce99b	-0.01915436
248	0xbc9e86b9	-0.01935135
249	0xbcd1b6e0	-0.025599897
250	0xbbae0d7a	-0.005311665
251	0x3b56996b	0.0032745253
252	0x3bc39f9d	0.005969955
253	0x3c4257d8	0.011861764
254	0xbd04fbf5	-0.032466847
255	0x3cbd9998	0.023144528

bnorm.weight f4 [40]
0	0x3f80a72a	1.0051014
1	0x3f85602b	1.0419973
2	0x3f8184d8	1.0118666
3	0x3f840263	1.0313228
4	0x3f8216cd	1.0163208
5	0x3f84a5da	1.0363114
6	0x3f8377cc	1.0270934
7	0x3f8146cb	1.0099729
8	0x3f8062c9	1.0030147
9	0x3f7c23c4	0.98492074
10	0x3f8482b8	1.0352392
11	0x3f835e69	1.0263187
12	0x3f833521	1.0250589
13	0x3f833c86	1.0252845
14	0x3f7c2220	0.9848957
15	0x3f84b6db	1.0368303
16	0x3f8514a8	1.0396929
17	0x3f7f2a1b	0.9967362
18	0x3f7bf46a	0.9841982
19	0x3f84b13c	1.0366588
20	0x3f856422	1.0421183
21	0x3f7fff5b	0.99999017
22	0x3f844bac	1.0335593
23	0x3f85e62b	1.0460867
24	0x3f8075a3	1.00359
25	0x3f821f02	1.0165713
26	0x3f839b2f	1.0281733
27	0x3f8290ef	1.020048
28	0x3f82fc83	1.023331
29	0x3f8231f1	1.0171491
30	0x3f86277a	1.0480797
31	0x3f839ef5	1.0282885
32	0x3f83f602	1.0309451
33	0x3f84474e	1.033426
34	0x3f83cbdb	1.0296587
35	0x3f82f69e	1.0231512
36	0x3f84524b	1.0337614
37	0x3f83966d	1.0280281
38	0x3f85190c	1.0398269
39	0x3f807ad0	1.0037479

bnorm.bias f4 [40]
0	0x3cd81434	0.026376821
1	0x3c25cdfa	0.010119909
2	0xbcc3c463	-0.023897355
3	0xbbbbe2ad	-0.005733809
4	0x3cf0c91f	0.029392777
5	0x3cfda09c	0.030960374
6	0x3cceaf8c	0.025230192
7	0x3ca83379	0.020532357
8	0xbb853e12	-0.0040662372
9	0xbba3b5c5	-0.004996034
10	0xbce18439	-0.027528869
11	0x3cf00ec6	0.02930392
12	0x3c4e2bc8	0.01258368
13	0xbcc21eba	-0.023696292
14	0xbc50639d	-0.012719062
15	0x3c3846f2	0.011247383
16	0x3d0b4c37	0.03400823
17	0xba9c95b2	-0.0011946468
18	0x3cda0891	0.026615413
19	0xbc5f1d84	-0.013617877
20	0xbd06d633	-0.03291912
21	0xbb872be3	-0.0041251048
22	0x3c133cfc	0.008986708
23	0x3c826d11	0.015921148
24	0xbbf09fdc	-0.0073432755
25	0x3c0ee06f	0.008720501
26	0x3cd3b5bc	0.025843494
27	0x3cfdcdb0	0.030981869
28	0xba8ab410	-0.0010582227
29	0x3bfaae4e	0.0076501733
30	0x3c291660	0.010320276
31	0x3ca38634	0.019961454
32	0x3d13c3c2	0.03607536
33	0x3ce053ad	0.02738365
34	0x3c2167f8	0.009851448
35	0x3b147ae5	0.0022656259
36	0xbcc28ea6	-0.02374966
37	0xbc3ccceb	-0.011523466
38	0x3c821341	0.015878322
39	0x3cc0e40e	0.023546245

bnorm.running_mean f4 [40]
0	0xbc7f95ea	-0.015599707
1	0x3c4026f8	0.011728041
2	0xb99a09fe	-0.00029380614
3	0x3c4c11eb	0.012455444
4	0xba97cd9f	-0.0011581666
5	0xbcd2d70a	-0.025737304
6	0xbd14478e	-0.036201052
7	0x3b407a4d	0.0029369772
8	0xbc9b275c	-0.018939666
9	0x3c5ba3b6	0.013405731
10	0xbce5ffa2	-0.028075997
11	0xbc1598d5	-0.009130676
12	0xbb4963f9	-0.0030729754
13	0xbbb386fc	-0.005478738
14	0x3c3f9b1c	0.011694696
15	0x3c5899c9	0.013220259
16	0xbc648e66	-0.013949966
17	0xba412dd9	-0.00073691976
18	0xbcdc37d4	-0.02688209
19	0xbbc7ce4c	-0.0060975906
20	0xbc772069	-0.015083411
21	0x3b7109e9	0.0036779589
22	0x3c28aeae	0.010295553
23	0xbc531ecd	-0.012885761
24	0x3cd3a2c7	0.025834454
25	0xbb8c0138	-0.004272606
26	0xbc88133c	-0.016610734
27	0xbbdb8247	-0.00669888
28	0x3c02b7d7	0.007978401
29	0x3c1c7245	0.009548728
30	0xbc66e696	-0.014093062
31	0x3c186479	0.009301298
32	0xbc8bda0f	-0.017071752
33	0xbc144473	-0.009049523
34	0x3cb181d2	0.021668348
35	0xbc94f85e	-0.018184837
36	0xbb82cc96	-0.0039916737
37	0x3c182e4d	0.009288383
38	0xbc2b2e7b	-0.0104480935
39	0x3bc33da8	0.0059582777

bnorm.running_var f4 [40]
0	0x3aa0c767	0.0012266458
1	0x3a5966eb	0.0008293229
2	0x3a734ff3	0.0009281628
3	0x3aada7eb	0.0013248896
4	0x3a495e43	0.00076815876
5	0x3ae6dfff	0.0017614363
6	0x3b0a626b	0.002111579
7	0x3ab425ca	0.0013744172
8	0x3ab19493	0.0013548307
9	0x3a5e5fa9	0.00084828824
10	0x3abce034	0.001441008
11	0x3ac847f6	0.0015280235
12	0x3a2a2a88	0.0006491323
13	0x3ac29157	0.001484434
14	0x3a61aa77	0.000860847
15	0x3ab245a0	0.0013601072
16	0x3ab2e487	0.0013648429
17	0x3a2e7de8	0.0006656335
18	0x3a6d996e	0.00090636953
19	0x3a93016a	0.0011215631
20	0x3ae5db6f	0.001753671
21	0x3a9124f8	0.001107364
22	0x3a872087	0.0010309377
23	0x3ad9b347	0.0016609215
24	0x3a8e58fb	0.0010860258
25	0x3aa95590	0.0012919176
26	0x3a511012	0.0007975112
27	0x3ace46fd	0.0015737709
28	0x3b058ccc	0.002037811
29	0x3abb7b73	0.0014303759
30	0x3aa6ce6a	0.0012726311
31	0x3a830ccd	0.0009998322
32	0x3a8e2903	0.0010845963
33	0x3aab89fe	0.001308739
34	0x3a79f2da	0.0009534784
35	0x3a1bd00a	0.0005943781
36	0x3a841097	0.0010075745
37	0x3a8dfb59	0.0010832354
38	0x3a5d86d7	0.00084505737
39	0x3a54877f	0.00081073487

final_layer.conv_classifier.weight f4 [4, 40, 144, 1]
0	0x3c93ed44	0.018057473
1	0x3c0cbfb8	0.008590631
2	0xbb45eec7	-0.0030202137
3	0xbd0164bf	-0.03159022
4	0xbd01cdf2	-0.031690545
5	0xbc758221	-0.014984638
6	0xbc90ed93	-0.01769141
7	0x3c16a4e7	0.009194589
8	0x3cb5e014	0.022201575
9	0xbc4bcca7	-0.01243893
10	0xbbb903ff	-0.0056462283
11	0x3c06fe1b	0.008239294
12	0x3bd10ba6	0.0063795624
13	0xbcd3ae2e	-0.025839891
14	0x3c56f115	0.013119002
15	0xbc3f8d65	-0.011691426
16	0x3c83a678	0.01607059
17	0xbca5673e	-0.020190831
18	0xbc290a4b	-0.010317395
19	0xbc99ea56	-0.018788498
20	0x3bd08db1	0.006364547
21	0xb954192a	-0.0002022727
22	0x3c028182	0.007965447
23	0x3c111c0e	0.008856786
24	0xbc8b8024	-0.017028876
25	0xbb67b13f	-0.003535345
26	0xbc958a82	-0.018254522
27	0x3c1750d7	0.009235582
28	0x3cb05548	0.02152504
29	0xbbc32c12	-0.0059561813
30	0xbc556cac	-0.013026398
31	0x3ad8c6ce	0.0016538741
32	0xbc553577	-0.013013235
33	0xbcca2570	-0.024676055
34	0xbc9cbfa0	-0.019134343
35	0xbc1fa33c	-0.009743508
36	0xbc9862fc	-0.018601887
37	0x3c42c294	0.011887211
38	0xbd50deb0	-0.05099362
39	0x3bf0270c	0.0073288735
40	0x3bcd7a44	0.0062706787
41	0x3c4de998	0.0125679
42	0xbbbecf79	-0.0058230725
43	0x3c1b08a1	0.0094625065
44	0xbcd47c35	-0.025938133
45	0x3d0cc7fc	0.034370407
46	0x3c9c78dc	0.019100599
47	0xbcd8fd59	-0.026487993
48	0xbc7e0a7d	-0.01550543
49	0xbd03f8d1	-0.03221971
50	0x3c041c0b	0.008063327
51	0xbcff7fff	-0.031188963
52	0xbb08cd1e	-0.0020874212
53	0x3c1930a3	0.009349975
54	0x3bcbbdb4	0.0062176827
55	0x3ccc7eb8	0.024962768
56	0x3d034287	0.032045867
57	0x3ce19d27	0.027540756
58	0x3c77a5e1	0.015115232
59	0xbc626402	-0.013817789
60	0x3cf4734c	0.029840134
61	0x3bcfad16	0.006337772
62	0x3bd7d531	0.0065866937
63	0xbc4bfb70	-0.012450084
64	0x3be388cb	0.006943797
65	0xbc3d7536	-0.01156359
66	0xbd08de2a	-0.033414997
67	0x3bbf13d2	0.00583122
68	0xbbbfa761	-0.0058488105
69	0xbb703b6a	-0.0036656507
70	0xbc980cd7	-0.01856081
71	0x3cff80a2	0.031189267
72	0x3cc6a95d	0.02425068
73	0xbc62bd02	-0.013839008
74	0x3b2d8e11	0.0026482383
75	0xbcf88b3d	-0.030339831
76	0xba22956f	-0.0006202077
77	0x3ca4d6d8	0.020121977
78	0x3cd1a614	0.025591888
79	0x3c8e2f6a	0.017356593
80	0x3b4cf5ec	0.003127451
81	0x3c276830	0.010217711
82	0xbce28efd	-0.027656073
83	0x3b2c55a0	0.0026296154
84	0xbb2b31a3	-0.0026122115
85	0xbc89256e	-0.01674148
86	0x3cea246e	0.028581824
87	0x3c7dffe7	0.015502906
88	0x3cbb22c3	0.022843724
89	0xbcb12bbd	-0.021627301
90	0x3cdc2f9a	0.026878167
91	0xbc40d8c3	-0.01177043
92	0xbc3f5de8	-0.011680104
93	0x3bc767e1	0.0060853814
94	0xbc843ca3	-0.016142195
95	0x3cdea7b3	0.027179575
96	0xbafb24ff	-0.0019160806
97	0x3bc66ddf	0.006055578
98	0xb9b4bb36	-0.00034471758
99	0xbcf7d981	-0.030255081
100	0x3d162f69	0.036666308
101	0xbcababb5	-0.0209559
102	0xbc0553c8	-0.008137651
103	0xbb68caf7	-0.0035521367
104	0x3cc00ec4	0.02344454
105	0x3ce6515b	0.028114965
106	0x3d140a7b	0.036142807
107	0x3d029551	0.03188068
108	0x3c530aca	0.01288099
109	0xba6c2894	-0.0009008732
110	0xbcf8bebf	-0.030364392
111	0xbc38b846	-0.011274403
112	0x3bfc44e2	0.007698641
113	0xbcaad31c	-0.020852618
114	0xbbdd7d43	-0.006759317
115	0xbc84f831	-0.016231628
116	0xbae14687	-0.0017187156
117	0xbc14c9e1	-0.009081335
118	0x3cb8af9b	0.022544673
119	0x3c6f33f6	0.014599791
120	0x3cc00fad	0.023444975
121	0x3ccc11e7	0.02491088
122	0xbb9a5268	-0.0047095306
123	0xbb27834f	-0.0025560444
124	0xbc865088	-0.016395822
125	0xbab244ab	-0.0013600787
126	0x3c042964	0.008066509
127	0xb90c2004	-0.00013363367
128	0x3c5cb99c	0.013471987
129	0x3cb327e4	0.021869607
130	0xbc9a54d8	-0.018839285
131	0x3b3e3c32	0.0029027578
132	0x3d1ed70f	0.038779315
133	0x3c1dd6c7	0.009633726
134	0xbc94eead	-0.018180216
135	0xbce951b3	-0.02848134
136	0x3ce8ea71	0.028432103
137	0x3d0634f7	0.032765355
138	0x3c4379ee	0.011930926
139	0x3b9ff21a	0.0048811557
140	0xbc32fba3	-0.010924253
141	0x3cb4afd9	0.022056507
142	0x3be2980c	0.006915098
143	0xbb41fc01	-0.002959967
144	0xbccd5c15	-0.025068322
145	0xbd1d39b2	-0.0383851
146	0xbc86b6cc	-0.016444586
147	0xbd4bfb8b	-0.049800437
148	0xbd2b39c3	-0.041803133
149	0xbc236b79	-0.009974354
150	0xba9f5fbe	-0.0012159271
151	0x3ba841ab	0.0051347814
152	0x3c74bc0a	0.01493741
153	0x3c15f16d	0.009151799
154	0x3d11a287	0.03555539
155	0xbc93a83f	-0.018024562
156	0xbc1df425	-0.009640728
157	0xbcc90774	-0.024539687
158	0xbc8cec73	-0.017202592
159	0xbc2015bc	-0.009770807
160	0x3d028352	0.031863518
161	0xb986dbc8	-0.00025722221
162	0x3d3afb9c	0.04565011
163	0x3c2daf1f	0.010600834
164	0xbcd4b0e8	-0.025963262
165	0xbc975bbc	-0.01847636
166	0x3c69d5df	0.014272182
167	0x3cd67db5	0.026182989
168	0xbcb73bff	-0.022367476
169	0x3cabc4c1	0.020967843
170	0xbbd404e9	-0.006470312
171	0xbd2170c9	-0.0394142
172	0x3b07ea04	0.002073885
173	0x3bee00fc	0.007263301
174	0x3cd68794	0.026187696
175	0x3aabd7ae	0.0013110542
176	0xbba255f6	-0.004954095
177	0x3cc02f35	0.02346001
178	0x3b2d3eb0	0.002643507
179	0x3c89e20d	0.016831422
180	0x3c7df2a5	0.0154997455
181	0x3d0d7510	0.034535468
182	0x3c2c5a16	0.010519525
183	0x3c39e206	0.011345392
184	0xbb3f8ffd	-0.002923011
185	0x3c2135fc	0.009839531
186	0x3c2c0ad7	0.010500631
187	0xbc5015ab	-0.012700479
188	0xbcaa0d5d	-0.020758325
189	0xbca3799b	-0.019955447
190	0xbd02504d	-0.031814862
191	0xbcf83292	-0.030297551
192	0xbc955db6	-0.018233161
193	0x3c676553	0.014123279
194	0xbc6d8aba	-0.014498407
195	0xbd20cb16	-0.039256178
196	0x3d092e5c	0.033491477
197	0x3a94555c	0.0011316943
198	0x3c5b5ead	0.013389272
199	0x3cff672d	0.031177128
200	0x3b4c70df	0.0031195206
201	0x3ce41b9d	0.027845198
202	0xb916a108	-0.00014365104
203	0x3d041852	0.032249756
204	0x3cf60935	0.030033687
205	0xbc181f24	-0.009284768
206	0xbc4fbbd0	-0.012679055
207	0x3c54c93a	0.012987429
208	0x3c97c99c	0.018528752
209	0x3c2a3f7a	0.010391111
210	0xbbd2f4a9	-0.006437857
211	0x3c7d53f4	0.0154619105
212	0xbc830c8a	-0.01599719
213	0x3cb1d1c4	0.02170647
214	0x3c758f2e	0.01498775
215	0x3d183abd	0.037165392
216	0x3c8e9e04	0.017409332
217	0x3ccf2ea9	0.025290804
218	0x3cb68f6d	0.022285188
219	0x3d081664	0.03322448
220	0x3c137766	0.009000635
221	0xbaaf14c7	-0.0013357633
222	0x3c9352b7	0.017983777
223	0xbcc8435a	-0.024446178
224	0xbc216e36	-0.0098529365
225	0xbba02bd7	-0.0048880386
226	0xbb2fece1	-0.0026844072
227	0x3cfdb8c3	0.03097189
228	0x3c58b021	0.013225586
229	0x3ca559fe	0.020184513
230	0x3c1c17f5	0.009527196
231	0x3ce1ef76	0.027580004
232	0xbcb14652	-0.021639977
233	0xbc140d2e	-0.009036345
234	0x3c9c0902	0.019047264
235	0xbc0db8eb	-0.008650045
236	0x3be94ab4	0.007119501
237	0x3d2342c7	0.039858606
238	0xbc06603b	-0.008201654
239	0x3d174f1a	0.03694067
240	0x3c2ce8ef	0.010553583
241	0xbaaef7be	-0.0013348979
242	0x3c8fadf2	0.017538998
243	0x3c788c96	0.015170237
244	0x3d17bc56	0.037044846
245	0x3d4d556a	0.050130285
246	0xbccf0e29	-0.025275307
247	0x3d117d13	0.03551967
248	0x3ceb4ac5	0.028722176
249	0xbc1f3e12	-0.009719389
250	0x3b9150b1	0.004434668
251	0x3d1e8738	0.038703173
252	0xbc520df0	-0.012820706
253	0x3bf2e889	0.0074129743
254	0x3d01ff01	0.03173733
255	0x3bdf4613	0.0068137734

final_layer.conv_classifier.bias f4 [4]
0	0x3b88539a	0.0041603567
1	0xbc4872a9	-0.012234368
2	0x3ce39dbd	0.027785176
3	0xbc59a3ee	-0.013283713
