models/ShallowFBCSPNet_persons14_lr0.001_wd0.1_bs16_acc0.2732.pth (torch, 383684 bytes, 9 tensors)

conv_time_spat.conv_time.weight f4 [40, 1, 25, 1]
0.075960994 0.04034413 0.021351108 -0.027623428 -0.08036449 -0.08460833 -0.08917848 -0.053701922
-0.02538399 0.031955834 0.1172034 0.08131146 0.05452403 -0.010909847 -0.099270806 -0.10810846
-0.053612158 -0.062290374 -0.014224049 -0.00131337 0.057674542 0.02430514 0.05643801 0.033721413
0.0015590617 -0.006371755 -0.00532204 -0.030484373 -0.03694944 0.0029853687 -0.01454444 0.026692197
0.028202971 0.05092788 0.055346955 0.00604074 -0.0042761527 -0.008916615 0.0029027949 -0.026092308
0.017925614 0.016638717 0.04117998 0.03505601 0.011995448 -0.020911705 -0.037348296 -0.017221266
-0.0049534766 -0.025552878 -0.014897912 -0.041059617 -0.03368541 -0.041183043 0.03427778 0.09352052
0.09619457 0.09837226 -0.02101138 -0.118278354 -0.19442993 -0.14348906 -0.020230899 0.12533727
0.16197947 0.12090748 -0.011177443 -0.09317234 -0.1075969 -0.0441446 0.005976622 -0.018488223
0.008359365 0.007803389 0.050736014 -0.09475429 -0.07623405 -0.056158558 0.016142758 0.033592712
0.058604077 0.015739815 0.017352631 0.0009839952 0.02883562 0.03356533 -0.034528 -0.036937643
-0.10122679 -0.06321231 0.03859346 0.11065582 0.11555368 0.050794378 -0.013234138 -0.09459568
-0.0680861 0.016137209 0.012535767 0.012012467 0.08310001 0.07986303 0.026472418 -0.03556328
-0.10687601 -0.09878866 -0.009261877 0.021084048 0.0139803635 -0.0090159075 -0.09105556 -0.05924141
0.042550836 0.074449986 0.08459589 0.024628002 -0.08472275 -0.13057344 -0.063229196 0.0326403
0.052277137 0.0556692 0.028942242 -0.02846169 0.02996117 0.017327454 0.016928049 -0.009818963
0.027832847 0.012652599 0.0062408336 -0.0036744524 0.02566187 0.02107502 -0.005457588 -0.026641637
-0.009194799 -0.05614621 -0.08331247 -0.1124069 -0.09171964 -0.035607424 0.029061263 0.08133859
0.11832422 0.07797909 -0.005240033 -0.020331599 -0.08024699 -0.10929022 0.0042504794 -0.036757797
-0.10178576 -0.1531664 -0.13038713 -0.058575373 -0.024396636 0.09697125 0.104564264 0.08253105
0.045585867 0.0016439225 0.029778162 0.0123158805 0.038033962 -0.03522778 -0.062448442 -0.08500293
0.0014070083 0.019833438 0.06953942 0.05075945 0.025697438 -0.06215035 -0.082848676 0.18631835
0.10778188 0.08382996 0.064764485 -0.016798032 -0.040818978 0.010529297 -0.02427758 -0.07337387
-0.062883176 -0.06024859 -0.07846114 -0.04385437 -0.025967335 -0.00090169976 -0.047493763 -0.06856613
-0.004449209 0.009190971 0.11664282 0.13424654 0.113254435 0.07671764 -0.002505733 0.011166057
-0.00981685 -0.036406778 -0.0072899377 0.086150944 0.07125943 -0.013534237 -0.06722589 -0.08323697
-0.038288258 0.11463505 0.17738536 0.086856484 -0.041023884 -0.1575934 -0.12084829 -0.06164411
0.03684178 0.071824566 0.056186765 -0.01799669 -0.08827861 -0.08156992 0.033029642 0.059308834
0.07087511 -0.03704227 -0.014704805 0.049442936 0.12239299 0.11003395 -0.028495092 -0.06962135
-0.14219306 -0.024467504 0.076815456 0.11128373 0.041878473 -0.107641466 -0.17529537 -0.12272894
-0.04785246 0.08828888 0.114751734 0.020977423 -0.070730284 -0.07975673 -0.045449145 0.0012896548
0.08140117 0.03779809 0.009514501 -0.045580987 -0.028311841 0.014128483 0.051325403 0.038048364
00000000: 7091 9b3d e33f 253d 85e8 ae3c 874a e2bc
00000010: 2396 a4bd 2247 adbd 35a3 b6bd 8cf6 5bbd
00000020: 16f2 cfbc 1fe4 023d 5608 f03d 9f86 a63d
00000030: 9754 5f3d 37bf 32bc 7e4e cbbd f867 ddbd
00000040: 6c98 5bbd 3124 7fbd fc0b 69bc 6225 acba
00000050: 243c 6c3d 931b c73c 8b2b 673d 771f 0a3d
00000060: 6e59 cc3a 28ca d0bb 8264 aebb 5dba f9bc
00000070: 4c58 17bd 2da6 433b ce4b 6ebc 98a9 da3c
00000080: eb09 e73c c199 503d 7db3 623d 66f1 c53b
00000090: f81e 8cbb fe16 12bc d13c 3e3b 89bf d5bc
000000a0: bdd8 923c eb4d 883c 57ac 283d e496 0f3d
000000b0: 8e88 443c 064f abbc 87fa 18bd 9d13 8dbc
000000c0: c650 a2bb 4554 d1bc 5f16 74bc 212e 28bd
000000d0: b6f9 09bd 8daf 28bd dc66 0c3d b087 bf3d
000000e0: a901 c53d 6577 c93d 0f20 acbc ec3b f2bd
000000f0: a418 47be ccee 12be 45bb a5bc 6a58 003e
00000100: f2dd 253e 579e f73d 9821 37bc 24d1 bebd
00000110: c35b dcbd f8d0 34bd 8ad7 c33b 9d74 97bc
00000120: b8f5 083c 92b3 ff3b 91d0 4f3d 8a0e c2bd
00000130: 9920 9cbd 8406 66bd d13d 843c 8398 093d
00000140: d40a 703d c9f0 803c 1b27 8e3c 66f9 803a
00000150: ae38 ec3c cd7b 093d 3b6d 0dbd ed4b 17bd
00000160: fe4f cfbd 7575 81bd 2d14 1e3d 859f e23d
00000170: 68a7 ec3d c40d 503d ffd3 58bc 61bb c1bd
00000180: ba70 8bbd 2e32 843c d162 4d3c f0cf 443c
00000190: 5730 aa3d 3a8f a33d afdc d83c cdaa 11bd
000001a0: cfe1 dabd b551 cabd 21bf 17bc 74b8 ac3c
000001b0: e50d 653c 75b7 13bc 567b babd 1fa7 72bd
000001c0: c949 2e3d 3c79 983d 9c40 ad3d aac0 c93c
000001d0: 1f83 adbd 0bb5 05be 4f7e 81bd d6b1 053d
000001e0: 8d20 563d 6305 643d 4818 ed3c 7d28 e9bc
000001f0: 2171 f53c 4ef2 8d3c b1ac 8a3c b7df 20bc
00000200: b601 e43c d94c 4f3c e87f cc3b 15cf 70bb
00000210: d838 d23c 85a5 ac3c 91d5 b2bb 903f dabc
00000220: c8a5 16bc 91f9 65bd ba9f aabd 9735 e6bd
00000230: 82d7 bbbd 17d9 11bd e311 ee3c d994 a63d
00000240: f853 f23d 80b3 9f3d 95b4 abbb 748e a6bc
00000250: 8958 a4bd 8dd3 dfbd 9b47 8b3b 588f 16bd
00000260: 0d75 d0bd a7d7 1cbe 3484 05be bbec 6fbd
00000270: 74db c7bc dd98 c63d ca25 d63d 0a06 a93d
00000280: 3fb8 3a3d e378 d73a 55f1 f33c 8cc8 493c
00000290: 80c9 1b3d 014b 10bd f0c9 7fbd 0416 aebd
000002a0: 5d6b b83a bc79 a23c af6a 8e3d 24e9 4f3d
000002b0: 6f83 d23c 5e91 7ebd 91ac a9bd 3dca 3e3e
000002c0: bfbc dc3d 0baf ab3d 3ea3 843d 079c 89bc
000002d0: cd31 27bd 1383 2c3c c7e1 c6bc 0a45 96bd
000002e0: e5c8 80bd 3ac7 76bd 3cb0 a0bd a4a0 33bd
000002f0: 73b9 d4bc 0c60 6cba d288 42bd 666c 8cbd
00000300: acca 91bb ba95 163c 6ee2 ee3d ed77 093e
00000310: f1f1 e73d 231e 9d3d 3937 24bb d6f1 363c
00000320: dad6 20bc 461f 15bd 6ee0 eebb e86f b03d
00000330: 77f0 913d b4be 5dbc baad 89bd 2578 aabd
00000340: 26d4 1cbd c8c5 ea3d 82a4 353e d0e1 b13d
00000350: a908 28bd 2a60 21be 4f7f f7bd 897e 7cbd
00000360: 68e7 163d c218 933d 1824 663d cb6d 93bc
00000370: 6acb b4bd 210e a7bd 174a 073d d2ed 723d
00000380: f826 913d a3b9 17bd 6cec 70bc ad84 4a3d
00000390: 2da9 fa3d 7b59 e13d 8a6e e9bc a395 8ebd
000003a0: 0f9b 11be 1370 c8bc 6c51 9d3d b9e8 e33d
000003b0: c388 2b3d 2173 dcbd a180 33be 4f59 fbbd
000003c0: f100 44bd cdd0 b43d f502 eb3d d8d8 ab3c
000003d0: 0adb 90bd 7f57 a3bd e228 3abd a209 a93a
000003e0: a8b5 a63d 2cd2 1a3d b6e2 1b3c 21b3 3abd
000003f0: 3cee e7bc 277b 673c 963a 523d 9ad8 1b3d

conv_time_spat.conv_time.bias f4 [40]
0.29490125 0.13990109 -0.48304576 0.08642842 -0.12322415 0.10517807 0.15867999 -0.29351854
0.4164509 0.2564848 0.2543151 0.18762371 0.032660384 -0.1917051 0.50213915 0.22930485
0.46860763 0.024104418 -0.32590738 0.31626937 -0.3900418 0.37433583 -0.38809004 0.3414101
0.286737 -0.42583236 -0.09122544 -0.19515035 0.03399609 -0.2031118 0.19911814 0.06852855
0.20499548 0.034858674 0.3768215 -0.015089251 -0.1556731 0.38043696 -0.012850426 0.37443274
00000000: 4cfd 963e 3b42 0f3e c651 f7be 6201 b13d
00000010: f15c fcbd 9a67 d73d 027d 223e 1048 96be
00000020: 0d39 d53e fa51 833e 9735 823e 6e20 403e
00000030: e5c6 053d 574e 44be 318c 003f e4ce 6a3e
00000040: 57ed ef3e a176 c53c 55dd a6be 0fee a13e
00000050: 8fb3 c7be f2a8 bf3e bdb3 c6be 4ecd ae3e
00000060: 31cf 923e b306 dabe 67d4 babd 7ed5 47be
00000070: 7c3f 0b3d 8afc 4fbe a0e5 4b3e b258 8c3d
00000080: 56ea 513e f8c7 0e3d bfee c03e e838 77bc
00000090: c568 1fbe a2c8 c23e 988a 52bc a6b5 bf3e

conv_time_spat.conv_spat.weight f4 [40, 40, 1, 44]
0.021559045 -0.005381851 -0.0028069888 0.0033391234 -0.023480684 -0.14901538 0.011714052 -0.012712247
-0.07600013 0.022401439 0.06417119 -0.025312578 -0.07939567 0.042861607 -0.026826264 0.10641842
-0.00053141033 -0.021174895 0.03702945 -0.019926948 -0.010829775 0.015190031 0.03970494 0.0024092924
0.009821549 0.0086472025 -0.0052027153 -0.054801375 -0.013976257 -0.11466719 -0.06820081 -0.07957011
-0.008900536 -0.021580111 -0.08828353 0.032827698 -0.02936474 -0.0072238273 0.065834634 0.16489837
-0.06268562 0.07773178 0.061622895 0.040394668 -0.011651756 0.008489546 -0.1059493 -0.02663453
0.013120198 0.1935695 -0.0063394904 0.0045014084 0.08696035 -0.07640122 -0.05346051 0.00024001118
-0.031428117 -0.054643072 -0.022031983 0.04959483 -0.026638508 0.031667404 -0.07661699 0.027121056
-0.0030548193 0.002182316 -0.060652204 0.0040194863 0.025661016 0.027985288 0.04122598 -0.022564141
0.018962769 0.11768373 0.08395623 0.09522707 -0.032502897 0.042029962 0.044815067 -0.11325409
0.014872691 0.0067612897 0.037416525 -0.08959881 0.07826271 0.0015227492 -0.061602715 -0.110182524
0.028040908 0.021034436 0.05722072 -0.03652339 -0.021234553 -0.05289294 0.029571576 -0.035322078
-0.0025932055 0.056740277 0.0132801095 -0.005438006 0.01973842 0.002299693 4.7687463e-05 0.024127522
-0.0022938407 -0.04678909 0.086877376 0.068359554 -0.014243957 -0.0072857994 -0.021853793 0.024316778
-0.029713526 -0.017614512 -0.056011967 -0.03040397 -0.0143383015 -0.0945327 -0.043097418 -0.07108428
-0.021694634 -0.0342409 -0.08274848 0.01426971 -0.012655169 -0.036618523 -0.025543181 0.029641282
-0.09807011 -0.01806053 0.00910092 0.061746325 -0.045877583 -0.036863975 0.10712873 -0.031640943
0.037529375 0.1300985 0.052520253 0.00038726663 0.110624924 -0.061338354 -0.013703982 -0.008778151
0.07820527 -0.014843046 -0.010482567 0.123698235 -0.08300098 0.019974625 -0.042939696 -0.020627651
-0.033238664 -0.01476845 -0.01974474 0.011698327 0.008607468 0.026860068 0.16956718 -0.07685539
0.013385661 -0.00848148 0.071890295 -0.04634274 0.027144006 0.011757073 0.07017339 -0.049087312
-0.020110788 -0.02611511 -0.072874255 0.0573595 -0.07048019 0.025595699 -0.013694106 -0.033853613
0.053252533 -0.005386648 0.045382548 0.025288384 -0.029563993 -0.1525463 0.0239921 -0.04804984
-0.0775816 0.03423218 0.045063216 0.008916097 -0.0037117396 0.051522844 -0.014438905 0.0097285705
0.009429533 -0.05022026 0.07696355 0.020097354 0.019572847 0.03314001 0.008269068 -0.01199377
-0.011085389 -0.057088662 -0.030933596 -0.026771499 -0.025507847 -0.16924937 -0.09728968 -0.08417695
0.008154856 -0.053165033 -0.07091683 0.07162094 -0.010635382 -0.00631963 0.015932515 0.076264076
-0.0930169 0.030479252 0.03662089 0.09937448 -0.0040121013 0.082310766 -0.042793233 0.02172087
0.02120729 -0.20833501 -0.054862663 0.04311598 -0.1717469 0.11324265 -0.0064039566 0.04383502
-0.027989862 0.0066866353 0.052632738 -0.29653397 0.079921514 0.015590432 0.05944341 -0.010094288
0.018254666 -0.028915044 0.061992858 0.0043541933 0.01608475 -0.048909236 -0.23374115 0.0866734
-0.017753478 0.062289525 -0.15309028 0.018141635 0.010427863 0.038671393 -0.064944476 0.08793877
00000000: 989c b03c 3d5a b0bb 75f5 37bb 32d5 5a3b
00000010: 905a c0bc 7d97 18be 4cec 3f3c 0747 50bc
00000020: f5a5 9bbd 3983 b73c 2f6c 833d 535c cfbc
00000030: 329a a2bd a78f 2f3d c1c2 dbbc e7f1 d93d
00000040: 584e 0bba f976 adbc 31ac 173d d73d a3bc
00000050: 5e6f 31bc 9cdf 783c a6a1 223d 38e5 1d3b
00000060: 90ea 203c ffac 0d3c 8a7b aabb 6877 60bd
00000070: acfc 64bc a2d6 eabd deac 8bbd a7f5 a2bd
00000080: 8ed3 11bc c6c8 b0bc ffcd b4bd 5676 063d
00000090: 538e f0bc dbb5 ecbb 4fd4 863d 1edb 283e
000000a0: 5161 80bd d731 9f3d 4a68 7c3d e174 253d
000000b0: 02e7 3ebc bd17 0b3c f2fb d8bd a830 dabc
000000c0: 19f6 563c 1537 463e 80bb cfbb 8d80 933b
000000d0: 4518 b23d 3e78 9cbd 68f9 5abd 83ab 7b39
000000e0: c5ba 00bd 6ad1 5fbd 6b7c b4bc f323 4b3d
000000f0: 0039 dabc aeb5 013d 5ee9 9cbd fa2c de3c
00000100: 5d33 48bb 3005 0f3b 726e 78bd e5b5 833b
00000110: 0d37 d23c 6741 e53c 93dc 283d 6fd8 b8bc
00000120: cf57 9b3c 2b04 f13d 3ef1 ab3d 6906 c33d
00000130: c221 05bd 9c27 2c3d 0190 373d c3f1 e7bd
00000140: 96ac 733c cf8d dd3b 1242 193d 957f b7bd
00000150: 3348 a03d fc96 c73a 2153 7cbd 60a7 e1bd
00000160: 0cb6 e53c 6950 ac3c 4660 6a3d 8d99 15bd
00000170: 16f4 adbc 44a6 58bd 1740 f23c e2ad 10bd
00000180: c5f2 29bb 7e68 683d d194 593c 4d31 b2bb
00000190: 78b2 a13c 72b6 163b 0604 4838 15a7 c53c
000001a0: 4354 16bb eba5 3fbd c4ec b13d 1800 8c3d
000001b0: 7c5f 69bc b7bd eebb ba06 b3bc fb33 c73c
000001c0: c869 f3bc 4f4c 90bc ce6c 65bd bf11 f9bc
000001d0: 32eb 6abc 5c9a c1bd eb86 30bd a394 91bd
000001e0: f2b8 b1bc 3040 0cbd 0978 a9bd 80cb 693c
000001f0: a057 4fbc 4efd 15bd ef3f d1bc 46d2 f23c
00000200: fbd8 c8bd adf3 93bc 061c 153c b7e9 7c3d
00000210: 22ea 3bbd aefe 16bd 4f66 db3d ef99 01bd
00000220: 67b8 193d 8b38 053e 7a1f 573d 0c0a cb39
00000230: 528f e23d ed3d 7bbd ab86 60bc 3cd2 0fbc
00000240: 162a a03d 3f30 73bc 13bf 2bbc 8055 fd3d
00000250: 6bfc a9bd d3a1 a33c 89e1 2fbd 52fb a8bc
00000260: 4425 08bd 5ef7 71bc b9bf a1bc 57aa 3f3c
00000270: 5606 0d3c a509 dc3c 05a3 2d3e 5c66 9dbd
00000280: 884f 5b3c e8f5 0abc 383b 933d e3d1 3dbd
00000290: 1b5d de3c bda0 403c 11b7 8f3d c70f 49bd
000002a0: 61bf a4bc 5bef d5bc 193f 95bd ccf1 6a3d
000002b0: eb57 90bd 12ae d13c 3e5d 60bc 16aa 0abd
000002c0: 541f 5a3d 7a82 b0bb 0de3 393d 9629 cf3c
000002d0: 3030 f2bc 1935 1cbe 158b c43c e9cf 44bd
000002e0: 1ae3 9ebd 0b37 0c3d 3594 383d d214 123c
000002f0: a840 73bb 9e09 533d 2891 6cbc 9564 1f3c
00000300: 547e 1a3c c2b3 4dbd 119f 9d3d 35a3 a43c
00000310: 3c57 a03c d2bd 073d fc7a 073c 8481 44bc
00000320: 7e9f 35bc cdd5 69bd 7468 fdbc e74f dbbc
00000330: d5f5 d0bc b54f 2dbe d03f c7bd f764 acbd
00000340: f29b 053c 94c3 59bd d83c 91bd 00ae 923d
00000350: 0640 2ebc e614 cfbb e884 823c 5730 9c3d
00000360: a57f bebd a0af f93c c9ff 153d d984 cb3d
00000370: f277 83bb 8c92 a83d f547 2fbd f7ef b13c
00000380: e9ba ad3c c655 55be acb7 60bd 629a 303d
00000390: 6bde 2fbe c3eb e73d 48d8 d1bb 5a8c 333d
000003a0: ff4a e5bc 901b db3b 6d95 573d 4dd3 97be
000003b0: e4ad a33d 036f 7f3c ef7a 733d 8362 25bc
000003c0: cf8a 953c 3edf ecbc 39ec 7d3d 9fad 8e3b
000003d0: 2ac4 833c 0d55 48bd d759 6fbe d381 b13d
000003e0: be6f 91bc 4d23 7f3d b3c3 1cbe c49d 943c
000003f0: a1d9 2a3c e565 1e3d 9c01 85bd 3e19 b43d

bnorm.weight f4 [40]
0.8499774 0.91023904 0.8237025 0.8122252 0.83220905 0.77657324 0.7984333 0.81033856
0.7600511 0.72987807 0.84759444 0.8503437 0.7666092 0.833318 0.8460344 0.76480645
0.76035905 0.73919636 0.8107242 0.76963 0.83857626 0.8266786 0.830654 0.7905195
0.7414054 0.7855 0.72691584 0.79776853 0.8246046 0.8304844 0.8512171 0.7866788
0.83363754 0.7495176 0.79460377 0.77336854 0.7648643 0.66066164 0.7719243 0.81003964
00000000: 1e98 593f 6d05 693f 2bde 523f feed 4f3f
00000010: a70b 553f 81cd 463f 2066 4c3f 5972 4f3f
00000020: b592 423f 4ad9 3a3f f3fb 583f 20b0 593f
00000030: 8040 443f 5454 553f b695 583f 5bca 433f
00000040: e4a6 423f f93b 3d3f 9f8b 4f3f 7906 453f
00000050: efac 563f 35a1 533f bea5 543f 7c5f 4a3f
00000060: bfcc 3d3f 8716 493f 2817 3a3f 8f3a 4c3f
00000070: 4919 533f a09a 543f 5de9 593f c863 493f
00000080: 4569 553f 63e0 3f3f 276b 4b3f 7bfb 453f
00000090: 26ce 433f 1f21 293f d59c 453f c25e 4f3f

bnorm.bias f4 [40]
0.30547938 -0.52362096 -0.46343234 0.6154966 -0.35761362 0.642632 -0.34736603 0.47163135
0.46637625 -0.2726229 -0.22010528 -0.58312786 -0.40929276 0.33951202 0.454566 -0.3168873
0.71880865 0.4187204 -0.52650696 0.50975174 -0.40552396 0.37176213 -0.5359095 0.34912384
0.6986774 0.57656974 -0.6298907 0.57611924 -0.19965355 -0.586569 -0.44900623 0.6211956
-0.2586151 0.35951415 0.34436008 -0.6017199 0.6478704 0.7816771 0.45709804 -0.5245819
00000000: cb67 9c3e 060c 06bf 0147 edbe 2f91 1d3f
00000010: 2219 b7be 8883 243f f6d9 b1be aa79 f13e
00000020: dec8 ee3e 3b95 8bbe 4763 61be de47 15bf
00000030: d28e d1be 85d4 ad3e e0bc e83e 0d3f a2be
00000040: d803 383f 8562 d63e 29c9 06bf 177f 023f
00000050: d6a0 cfbe 9b57 be3e 5d31 09bf 5cc0 b23e
00000060: 86dc 323f 139a 133f 8440 21bf 8d7c 133f
00000070: fb71 4cbe 6329 16bf 25e4 e5be ad06 1f3f
00000080: 3369 84be 3d12 b83e f74f b03e 510a 1abf
00000090: d6da 253f fe1b 483f c108 ea3e 004b 06bf

bnorm.running_mean f4 [40]
2.3760984 5.990643 -5.7141104 -6.3259106 3.8942556 3.3529944 -1.2560903 -3.5478022
-1.5175574 6.375477 -2.08999 -10.263602 5.7460184 0.62010694 8.484052 0.080509454
-9.341983 -2.7047408 9.256241 -1.277883 9.902483 5.1132083 6.4837847 10.728566
3.8766475 10.2809 -6.0900955 -10.064731 -0.81975216 5.90649 5.2171993 8.849137
4.323023 3.7732635 -10.727454 9.153401 -4.913071 5.0570455 1.9436724 -12.410558
00000000: ff11 1840 59b3 bf40 fed9 b6c0 dc6d cac0
00000010: 7c3b 7940 7697 5640 91c7 a0bf 310f 63c0
00000020: 523f c2bf e803 cc40 65c2 05c0 b737 24c1
00000030: 62df b740 54bf 1e3f adbe 0741 24e2 a43d
00000040: c378 15c1 791a 2dc0 9019 1441 ac91 a3bf
00000050: 9270 1e41 679f a340 2a7b cf40 35a8 2b41
00000060: fe1a 7840 917e 2441 10e2 c2c0 2309 21c1
00000070: 47db 51bf f701 bd40 4cf3 a640 1196 0d41
00000080: 3456 8a40 267d 7140 a7a3 2bc1 5574 1241
00000090: e137 9dc0 51d3 a140 42ca f83f a591 46c1

bnorm.running_var f4 [40]
0.007001313 0.011174896 0.01705703 0.012708921 0.006390522 0.011329519 0.0040182685 0.009323173
0.01451469 0.007849962 0.004718911 0.014287859 0.011371049 0.0044367122 0.0104971 0.0056399875
0.016275832 0.008585963 0.0121823875 0.013870268 0.01072566 0.010944089 0.01010691 0.007968629
0.011727291 0.018188454 0.015010214 0.013644152 0.005150178 0.012512053 0.013027755 0.012952987
0.007859628 0.010618592 0.00799491 0.016208868 0.013666982 0.021567926 0.0061086514 0.014687803
00000000: 456b e53b e916 373c 2fbb 8b3c 1439 503c
00000010: 9567 d13b 729f 393c aeab 833b 39c0 183c
00000020: 06cf 6d3c 219d 003c 18a1 9a3b a017 6a3c
00000030: a34d 3a3c d761 913b 07fc 2b3c a5cf b83b
00000040: e554 853c 24ac 0c3c a398 473c 1f40 633c
00000050: aeba 2f3c d64e 333c 7497 253c da8e 023c
00000060: d323 403c f4ff 943c 67ed 753c b98b 5f3c
00000070: d3c2 a83b 5bff 4c3c 5d72 553c c438 543c
00000080: abc5 003c 9af9 2d3c 15fd 023c 76c8 843c
00000090: 7aeb 5f3c 38af b03c 152b c83b 1ca5 703c

final_layer.conv_classifier.weight f4 [4, 40, 144, 1]
-0.025300104 0.006763355 -0.020839868 0.00032258328 -0.004035332 -0.05248086 -0.020147126 -0.04509498
-0.01955619 0.012053392 -0.015425446 -0.034354374 -0.00825572 -0.0031967715 -0.021492671 -0.059444085
-0.028089553 -0.06319461 -0.029284878 -0.04202462 -0.011688845 0.030751204 -0.022645384 -0.0024888834
-0.043822438 -0.024068413 -0.026943106 0.024609394 -0.00031349875 0.05174095 0.027946763 -0.001498861
0.056740504 -0.004896882 0.03724085 0.06253032 0.035440255 0.040065613 0.03141301 -0.00012135621
0.0479577 0.020322435 0.052482516 -0.011842477 0.026764859 0.06560941 0.05053709 -0.015306167
-0.024751505 0.003182831 0.06659821 -0.0024546792 0.02842584 0.029034209 -0.0012655868 0.01804859
0.007912642 0.043388076 -0.004094717 0.021680119 0.038793974 0.044224165 0.04760705 0.0175918
0.0018975458 0.010561979 0.039251756 0.01904132 0.04771489 0.06202183 0.043797757 -0.0070140376
0.013211737 0.047861047 0.03859944 0.01723582 0.040034898 0.0592723 -0.0046300725 0.023244262
0.03497643 0.01753464 0.051990878 0.013385805 0.0028902704 0.005875704 0.039217815 -0.010804958
-0.0025272497 0.037144605 0.005291875 0.051527917 0.020060869 0.037017692 0.016820943 -0.0020979606
0.04810534 0.028203817 0.012633441 0.021347066 -0.0008280488 0.0284716 0.04382766 0.003532524
0.037718892 0.037294738 0.018313358 0.02606101 0.030196972 -0.004416547 0.029130122 0.03605677
0.01604994 0.007754556 0.0462259 0.012617548 0.022297157 0.026213849 0.027095634 0.08156025
0.054480914 0.029632691 0.000242461 0.014066171 0.040925205 -0.02348176 -0.025653988 -0.01020724
-0.0013801255 0.010996058 -0.0058713094 0.04965613 0.0035430656 0.054776195 0.06041175 0.008629246
0.00039863837 0.0076549524 0.018080227 0.017529137 0.00082302565 -0.010809776 -0.005689055 -0.014076579
-0.024237787 -0.018647615 -0.0023989598 -0.01783988 0.026282998 0.019764021 0.032451577 0.01871441
-0.043919552 0.010718657 -0.03763684 -0.008504462 0.007842703 0.024348302 0.061017092 -0.027582873
0.02060127 -0.013852841 0.04401705 -0.031180318 -0.013165733 0.012407627 -0.0034129946 -0.033655874
-0.035151977 0.10759276 0.060973365 -0.001432465 0.094578 0.05776796 0.045297824 0.08295537
0.019793332 0.038800072 0.038025804 0.0033836162 0.024015892 0.0559673 -0.039842125 0.029099248
0.037260715 -0.0028009114 -0.011056933 -0.006459636 0.029901842 -0.024764428 0.016948028 0.038098488
-0.05289869 0.04396267 -0.032180235 0.015355734 0.009853528 -0.004723742 -0.022949237 0.008087885
-0.0104315495 -0.017947873 -0.015376505 0.0030504237 -0.018894397 -0.013692521 0.03942832 -0.001788397
0.022882605 -0.0028707033 0.028304268 0.0032170494 -0.0032511177 -0.027297553 0.005463245 -0.01519897
0.008305307 0.030867705 -0.05923444 -0.00057231827 -0.021482317 -0.022407098 -0.020573111 0.03168983
-0.004765727 0.007383791 0.06447827 0.0023941956 0.1023832 0.064088605 0.028237127 0.015469817
0.022383315 0.028826058 -0.0008277468 0.039527923 0.011069896 -0.0024036937 -0.043953467 -0.026078139
-0.014927709 -0.034020543 -0.00814912 -0.05299887 -0.014457711 0.011964965 -0.05839657 -0.041068234
-0.0504653 -0.06401341 -0.07319634 -0.004271324 -0.057177495 -0.033931497 0.038428184 0.060052756
00000000: 2a42 cfbc 229f dd3b 5fb8 aabc 6520 a939
00000010: d13a 84bb 2cf6 56bd 960b a5bc 84b5 38bd
00000020: 4e34 a0bc 977b 453c 03bb 7cbc 2cb7 0cbd
00000030: 0043 07bc ed80 51bb 6611 b0bc a47b 73bd
00000040: 101c e6bc 2d6c 81bd d7e6 efbc 0222 2cbd
00000050: 9282 3fbc f3e9 fb3c d082 b9bc 891c 23bb
00000060: 287f 33bd 1f2b c5bc cab7 dcbc a499 c93c
00000070: 175d a4b9 52ee 533d 9cf0 e43c 6e75 c4ba
00000080: bb68 683d 0676 a0bb dd89 183d e50f 803d
00000090: cd29 113d d71b 243d eeaa 003d 9e80 feb8
000000a0: 4b6f 443d 3c7b a63c e8f7 563d f306 42bc
000000b0: fa41 db3c 3a5e 863d fbff 4e3d b8c6 7abc
000000c0: abc3 cabc 0b97 503b a464 883d afde 20bb
000000d0: 4fdd e83c 26d9 ed3c 0ce2 a5ba a3da 933c
000000e0: 07a4 013c b2b7 313d fa2c 86bb 819a b13c
000000f0: 6ee6 1e3d 6624 353d 9cff 423d ae1c 903c
00000100: 12b7 f83a 270c 2d3c 73c6 203d 8bfc 9b3c
00000110: b070 433d 9a0a 7e3d 4765 333d 03d6 e5bb
00000120: 0b76 583c f209 443d 721a 1e3d 2232 8d3c
00000130: a2fb 233d 83c7 723d ddb7 97bb c06a be3c
00000140: 7243 0f3d cea4 8f3c 63f4 543d 2350 5b3c
00000150: b16a 3d3b fa88 c03b dca2 203d 4707 31bc
00000160: 37a0 25bb f124 183d 7767 ad3b f00e 533d
00000170: b156 a43c dd9f 173d 13cc 893c f07d 09bb
00000180: 1b0a 453d b10b e73c 7efc 4e3c 0be0 ae3c
00000190: 6a11 59ba 463d e93c a284 333d eb81 673b
000001a0: 207f 1a3d 5ec2 183d e505 963c e67d d53c
000001b0: a45f f73c aeb8 90bb 4ba2 ee3c 43b0 133d
000001c0: 2a7b 833c ee19 fe3b 5f57 3d3d d5b9 4e3c
000001d0: 87a8 b63c 6dbe d63c aaf7 dd3c 0f09 a73d
000001e0: 6127 5f3d 42c0 f23c 213d 7e39 cc75 663c
000001f0: 30a1 273d d25c c0bc 5028 d2bc 443c 27bc
00000200: 54e5 b4ba cf28 343c 1d64 c0bb 3a64 4b3d
00000210: c732 683b 015d 603d 5072 773d ae61 0d3c
00000220: 5600 d139 65d6 fa3b fc1c 943c 4499 8f3c
00000230: 51c0 573a 7d1b 31bc 416b babb 74a1 66bc
00000240: 538e c6bc e2c2 98bc de37 1dbb f124 92bc
00000250: 714f d73c 28e8 a13c f2eb 043d f64e 993c
00000260: fde4 33bd 4e9d 2f3c 1629 1abd 4d56 0bbc
00000270: ae7e 003c 1776 c73c 0fed 793d 7af5 e1bc
00000280: ffc3 a83c 07f7 62bc 394b 343d de6d ffbc
00000290: 16b5 57bc 5c49 4b3c 8cac 5fbb beda 09bd
000002a0: 85fb 0fbd 9859 dc3d 35bf 793d 8dc1 bbba
000002b0: 1cb2 c13d 199e 6c3d 368a 393d 81e4 a93d
000002c0: a025 a23c d3ec 1e3d f2c0 1b3d a9bf 5d3b
000002d0: fabc c43c f83d 653d 7f31 23bd 8c61 ee3c
000002e0: b19e 183d 7f8f 37bb 2328 35bc 5bab d3bb
000002f0: b5f4 f43c c5de cabc 97d6 8a3c 290d 1c3d
00000300: 4cac 58bd 3312 343d 6ccf 03bd 9e96 7b3c
00000310: b170 213c 9fc9 9abb 0a00 bcbc 0c83 043c
00000320: 17e9 2abc 6b07 93bc bded 7bbc 9ee9 473b
00000330: 6cc8 9abc 9856 60bc 977f 213d a568 eaba
00000340: 4d74 bb3c 6922 3cbb 5ade e73c 22d5 523b
00000350: b410 55bb 1e9f dfbc 0505 b33b 1a05 79bc
00000360: fb12 083c 45de fc3c d09f 72bd a107 16ba
00000370: affb afbc 178f b7bc f188 a8bc 32cd 013d
00000380: d129 9cbb baf3 f13b 2f0d 843d f0e7 1c3b
00000390: 48ae d13d e340 833d 8c51 e73c 1e75 7d3c
000003a0: 375d b73c a024 ec3c 26fd 58ba 08e8 213d
000003b0: 825e 353c 4a87 1dbb 8d08 34bd d2a1 d5bc
000003c0: 5993 74bc 2059 0bbd e383 05bc 5815 59bd
000003d0: 09e0 6cbc b308 443c 3e31 6fbd 2a37 28bd
000003e0: b4b4 4ebd 7619 83bd f6e7 95bd 76f6 8bbb
000003f0: f332 6abd c1fb 0abd df66 1d3d e1f9 753d

final_layer.conv_classifier.bias f4 [4]
0.02445927 -0.062158477 0.07951636 -0.023593143
00000000: cf5e c83c e399 7ebd 79d9 a23d 6846 c1bc
