models/ShallowFBCSPNet_persons1_lr0.01_wd0.01_bs128_acc0.2750.pth (torch, 383684 bytes, 9 tensors)

conv_time_spat.conv_time.weight f4 [40, 1, 25, 1]
00000000: 88d8 e43d 8037 7d3d 3de4 2e3e 4e8b 3b3e
00000010: ebdf 223d 9baa 9a3d 82f4 a53d 34a5 af3d
00000020: 7692 083e 89e6 c73d 411a f83c c8cb 053d
00000030: 3e8d 113d c41f 5ebc b1e2 023b f3ee a2b9
00000040: 52ba f73c 2014 00bc 783a 853d 0f8d b13d
00000050: 81a9 0d3d 0a8d 543b 3919 4f3d ae83 8dbd
00000060: 29ec 8ebc 762b e8bc 3cc6 483b 1f3b 643d
00000070: 808e 753d c734 053e 9ad6 173e 9464 e83d
00000080: 956f 9b3d 8100 c2bc a679 693c 0527 633d
00000090: 677d 9cbc 1612 2cbd 3d4c 323d ebcb e4bb
000000a0: 4e86 d83b 570d e73c 10df 4d3d a4c6 563d
000000b0: abac 2f3d 7117 c53c 6dc1 29bd e417 b73c
000000c0: 4294 343d bfd0 b1bd 80b2 85bc e91b 243c
000000d0: a468 133d 1926 83bc ae69 9b3c 63da 26bc
000000e0: 49c4 023d 7698 923d 486c 11bd 0768 503c
000000f0: 6b45 67bd 5492 8ebb 45a3 b43c ddf3 15bd
00000100: a510 723c b7c7 9cbd 0424 1cbd 0230 b53c
00000110: 0f89 adbd e6bd b7bd ff43 ba3d 8f33 d2bc
00000120: 052e 0c3c 779b ca3d ed04 da3d 97cc a9bc
00000130: 81e3 a2bd 4afb 333c 57f9 03be 63e2 15be
00000140: e11b 7fbc 1677 e3bd b562 82bd 8493 a4bd
00000150: f138 453d a2bc 693d e8b4 af3c 82ef dc3d
00000160: 0581 d23d 75fc a83d fb13 d13d 15f0 f33d
00000170: 565d 8e3d da18 553d 573a 23bc 4b7d 48bd
00000180: ee25 89bd 3321 95bd c5ad b7bd 3098 9ebd
00000190: df6a ffbd b02e c93c e20c 61bd ff2f e93d
000001a0: 3cd5 023e 7147 283e ce1a 103e 69c1 0c3e
000001b0: e9cc de3d ed8a 3d3d 6629 d93c 2960 b73c
000001c0: d73a 85bd 3c1e 9dbd 82d8 49bd 0cc9 96bc
000001d0: 566b 2abd 41ce 803d bbe5 54bd 753a d73d
000001e0: 4b28 813d 749b da3d 6ce6 c63d 94cb caba
000001f0: 8fe6 923d fab6 c1bd cacb b43b 2c89 c4bc
00000200: 500e b6bd be30 75bd 8ac0 3d3a 9ab9 e7bc
00000210: d1ac ef3c e050 0a3e 15c9 1e3e 0312 383e
00000220: 82b3 a63c 7442 173e f891 863d b64e 4ebc
00000230: f9c5 d73c c8ad c23c c33f 803c ead9 0bbd
00000240: a47d 5e3d 7656 0b3c 187b dd3d 2297 2d3d
00000250: 50b3 763d 6545 d43d dd29 a73c 3ace 13bd
00000260: f1e9 89bc 3d0c 5b3d 3f43 7d3d e263 ed3c
00000270: 358d d73c 0c22 76bd ee01 c23c e4ba 1bbb
00000280: 5af1 273c 31a3 17bd c456 253d 8792 cfbd
00000290: ea16 a3bd 58da 9fbd f8ca 323c 30e0 e63c
000002a0: 5c73 453e b130 483e b3df f43d 8277 9f3d
000002b0: bc25 3c3e 495e d03d 1767 743d e9a3 3fba
000002c0: 9754 d5bd 29c1 06be b7c5 11be 9376 08be
000002d0: f71d debd 9859 7abc e146 dfbd 4aac ca3c
000002e0: ca3c 20bd fa62 c1bd 76d2 1e3c a0d5 c9bd
000002f0: abc3 49bc ea0b 533d 1587 df3c 906c 37bd
00000300: 2d2b 1c3c 0f6a 2e3d 8dd5 013d a547 a33d
00000310: 9f29 f53c b623 813d a86f 9fbc 028a e93c
00000320: d5b2 b13c 1204 3a3d ebbb 7fbb 6f92 163c
00000330: 9840 053d 44e7 663c 8e95 823d e43e 213d
00000340: 9bc2 673c 63d3 cc3b 712d e8bd ef91 b6bc
00000350: dc47 16be a415 09be 57e5 b8bd 3023 f7bd
00000360: 2b64 66bd 6c7a e8bd 1f60 133c dcdd cc3d
00000370: ab6c 953d 594c d63c 6bd7 563d 5356 62bc
00000380: 6021 3a3c ecd3 55bd baea 12bd a762 cebd
00000390: 1586 3bbd 790b bcbc e1bb 48bc 19b4 b5bc
000003a0: c66e 79bc 03e6 873d 19d9 923c a821 f83c
000003b0: 3c26 c33d 1248 093d 7db1 f03b 87d8 443c
000003c0: f93f 773d 943e dbbd 3e7d f5bd 530d 05be
000003d0: dcd4 42be 2d93 08be d964 b8bc 36ef 133b
000003e0: 99a3 5fbd 5d34 a63d 1f63 d8bc 3ead 2c3d
000003f0: 768c 1b3d af11 e73d da89 fc3d ca77 d33d
0.111741126 0.061820507 0.17079253 0.1831486 0.039764326 0.07552072 0.08103277 0.08576432
0.1333712 0.09760768 0.030285956 0.032665044 0.03553509 -0.013557378 0.0019971544 -0.0003107708
0.030240212 -0.007817298 0.06505293 0.08669483 0.03458548 0.0032432699 0.050561164 -0.069098815
-0.017446594 -0.028341036 0.0030635735 0.055720445 0.05995035 0.13008414 0.14827958 0.11347309
0.07589642 -0.02368188 0.014250195 0.055457134 -0.019102765 -0.042009436 0.043529738 -0.0069823167
0.0066078072 0.028204603 0.050261557 0.052435532 0.04288928 0.02405903 -0.04144423 0.02235026
0.044086702 -0.08682393 -0.016320467 0.01001642 0.035988465 -0.016009377 0.01897129 -0.010183903
0.031925473 0.07157986 -0.035503656 0.012720115 -0.056462687 -0.0043509398 0.02205051 -0.03660952
0.014774476 -0.0765528 -0.038120285 0.022117618 -0.084734075 -0.08971767 0.090950005 -0.02565935
0.008555894 0.09892934 0.10645471 -0.020727439 -0.07953549 0.010985205 -0.12888084 -0.14637141
-0.015570612 -0.11106698 -0.06366483 -0.08035949 0.048150007 0.05706466 0.021448568 0.1078787
0.10278515 0.08251277 0.10208889 0.119110264 0.06951396 0.052025653 -0.00996264 -0.048947614
-0.06696688 -0.07281723 -0.08968691 -0.07743871 -0.12471556 0.024558395 -0.054943927 0.11386108
0.12776655 0.16433503 0.14072725 0.13745655 0.10878927 0.046275068 0.026508998 0.02238472
-0.065053634 -0.076717824 -0.049278744 -0.018406413 -0.04160627 0.0628934 -0.0519769 0.10509197
0.063065134 0.106741816 0.09711918 -0.0015472048 0.07172882 -0.09458728 0.0055174576 -0.02399119
-0.08889449 -0.059860937 0.00072384684 -0.028286744 0.02925721 0.13507414 0.15506394 0.17975621
0.020349268 0.14771444 0.0657081 -0.012592008 0.026339518 0.023764506 0.015655404 -0.034143366
0.05431904 0.008504501 0.10814494 0.04238046 0.0602296 0.103647985 0.020405704 -0.036085345
-0.016835185 0.05347847 0.06183171 0.028978292 0.02631245 -0.060091063 0.02368256 -0.0023762519
0.010250414 -0.037020866 0.04036595 -0.1013537 -0.07963355 -0.07805318 0.010912649 0.028183073
0.19282287 0.19549824 0.1195673 0.07786466 0.1837377 0.101742335 0.059668627 -0.00073104963
-0.10416525 -0.13159622 -0.14235578 -0.13326482 -0.10845559 -0.01528015 -0.10902191 0.024740357
-0.039120473 -0.094427064 0.0096937325 -0.09855199 -0.012314717 0.051525034 0.027286092 -0.044781268
0.009531778 0.042581614 0.0316978 0.079726495 0.029927073 0.063056394 -0.019462422 0.02850819
0.02169172 0.045414038 -0.003902192 0.009190186 0.032532305 0.014093224 0.063761815 0.039366618
0.014145519 0.006250785 -0.11336792 -0.022286383 -0.1467585 -0.13387161 -0.09028118 -0.12067258
-0.05624787 -0.11351475 0.008995085 0.10003254 0.072961174 0.026159452 0.052451532 -0.013814527
0.011360496 -0.052204058 -0.035868384 -0.1007741 -0.045782167 -0.02295469 -0.012251825 -0.022180604
-0.015224164 0.06635668 0.017925786 0.030289486 0.09528777 0.033515997 0.007345377 0.012014515
0.060363743 -0.10705295 -0.11986779 -0.12993364 -0.19026512 -0.13337393 -0.022509025 0.0022573
-0.05459938 0.08115456 -0.026414452 0.042157404 0.03797575 0.1128267 0.123309806 0.10325582

conv_time_spat.conv_time.bias f4 [40]
00000000: ded6 86bd 8d21 9b3d ddaa ab3d d98d 2f3d
00000010: ce66 453d e29b f13d 646c a43c 2a49 a0bd
00000020: 614b 9bbc dfdb b63d be29 aebc 3cdb dabd
00000030: f1dc 98bd c47e c03d f1ea 00be a22a ac3d
00000040: 04ed 023e 16e1 883d 197e 90bd ce81 6d3d
00000050: b490 c63d 1e72 2bbc fed0 d0bd 476c cebd
00000060: e264 e03b 144a b6bd 6451 d0bd 2442 eb3d
00000070: 4283 e53d 1738 f13d 7900 8cbc 8ca7 a2bd
00000080: 3cec 4fbc 4854 28bd 2761 013d 7ca6 04be
00000090: 24f7 b83d 8234 cdbd 402d ecbc b507 753c
-0.065839514 0.07574759 0.08382199 0.042859886 0.048193745 0.117973104 0.020071216 -0.07826455
-0.018956842 0.08928656 -0.021260139 -0.10686347 -0.07464016 0.093991786 -0.12589623 0.08406569
0.12785727 0.06683557 -0.07055301 0.05798512 0.09695569 -0.010464219 -0.10196112 -0.10079246
0.0068479637 -0.08900848 -0.10171774 0.11487225 0.11206676 0.117782764 -0.01709007 -0.07942113
-0.0126906 -0.041096002 0.031586792 -0.12954134 0.09031513 -0.10019781 -0.02883017 0.014955451

conv_time_spat.conv_spat.weight f4 [40, 40, 1, 44]
00000000: 05b9 aebb 7be5 d23d cf5e 1bbd 7076 fcbb
00000010: 9b4f 323c 69a1 afbd c843 05bc 8590 3f3b
00000020: a920 5fbc dda0 07bd 2189 50bc 20a7 2f3a
00000030: aac5 a7bd fedf ab3c 9ccf d0bc a5c5 8fbd
00000040: 76a8 453c c1d5 a33c 63a7 ba3b fb44 74bb
00000050: b88f 073d 7301 403d 934d cfbd c0a9 fdbc
00000060: aee3 b33b 370c 7c3c 9c61 d8bd f037 54bd
00000070: fc14 883b 7f3d d83b 611c 3ebd a6e1 42bd
00000080: 9f57 46bd 08d0 063d c204 183b 5afa 9a3b
00000090: 68bc de3d 422d a83d d83a 913d e835 6fbd
000000a0: bd1d 9cbc f7b0 21bd 1270 b6bc e613 29bd
000000b0: 134c 60bd bc2a c63b f66e c2bd 5b4b 5cbd
000000c0: b6af 90bd e94d 8cbd 17f4 99bd 7e8d cdbd
000000d0: 67cd 8cbd e43e c7bd d4fb 7c3b 7e87 7fbd
000000e0: caa9 04be e245 a4bd 3331 373c 61d3 bebd
000000f0: fc32 6ebd 5168 2dbd f1f6 e2bd 15c8 80bd
00000100: d13c cabc 2b79 8bbd 11a8 4abd 2919 9abd
00000110: 462f 0abc c148 90bb 51f0 a5bd 5dc9 fbbd
00000120: be55 d3bd d657 aabd 77cf 94bd 0004 08be
00000130: 6f5e a9bd ca12 47bd 69dd f4bd d8ed a8bd
00000140: b069 96bd 1308 dfbc ea12 153b a218 fcbc
00000150: 12b8 b6bd ff5d b2bd 1977 98bd 841b d9bd
00000160: bda9 873d 9374 b03d 7b6e a4bc d418 d43d
00000170: 6372 813d 2320 883b f858 4c3d 4ad4 593d
00000180: bb88 b93d 6ca8 e03d 5baa af3d 9f05 e9bc
00000190: 6742 30bd 8d09 713d 6c20 353d c7ce 9138
000001a0: 0ea7 d13d c0a4 fb3c 5e8a 2e3d ada0 ed3d
000001b0: 08d1 523d d172 563d 2f74 ecbb 9609 9d3c
000001c0: 0069 bf3c f256 da3d 2f05 97bc b408 eb3d
000001d0: fc05 313d 6caa d23d ed56 bc3d 217d ca3d
000001e0: 4ff2 bc3d 99b6 e63d 8282 403d 3e09 b33d
000001f0: ce84 253d 4464 37bc 0efe 503d 4bf7 b7bc
00000200: 05e7 b23d c78b ad3d 1b51 d93d e9c3 a03d
00000210: a84c c03d cf33 813d 028d 053d 9a6d 2a3b
00000220: 2ef9 fa3c d3c1 ae3d e56b c8bc ae2f 71bc
00000230: 57a8 6d3b 3791 843c dd6d 943d 5546 36bb
00000240: 4ec7 a13d ed7b 713d ccec cd3c cba9 943d
00000250: d585 b83c 1ade 443c 2484 7dbd 22dd 0e3d
00000260: f7e7 4a3d 5178 603d 991b 803c 7e80 bebb
00000270: a89f 1e3d a06f 823b ddae 303e 80b0 113d
00000280: 191c 6b3d be41 363d 5add 613c 9eb0 bb3c
00000290: 8a10 093d eb94 e13c e0b2 3abc c817 0abd
000002a0: 8590 96bd 9ac9 5dbd 4035 e8bc a3e2 c83d
000002b0: b789 e33b 001f f3bc 5d32 903c 08c4 573b
000002c0: 6fdb 923c ffef f53c 1fbd f8bd 3ebc debd
000002d0: faeb 0e3b 0db1 d7bd c348 3cbc a16c 8ebb
000002e0: d3a9 a0bd 5123 81bd 5149 903d ddde 08bd
000002f0: f377 f9bd 2f79 e03c e47f ff3c a7e5 01be
00000300: fa9b 00bd 584a 513d 5f1b 97bd 3b4f 69bd
00000310: 1473 5a3d 107d 073d f02c d7bd 55c4 c4bd
00000320: 67fe 273d 464e 823d cba1 0abe 5e02 4abd
00000330: 5584 c53b ade4 9d3b 88ec e1bd 59d9 4ebd
00000340: 1907 de3c 99db 9aba 4bfd 8ebd e49d 283d
00000350: d806 d6bc f746 95bd b578 903b ad84 f9bd
00000360: e2a1 fe3c 0550 d5bd 6178 30bd 49a7 b1bd
00000370: b120 eb3d e67d 823d 861b e33c 4d6e 97bd
00000380: c5d1 443d 4ccd d0bc 2323 ce3d a308 c83d
00000390: 397c 343b 22bd 003c b65a e83d 05ad dd3c
000003a0: 1672 c6bd 55e7 5c3d b87a 213d 13fa 7fbd
000003b0: aa2c 92bd e90c 1d3d 78e3 713c 77c6 90bd
000003c0: 1856 013e a848 d83d 138b 2bbd 7fea 8abd
000003d0: c7d1 793d 6335 ab3d e912 5cbd 8607 8dbd
000003e0: 44d9 b83d 2099 123d 909a d2bd a6df abbd
000003f0: 10cc 233d 8e84 cc3d 1b26 083c fe64 883b
-0.0053321146 0.10297676 -0.037932213 -0.0077045485 0.010883237 -0.085757084 -0.008133836 0.0029230427
-0.013618627 -0.033112396 -0.012728007 0.0006700624 -0.08191998 0.020980831 -0.02548962 -0.070201196
0.01206409 0.019999387 0.0056962236 -0.003727256 0.033096045 0.046876382 -0.10122218 -0.030964732
0.005489788 0.015383772 -0.105654925 -0.05181116 0.004152892 0.006599128 -0.046413783 -0.047578476
-0.048423406 0.032913238 0.0023196195 0.0047295513 0.108757794 0.08211757 0.07091302 -0.05840102
-0.019057149 -0.039475407 -0.022270236 -0.041278742 -0.05476005 0.006047575 -0.0949382 -0.053782802
-0.07064764 -0.06850798 -0.075172596 -0.10036753 -0.06875115 -0.09728792 0.003860225 -0.062385075
-0.12955394 -0.080211416 0.011181164 -0.09317661 -0.05815409 -0.042335812 -0.110822566 -0.062881626
-0.024687203 -0.0681022 -0.049476687 -0.0752433 -0.008434122 -0.004403204 -0.08102477 -0.122942664
-0.103190884 -0.083175346 -0.07266133 -0.13282776 -0.08269965 -0.048601903 -0.11956293 -0.0824849
-0.07344377 -0.02722553 0.002274687 -0.030773465 -0.089218274 -0.087093346 -0.07444591 -0.10600951
0.06624172 0.08615985 -0.020072212 0.10356298 0.06320646 0.0041542216 0.049889535 0.05318097
0.090592824 0.10969624 0.085774146 -0.028445063 -0.043032076 0.058847 0.044220373 6.952654e-05
0.10236941 0.030718207 0.042612426 0.11602912 0.05146888 0.05235559 -0.0072159986 0.01916961
0.023365498 0.10661115 -0.018435089 0.11476269 0.043218598 0.10286412 0.09196267 0.09887148
0.09225904 0.112652965 0.046999462 0.08741997 0.040409856 -0.011193339 0.051023535 -0.022456786
0.0873547 0.08473926 0.10611173 0.07849867 0.09389621 0.0630871 0.03260518 0.002600527
0.030636396 0.08533063 -0.02446551 -0.01472084 0.0036263668 0.016182525 0.07247517 -0.0027812917
0.078993425 0.058956075 0.025137328 0.07258948 0.022524754 0.012015844 -0.061893597 0.034878857
0.049537625 0.054802243 0.01563816 -0.0058136573 0.03872648 0.003980592 0.17254205 0.035568714
0.057399843 0.04449629 0.0137856845 0.022911366 0.03346304 0.02753683 -0.011395186 -0.033714086
-0.07351784 -0.05414734 -0.028345704 0.098088525 0.006943907 -0.029677868 0.01760214 0.003292324
0.0179269 0.030021666 -0.12145447 -0.10875748 0.0021808133 -0.10531817 -0.011491957 -0.0043464457
-0.078448914 -0.06305564 0.07045234 -0.033415664 -0.121810816 0.027401535 0.031188913 -0.12685262
-0.03139875 0.05109629 -0.073782675 -0.056960326 0.053332403 0.033078253 -0.10506618 -0.0960776
0.0410141 0.06362586 -0.13538282 -0.049318664 0.006027738 0.00481852 -0.11031443 -0.050500248
0.027102994 -0.0011814713 -0.069819055 0.0411662 -0.02612631 -0.07288926 0.0044089206 -0.12183509
0.031083051 -0.10415653 -0.043083552 -0.08674485 0.11480845 0.063716695 0.027723085 -0.07394085
0.048051614 -0.025488518 0.100652955 0.09767272 0.0027539863 0.007857593 0.11345427 0.027060041
-0.09689729 0.053931553 0.039423674 -0.06249435 -0.07137425 0.03834239 0.014763705 -0.07069104
0.12630498 0.10560733 -0.04188068 -0.06783008 0.060991075 0.08359792 -0.05372897 -0.068862006
0.09025815 0.035790563 -0.10283387 -0.08392267 0.03998953 0.0998622 0.008309866 0.00416243

bnorm.weight f4 [40]
00000000: f4da 8a3f bc99 8d3f 30e1 8d3f 7358 8d3f
00000010: 8c54 8a3f 96d8 8c3f faa3 893f aa0c 8e3f
00000020: 8485 8b3f bdc2 8d3f acd3 8d3f cc4f 8b3f
00000030: 997e 8b3f e0eb 8b3f 8e42 8d3f bc29 873f
00000040: 1172 8a3f 9b3c 8a3f 9ee7 893f 622a 8e3f
00000050: 31a8 8d3f 05e9 8c3f 723a 8c3f ed3f 8d3f
00000060: d304 8d3f c5a0 903f 5ba0 8c3f 8aa5 8d3f
00000070: 296f 8e3f dbeb 8e3f eda4 8f3f 8e28 8e3f
00000080: 3eb8 8b3f 028b 8d3f b7e8 903f 7330 8b3f
00000090: 4e1c 8c3f 0675 893f 4645 8c3f 5cdb 8e3f
1.0848069 1.1062541 1.1084347 1.1042618 1.0807052 1.1003597 1.0753167 1.1097615
1.0900121 1.1075054 1.1080222 1.0883727 1.089801 1.0931358 1.1035936 1.0559611
1.081606 1.0799745 1.0773809 1.1106684 1.1066953 1.1008612 1.0955336 1.1035134
1.1017097 1.1299063 1.0986437 1.1066144 1.1127673 1.1165727 1.1222206 1.1106126
1.0915601 1.1058047 1.1321019 1.087416 1.0946138 1.0738838 1.095864 1.1160693

bnorm.bias f4 [40]
00000000: 282f ba3d cc33 03be f11d 003e b45d ce3d
00000010: 202d 8f3d da80 b03d 585c c73d 65e5 f7bd
00000020: 8658 fcbd a3fb b6bd 7047 b23d fffb ad3d
00000030: d611 ed3d 7aed 773d c260 bf3d efed 353d
00000040: 5b55 0fbe 7207 adbd 36ed e23d 4559 36bd
00000050: 2335 b23d 711a 233e 5303 dd3d 7bcd ce3d
00000060: d87e 9a3d 335d 08be 1a5f c5bd 790f d9bd
00000070: 5741 9a3d 2c0b 92bd 9d7f aabd 3633 6bbd
00000080: 1a6c 6f3d 072d 8cbc 3520 02be b670 ea3d
00000090: 257d 18be 52e9 adbd c5db 543c 1a14 ae3d
0.090910256 -0.12812728 0.12511422 0.10076466 0.06991029 0.086183265 0.0973441 -0.121043004
-0.12321572 -0.08934715 0.08705032 0.0849533 0.115756676 0.06052921 0.09344627 0.044416364
-0.13997404 -0.08448686 0.11080401 -0.044518728 0.08701541 0.15928055 0.1079165 0.10097786
0.07543725 -0.13316803 -0.0963728 -0.10598654 0.07531994 -0.07131037 -0.083251216 -0.057421885
0.058452703 -0.017111314 -0.12707599 0.11447279 -0.14891489 -0.08491768 0.01299185 0.08499928

bnorm.running_mean f4 [40]
00000000: a8ec c23f d24e 293e 013a 12be bcae 083f
00000010: 0b46 e0bf 49e4 76bf 91b4 1dbe 43c4 ba3e
00000020: ef23 253f 0cbc b4bf d13b 46be e4f1 9a3e
00000030: 4538 c9bf 4618 97bf f789 eabf 3ba9 1d40
00000040: e96c d4bd 388b 7c3f f7bd e5bf 220b 8cbf
00000050: 3c54 36be 27f9 20bb f08a 0dc0 094a 57bf
00000060: 010d e63e 17ee ddbf 7acb 9bbf 4b1a fe3f
00000070: fa5e 5dbe df11 a7bf cc78 cdbf c8e9 cfbf
00000080: 6e9d c03e 2f35 2f3f 80a9 c3bf 32fc d93f
00000090: dff3 b3bd 33d5 c53e 4374 f43e 8f09 29bf
1.5228472 0.16533974 -0.14279939 0.53391623 -1.7521375 -0.96442086 -0.15400912 0.3647786
0.64507955 -1.4119887 -0.19358756 0.30262673 -1.5720297 -1.1804283 -1.8323354 2.463454
-0.103723355 0.9864993 -1.7948598 -1.0940897 -0.1780557 -0.002456257 -2.211605 -0.84097344
0.44931796 -1.7338284 -1.2171471 1.9851774 -0.21618262 -1.3052329 -1.6052489 -1.6243219
0.3762011 0.68440527 -1.5286102 1.7030089 -0.08786749 0.3863922 0.4774495 -0.6603021

bnorm.running_var f4 [40]
00000000: 42ed 933e 3643 b13e 8aa3 9c3e 4c6c 843e
00000010: 4e1c 543e 378c 693e 23da 5e3e b681 643e
00000020: bdf5 823e 9a63 a43e 1fce c73e b8e0 9f3e
00000030: 18d7 883e 6b63 a03e bf48 9d3e 65c8 573e
00000040: 1480 8f3e a3a6 633e c39f 433e 60a3 853e
00000050: 4028 503e f91a a33e 1bf9 9c3e 6fbc 433e
00000060: 32ec 5a3e 700d c13e 756f 4c3e ae18 923e
00000070: d343 9a3e 81c2 913e d671 a83e 4e73 b33e
00000080: 7429 8a3e 55ab 723e 9c8c b53e 00b5 913e
00000090: 85a5 a23e 0bed b03e f659 983e fccb 793e
0.2889195 0.3462159 0.3059352 0.25863874 0.20713922 0.22807394 0.217629 0.22315106
0.25578108 0.3210724 0.39024445 0.31226134 0.26726604 0.3132585 0.30719563 0.21072538
0.28027403 0.22231536 0.19103913 0.26101208 0.20327854 0.31856516 0.30658802 0.1911485
0.21379164 0.37705564 0.19964392 0.28534454 0.3012987 0.28468707 0.3289935 0.35048908
0.2698475 0.2369817 0.3545884 0.28458405 0.31766906 0.3455585 0.29756135 0.2439422

final_layer.conv_classifier.weight f4 [4, 40, 144, 1]
00000000: aaf2 5c3d 8e56 4ebc 2a4a 093c 3b01 e23c
00000010: 069c 64bc 2ae2 07bd 8d7c 9fbd dc45 1cbd
00000020: 6f20 47bd ea3e 32bc 8ce0 48bd fdce de3b
00000030: fd5e dabc b67a 973b 0079 863c 0148 633c
00000040: 7d2b 393d 6bc7 c9bc e95e f23b bf9b d63c
00000050: 2686 203c ec90 783d 9fd2 5c3d b08c a53d
00000060: 96be 1f3d 8872 663d bb32 eabc 893e f93c
00000070: e00c 123d 4e16 55bd 14d8 35bc f44e 433c
00000080: 7554 f23b 4126 61bc 8ea0 74bc 2d13 463d
00000090: 3537 883d 38bc 31bd d277 49bd 6187 4dbd
000000a0: c3a9 2fbd edd1 33bc 80f5 133d df57 05bd
000000b0: 2dca 173d 476d 96bc 9349 58bd a3c8 8ebc
000000c0: 0631 87bc cdca d53b 3c6d 26bc b6f6 b33b
000000d0: a230 65bc b608 31bd 4192 34bd ea91 aab7
000000e0: a4e4 bfbc c262 003d b866 fa39 e8bd 86bd
000000f0: ea09 6dbd 93bc b2bc 0b26 41bd 793e 31bd
00000100: b143 2ebc 4856 203c 98c1 bd3c acf8 26bc
00000110: f985 29bd 36e7 33bd e404 76bd ced3 88bd
00000120: 6c49 10bd 9103 21bd fe05 6fbd 6462 053d
00000130: 3529 473d 85de 653c 4a2a ac3c 57c3 3dbd
00000140: 2614 80bd f980 aebd 5820 21bd f501 81bd
00000150: f51a b0bd 50ed 903c e000 6cbd 2116 73bd
00000160: 0a02 72bc 66fa e5bc 0cf6 c2bc 57e8 80bc
00000170: 6730 85bd f021 41bd e997 bebc c815 46bd
00000180: dbc5 88bd c046 d6bc 0665 56bd 8844 1bbb
00000190: b9e2 65bd 2fd2 e13c 7080 00bd 9f3d 23bc
000001a0: 5332 30bc 4cfa 1f3c d278 9bbb a5c6 013d
000001b0: f76a 5dbd 48c1 84bd 5e4d 203b e76e 36bd
000001c0: 5133 75bc 7566 4ebc c8ad 57bd 2c7a 26bd
000001d0: e706 52bd 4867 a9bc 8065 a8bd 8605 6cbd
000001e0: 8d32 17bd 874a 95bc 964a e3bc 3007 3bbd
000001f0: 3238 c9bc 4dd1 bfbc 3b23 34bd bbe2 8f3c
00000200: 944c 09bd cc5a 7c3d 1c87 2bbd f47b cdbc
00000210: f187 9abc 2af2 23bc ee1c f1bc 5ca9 27bd
00000220: 74dc 26bd 3f3d e9bc cd09 be3b 38c3 0a3d
00000230: c687 03bb d588 6439 3724 10bb 254d b13c
00000240: bb58 5ebc b53a dabc 228f 1abd 6393 30bc
00000250: bdc2 fdbb 9fa2 dcbd e78e d3bd 743f f3bc
00000260: aee6 56bc 5922 6fbd f321 a93c 7b70 a8bb
00000270: 5069 903d 52ec e93c 77b6 e63d ccd8 fc3c
00000280: d783 dabc cfc5 163d 6bd9 c73c f663 8c3d
00000290: 1514 cfbc 4d1c 963d 50e2 7b3d d46d 733d
000002a0: ed64 113d 210f f93d 51bf adbb 022a 82bd
000002b0: 15ac 003d e073 073d c1a2 503d a629 d33d
000002c0: 6175 883d 095b 903d 4749 c23c b4ca c23c
000002d0: 3307 62bb 68e4 853c 90d0 2a3c 324c 793d
000002e0: 5c2b 913d 1bfb ae3c 67e3 c83c 7f5c f33b
000002f0: 2f4b c7bb cec2 77bd 86fe 3cbb 9afc fabc
00000300: 082a f83c e933 8c3c 4587 643d 49cd 9abc
00000310: 9b56 e93c 99d0 033c be65 8c3d 3bf1 bd3c
00000320: fc7e 0d3d cbd5 163d 00f2 5ebc 575f 8bbd
00000330: 5ca3 ae3c 3689 7c3c f566 793d 1610 083c
00000340: 0ab4 ff3b 2ba8 4a3c a979 323d 216f 193d
00000350: 52aa 05bd 940b 8b3d be51 98bb 49f5 b4bc
00000360: 228c 71bd 4374 a83c 9d23 bb3c f0b1 f2bc
00000370: 4a6e 2b3d 4857 393d 9ebc 0ebc fb6d ec3c
00000380: 9351 51bd 8b51 62bd fd65 20bd b809 9abc
00000390: 3f3f c2bd 411a 923a dcbb 3bbd d854 493d
000003a0: b110 83bc 5c8a 9f3c 062c 0dbb 68ca cbbc
000003b0: e099 3cbc 88b6 cf3c 29cb 69bd c1ad cd3b
000003c0: 0664 e43c 2a20 acbc 469d 273b 1a56 ddbb
000003d0: 4f26 713d 36d7 e8bb 9793 4dbd 5362 433c
000003e0: 9b69 01bc 9929 4fbc 0b48 a73c c264 3c3d
000003f0: 28e5 12bc 6ac9 603d 5a5f 853b b855 abbc
0.05394236 -0.012593878 0.0083794985 0.027588477 -0.0139532145 -0.03317467 -0.07787428 -0.03815256
-0.048614915 -0.010879258 -0.04904227 0.0067995773 -0.026656622 0.0046227826 0.01641512 0.013872148
0.04520749 -0.024631223 0.007396568 0.026197312 0.0097976085 0.060685083 0.0539118 0.08083475
0.039000116 0.05626157 -0.028588643 0.030425327 0.03565681 -0.052023225 -0.01109888 0.011920679
0.007395322 -0.013742031 -0.014930857 0.04835813 0.06651155 -0.04339239 -0.049186535 -0.050177936
-0.042886507 -0.010975343 0.0361228 -0.032554504 0.037058044 -0.018362654 -0.05280454 -0.017429655
-0.016502868 0.00652442 -0.010157879 0.0054920567 -0.013988646 -0.043221198 -0.04408479 -2.0333526e-05
-0.023424454 0.031344183 0.00047760247 -0.065791905 -0.057870783 -0.021818435 -0.04715542 -0.04327247
-0.010636256 0.009786196 0.023163602 -0.010191124 -0.041387532 -0.04392167 -0.060063258 -0.066810235
-0.03522627 -0.03931004 -0.058355324 0.032564536 0.048623282 0.014030104 0.021016259 -0.04632887
-0.06253843 -0.08520693 -0.039337486 -0.062992014 -0.08598892 0.017691284 -0.057618022 -0.059347276
-0.014770994 -0.0280735 -0.023798965 -0.015735788 -0.06503373 -0.047151506 -0.023265796 -0.048360616
-0.06678363 -0.026156783 -0.052342437 -0.002369197 -0.056124423 0.027566044 -0.031372488 -0.009963422
-0.010754186 0.009764265 -0.0047446275 0.031683583 -0.054057088 -0.06482178 0.0024460177 -0.04453936
-0.014965848 -0.01259767 -0.052655965 -0.040643856 -0.051276114 -0.020679131 -0.082224846 -0.057622455
-0.036913443 -0.018224014 -0.027745526 -0.04566115 -0.024562929 -0.023415232 -0.04397891 0.017564168
-0.033520296 0.06161003 -0.041876897 -0.02508352 -0.01886365 -0.010006467 -0.02943274 -0.040932998
-0.040737584 -0.028471587 0.005799508 0.03387758 -0.002006994 0.00021794748 -0.0021994242 0.02164323
-0.01357096 -0.026639322 -0.03773416 -0.010777327 -0.007744162 -0.10773205 -0.10329991 -0.029693343
-0.013116522 -0.058382366 0.020646071 -0.005140362 0.07051337 0.02855507 0.11265271 0.030865096
-0.026674194 0.03680974 0.024395665 0.068550035 -0.02527813 0.07329617 0.061495125 0.059430912
0.03549664 0.12161089 -0.0053023477 -0.063556686 0.03141411 0.03306949 0.050936464 0.10310678
0.06663013 0.070486136 0.023716582 0.023778297 -0.0034489154 0.016344264 0.010425702 0.06086368
0.07088348 0.02135997 0.024522496 0.007426798 -0.0060819606 -0.060488515 -0.0028838231 -0.030638028
0.03029348 0.017114596 0.055793066 -0.018896716 0.02848368 0.008045339 0.06855343 0.023186317
0.03454493 0.036824983 -0.013607502 -0.06805294 0.02131813 0.015413573 0.060889203 0.008304616
0.0078034448 0.012369196 0.043573055 0.037459496 -0.032633133 0.06789318 -0.0046484163 -0.022089617
-0.05897153 0.02056325 0.02284413 -0.029625863 0.041853227 0.045249254 -0.008711962 0.028861037
-0.051103186 -0.055253547 -0.039159764 -0.018803462 -0.094847195 0.001114674 -0.045833454 0.04915318
-0.01599917 0.019475155 -0.0021541133 -0.024876788 -0.011511296 0.025355592 -0.057078514 0.0062768166
0.027879726 -0.02101143 0.002557592 -0.006754649 0.058874425 -0.0071057333 -0.05018958 0.011925298
-0.007898713 -0.012644195 0.020420095 0.045994528 -0.008965768 0.054879583 0.0040702047 -0.020914897

final_layer.conv_classifier.bias f4 [4]
00000000: 66d9 963c 824d 1dbd 57da 803d 9cd8 82bc
0.01841421 -0.038403995 0.06291645 -0.015972428
